src/taser_isaaclab/taser_isaaclab/tasks/balance/data/model.pth (torch, 60861 bytes, 22 tensors)

log_std f4 [8]
000000 a2 9e fa be 11 12 ed be f7 b1 d8 be 7a 90 d8 be
       -0.48949152 -0.46302846 -0.42323276 -0.42297727
000010 3e 85 fd be ad 20 f8 be 0e 02 79 bf 6c c4 78 bf
       -0.49515718 -0.4846243 -0.9726876 -0.97174716

actor.0.weight f4 [64, 29]
000000 7b e4 da 3c 21 49 d7 bd a0 38 98 3d ce d9 80 bd
       0.026720276 -0.10511995 0.07432675 -0.06291543
000010 4a d4 5b 3e 26 43 33 3e 1f a0 77 3d a0 17 2e 3e
       0.214677 0.17506084 0.060455438 0.170012
000020 d4 25 de bc 1c 5d aa 3e 71 1a a8 bc ba 52 1d 3e
       -0.027117647 0.33274162 -0.02052042 0.15363589
000030 5a ad 30 be 33 bb 76 3e 4f d1 83 3d b1 44 49 bc
       -0.17253628 0.24094848 0.06436407 -0.012284444
000040 df db 85 3d 42 e1 09 be 1e 76 cf 3d 80 8f 07 3e
       0.06536078 -0.13464835 0.10129951 0.13238335
000050 d3 32 4e 3d 27 0e 15 3d c4 67 db 3d 93 20 01 3d
       0.05034144 0.03639045 0.10713151 0.031525206
000060 24 0d 02 3e 67 80 f1 bc 13 01 35 3e 56 df 29 3e
       0.12700325 -0.029480172 0.17676191 0.16589102
000070 cb ed 6f bd 76 bc e3 3c c3 fc 49 3d 66 5d f9 3d
       -0.058576386 0.027799826 0.049313318 0.121760175
000080 3d 47 28 3e 2c 2c f7 bc 7e d8 1f 3d e1 38 69 bd
       0.16433425 -0.03017243 0.039024822 -0.05693901
000090 bd 70 b5 bb 56 cb 91 3d 1e 85 bb 3d d7 fc 2c be
       -0.005537121 0.071188614 0.091562495 -0.16893326
0000a0 55 d3 03 bd 68 48 74 3d 7e fa 61 bd 39 e8 01 3e
       -0.032183964 0.059639364 -0.05517053 0.12686242
0000b0 d3 a3 c0 3d 20 2f 6b be 77 7d b9 bd 93 ee 42 3d
       0.09406247 -0.22967196 -0.09057134 0.047590803
0000c0 33 b9 09 3e 5c 36 d9 bc 19 41 4f be 20 bd 1c bc
       0.13449554 -0.026515178 -0.20239677 -0.009566575
0000d0 c2 20 25 3d 56 b6 33 3e b6 f0 9c 3d 58 60 f0 bd
       0.040314443 0.17550024 0.076630995 -0.11737126
0000e0 85 31 f8 bd 39 bc df bd c4 14 0a 3d 59 83 99 3b
       -0.1211882 -0.109245725 0.03371121 0.0046848473
0000f0 72 db db bc 80 55 c0 3d d1 4a b7 3b 6f d0 f1 bd
       -0.026838038 0.09391308 0.0055936356 -0.11807334
000100 dd 78 b3 3b 3d 32 f1 3c ea 4c 08 3d ad 4a 8b be
       0.0054770545 0.0294429 0.033276476 -0.2720541
000110 fc b6 df 3d 92 3a 8f 3d 23 c4 3f bd b1 ef 07 bd
       0.109235734 0.06993593 -0.04681791 -0.033187572
000120 3c 30 48 3e c3 7d 84 3e 48 31 08 be d0 5b fc bd
       0.1954965 0.258772 -0.1330005 -0.12322199
000130 9d 65 92 3d 1f e3 04 be 8a d0 9a 3d 5e 3d 59 be
       0.071482874 -0.12977265 0.07559307 -0.21214816
000140 cd 16 0b be 6d 3e 36 be 1e 92 c1 bd d9 f4 97 3d
       -0.13582917 -0.17797251 -0.09451698 0.07419748
000150 d6 6b 1d be c0 f8 36 be 69 64 42 be 4f 08 51 3d
       -0.15373167 -0.17868328 -0.18983616 0.051033314
000160 6c 82 e0 bd ed 1e 5b be 7c 4a 88 bd 6e 69 3b 3d
       -0.10962376 -0.21398516 -0.06654832 0.045754842
000170 af f6 e2 bd 79 b9 f1 bd 59 20 eb 3d fc 0a 1d 3e
       -0.110822074 -0.11802954 0.11480779 0.15336221
000180 57 84 d6 be 51 08 61 3d 9c b7 26 be d7 db 08 be
       -0.41897842 0.05493957 -0.16280979 -0.13365112
000190 11 f6 ab bc 50 49 f4 3d 32 af 38 bd 0a b7 f4 3c
       -0.020991357 0.11928046 -0.045088954 0.029872436
0001a0 4f d6 c5 bd 63 e4 9e 3d c3 64 19 3d 7b 67 24 be
       -0.09660017 0.07758405 0.03744961 -0.160551
0001b0 99 30 0c 3e 34 48 90 3d 3b 18 cb bd 35 4c d9 3d
       0.13690414 0.07045022 -0.09916731 0.106102385
0001c0 3d b3 a2 bd 60 f4 2f 3e 9f a4 35 be 52 b6 38 be
       -0.07944343 0.17183065 -0.17738579 -0.180383
0001d0 9c 27 c5 3b 24 60 1c 3e 4a ca cc bc 80 25 53 bd
       0.0060166847 0.1527105 -0.024998803 -0.051549435
0001e0 4f 8d 12 be a5 65 eb bd 54 68 ae 3d bc a2 19 3e
       -0.14311717 -0.114939965 0.08515993 0.15003484
0001f0 3a 96 7a be 57 7d 66 3e 3f 04 02 3e 76 de d6 bd
       -0.2447137 0.22508751 0.12696932 -0.1049165
000200 71 ad 89 bd b3 9b 40 3e 4f 47 3b bd 61 7b 11 be
       -0.067225344 0.18809395 -0.045722302 -0.14207222
000210 b8 30 35 3e 72 36 0d 3e 0a 09 f2 bd 40 7b 25 be
       0.17694366 0.137903 -0.1181813 -0.16160297
000220 5f 77 5b bd 91 e9 33 be 57 df 04 3e 21 ee 2e bd
       -0.053580638 -0.17569567 0.12975822 -0.042707566
000230 f1 f2 1d 3e 10 85 16 3d b4 f0 ef bd af dc da bd
       0.15424706 0.036747992 -0.11715832 -0.10686623
000240 5e 17 b6 bd d5 ca 93 3d ea 6a d0 3c 91 60 a8 3d
       -0.08891176 0.072164215 0.025441606 0.082215436
000250 1e ff 1f 3e 8d 22 22 be cd 61 1b 3e 89 21 ae bd
       0.15624663 -0.15833493 0.15174027 -0.0850249
000260 39 52 29 3c 11 59 21 3e 80 f8 d9 bd 6e c7 f0 3c
       0.010334545 0.15756632 -0.10643101 0.02939197
000270 ab 65 f6 bd 36 ce 18 3e cc 3d 08 be 6c d8 ba 3d
       -0.120311104 0.14922413 -0.13304824 0.091233104
000280 64 97 d6 3d 7d 65 39 3e 15 c8 1d 3e bd dc 8f bd
       0.10478094 0.18105121 0.15408356 -0.07024524
000290 d6 7a b2 ba 53 ee 02 3e fe c6 7f 3d c3 73 1b be
       -0.001361693 0.12786226 0.062445633 -0.15180878
0002a0 f0 06 0a be a8 a6 e8 bd 68 b8 b1 bb ca 3d 4f bd
       -0.13479209 -0.11359912 -0.0054235943 -0.050596036
0002b0 be 27 3b be 19 7e 26 3d d8 ce de 3d dc b4 2d 3e
       -0.18276879 0.0406476 0.10879296 0.16963524
0002c0 90 88 3a 3e 48 26 88 bc 2d 5e 5a 3e c1 7c 0e be
       0.18216157 -0.016619816 0.21324988 -0.13914777
0002d0 1e 5e e2 3c 69 3b fe 3d 4b a7 a0 bd 74 5d 11 be
       0.02763277 0.12413675 -0.078444086 -0.14195806
0002e0 b5 2d 29 3e 3c 9a b2 bd 1f 48 24 3e e7 ea 8e be
       0.16521342 -0.08720824 0.16043137 -0.2791359
0002f0 59 bc 5f 3d c3 dd 8c 3e 3b 0b dc bd ea 18 88 3d
       0.05462298 0.2751294 -0.107443295 0.06645377
000300 32 fc f6 3d ab 6e d0 3d d1 59 bf 3d 55 6f 15 be
       0.12059821 0.10177358 0.09343303 -0.14593251
000310 d8 63 a9 3d 1c 42 2c be 9a bd f9 3d df bd 15 bc
       0.08270997 -0.16822094 0.12194367 -0.009139507
000320 dd 9b 2a 3e e8 9d 18 be 4d eb 89 3c e0 59 65 3d
       0.1666102 -0.14903986 0.016835833 0.055993915
000330 79 2f 03 3e 53 b5 ff bd d5 f4 05 be 17 0f 9e 3d
       0.12811078 -0.12485757 -0.13081677 0.07717722
000340 f6 1d ec 3d b9 97 8e bd d9 b5 82 3d f4 4d f2 3d
       0.11529152 -0.069625326 0.06382341 0.11831275
000350 94 19 bd be 4e 2c dd bd 42 cd 18 be ec 72 2c be
       -0.36933577 -0.10799466 -0.1492205 -0.16840714
000360 5b 11 62 bb 3c b1 af 3c 9a 4b ed bd 8f 23 a9 3d
       -0.0034495208 0.021446817 -0.115866855 0.082587354
000370 e9 3a 1d be 50 df 90 bd 05 c8 14 3c af 74 07 3e
       -0.15354504 -0.070738435 0.0090808915 0.13228105
000380 41 f2 52 bb df 6a a9 3d 6e 5b bb bd 9a d3 1b 3e
       -0.0032187852 0.08272337 -0.09148298 0.15217438
000390 95 23 2a be 99 fa 1e be a3 05 86 3c 2f 27 42 3c
       -0.16615136 -0.15525283 0.01636011 0.011850162
0003a0 4b 61 10 bd 25 3c a4 3d e1 64 a6 3c 05 5e 75 3d
       -0.035249036 0.08019284 0.020311775 0.059904117
0003b0 25 64 89 bd d4 58 82 bc f3 41 e6 bd c7 df 10 3e
       -0.06708554 -0.015911497 -0.112430476 0.14147864
0003c0 81 6e 82 bd 5e 07 4a be 6c 1f 0a be ac 33 15 3d
       -0.06368733 -0.19729373 -0.13488549 0.03642623
0003d0 4e a2 20 be 5a e2 51 3d a3 67 96 bd d1 ff a5 bd
       -0.15686914 0.051241256 -0.07343986 -0.08105434
0003e0 a2 d8 30 be d6 e7 96 bd 61 1f ca 3d a7 81 da 3d
       -0.17270139 -0.07368438 0.09869266 0.106692605
0003f0 c2 54 1d 3e cd c6 81 bd 6d e8 11 be a7 43 14 3e
       0.15364364 -0.06336746 -0.1424882 0.14478932

actor.0.bias f4 [64]
000000 52 a4 8b bd c8 2f 6c 3d 15 48 de bd 60 0a 8f 3d
       -0.06818451 0.057662755 -0.10853592 0.06984401
000010 94 49 cc 3c 7f 36 fe 3d 93 cb 0b be d0 3f f8 3c
       0.024937429 0.12412738 -0.13651876 0.030303866
000020 00 51 ce 3d 4f 4f 0c be 59 13 29 3e 10 89 b6 bd
       0.10074043 -0.13702129 0.16511287 -0.08912861
000030 02 45 18 bd 40 73 98 3c 26 78 5a 3d 19 1f 25 be
       -0.037175186 0.018609643 0.05333724 -0.16125144
000040 8c d7 d9 3d 21 a5 28 3e 25 36 d9 3d e1 54 bf bd
       0.106368154 0.16469242 0.106060304 -0.09342361
000050 d0 05 b9 bb ae e6 f6 bc 3f c1 7c bd 65 13 bd bd
       -0.005646445 -0.030139294 -0.06170773 -0.09232215
000060 c6 2a df bd 12 49 87 3d 24 c8 99 bc d4 0d bd 3d
       -0.1089683 0.06605734 -0.018772192 0.09231153
000070 b3 58 cf bd 0a 84 c0 3a d3 14 af 3d 24 8a 54 bd
       -0.1012434 0.0014687788 0.08548894 -0.051889554
000080 f0 8e 91 3a 30 61 f7 3d a2 7a f1 3d 32 79 7a 3d
       0.0011105221 0.12079084 0.117909685 0.061150737
000090 e6 63 ef bc ac 94 eb bd 89 b3 de bd a0 1b c4 3d
       -0.02922244 -0.11502966 -0.10874087 0.095755816
0000a0 e1 87 dd 3d ba f7 02 3e be 49 09 3c 0b c2 09 bc
       0.108169325 0.12789813 0.008379398 -0.00840808
0000b0 0c 3b 1d be 41 70 9f 3d d3 e2 47 3d 64 d3 28 3e
       -0.15354556 0.077850826 0.0488003 0.16486889
0000c0 e8 13 9a 3d 15 f6 ce 3d 25 1f 1b bc 62 e9 06 3e
       0.07523328 0.1010553 -0.009467875 0.13174966
0000d0 ce e2 f3 bd f6 80 a8 3d d4 26 ed bd ce ca 01 bd
       -0.11908494 0.08227722 -0.115796715 -0.03168755
0000e0 14 0d 86 bb ad 95 48 3d 68 00 eb bd f7 37 90 bd
       -0.0040909145 0.048970867 -0.11474687 -0.070419244
0000f0 29 b2 8e bd 77 3f a2 ba 3b c7 e7 3d c0 e9 b4 bb
       -0.06967575 -0.0012378533 0.11317297 -0.0055210292

actor.1.weight f4 [64]
000000 6d 35 79 3f 9a 16 82 3f f6 4d 86 3f d4 30 7c 3f
       0.97347146 1.0163147 1.0492542 0.98512006
000010 b4 07 76 3f 76 7b 7f 3f f0 ce 79 3f 37 05 83 3f
       0.96105504 0.9979776 0.97581387 1.0235966
000020 af 71 7a 3f 09 82 7b 3f 04 46 7a 3f 1a 10 75 3f
       0.9782972 0.9824529 0.97763085 0.95727694
000030 c4 62 79 3f 70 3a 80 3f 8b b8 7c 3f 1c e6 7e 3f
       0.9741633 1.0017834 0.9871909 0.9956987
000040 11 b3 77 3f 68 b6 82 3f 55 8f 87 3f 5b 56 7e 3f
       0.9675761 1.0211916 1.0590616 0.9935052
000050 9b a5 93 3f 29 2f 7f 3f c1 18 7f 3f de 6f 7e 3f
       1.1534914 0.99681336 0.99647146 0.99389446
000060 ad 5f 7d 3f ce 7f 7a 3f 8d 78 7c 3f 92 af 7a 3f
       0.98974115 0.97851264 0.98621446 0.9792415
000070 9d 0d 7b 3f 96 a0 7a 3f 2b dd 83 3f 3e 9c 85 3f
       0.9806765 0.97901285 1.030187 1.0438306
000080 9a 13 7a 3f 74 c8 7f 3f 07 24 78 3f 4f f2 7b 3f
       0.9768616 0.9991524 0.96929973 0.9841661
000090 f2 ef 82 3f 5c 68 7b 3f 5f 1d 7a 3f c3 2b 80 3f
       1.0229475 0.98206115 0.97701067 1.0013355
0000a0 af 20 88 3f 65 d2 80 3f 0e 8d 7b 3f 24 7f 77 3f
       1.0634974 1.0064207 0.9826211 0.96678376
0000b0 c4 69 80 3f 4a ad 80 3f fa a1 80 3f 37 33 7a 3f
       1.0032277 1.0052884 1.0049431 0.977344
0000c0 ca 97 7d 3f a7 06 81 3f af 74 81 3f 53 ec 7b 3f
       0.99059737 1.0080155 1.0113734 0.9840748
0000d0 ab 72 83 3f d3 d3 76 3f 93 5b 82 3f 96 47 80 3f
       1.0269369 0.9641697 1.0184196 1.0021846
0000e0 24 66 7f 3f 95 4e 79 3f fc e9 81 3f f2 b1 7e 3f
       0.9976523 0.9738553 1.0149531 0.99490273
0000f0 21 f2 7b 3f 33 22 86 3f 24 18 6f 3f 33 73 81 3f
       0.98416334 1.0479187 0.9339621 1.0113281

actor.1.bias f4 [64]
000000 49 79 4c bc ae e7 07 3c 08 2e e3 3c 5a d0 0c 3c
       -0.0124800885 0.008294983 0.02773191 0.008594597
000010 ce 61 a5 ba e4 9c c7 3b 0f 73 60 bc bc 46 69 bb
       -0.0012617649 0.006091701 -0.013699307 -0.003559514
000020 88 fa bc 39 8b e1 34 bc cc 25 3e bc 05 26 6d bc
       0.00036044815 -0.011040102 -0.011605691 -0.014474397
000030 c5 e4 b1 bc 2c 19 cc bc 76 b8 5c 39 8d c2 ec b9
       -0.021715531 -0.024914347 0.00021049552 -0.0004515838
000040 4e 53 08 bd e3 29 32 3c 33 60 05 bc e1 a2 37 ba
       -0.03328257 0.010874244 -0.008140611 -0.0007005167
000050 be 72 4c 3c 83 82 81 3c b2 6a 37 3d 96 93 a3 3c
       0.012478529 0.015809303 0.044779487 0.019967835
000060 73 84 32 bc 74 31 70 bb ac b0 18 3c c0 91 bc bc
       -0.010895836 -0.003665057 0.009319466 -0.023018718
000070 90 b4 93 3c cc e4 08 bd e9 c9 a8 3c d0 16 78 3d
       0.018030435 -0.033421323 0.02060409 0.06056863
000080 53 15 59 bc 17 e1 23 bd 7e cb e5 bb 67 77 86 bc
       -0.013249713 -0.040009584 -0.0070127835 -0.016414357
000090 85 86 92 3c a1 65 17 bc 5f ae 9a bc 5c 8d c6 bc
       0.01788641 -0.009240539 -0.018881975 -0.024237327
0000a0 15 da 8b ba 5a 5d 28 ba 24 46 08 bc 82 80 b9 bc
       -0.0010669852 -0.0006422602 -0.008317504 -0.022644285
0000b0 6d ea f4 3b c2 3d 79 bc 20 a7 51 bc 22 c1 ea bc
       0.007474235 -0.015212478 -0.012796193 -0.028656546
0000c0 dd 7f e2 bb 65 eb 04 bb e5 27 b4 bc 0e 47 46 bc
       -0.006912215 -0.0020281908 -0.02199168 -0.012101902
0000d0 cb 7e 7d 3c b4 11 81 bc 3c 7c b1 3c a2 f9 a2 3c
       0.015472124 -0.015755512 0.021665685 0.019894425
0000e0 94 86 96 3b 54 d5 ca bc df 3b 8b 3c f3 94 2b 3d
       0.0045936797 -0.024759926 0.016996322 0.041890096
0000f0 50 71 f6 bc 3a 77 d9 3c a2 08 b2 bc d6 fd f5 bc
       -0.030083328 0.02654611 -0.021732632 -0.030028265

actor.3.weight f4 [64, 64]
000000 08 5d d7 bc 55 77 cc bb 14 ef 12 3d d4 d7 84 bc
       -0.026289478 -0.0062398114 0.035872534 -0.016216196
000010 68 f0 af 3d 55 dd 57 bd eb 66 26 3d 53 c7 90 3d
       0.08590776 -0.052701313 0.040625494 0.07069268
000020 0f 60 eb 3d 64 29 9c bb a2 6c 55 bd e1 ca fd 39
       0.11492931 -0.0047656763 -0.052105553 0.00048407077
000030 9a c3 86 3d b8 1c 12 be fd 13 38 bd 8a f4 39 bd
       0.06580277 -0.14268768 -0.044940937 -0.045399226
000040 a3 29 0a be 8a 7d ac 3d 5d ed f5 bc 78 27 37 bd
       -0.13492446 0.08422382 -0.03002041 -0.044715375
000050 be 89 eb bd 52 3e 4a bd 7b 70 d9 3d 2a fd 59 3d
       -0.115008816 -0.04937584 0.10617157 0.05321995
000060 61 39 e5 3c 6a 67 ce bc bc c4 d2 bc 98 8d 11 3e
       0.027981462 -0.025195796 -0.025728576 0.1421417
000070 1b c2 99 bb f1 93 0a 3d ec 72 a9 bc a2 c1 14 bc
       -0.0046923286 0.033832494 -0.020684682 -0.009079369
000080 b5 7a a6 bd de 80 69 bd ad ff c4 bc 80 02 13 bd
       -0.08128873 -0.057007663 -0.024047697 -0.035891056
000090 54 aa 5d bd c6 ed 6d 3d d1 1d a7 3d 3d 90 b7 3d
       -0.054117516 0.058088087 0.08159984 0.08963058
0000a0 ff 6b ff 3d 2b 9f df 3b a0 80 ea 3b 88 cb 80 3c
       0.124717705 0.006824394 0.0071564466 0.015722051
0000b0 16 78 1a bd 92 f3 38 3d 7a 60 fe bd ac 04 3b 3d
       -0.03771218 0.04515416 -0.12420745 0.045658752
0000c0 8f a0 03 3b d8 aa 83 3d 74 10 9e 3d 21 cd 0b bd
       0.0020084714 0.0642907 0.07717982 -0.034131173
0000d0 dd 64 06 be 4d 4f 97 3d ff 47 cc 3c 13 96 4b bb
       -0.13124414 0.07388172 0.024936674 -0.0031064793
0000e0 50 15 88 3d f6 5e b5 bd a2 c6 32 3d 20 1d eb bc
       0.0664469 -0.08856003 0.043646462 -0.028700411
0000f0 40 e3 bf 3a b8 bb 26 3d 51 64 b6 3d 3d a7 12 bd
       0.0014639869 0.040706366 0.089058526 -0.035804022
000100 37 27 93 3d 61 e8 0b 3e 08 30 f3 bc ca f1 ca bc
       0.07185214 0.13662864 -0.029685989 -0.024773497
000110 71 5c b0 3b 58 22 0a 3d 90 11 88 bc e3 36 09 3e
       0.0053821136 0.03372416 -0.016609937 0.13399844
000120 20 4f 49 bd a1 ac 1a 3d 79 39 c8 bd 65 88 95 bd
       -0.049147725 0.037762288 -0.09776587 -0.07301406
000130 9a 7c c9 3c 9b fc d4 bd 00 9c c5 3d 8f 76 8e 3d
       0.024595547 -0.10399743 0.09648895 0.06956207
000140 88 38 49 bd 80 92 a4 bd dd 99 ab bd ff f6 84 3d
       -0.049126178 -0.08035755 -0.083789565 0.06492423
000150 a0 d1 df bb 62 8a c9 3d a3 ab 20 bd 28 e3 6f bd
       -0.006830409 0.098408476 -0.039226186 -0.058566242
000160 0e 24 b5 3c d1 fe af bd 17 a6 e9 3d 5a 09 24 3d
       0.022111919 -0.08593524 0.11408632 0.04004798
000170 bd a1 88 bd 41 d8 0c bd c7 c5 38 3d f2 12 97 3d
       -0.06671474 -0.034385923 0.04511049 0.073766604
000180 32 79 c3 3d a1 42 9b 3d 22 5a 1d bd a8 7d c0 bc
       0.095446005 0.07581068 -0.038416035 -0.023497418
000190 9e 55 36 3d 4b 9c 39 3d bc b7 a6 3c 42 d8 57 bd
       0.044515245 0.04531507 0.020351283 -0.052696474
0001a0 c1 08 15 ba ef ba f0 bc 55 ae 0d be 5f 7f cd bd
       -0.00056852034 -0.029386012 -0.13836034 -0.1003406
0001b0 e4 17 07 bd e3 a5 98 3c 62 e9 fd 3d e7 e3 56 3c
       -0.03298177 0.018633788 0.1239803 0.01311586
0001c0 d7 58 ad bd 1f 93 ae bc 06 ca 2e bd db b6 05 3e
       -0.084642105 -0.021310387 -0.042673133 0.13058035
0001d0 60 57 df 3b d0 04 85 3a de 91 90 bd 0e 83 b1 bd
       0.006815836 0.0010148529 -0.07059072 -0.08667575
0001e0 7f 32 42 bd da 81 d1 3d 1f b3 02 3e 92 a3 22 be
       -0.047411438 0.10229845 0.12763642 -0.1588271
0001f0 ba d2 95 3d 30 49 97 3c ad 46 87 3d 20 37 78 3d
       0.073155835 0.018467516 0.06605277 0.060599446
000200 e1 51 e8 3d 98 38 9a 3d 2a 91 9e 3d 44 5c e7 bd
       0.11343742 0.07530326 0.077425316 -0.11296895
000210 3e 26 fb 3d a1 a2 8d 3d 93 7f 0a bd 18 f3 2a 3d
       0.122631535 0.069157846 -0.03381307 0.04173574
000220 24 64 9b bd 82 6d 7e bd 88 2e 0a 3e ab 52 81 bd
       -0.0758746 -0.062116154 0.13494313 -0.06314596
000230 d3 bc 54 39 ac 19 a5 3d 7f 61 20 3d 79 ea 07 3e
       0.00020288238 0.08061537 0.03915548 0.13273038
000240 6b 17 cb 3c c2 12 80 3d 77 1d 5c bd 67 1c 5c bd
       0.02479144 0.06253578 -0.053739037 -0.053738024
000250 58 e3 21 3b 4f 60 e1 3d db 0c 26 bd f8 52 d4 bd
       0.0024702158 0.110046975 -0.040539604 -0.103673875
000260 f6 ff 0a 3e 19 81 95 3d a5 3b bb bd b8 70 ed bd
       0.13574204 0.07300014 -0.09142236 -0.11593765
000270 f3 88 1b bd 49 e3 2d bb 90 18 3c bd 8f 24 75 b9
       -0.0379724 -0.0026533178 -0.045921862 -0.0002337864
000280 7e 1b b6 3c 2b 58 6e bd c3 d1 ac bb 1e 6f 43 bd
       0.022229906 -0.058189552 -0.005274029 -0.04771339
000290 e4 5f e7 3b 6a 22 fe bd 76 d6 93 3d 34 67 bc 3d
       0.0070609916 -0.12408908 0.072186396 0.09199372
0002a0 26 65 a4 bd c2 ff b5 bd b1 eb 96 bd 5c 7a 82 bd
       -0.08027105 -0.088866726 -0.07369173 -0.063709944
0002b0 d4 79 38 3d 09 4e 5c bd eb cd 23 bd 1e 92 9b 3c
       0.04503806 -0.053785358 -0.0399913 0.018990573
0002c0 8e 24 43 bd e2 9f 60 3d 22 1b aa bd ee 18 07 3d
       -0.047642283 0.054839976 -0.083059564 0.03298276
0002d0 11 24 b7 bc 6f 1a 9f 3d d1 c2 23 3d 83 8d 20 bc
       -0.022356065 0.07768714 0.039980713 -0.009799364
0002e0 4e aa dc bd 69 50 36 ba e3 00 a0 3c 25 99 e9 3d
       -0.107746705 -0.0006954731 0.019531673 0.11406163
0002f0 58 70 09 3d 92 7a 0b 3e 05 cd ac 3c a0 4a 70 bd
       0.033554405 0.13620976 0.021093855 -0.058664918
000300 42 e5 81 3d 1f 42 a2 bd 44 3f 59 bd d4 b8 bc 3d
       0.063425556 -0.07922768 -0.05303885 0.09214941
000310 d1 b9 ad 3b cf 06 72 bd fe 10 8b bc 90 01 bc 3d
       0.005301692 -0.059088524 -0.016975876 0.091799855
000320 d9 47 74 bd 8b 73 fc 3a 75 b4 a0 3d eb 2f 12 bd
       -0.05963883 0.0019260509 0.078469194 -0.03569023
000330 0e 22 a0 3c 3d ba ac bd c1 8c eb 3d bc 3e b6 3d
       0.019547489 -0.0843396 0.11501456 0.088986844
000340 41 62 77 3c 77 5c 94 bd b5 12 54 bd 9d 08 e1 bd
       0.015099109 -0.07244199 -0.051775653 -0.10987971
000350 80 45 7f 3b 85 77 74 3c d0 f9 d6 bb 65 de 1b 3e
       0.0038951337 0.014921074 -0.0065605417 0.15221556
000360 e4 3a 4b 3d cd ff 0f 3e c0 b2 c3 bd b1 8d c5 3d
       0.04961671 0.14062424 -0.09555578 0.09646166
000370 39 f1 a6 3b 83 b9 b1 bd c8 7e 8f bd 73 b3 cd bd
       0.005094674 -0.08677962 -0.070066035 -0.10043993
000380 70 01 ac 3d 77 38 ec 3b ad 61 b0 3c 22 a0 ea bd
       0.08398712 0.0072088796 0.02153095 -0.11456324
000390 36 d1 32 bb 95 b4 03 bd 90 84 8c bd 3a 68 0d bd
       -0.0027285344 -0.03215464 -0.06861222 -0.034523226
0003a0 71 59 e6 bd 2a 24 7c bd 19 73 b8 3d ac ba 4b 3d
       -0.11247528 -0.061557926 0.09006328 0.04973857
0003b0 d4 10 7a bd 8d 7e 21 3e ec 72 46 bb aa 2a ff 3d
       -0.061051205 0.15770932 -0.00302809 0.124593094
0003c0 2e 5a 82 bb b6 ac 4e 3d 1b f2 1d 3d 04 a7 dc bd
       -0.0039780354 0.05045768 0.038560968 -0.10774043
0003d0 ee 00 95 bb b8 c2 b3 bd 76 59 d6 3d 3d 6f 4e 3d
       -0.00454723 -0.08777374 0.10466282 0.050399054
0003e0 a0 ba 25 bc d2 77 78 3c 01 c6 ce 3c 4e c1 52 3c
       -0.010115296 0.015165286 0.0252409 0.01286347
0003f0 79 83 0a be b4 0f f4 3d ca 3e 95 bc 6d dc 9d 3d
       -0.13526715 0.11917058 -0.018218417 0.077080585

actor.3.bias f4 [64]
000000 70 f4 40 3d 68 e9 ed 39 1d ba c3 bd 5b 6c ee 3d
       0.047108114 0.00045378064 -0.09556983 0.11641761
000010 5a 18 cf bd e1 55 6d ba e8 c6 02 3c bd 12 e5 bc
       -0.101120666 -0.00090536295 0.007981993 -0.027963037
000020 55 7b 5e 3d 70 c8 b0 3d 65 28 f8 3d 8d 02 d1 3d
       0.054316837 0.086319804 0.1211708 0.10205565
000030 1e 3b ca 3c 7f 96 4c 3d 54 82 89 3d dd 3c 00 3e
       0.024686392 0.04994821 0.06714311 0.12523217
000040 d3 7f fe 3d e5 0c e9 3d fc 91 67 bd 53 62 05 3d
       0.12426724 0.113794126 -0.056535706 0.032564472
000050 0a 9b b9 bc b7 6f 59 3d 15 78 c6 bd 98 c2 e5 3d
       -0.022656936 0.053085055 -0.096908726 0.112187564
000060 b0 6c e2 3d dd 62 dc bd 8d eb bd 3d c3 ad 08 bc
       0.11055887 -0.10761044 0.09273443 -0.008342209
000070 e1 66 91 3d fe 41 a1 3d ca 6d e2 bd 91 8d af 3d
       0.07099701 0.07873915 -0.11056097 0.085719235
000080 a3 7a 95 bd dc af 59 bd 46 2f a8 bd c6 79 c9 3d
       -0.07298782 -0.05314623 -0.08212142 0.098376796
000090 23 bb 89 bb f3 f9 5a 3d e0 e3 83 3d d4 e4 eb 3d
       -0.0042032166 0.053461026 0.06439948 0.11518255
0000a0 54 ea 51 3b 10 23 a8 bd ef 77 ae 3d a7 84 b7 bd
       0.003203054 -0.08209813 0.08518969 -0.08960848
0000b0 7d 15 9c 3c fc df ca 3c 97 04 11 bd b4 32 64 3d
       0.019053215 0.024765007 -0.035404768 0.055712417
0000c0 71 c7 13 bd 75 e3 59 3d 61 b7 91 bd 35 3a 94 bd
       -0.036078874 0.053195436 -0.07115055 -0.072376646
0000d0 64 f7 71 3d 4a c6 17 bd e9 5a 94 3d 51 52 44 bd
       0.05907382 -0.037054338 0.07243902 -0.047930066
0000e0 b7 3c 92 bd ae 37 53 bd c6 08 bc bd a1 63 e9 bd
       -0.07140487 -0.051566772 -0.09181361 -0.11395956
0000f0 04 90 cc bd ef f5 9c 3d aa db c6 bc c0 46 4c bd
       -0.09988406 0.076640956 -0.024274666 -0.04987216

actor.4.weight f4 [64]
000000 e5 5b 87 3f a4 f4 80 3f 24 02 84 3f 47 a1 82 3f
       1.0574919 1.0074658 1.0313153 1.0205468
000010 78 e1 85 3f 64 7a 82 3f 3d 1c 74 3f dd 4b 84 3f
       1.0459433 1.0193601 0.9535559 1.0335652
000020 7c 1b 81 3f 15 6e 83 3f e4 d1 83 3f b9 13 82 3f
       1.0086513 1.0267969 1.0298429 1.0162269
000030 76 a7 83 3f 78 46 7b 3f d8 e1 78 3f b4 8c 7d 3f
       1.028548 0.981544 0.9721961 0.9904282
000040 45 91 85 3f 4f 0c 87 3f e2 55 7c 3f 72 c0 85 3f
       1.0434958 1.0550631 0.98568547 1.0449355
000050 15 8c 85 3f 56 41 85 3f 3e 15 8e 3f db da 82 3f
       1.0433375 1.0410564 1.1100233 1.0223039
000060 00 08 81 3f 0c c7 86 3f 2c e0 7e 3f 63 d2 83 3f
       1.0080566 1.0529494 0.9956081 1.029858
000070 15 07 83 3f 72 1a 81 3f f2 9c 88 3f ca bb 81 3f
       1.0236536 1.0086195 1.0672896 1.0135434
000080 89 5e 81 3f bc 39 80 3f 61 34 81 3f 11 ff 88 3f
       1.0106975 1.0017619 1.009411 1.070284
000090 ed 0c 80 3f 52 c2 80 3f 3f 6e 85 3f 6f 0d 85 3f
       1.0003945 1.0059302 1.042427 1.0394725
0000a0 ed 8d 83 3f a6 06 85 3f 72 55 85 3f 9e 35 80 3f
       1.0277687 1.0392654 1.0416701 1.0016363
0000b0 b0 e2 85 3f fd 4a 81 3f 5c 9b 85 3f db 75 86 3f
       1.0459805 1.010101 1.0438037 1.0504717
0000c0 fe 9d 81 3f a1 43 85 3f 54 37 83 3f ff 24 84 3f
       1.012634 1.0411264 1.025126 1.032379
0000d0 66 cd 7f 3f bd 69 8a 3f a5 4e 87 3f f0 b0 82 3f
       0.9992279 1.0813519 1.0570875 1.0210247
0000e0 84 4d 83 3f 31 5a 87 3f df 5d 83 3f ca 99 86 3f
       1.0258031 1.0574399 1.0263022 1.0515683
0000f0 f7 39 87 3f 73 88 81 3f 4a d3 80 3f d2 a1 7a 3f
       1.0564564 1.0119766 1.006448 0.9790317

actor.4.bias f4 [64]
000000 20 e6 74 bc 61 71 e8 3c 35 27 44 bc a5 7d e5 3c
       -0.014947444 0.028374376 -0.011972238 0.028014014
000010 55 d1 40 3c f9 8b 3d 3c db 07 32 bd ec d4 02 3d
       0.011768659 0.011569017 -0.043464523 0.03194134
000020 76 ec 17 3b 60 a6 15 3c bd be bb b9 10 4d 96 ba
       0.0023181713 0.009133905 -0.0003580953 -0.0011467058
000030 d9 76 b8 3b d4 ea 64 bc d5 7f 0d bd 83 10 56 bb
       0.005629402 -0.013972003 -0.03454574 -0.003266365
000040 50 0b 1c 3c f6 c1 d5 3c 44 e9 81 bc 1f 5b 9d bb
       0.0095241815 0.026093464 -0.0158583 -0.0048021222
000050 2e 30 5f 3c d9 56 18 3c 5e 7a 36 3d 9d e7 ab 3b
       0.013622327 0.00929805 0.044550292 0.0052461163
000060 af e6 57 3c 16 73 53 3c 84 bb 85 3c ef 68 e0 bb
       0.013177558 0.012905857 0.016324766 -0.0068484466
000070 4d 30 b0 bb 6f 80 99 bb 00 b0 08 3d 40 5f 9c bb
       -0.0053768517 -0.0046845 0.03337097 -0.004772097
000080 0c 29 1b 3c b7 b7 2b bc 52 ca a3 bb d4 15 d9 3c
       0.009470236 -0.010480813 -0.0049984837 0.026499666
000090 24 0e 88 3b 96 42 ac ba dc 64 e8 3c 7f 3d d1 3c
       0.0041520763 -0.0013142403 0.028368406 0.025542019
0000a0 b0 15 e2 ba 3c fb ff bb 51 6a c3 3c e2 2f 5c bc
       -0.0017248895 -0.007811932 0.023854407 -0.0134391505
0000b0 eb 43 d0 bb 00 93 b8 bb ce f4 e5 bc 6d c4 14 bc
       -0.0063557527 -0.005632758 -0.028070834 -0.009080035
0000c0 ef 8b 9e 3c 46 65 e7 3c 06 ba 6d 3c 9f 13 69 3c
       0.019353835 0.028246533 0.0145096835 0.014225869
0000d0 b0 32 30 39 3f 93 3e 3c e1 40 db 3c 73 eb 5e 3c
       0.0001680355 0.011631786 0.026764335 0.01360594
0000e0 f7 59 bc 3c 0c 98 ee 3c 44 84 7a 3c 86 ec 6e ba
       0.022992117 0.029125236 0.015290324 -0.0009114224
0000f0 e0 42 e7 3b 55 51 a0 bc 0f 22 7d 3c 34 78 8c bc
       0.0070575327 -0.019570032 0.015450015 -0.017147161

actor.6.weight f4 [8, 64]
000000 34 05 b0 3d 31 41 4f 3d 2c ed 82 bd 88 00 e3 3d
       0.085947424 0.05059928 -0.06392893 0.11084086
000010 eb 28 69 bd 3e 4b 2d 3d 67 f4 99 bd af 10 b1 3d
       -0.056923788 0.042308085 -0.07517319 0.0864576
000020 c0 10 8a bd 3c 02 17 bd 71 8f a0 3c 72 3c fb 3d
       -0.06741476 -0.036867365 0.019599648 0.122673884
000030 bd 2d d0 3d d6 d2 8f bd 20 e5 b2 bd 36 55 0d 3d
       0.10164974 -0.07022636 -0.087351084 0.03450509
000040 16 65 95 bd 3e 11 87 3d a3 65 13 bc 49 8a d5 3d
       -0.07294671 0.065950856 -0.0089964 0.104267664
000050 57 3d 4e 3d 8f 84 3e 3d a2 ea 52 3c 31 a0 0c 3d
       0.050351467 0.046513136 0.012873324 0.034332458
000060 58 4d 9f 3c 66 94 5e 3a 55 ac b5 bd f7 db 66 3d
       0.01944606 0.0008490741 -0.0887076 0.05636212
000070 24 7c 95 bd fc 5f 18 3e a4 e6 9b bd 9a b0 3d 3b
       -0.072990686 0.14880365 -0.076123506 0.0028944374
000080 f2 d7 c6 bc 85 ec 38 3d 24 7d 95 3b 5d 61 9e bd
       -0.024272893 0.045147438 0.004562037 -0.07733414
000090 50 2f dc 3c 40 8d 82 bd 3e e6 d3 3c 88 1f c4 bd
       0.02687803 -0.063745975 0.025866624 -0.095763266
0000a0 b4 68 3b 3c 63 3a 27 bd 0c b0 c2 bc bf 0b 70 3d
       0.011438537 -0.040827166 -0.023765586 0.058604952
0000b0 01 9e cd 3d e3 14 6b 3d 5f ba 56 3d 21 86 c6 bc
       0.100399025 0.057392966 0.05242383 -0.02423388
0000c0 69 c4 fb b9 40 41 13 3c 00 8c db ba f9 61 2b bd
       -0.00048020788 0.008987725 -0.0016750097 -0.04184148
0000d0 cd bd 46 bc 93 49 8c bd ae d8 a0 3d f4 98 41 bc
       -0.012130213 -0.06849971 0.07853828 -0.011816252
0000e0 a8 45 31 bb d0 f6 33 3d 8f ec f1 3d 13 30 ef 3d
       -0.0027049575 0.04393655 0.11812698 0.11679091
0000f0 9e 0d b6 3d f5 f5 aa 3d a2 5c eb 3d 67 58 26 bd
       0.08889316 0.08347694 0.11492278 -0.04061165
000100 9c 4a 11 3a 00 36 6f bb 10 19 ce bd 3e 0e bf 3d
       0.00055424287 -0.0036500692 -0.10063374 0.09328888
000110 13 be 42 3d 7c c4 e4 3b 74 0b c8 bd 29 dd ae bd
       0.04754455 0.0069814306 -0.097678095 -0.08538277
000120 78 e7 e0 3d f2 9d 90 3d ed 2a 01 3e ec 21 e6 bd
       0.10981649 0.07061376 0.12614031 -0.11236939
000130 b5 d5 b4 3d 50 14 57 bc 4c 12 d2 bd e9 7b dc 3d
       0.08829824 -0.0131274015 -0.10257396 0.107658215
000140 84 d5 88 3c ea 42 80 3b 03 d6 3d 3d 1d 08 f1 3c
       0.016703375 0.003914227 0.046346676 0.029422814
000150 43 d0 3f bd ca f8 ca bd 63 af 86 3d 96 7b d9 3d
       -0.046829473 -0.09910734 0.06576421 0.10619275
000160 ab 0f 4a 3d fa 8e e2 3d b8 33 bf bd 70 03 af 3d
       0.04933135 0.11062427 -0.093360364 0.085455775
000170 af d2 89 3c 18 71 e2 3d a2 80 0b bc f9 52 f2 bb
       0.016824095 0.11056727 -0.008514555 -0.007395145
000180 86 68 78 3d 4b 52 8c bc cb a5 c1 bd f6 15 3e bd
       0.060646556 -0.017129084 -0.094554506 -0.046407662
000190 1c 76 4b bd 6e f8 1c 3d 09 95 88 bd 4f 58 f9 3c
       -0.049673185 0.03832286 -0.06669051 0.030437617
0001a0 cc e5 09 3d 2c ae 24 bd 7f 93 0d 3b a6 8a 52 bd
       0.033666417 -0.040205166 0.0021602807 -0.051401757
0001b0 29 44 0f bd c5 e3 7e 3c d8 d2 52 3d 14 88 00 be
       -0.034977112 0.015557234 0.051470608 -0.1255191
0001c0 3b 90 0e bc 78 54 df 3d f5 2c 7d 3c 21 e8 bc 3d
       -0.008701379 0.10904783 0.015452613 0.092239626
0001d0 1a 14 c5 3d 84 f6 31 3d 57 72 27 bc e4 37 20 3d
       0.09622975 0.043447986 -0.010220132 0.0391158
0001e0 21 f0 6e bc 70 e5 00 3e 6d 3e ca bd 86 64 54 3d
       -0.014583618 0.12587523 -0.09875188 0.05185368
0001f0 37 d4 5c bd ac 05 04 3e bf b8 12 3c 21 7c 03 bd
       -0.05391332 0.12892789 0.00895518 -0.0321008
000200 c2 1c ae 3d 17 a2 74 3d 9b 07 97 bd c0 e9 e8 3c
       0.08501579 0.059724893 -0.073744975 0.028431773
000210 dc bb 96 3d 6f a9 9f bd eb 8c 52 bd 4e 88 8e bd
       0.0736005 -0.07795989 -0.05140392 -0.06959592
000220 ea 72 ef bb b7 8c f8 3d 2a 25 e8 3c 08 e7 ac bc
       -0.0073074 0.12136214 0.028338034 -0.021106258
000230 80 b1 3b 3d e0 ed ab 3d fb 10 0a bd 3b d6 e9 3d
       0.045823574 0.083949804 -0.0337076 0.11417814
000240 5f f5 d0 3d 7b 99 94 3d 39 60 bf bd d3 4d 49 3c
       0.10203051 0.072558366 -0.09344525 0.012286621
000250 1d 05 21 3d 38 4d cb bd ca c6 ae bd 09 1c 93 3d
       0.039311517 -0.09926838 -0.0853401 0.07183082
000260 96 1c c0 bd be 5b 3c 3d f6 88 a3 bd 41 24 58 3d
       -0.09380452 0.04598593 -0.079851076 0.05276895
000270 d6 f3 cb 3c 83 a5 2f bd 89 7d f5 bb 27 aa f9 3c
       0.024896543 -0.042882454 -0.0074917716 0.030476643
000280 24 63 4a 3d 76 a7 c1 bd 09 ba cf 3d 95 6d 94 bb
       0.049410954 -0.09455769 0.10142905 -0.0045296648
000290 fe 5b 28 3d c6 ff c1 bd 48 3c ad 3d b2 ed bf 3c
       0.041103356 -0.09472613 0.08458763 0.023428772
0002a0 b2 a4 ae 3d c4 c7 8f 3d de 3b 36 3d 19 48 94 bd
       0.08527507 0.07020524 0.044490688 -0.07240314
0002b0 80 9c 95 3d ab ab a7 bc 20 b7 33 3e 75 7f 33 ba
       0.07305241 -0.0204676 0.17550325 -0.00068473007
0002c0 50 bb 96 3d c9 93 1d 3d 68 99 f6 ba 99 ed e5 bd
       0.07359946 0.038471017 -0.0018814029 -0.11226959
0002d0 95 cd 48 3d 76 e1 5d bc f6 e5 b8 bd 96 04 7b 3d
       0.049024183 -0.013542524 -0.090282366 0.06128367
0002e0 a7 7f 2b 3e 64 ab bd bd 58 57 07 3c e6 d8 9f 3d
       0.16747914 -0.09261206 0.0082605705 0.07805042
0002f0 29 69 45 bd b4 9d f2 3c 9a e6 e2 3d d1 6a 97 3b
       -0.04819599 0.029616214 0.1107914 0.004620888
000300 58 42 be 3d 59 6e 54 3d 89 61 c2 3d 75 8d 40 3d
       0.09289998 0.05186305 0.094912596 0.047009904
000310 05 27 f0 bc 09 d0 c2 bd 9e d5 46 bd ee fd 84 bd
       -0.029315481 -0.09512336 -0.048543565 -0.06493746
000320 89 dc 31 3d 9d 0b 2e 3b cc 65 af bd cc a0 04 be
       0.04342321 0.0026557215 -0.08564338 -0.12951964
000330 6e 64 0b be 22 21 e0 bb 19 5b ad 3d 2d c8 5d bd
       -0.1361253 -0.0068398872 0.08464641 -0.05414598
000340 ca fe 58 3d 3a ce 59 3c 1d 32 55 bc 87 37 7b bd
       0.05297736 0.013293797 -0.013012436 -0.061332252
000350 0b 35 e5 bd 23 73 0b bd 4b c4 91 3c 66 31 c1 3d
       -0.11191758 -0.03404535 0.017793795 0.0943325
000360 20 6c 24 bd f2 25 e2 bd 15 77 71 bd 5f 44 1d 3d
       -0.04014218 -0.11042394 -0.058951456 0.038395282
000370 c8 a0 09 be c1 db 28 bd 9c c4 bf bd be 5b f0 bd
       -0.1344024 -0.0412252 -0.09363672 -0.117362484
000380 e0 d3 6d 3c 10 94 e7 bd 2d 85 c8 bc 78 95 86 3d
       0.014515847 -0.113075376 -0.024477566 0.06571478
000390 fc 15 29 bd b5 a1 a7 bc 21 de ce 3d 7a 6e e1 bd
       -0.04128073 -0.02046285 0.101009615 -0.110074
0003a0 3a 13 68 3d 64 30 c8 bc dd 27 85 bd e6 ec 2e 3d
       0.05665896 -0.024437137 -0.06501744 0.042706393
0003b0 5a ee ac 3d ae 02 83 bd fb 64 9e 3d e7 75 b1 bd
       0.084438995 -0.063969955 0.07734104 -0.08665066
0003c0 85 a2 df 3c 3f c8 ab bd 30 13 17 3d 98 78 27 bc
       0.027299175 -0.08387803 0.036883533 -0.010221623
0003d0 21 dd b2 3d 0f 8a e2 3c b7 8f 00 bd 66 ab 07 be
       0.08733583 0.027653722 -0.031387057 -0.13248977
0003e0 28 4e ec 3d 65 88 a6 3c 15 0e 35 bd 80 68 5b 3d
       0.115383446 0.02032871 -0.044202883 0.053566456
0003f0 d0 9a 5c bd e8 9b e7 bd 5d e9 a0 bd 6f a4 be bd
       -0.05385858 -0.11309034 -0.078570105 -0.09308707

actor.6.bias f4 [8]
000000 ab 95 53 3d bb 7f e2 bd d4 bd ea 3c a7 18 60 3d
       0.051656406 -0.11059519 0.02865497 0.05471101
000010 51 c1 36 3c 2b 8a 1d bb 75 47 36 3d b4 74 07 be
       0.011154489 -0.0024038653 0.04450174 -0.13228112

critic.0.weight f4 [64, 29]
000000 d4 e8 11 3e d0 d6 d7 bd 93 d2 a3 bd a7 15 8d bd
       0.14248973 -0.10539019 -0.07999148 -0.068888955
000010 05 30 ed 3c 6b 24 73 3d 2c 05 ea 3d 96 88 e6 bd
       0.028953562 0.059360903 0.11426768 -0.112565205
000020 7c ad 6b bd f0 53 91 bd 23 bc 11 bd ce 5b ee 3d
       -0.057538494 -0.07096088 -0.03557981 0.11638604
000030 04 37 f8 3d ac b4 d3 bd 41 bd ee 3c 24 d1 bf 3c
       0.121198684 -0.10337195 0.029142978 0.023415156
000040 a3 a5 26 be ca 0f 20 be 3e 40 f1 3d 77 6a 82 bd
       -0.16274123 -0.15631023 0.11779831 -0.06367963
000050 76 40 11 be 43 78 15 3d 40 bd 31 be 22 7e 33 3e
       -0.14184746 0.036491644 -0.1735735 0.17528585
000060 61 a9 f7 3d cc 0f 9a bd 7f 37 2a be 98 75 d9 bd
       0.12092853 -0.07522544 -0.16622733 -0.10618132
000070 3d dd be bd d9 9b 03 3e 07 0a 4a bd 70 bb 01 3e
       -0.093195416 0.1285242 -0.04932597 0.12669158
000080 9e d5 9c bd 55 2a bf bd dd ff 6a be dc a1 d9 3d
       -0.07657932 -0.09334246 -0.22949167 0.10626575
000090 5c cd 74 bd 8c 0e 5e bd 1e 0b 8b bd c9 d0 35 be
       -0.05976616 -0.05421309 -0.0678923 -0.17755426
0000a0 59 56 12 be 74 05 3b be 8b 73 2c 3e 00 2d f2 bd
       -0.14290752 -0.18263799 0.16840951 -0.11824989
0000b0 92 12 5f 3d 9d ae 70 3d 1d 29 c1 3d f0 a7 16 be
       0.05446107 0.058760274 0.0943167 -0.147125
0000c0 e6 a9 43 3d 79 e8 18 3e 90 12 1a be bd 55 2e bd
       0.04776945 0.14932431 -0.15046144 -0.042562235
0000d0 f8 c7 09 3e 83 5f bb 3c 84 d6 2a be df 56 28 be
       0.13455188 0.022872692 -0.16683394 -0.16439389
0000e0 23 ee 02 3e 97 33 40 be 40 23 90 bb 44 70 44 3b
       0.12786154 -0.1876968 -0.0043987334 0.0029974142
0000f0 d5 12 93 bd ff 73 12 be cc da 78 3c a5 1d 95 3d
       -0.07181326 -0.14302061 0.015188884 0.07281045
000100 c8 39 f0 bc ac 8b 86 bc 8d e7 a0 bd ff 24 1a be
       -0.029324427 -0.016424023 -0.07856665 -0.15053175
000110 cc 0a ac 3d d7 ac 3b 3e 41 ba 07 3e d5 cc 71 3c
       0.08400497 0.18327652 0.13254644 0.014758308
000120 0c a5 2b be 9b bb 7c bd e7 8f 59 be ca 04 e0 bb
       -0.16762179 -0.061702352 -0.212463 -0.0068365084
000130 f2 60 f2 3d 97 73 cd bd a3 19 21 be cd b1 2a be
       0.11834897 -0.10031813 -0.15732436 -0.16669388
000140 93 17 f1 bc 94 f6 8a 3c db 2a 01 bc 83 12 b1 3d
       -0.029430186 0.01696328 -0.007883753 0.08646109
000150 a2 6c 1d be a2 64 8d 3d 92 fd 8d 3d 9d 1b 04 3d
       -0.15373471 0.0690396 0.0693313 0.032252897
000160 a6 00 3a 3d 3b 6d 1d 3d d8 19 c3 ba 72 f4 f8 bc
       0.045410775 0.03843425 -0.0014885021 -0.030389998
000170 60 59 0a be 16 e5 60 bd 82 91 39 bc 7c 67 02 3d
       -0.13510656 -0.054905973 -0.011326196 0.03183697
000180 28 1a e5 bd d0 d2 1f 3e 98 03 bb 3d 09 f9 71 3d
       -0.111866295 0.15607762 0.09131545 0.05907539
000190 33 c7 d6 bb 25 f4 87 bd 52 0e f0 bc c6 a0 76 bd
       -0.006554508 -0.06638364 -0.029303703 -0.06021192
0001a0 57 44 3e 3e 9f e8 2d 3c b0 f4 1f 3d 8c 37 90 3d
       0.18580757 0.010614543 0.03905171 0.07041845
0001b0 cf 40 0a 3d 7f 12 f2 bd 02 58 c0 bd 98 ef da bd
       0.033753213 -0.11819934 -0.09391786 -0.1069023
0001c0 d2 7b df bd d0 ed 38 be d9 f8 dc bd 1d ac 90 3d
       -0.10912289 -0.18059468 -0.107896514 0.07064078
0001d0 52 c4 1d 3d 48 4d da 3c 64 21 d4 ba 42 17 ee 3d
       0.038517304 0.026648179 -0.0016184268 0.1162553
0001e0 8b c0 0e bd 21 c2 e0 bd 6f 57 13 3d e2 83 c8 bc
       -0.034851592 -0.10974527 0.035972055 -0.02447695
0001f0 38 3f 4a bd 0b df f4 bc 67 b2 81 be 26 b4 83 be
       -0.049376696 -0.029891511 -0.25331423 -0.2572338
000200 d6 34 28 be e1 f7 1e be 97 28 27 be f5 ab c1 bd
       -0.16426405 -0.15524246 -0.16324078 -0.09456626
000210 9c 3d 20 3d 22 7b fa bd 0f 27 a6 bc a2 ad 39 3e
       0.039121255 -0.12230517 -0.020282296 0.18132642
000220 ca e2 bd bd 95 3f 68 3c 01 81 14 be ab 40 2b 3d
       -0.09271772 0.014175315 -0.14502336 0.04180972
000230 c6 49 97 bd 8c aa 14 3e e3 42 e0 bd 64 fa ba bd
       -0.07387118 0.14518183 -0.10950258 -0.091297895
000240 68 39 93 3c 7a 40 c7 3d 0d d4 db bd 66 c6 29 be
       0.01797171 0.09729095 -0.10733805 -0.16579589
000250 2f 6d 9a bd 82 7b 3f 3d 75 15 02 be 02 19 08 be
       -0.07540356 0.046748646 -0.12703498 -0.1329079
000260 db 42 1b bd 6f b0 f4 3d 01 2a 01 be ff c4 16 be
       -0.037905555 0.119477145 -0.1261368 -0.14723586
000270 bb de 88 bd 1f c1 fe 3d b8 f2 31 3e 3a e6 db 3d
       -0.066831075 0.12439179 0.17377746 0.107372716
000280 ee 17 ac 3d 06 0d af bd 19 da 07 3e 83 32 ac bc
       0.08403002 -0.08547406 0.13266791 -0.02102018
000290 28 88 58 be 2b e5 ac 3d fc 84 21 3e 1c 2d f1 3b
       -0.2114569 0.08442148 0.15773386 0.007360114
0002a0 37 24 99 bd 17 4e c5 3c 2f 42 00 3e 22 8a ba bd
       -0.074776106 0.024085088 0.12525247 -0.09108378
0002b0 f4 0a 3b 3e 10 6b 75 3d a4 4c 0e 3e 21 ca a0 bc
       0.18265897 0.059916556 0.13896424 -0.019627633
0002c0 54 7e 11 bd de a1 7d 3d 8f a4 80 be 3f bc 0b 3e
       -0.035520867 0.061921947 -0.25125548 0.13646029
0002d0 bf 57 0a bd b7 00 41 bd 1c 09 26 3e de 29 07 3e
       -0.033775087 -0.047119822 0.16214412 0.13199565
0002e0 87 4b 03 3e 7d 65 a0 bd 1b f0 17 3e 0a 23 dc 3d
       0.1282178 -0.07831857 0.14837687 0.10748871
0002f0 f6 68 8e 3d ad 69 52 3d e8 5a 22 3c 84 5a 3f bd
       0.069536135 0.05137031 0.009909369 -0.04671718
000300 4e fe 0a 3d ad c9 00 3e 0b 37 04 3e e8 47 69 3c
       0.03393393 0.12576933 0.12911622 0.014238335
000310 a9 5f a3 bd 27 81 f5 3d 4f 67 0a be f1 c3 b1 bc
       -0.0797723 0.119875245 -0.13515972 -0.021699877
000320 f0 73 29 be 66 0a f7 bc d2 a4 44 be 15 7a 61 bd
       -0.16548133 -0.030156326 -0.19203499 -0.055048067
000330 31 d2 85 bd 5c 6a 87 3d 89 64 26 3e 7c bd fe bd
       -0.065342315 0.06612083 0.16249289 -0.12438485
000340 35 99 1b be af 52 9d 3d cf cf 25 3d f5 67 0c be
       -0.15195163 0.07681786 0.040481385 -0.13711531
000350 29 de ef bd 92 a0 24 3e a0 60 d3 bd 06 d1 8a 3d
       -0.117122956 0.16076878 -0.10321164 0.06778149
000360 b1 15 0d 3c a1 d5 a2 bd 30 02 18 bd e1 a6 02 3e
       0.008611129 -0.07950903 -0.03711146 0.12758972
000370 21 4c 93 3d 7c f1 32 bd f6 61 21 3e 28 41 97 3d
       0.07192255 -0.04368733 0.15760025 0.073854744
000380 20 80 80 3d fd 8d bd bd d8 c7 34 3e 05 e9 a3 bd
       0.06274438 -0.09255598 0.1765436 -0.08003429
000390 9b d9 39 be e8 d6 b8 3c 36 9e 85 bd f6 66 4c bd
       -0.18149416 0.022563413 -0.06524317 -0.04990288
0003a0 ef d1 49 bd 2d 63 72 bc 59 3a 89 3d 3b 88 14 3e
       -0.049272474 -0.014794153 0.06700582 0.14505093
0003b0 aa 32 34 3d eb b0 15 3e f2 7f f7 3d c4 41 94 3d
       0.04399363 0.1461827 0.120849505 0.07239106
0003c0 47 1b d1 bd 45 05 26 be 01 d9 bc 3d 9f ec be bd
       -0.10210281 -0.16212948 0.09221078 -0.09322476
0003d0 25 31 1f 3e 36 71 06 3d ac 9b a6 bd 3a 70 a3 bc
       0.15546091 0.03282281 -0.08135161 -0.019950975
0003e0 18 41 de bd 4a d7 78 3d e1 c0 22 3e 39 6d 28 3e
       -0.108522594 0.06075219 0.1589389 0.16447915
0003f0 ba 3c 2c bd ca 59 07 be 60 8d 61 3d b5 61 cd 3d
       -0.0420501 -0.13217846 0.055066466 0.10028402

critic.0.bias f4 [64]
000000 65 d1 69 bd 2c 23 30 3e c6 8a 17 be a8 0d 06 be
       -0.05708446 0.17200917 -0.14799032 -0.13091147
000010 65 44 21 bd 94 84 ff 3d 3b 12 16 3e 5f 96 10 be
       -0.039371867 0.12476459 0.14655392 -0.14119862
000020 bd 6e 5c bd 55 93 e6 3d 07 2d d6 bc e3 07 05 3d
       -0.053816546 0.1125857 -0.026144518 0.032478224
000030 30 2e a5 3d b0 7a 95 bd 39 f0 12 bd 7c 60 a9 bd
       0.0806545 -0.072987914 -0.035873625 -0.08270356
000040 23 41 01 bd 67 f7 07 3e 66 70 1c 3e cd 37 ce bd
       -0.03155626 0.1327797 0.15277252 -0.10069237
000050 14 26 ca bd f1 42 95 bd 4b 3f bf 3d f6 e9 4c be
       -0.09870544 -0.07288159 0.09338244 -0.20011124
000060 91 0d 91 bd f9 7b c1 bd 02 3a 95 3d 2d 29 20 3e
       -0.07082666 -0.09447474 0.07286455 0.15640707
000070 23 4d 03 3e c5 ac af bc 3a 04 e9 bd ee de c8 3a
       0.12822394 -0.021444688 -0.11377759 0.0015325227
000080 f0 55 27 be f7 e1 ea bc 65 83 db 3d b6 2c 43 be
       -0.16341376 -0.028672202 0.10718421 -0.19060025
000090 03 df 5d bd a6 66 2e 3e de 84 22 3e 45 cf fc 3d
       -0.05416776 0.17031345 0.15870997 0.12344221
0000a0 b8 99 df 3c ff 5f 22 be 49 3e 96 bd e1 ee b9 3c
       0.027294978 -0.15856932 -0.07336099 0.022696914
0000b0 e3 da e1 bd bf 22 bc bd fc 09 03 3d c7 71 99 3d
       -0.110280775 -0.09186315 0.031991944 0.074924044
0000c0 b7 4a fc 3d 8c b2 02 be 03 94 32 bd 0f 26 4d bd
       0.12318938 -0.12763423 -0.043598186 -0.050085124
0000d0 0a 46 d9 bd b3 f6 18 3e 7d bf e8 bd c3 43 37 be
       -0.10609062 0.14937858 -0.113646485 -0.17896943
0000e0 bf ee 25 3d 09 a7 0f be 97 22 0f be 43 c7 d3 3d
       0.04051089 -0.14028563 -0.13978039 0.103407405
0000f0 97 d1 45 bd c5 55 f9 bc 36 68 e2 3c da e7 e5 3d
       -0.048295584 -0.030436406 0.027637582 0.11225863

critic.1.weight f4 [64]
000000 23 3c 77 3f 0d 42 81 3f b3 15 81 3f 38 b9 6f 3f
       0.96576136 1.0098282 1.0084747 0.93641996
000010 a7 35 8f 3f ee 6f 87 3f b4 7e 7d 3f e9 cc 7d 3f
       1.1188248 1.0581033 0.9902146 0.99140793
000020 23 85 80 3f 62 aa 80 3f 52 fb 79 3f 41 f8 7f 3f
       1.004063 1.0051997 0.9764911 0.9998818
000030 c5 59 80 3f 90 92 82 3f 58 21 82 3f bb 7f 7f 3f
       1.0027395 1.0200977 1.0166426 0.99804276
000040 fe 87 7c 3f 14 23 81 3f e9 9b 78 3f fb fe 87 3f
       0.9864501 1.008883 0.971129 1.0624689
000050 74 bd 7e 3f a8 c4 7e 3f d3 8b 7a 3f 74 10 7f 3f
       0.9950783 0.99518824 0.97869605 0.9963448
000060 9f d5 8e 3f 1c 77 84 3f 7e 56 80 3f ba 8a 7c 3f
       1.1158942 1.0348849 1.0026395 0.9864918
000070 c6 f1 79 3f 58 f2 76 3f d5 ae 81 3f 81 a7 7f 3f
       0.9763454 0.9646354 1.013148 0.99864966
000080 5e 4f 80 3f 46 78 7f 3f 92 dd 80 3f 2f 52 81 3f
       1.0024221 0.997929 1.0067618 1.0103205
000090 9d 0a 85 3f 76 6b 7a 3f 07 4e 7b 3f db e0 7e 3f
       1.0393864 0.9782022 0.98165935 0.9956185
0000a0 f1 9b 7e 3f 8c b9 80 3f 97 41 8c 3f e0 c3 80 3f
       0.994567 1.0056624 1.0957516 1.0059776
0000b0 25 14 81 3f be fc 7c 3f 81 f6 7d 3f ce b3 84 3f
       1.0084273 0.98823154 0.9920426 1.0367372
0000c0 ad 25 7f 3f 62 ab 7d 3f f9 2f 82 3f f4 93 7e 3f
       0.99666864 0.99089634 1.017089 0.9944451
0000d0 4f a9 7e 3f a9 54 85 3f c1 48 7d 3f 12 76 81 3f
       0.99477094 1.0416461 0.9893914 1.0114157
0000e0 63 ab 7b 3f ab 53 7c 3f ad ff 82 3f 4b a5 81 3f
       0.9830839 0.9856517 1.0234276 1.0128568
0000f0 45 96 86 3f 93 f3 7d 3f c9 62 7d 3f d2 c3 78 3f
       1.0514609 0.9919979 0.9897886 0.971738

critic.1.bias f4 [64]
000000 62 a7 b6 3b 81 b4 eb 3b c7 5c 9c 3c 03 61 ec bc
       0.005574153 0.0071931486 0.019087208 -0.028854853
000010 17 48 f2 3d 14 52 5d 3d 58 84 d1 3c 79 15 da bb
       0.11830156 0.054033354 0.025575802 -0.006655392
000020 97 6e a8 3c a6 50 a5 3b bc 25 3e bd 21 7c 38 3b
       0.020560546 0.0050450144 -0.046422705 0.0028150158
000030 a7 16 c4 bb 83 dd a4 3c 8f 63 3f 3c fd 53 e1 3b
       -0.0059841457 0.020125156 0.011681451 0.0068764673
000040 c0 3d 1f bc 2a 22 a3 3c ab 43 41 3b f9 84 e3 3c
       -0.009719312 0.019913752 0.0029489796 0.027773367
000050 90 3f 22 3d 66 df 15 3d a7 82 97 bc 85 c1 e1 bb
       0.0396114 0.036590002 -0.018494917 -0.0068895244
000060 7c d0 99 bd 10 08 96 3d 0c d0 01 bd 8a de 07 bc
       -0.07510468 0.073257565 -0.03169255 -0.008292804
000070 51 1f 60 3c 58 77 af 3c a6 44 bd 3c d2 0c d6 3b
       0.013679341 0.021419212 0.023104023 0.00653229
000080 05 38 ab 3c 46 75 e7 bb 6a 0e db bb a5 52 ea ba
       0.020900736 -0.0070635406 -0.006685068 -0.0017877413
000090 de 0c 8f bc cf 48 74 bc 92 8b a2 bc e5 9e e9 bb
       -0.01746219 -0.014909937 -0.019841943 -0.0071295374
0000a0 0e 28 12 3b 01 8b 17 3b f3 b6 b5 3b c3 08 86 bb
       0.0022301706 0.0023123624 0.005545491 -0.0040904
0000b0 8f fb 12 3d 87 e2 9e 3c e9 77 da 3b 98 99 e8 3c
       0.035884436 0.019395126 0.0066671264 0.028393552
0000c0 90 f4 b1 3a 4d da 38 3b ac fc 6e 3b e0 fa a6 bb
       0.0013576914 0.002820629 0.0036466522 -0.0050958246
0000d0 f0 c1 cc 3a ee 12 2a 3c 1f ac b3 3c 81 23 b3 3b
       0.0015621763 0.01038049 0.02193266 0.005466879
0000e0 89 37 21 bc c2 f2 e6 3c 24 f1 f3 3c a2 41 1b bb
       -0.009839901 0.028191928 0.02977807 -0.0023690243
0000f0 34 d8 d6 3b 1d c0 07 bc 65 a8 38 bc 1c 70 be bc
       0.006556535 -0.0082855495 -0.011270617 -0.023246817
