src/taser_isaaclab/taser_isaaclab/tasks/balance/data/model.pth (torch, 60834 bytes, 22 tensors)

log_std f4 [8]
000000 82 6e 02 bf e3 c0 ee be 09 ac 09 bf 29 1e e1 be
       -0.5094987 -0.46631536 -0.5377813 -0.43968323
000010 be ff d0 be b1 0b 09 bf 32 8e 96 bf 8d dd 92 bf
       -0.40820116 -0.53533465 -1.1762145 -1.1473862

actor.0.weight f4 [64, 29]
000000 3b 98 95 3d f5 5e a5 bd 6f be 9e bd c1 2e b1 bd
       0.07304426 -0.08074752 -0.07751166 -0.08651496
000010 a8 97 b3 3c 8e 8f b6 3d c7 4a 28 be 23 be 4f be
       0.021922901 0.089141 -0.16434775 -0.20287375
000020 d9 54 e7 bc 00 cf dd bc d5 28 12 be 21 86 53 3c
       -0.0282387 -0.027076244 -0.14273389 0.012910397
000030 ad e4 ee 3d 7f 98 74 bb e8 9b 2d bd 11 f8 23 be
       0.1166471 -0.003732234 -0.042385012 -0.16012599
000040 87 f3 fa 3d 13 74 2e 3e 52 b8 52 be c9 f1 08 3e
       0.122534804 0.17036466 -0.20578125 0.13373484
000050 fc b7 66 bd 85 e8 ca 3e d8 d4 cc 3d 50 6c 9b bd
       -0.056327805 0.39630523 0.10001534 -0.07589018
000060 56 39 00 3e cf bc 42 be 56 9e d3 bd eb b1 8e 3d
       0.12521872 -0.19017337 -0.103329346 0.06967529
000070 62 0b 68 bd 7b 49 a9 bd d9 fe 2b 3e 27 07 2b 3e
       -0.05665148 -0.082659684 0.16796435 0.16701947
000080 c4 d5 83 3c 46 83 86 bd e3 76 f8 bb 21 0f f6 bd
       0.016093142 -0.06568007 -0.007582532 -0.12014604
000090 db 5b c4 3d be 9e e3 3d 9b df f8 3c b0 3a 32 be
       0.095878325 0.11114262 0.03038006 -0.174052
0000a0 ff 14 0c 3e 43 be 25 be 38 6b 0e be 79 f0 1a 3e
       0.13679884 -0.1618586 -0.13908088 0.15130796
0000b0 e1 51 06 3e 97 f5 51 3e 14 47 62 bd 4f 91 ac 3c
       0.13117172 0.20503841 -0.055243567 0.021065382
0000c0 17 fc f2 3d 30 11 2b 3e 84 9a 39 3e 01 dc af bc
       0.118644886 0.16705775 0.1812535 -0.02146721
0000d0 1d 46 90 3d d0 3a 81 bd 1f 01 14 3e 71 11 49 bc
       0.07044623 -0.06310046 0.14453553 -0.012272225
0000e0 f5 2a 79 bd 7d 36 7b bd 68 89 db bd b6 a8 95 3d
       -0.060831983 -0.06133126 -0.107195675 0.0730757
0000f0 2f 49 a7 3a 60 12 40 bd 6a 28 2b 3e 02 78 90 3d
       0.0012762899 -0.046892524 0.16714635 0.0705414
000100 c7 f9 70 3d 8b dc 86 3c dc a9 40 3d 78 8e 6e 3c
       0.058831956 0.016462585 0.04703699 0.014560334
000110 5e e4 8c 3d 8a 1f 05 3e 7d 21 fc bd 7b 0e db bd
       0.06879495 0.13000312 -0.12311075 -0.10696121
000120 1c 41 cf 3d 90 14 fb bc 15 07 1f be eb b8 a8 bd
       0.101198405 -0.030649453 -0.15530045 -0.08238395
000130 f3 15 3c 3e ee ed e2 3d d1 c6 d5 3c 1e 50 cd bd
       0.18367748 0.11080538 0.02609578 -0.10025047
000140 ce 25 fb 3d 68 f2 6d 3d 92 3b 97 3c 87 f4 28 3e
       0.1226307 0.058092505 0.018461023 0.1649953
000150 9f 46 7f 3e e8 be 41 3d 0c a3 24 3e 7c 2b a3 3d
       0.24929284 0.047301203 0.16077822 0.07967278
000160 ce a0 d1 3c cd bc c0 3d 8b 15 1f 3e 7e 30 04 3d
       0.025589373 0.09411011 0.15535562 0.03227281
000170 ae 15 bb bd fc c6 fa 3d 5b 43 09 be 06 99 81 bd
       -0.091349944 0.122449845 -0.134046 -0.06328015
000180 a8 8f dd 3d bf d6 be 3c d2 a8 39 bd f8 40 18 3e
       0.10818416 0.023295758 -0.045327015 0.14868534
000190 34 69 bd 3d 50 eb 4b be cb 9e 13 bd 35 1e ee bc
       0.092485815 -0.19913983 -0.03604011 -0.029067138
0001a0 67 67 f9 bc a3 47 2c 3d 2a f0 94 3d 7a 68 90 3d
       -0.030444814 0.042060506 0.0727237 0.07051177
0001b0 83 8a 27 bd ff 4a 4d 3e cd b6 1f bd 39 d4 11 be
       -0.04090358 0.2004814 -0.03899269 -0.14241113
0001c0 98 62 75 3d ea ac 06 bd ad 46 6e be d4 c0 cb bd
       0.05990848 -0.032879747 -0.23269148 -0.099488884
0001d0 61 ba a5 bd 21 09 ab 3d 71 74 08 3e e9 24 ec 3d
       -0.080921896 0.083513506 0.13325669 0.115304776
0001e0 d8 9a a8 3c 7b b8 29 3e 3a 46 5c bd 3b a0 a3 bd
       0.020581648 0.1657428 -0.05377791 -0.07989546
0001f0 76 44 b6 3d 22 a5 77 bd 25 62 84 3b 95 06 aa bd
       0.08899777 -0.060460217 0.00404002 -0.08302037
000200 07 76 2f 3b c6 a7 cb 3d 83 92 c1 3d 2a 4e 35 be
       0.002677323 0.099441096 0.09451773 -0.17705598
000210 0f 12 27 3e a7 62 c4 bd 9b 14 18 3e 1d bc 20 3d
       0.16315483 -0.09589129 0.1485161 0.0392419
000220 55 0f 7c 3d 85 7f 22 3e 3f 98 25 bd 0f 29 a6 bd
       0.06153806 0.15868957 -0.040428396 -0.081133
000230 35 60 db bc fa d7 2d bc e7 cc 3b 3e 8b ad 31 3e
       -0.026779274 -0.010610575 0.18339883 0.17351358
000240 b4 f6 21 3d f3 a2 1f bc 35 1c 9d 3d ab 69 99 bd
       0.039541915 -0.00974344 0.07671396 -0.07490858
000250 82 2c 41 bd 28 49 80 3d 51 08 f9 3d 1c 30 a9 3c
       -0.047161587 0.062639534 0.12159789 0.020652823
000260 3a f0 d6 bd bc 42 9c bc d3 2c dc 3d 7c 6a fa 3c
       -0.10495038 -0.01907479 0.10750737 0.030568354
000270 05 30 34 be a8 68 2e be cb 1b 88 3d d4 64 79 3d
       -0.17596443 -0.1703211 0.06645926 0.060887173
000280 a6 c2 19 3d 87 ee f8 3c c1 02 66 ba a3 e1 8c bd
       0.037539147 0.030387176 -0.0008774214 -0.06878974
000290 d6 01 09 bd 96 f3 27 3e f8 af 79 be 71 51 93 bd
       -0.033449017 0.16401514 -0.24383533 -0.07193268
0002a0 91 eb 0d bd b7 ed cf bd cd 9c 2b 3e ce 7c 6e bd
       -0.03464848 -0.101527624 0.16759034 -0.05822449
0002b0 67 31 eb bd d8 9b 85 bc 4d 82 d6 bc 00 a9 ea 3c
       -0.11484032 -0.016309664 -0.02618518 0.028645039
0002c0 13 45 05 3e 6e e8 9d 3d b0 9f a1 3d 7b ec 80 3d
       0.13014631 0.07710348 0.07891786 0.06295105
0002d0 59 0b dd 3d 79 cc eb bd 3c 8b db bd a0 e8 c3 3d
       0.1079318 -0.115136094 -0.10719916 0.09565854
0002e0 8c bd 1c 3d b4 37 0e be 35 19 df 3c 9f af 74 bc
       0.038266703 -0.13888437 0.0272337 -0.014934449
0002f0 31 af 23 3e 4d 37 27 3e 66 ed ef 3c a0 a3 9b bd
       0.15984799 0.1632969 0.029288005 -0.07599568
000300 60 94 9e 3d 81 66 d2 3d f1 74 55 bd cf d6 7d 3d
       0.07743144 0.10273457 -0.052113477 0.061972436
000310 e8 d1 aa bb b1 15 1b be 1e 34 54 bd c3 fb 38 be
       -0.005213011 -0.15144993 -0.051807515 -0.1806479
000320 5c d6 d9 3d 8d e7 db 3d 94 c7 5e 3d 2d 20 6b 3d
       0.10636589 0.10737524 0.05438955 0.057403732
000330 89 dc da bd 13 73 a0 3d 3b 90 cd bd 35 47 6f bc
       -0.10686595 0.07834449 -0.100372754 -0.014604379
000340 f5 fc ae 3c 56 96 97 bd 18 76 3f 3d f6 8b 30 bd
       0.021360854 -0.07401721 0.046743482 -0.043102227
000350 fc 1f 23 be 92 0f 98 3d 1e 1a c2 bd 9c d9 2e 3d
       -0.1593017 0.07424845 -0.09477638 0.042687997
000360 e2 c2 bd bc 63 5b e9 3d 83 92 0c be 15 28 a2 3d
       -0.023164216 0.11394384 -0.13727765 0.07917801
000370 f6 2a f1 3d 22 2c 12 3d cc c3 7a bd d2 9a dc 3d
       0.11775772 0.03568662 -0.061221883 0.10771717
000380 f0 bb 25 bd 01 ac f8 3c 47 75 3c be 7d 93 b8 bc
       -0.040462434 0.030355455 -0.18404113 -0.022531265
000390 e9 68 b8 3d 19 8b 37 3e a1 ef 3c be 51 7a f6 bd
       0.09004385 0.17924155 -0.18450786 -0.12035049
0003a0 85 32 db bc c9 9a 90 bd 35 31 e5 bd e5 ef 8f bc
       -0.026757488 -0.07060773 -0.11191026 -0.017570445
0003b0 6a e4 82 be e8 e0 00 be b0 b4 15 3e ce 5a 1a 3b
       -0.2556489 -0.12585795 0.14619708 0.002355266
0003c0 cd 55 9e 3d 79 5a d7 3b 16 74 6d be 5b c8 80 be
       0.07731209 0.0065720645 -0.23188815 -0.2515286
0003d0 28 7a 61 bd 21 52 e4 3c 05 ba 19 bd a5 98 be bd
       -0.055048138 0.027871193 -0.037530918 -0.093064584
0003e0 33 51 57 3e 27 0c 47 be 30 f8 85 bd bd 46 8a 3d
       0.21027069 -0.1943823 -0.06541479 0.067517735
0003f0 b0 0a 6e 3e 6d aa d5 3d c4 da b7 bd 00 cf c9 3d
       0.23246264 0.10432897 -0.08977273 0.09853935

actor.0.bias f4 [64]
000000 4c d6 9c 3d f1 37 0b bd 2b fe 85 3c c6 eb cc 3d
       0.076580614 -0.033988897 0.016356548 0.10005908
000010 9c 89 67 3d 23 1b 07 3e aa 09 a4 3d c2 23 2e be
       0.05652772 0.13193946 0.08009656 -0.17005828
000020 a0 52 67 be f1 e5 33 3d 97 80 f8 bd 9a 27 0c be
       -0.22590113 0.04392046 -0.121339016 -0.13686982
000030 1a 6e 20 bd c9 ec 51 3b 20 1a 16 3d 8d 3c 92 3d
       -0.0391675 0.0032032004 0.03664601 0.071404554
000040 05 20 68 bc f1 a4 c1 bd b0 19 68 3d 5a 63 bd bd
       -0.01416779 -0.09455288 0.056665123 -0.092474654
000050 86 12 7d bd 1f 19 a4 3a 0c 81 10 3d 6b 94 2c 3e
       -0.061785243 0.0012519694 0.03527932 0.16853492
000060 b6 29 96 3d ac 08 23 3e 56 c6 19 3d bc 53 be bd
       0.073321745 0.15921277 0.037542664 -0.09293315
000070 9e 80 b2 3d ae 59 51 bc 81 4f 27 3e 76 5d 24 bd
       0.08715938 -0.012777729 0.16338922 -0.040128194
000080 f1 80 2d 3e f8 60 ad 3c 36 e3 44 3d f7 dc ac bd
       0.16943718 0.021164402 0.048068248 -0.08440583
000090 97 ba f6 3d e4 ea 27 3e 3d 9a a4 3d 52 30 49 bd
       0.12047308 0.16398197 0.08037231 -0.049118347
0000a0 6b 86 3b bd 75 a7 f9 bc 20 cf e8 bd 4f b7 10 be
       -0.045782488 -0.030475358 -0.11367631 -0.14132427
0000b0 c5 6d d9 3d 1d a7 c1 bb 4a 71 01 3e 28 98 10 be
       0.1061664 -0.005909814 0.12640873 -0.14120543
0000c0 07 27 ff bc 02 d0 f7 bd 80 20 a2 3d 2f a6 1c 3c
       -0.03114654 -0.12100221 0.07916355 0.009561106
0000d0 89 a4 ae 3c d4 0e 15 3e b6 55 1f 3d 63 e5 1b be
       0.02131869 0.14556438 0.0389001 -0.15224223
0000e0 a7 75 97 ba 5e 2e bb bc 87 ff 12 bd a0 8e de 3c
       -0.0011555449 -0.022849258 -0.03588822 0.027167618
0000f0 5b 6c d9 bd 35 31 ef 3b 81 4e 06 3e 47 e2 34 3d
       -0.1061637 0.007299567 0.13115884 0.044161107

actor.1.weight f4 [64]
000000 2d cc 89 3f 59 dd 7d 3f ce f5 7a 3f 32 63 7a 3f
       1.0765435 0.99165875 0.9803132 0.9780761
000010 7d 18 81 3f 43 67 7d 3f cf 08 7d 3f 36 ec 71 3f
       1.0085598 0.9898569 0.98841566 0.94501054
000020 7f da 8c 3f 28 00 81 3f 6a dc 77 3f 38 63 79 3f
       1.100418 1.0078173 0.968207 0.9741702
000030 8c 12 81 3f 5c d1 83 3f 10 a1 7f 3f 98 27 78 3f
       1.0083785 1.0298266 0.99855137 0.96935415
000040 5b 55 86 3f 0a f0 74 3f 8c b9 7c 3f b1 fd 8d 3f
       1.0494798 0.9567877 0.9872062 1.1093045
000050 d1 69 80 3f d1 d9 81 3f 23 8f 7e 3f a7 1e 84 3f
       1.0032293 1.0144597 0.9943716 1.0321854
000060 99 39 7b 3f c3 c9 75 3f 50 80 81 3f ee 7a 79 3f
       0.9813476 0.9601099 1.0117283 0.974532
000070 36 19 7d 3f b7 0e 85 3f bc 29 79 3f 3d 43 7e 3f
       0.98866594 1.0395116 0.97329307 0.9932135
000080 b3 87 79 3f ce f1 7e 3f 10 5e 83 3f e9 cc 74 3f
       0.97472686 0.99587715 1.0263081 0.9562517
000090 c2 bf 86 3f 97 33 83 3f b6 45 7f 3f 2c 40 7a 3f
       1.052727 1.0250119 0.99715745 0.9775417
0000a0 ec 62 81 3f 68 5f 82 3f 9a 74 81 3f 53 d9 84 3f
       1.0108314 1.0185366 1.0113709 1.0378822
0000b0 08 a7 81 3f d5 f3 79 3f 78 f0 81 3f de ad 7a 3f
       1.0129099 0.97637683 1.015151 0.9792155
0000c0 e3 6c 77 3f 1a 38 80 3f 8f 9d 76 3f 8f 74 83 3f
       0.9665052 1.0017121 0.96334165 1.0269946
0000d0 20 b7 72 3f 8a ac 7f 3f 5c 4d 7d 3f 50 1f 85 3f
       0.94810677 0.9987265 0.98946166 1.0400181
0000e0 6a 33 80 3f ef b4 90 3f d8 81 7d 3f bd a9 7d 3f
       1.001569 1.1305217 0.9902625 0.99087125
0000f0 f0 07 81 3f 12 35 77 3f 48 c9 7c 3f 10 79 77 3f
       1.0080547 0.96565354 0.9874463 0.966691

actor.1.bias f4 [64]
000000 9c 60 da bc e1 ab 04 3c ea f2 e9 bc 87 8c ae bc
       -0.026657395 0.00809762 -0.028558213 -0.021307243
000010 29 56 fb bb 55 2d 96 bc 04 0c 95 bb 08 36 55 bd
       -0.007670183 -0.018332163 -0.0045485515 -0.05205348
000020 8a 56 1f bd 6b 6a a7 3c f9 a9 3c 3c f7 ba 52 bc
       -0.03890089 0.020436486 0.011515134 -0.012861959
000030 cd 6b f7 bc 30 82 12 b9 00 57 af 3c 14 6b 47 bc
       -0.03020277 -0.00013972144 0.02140379 -0.0121715255
000040 e0 9b 88 3b 9a f0 1e 3b a7 e2 4f bc 3a ac 88 3b
       0.0041689724 0.0024252296 -0.0126883155 0.0041709216
000050 57 2f f3 ba e4 92 fe bc b5 26 02 bc 2f aa ae bb
       -0.0018553537 -0.031075902 -0.007943799 -0.005330346
000060 24 f1 b9 3b bb 9e 6b b9 57 30 f6 bb e7 a6 a6 bb
       0.005674498 -0.00022470478 -0.007513087 -0.0050858143
000070 9e da 31 bd 48 7d 4d 3d 47 b3 20 bb e4 4d 00 3c
       -0.04342138 0.050168306 -0.002452092 0.007831071
000080 f0 da b6 bc e3 98 9a ba 72 e0 85 bd 8c 18 84 3a
       -0.022321194 -0.0011794831 -0.0653695 0.0010078116
000090 bd 08 1c bc 17 c2 ab bc 07 00 5e ba 8f 1a 91 bc
       -0.009523568 -0.020966573 -0.0008468632 -0.01771286
0000a0 4b 3a 43 bc 7f 49 90 3a 58 88 22 3d 7b d1 25 3b
       -0.011915754 0.0011008232 0.03968081 0.0025301862
0000b0 89 6e 37 3c 16 fa 91 bc f3 c2 26 3c 7e 66 b6 3a
       0.011195787 -0.017819446 0.010178315 0.0013916043
0000c0 22 33 22 bd 45 6e 21 3d 36 75 01 bd 1a f1 0b bb
       -0.039599545 0.0394118 -0.03160592 -0.0021353425
0000d0 64 f1 cc bb 47 d7 ae bc 78 d9 aa bc e0 40 a2 3c
       -0.006254362 -0.021342887 -0.02085565 0.019806325
0000e0 ba 3f 04 3c bf 76 73 3d 37 0f 18 bd a8 79 db bb
       0.008071834 0.059439417 -0.037123885 -0.006697852
0000f0 c6 b2 42 bb 3f 2a 2c bc 97 4a 9e 3a 53 97 4b bc
       -0.0029708608 -0.010508119 0.0012076673 -0.012426215

actor.3.weight f4 [64, 64]
000000 5e 80 14 3d 13 ec cf bd 9d 1b f0 bd 67 e7 cc bd
       0.036255233 -0.101524495 -0.11724017 -0.10005074
000010 c0 f5 d8 bc 1e 19 45 bc 90 f8 0a 3e 39 63 58 bd
       -0.02648437 -0.012029914 0.13571382 -0.052829
000020 18 5c 62 3d b4 e2 d4 3c e0 77 1e 3d ab 92 71 3d
       0.05526361 0.025987007 0.03868854 0.058977764
000030 59 ed c8 bd 55 58 b2 3c 5e d0 67 bd 25 52 b0 3d
       -0.098108955 0.021770636 -0.0565952 0.08609418
000040 1c fe 70 3d ce 52 c7 3d 1b 12 6e bd bb 98 86 3d
       0.058836088 0.097325906 -0.058122735 0.065721
000050 2d cc 5f bd ea c8 e0 bb 20 85 b9 3d 42 a0 c3 3d
       -0.054638077 -0.0068598883 0.09058595 0.09552051
000060 90 40 74 3c 44 e2 f1 3c cb eb ae bd 06 34 a3 bd
       0.014907971 0.029526837 -0.08541068 -0.07968907
000070 5c ff d6 3c 01 96 ae bd 42 c5 b9 3c 08 e6 c5 3d
       0.026244812 -0.08524705 0.022677068 0.096630156
000080 6b 47 80 3d 47 9a 02 3d be b3 86 3d 33 ff 35 3d
       0.06263622 0.03188541 0.06577252 0.04443283
000090 6b 65 28 bd 0c 5d fc bc a0 67 24 3d 7b fb ef 3d
       -0.041112345 -0.030806087 0.040137887 0.11717888
0000a0 c9 3a a4 3c ea 7a ac bc 2c 91 8c 3d d9 ba de 3d
       0.020047562 -0.021054704 0.06863627 0.10875482
0000b0 24 a0 2b bd b5 fc 16 bd f3 23 01 bc 7d 25 a7 3d
       -0.04190077 -0.036862094 -0.007882106 0.08161447
0000c0 e4 c0 6a bd e5 6e bb 3d 6d cf 94 bd 02 c6 cd bd
       -0.05731286 0.09152011 -0.07266126 -0.100475326
0000d0 b8 e3 c3 3d 5a b5 30 3d 4f b6 c9 3c 21 e7 55 bd
       0.09564918 0.0431417 0.024623064 -0.052222375
0000e0 00 73 a3 bd 46 fe b5 bd b8 ba 11 bd c9 31 a0 bc
       -0.07980919 -0.088863894 -0.03557846 -0.01955499
0000f0 4c 4d cb 3d 62 c5 9d 3c 73 dc 41 bd b1 1f 07 3d
       0.099268526 0.019259159 -0.047329377 0.032989208
000100 81 60 7f 3d 08 0c 7a bd 64 48 84 3d 58 6a 06 be
       0.062347893 -0.06104663 0.0645912 -0.13126504
000110 f6 9c 03 3d 0d ce a8 bd 25 ca 09 3d 82 07 a1 bd
       0.03213211 -0.08242426 0.033640046 -0.0786276
000120 2f ec 5b 3d 2e 2b 79 bd 44 50 2a 3c b9 09 a0 bd
       0.05369204 -0.060832195 0.010395113 -0.078143544
000130 19 72 9a 3d eb f1 ce 3d 9c c0 7b bc e3 42 5a bd
       0.07541294 0.10104736 -0.015365746 -0.053286444
000140 d6 c3 3e bd 91 3c b6 bc 27 a3 d5 3d 97 30 48 bd
       -0.046573482 -0.022245677 0.104315095 -0.048874464
000150 cb c5 a1 bc 22 11 d3 3d 1f 4f 00 3e eb 55 76 bd
       -0.019747635 0.10306002 0.12530182 -0.06014053
000160 ee 93 e3 3d 6d a2 25 bd ca 33 d7 3a 3e cb 05 3e
       0.111122 -0.040438104 0.0016418633 0.13065812
000170 36 ff 82 3d 43 09 12 3d 7d bb 40 3a 08 50 46 3d
       0.06396334 0.035653364 0.00073521567 0.048416167
000180 60 09 ca 3d 10 68 2d 3c dd 11 d6 bd b6 b0 31 3c
       0.098650694 0.010583892 -0.10452626 0.010845354
000190 08 64 ed bd ac f4 e9 bd 09 e5 88 3d 85 2a 84 3d
       -0.11591345 -0.114236206 0.0668431 0.064534225
0001a0 3f 37 10 3e 2a 12 28 bd ea c5 b2 bd bd 41 06 3e
       0.14083575 -0.041032948 -0.08729155 0.13111015
0001b0 ae e1 13 3e 5b 31 0f be d0 b9 20 3d 33 7d ad 3d
       0.14441559 -0.13983671 0.039239705 0.084711455
0001c0 15 43 0b bd 72 c9 2d 3d ff 87 14 bd d6 d1 02 3e
       -0.03399952 0.04242844 -0.03626251 0.12775359
0001d0 e9 0d 26 bd b6 05 41 bd 77 67 f9 bd f7 bd f1 bd
       -0.04054061 -0.047124587 -0.121779375 -0.11803811
0001e0 79 87 b9 3c 04 b9 fc 3d f6 29 32 3d c3 17 c3 3c
       0.022647606 0.123399764 0.04349705 0.023815041
0001f0 0a 39 5a bd eb 7f 83 bd 88 b1 4a bd a5 1d 27 3d
       -0.053277053 -0.06420883 -0.049485713 0.040799756
000200 a5 18 f4 bb 3f f1 97 bd cd 3b 31 3d a5 c8 91 3d
       -0.007449227 -0.07419061 0.04326992 0.07118348
000210 68 dd d2 3d d1 d1 4e 3d be d5 e6 3d fe 6d 47 bb
       0.10296136 0.050493065 0.11271237 -0.003043055
000220 2b 80 96 3d 46 f9 5c bd a4 42 78 3c 5c 43 08 3d
       0.07348665 -0.053948663 0.015152607 0.033267364
000230 b8 18 9d bc ff 77 07 3e 3f 73 cc bd 0d ae bd bb
       -0.019176826 0.13229369 -0.09982919 -0.0057885707
000240 fb 02 46 3d 95 17 e2 bd a2 52 bf 3d 3c ee 88 bd
       0.048342686 -0.11039654 0.09341933 -0.066860646
000250 07 20 c2 3b a9 d1 ca bd de 65 89 3c 42 06 bc 3d
       0.005924228 -0.09903271 0.016772207 0.09180881
000260 3e 88 ea 3d cc 25 3a bd 31 86 22 bd 1d 0b 59 3d
       0.114517674 -0.045446202 -0.039678756 0.052989114
000270 22 0c e3 3d 59 78 1e bd fb ae 44 3d 24 d6 b1 3c
       0.110862985 -0.03868899 0.048018437 0.021708556
000280 f4 7b b3 3c 3d 88 d1 bd bc 74 ab 3d 6a 9b ac bd
       0.021909691 -0.102310635 0.08371875 -0.084280804
000290 bd 72 b5 3d 9c ec 39 bd 22 db f8 bd c2 bb 2a bd
       0.08859775 -0.045391664 -0.12151171 -0.041682966
0002a0 cc d4 e2 bc 09 e6 30 3d 7f f4 a6 3d 4a 56 a1 3d
       -0.02768936 0.04318813 0.08152103 0.078777865
0002b0 de 6c 8c bc 87 94 79 3d 7c dc 84 3c d3 97 9a 3d
       -0.017141756 0.060932662 0.016218416 0.075484894
0002c0 81 2d cf bd 42 85 1d 3c 9b f6 bc 3d 20 10 7b bd
       -0.10116101 0.009614291 0.09226724 -0.061294675
0002d0 06 ce bc 3d b1 69 58 3d da 95 a7 3d ef f2 08 3e
       0.09218983 0.05283517 0.08182879 0.13373922
0002e0 63 b2 30 bd 3f 77 67 bd a9 0e 27 bd cf 8a 90 3d
       -0.043138873 -0.056510206 -0.040785465 0.07057726
0002f0 95 40 86 3b 04 f7 ff bd a1 68 a5 bd 66 d2 c1 bc
       0.0040970542 -0.12498286 -0.08076597 -0.023659896
000300 be b0 7c bd 03 c7 de 3d fc ad e3 3d 2a 5b d4 3c
       -0.061691992 0.10877802 0.11117169 0.025922377
000310 15 3a b2 3c 2c 04 63 3d c9 97 82 bd 1d 95 02 3e
       0.021756211 0.0554239 -0.06376607 0.12752195
000320 d8 d0 b5 bb eb 95 17 3d d6 50 91 3c 6e 04 a7 bd
       -0.0055485778 0.037008207 0.01773874 -0.08155142
000330 f5 27 32 bd e4 9c 35 3c 24 80 aa 3c b1 8e f8 bd
       -0.043495137 0.011084769 0.020813055 -0.12136591
000340 cc 61 05 be da a0 b6 bd 0c cc 58 3c 5e 8a 1b be
       -0.13025588 -0.08917399 0.013232242 -0.15189502
000350 c6 9d 4e 3d 86 df 1a bc c1 7f 2d 3d 9d b7 71 3d
       0.050443433 -0.009452706 0.042358164 0.059012998
000360 e7 ce 8c 3d 1c 74 be 3d 78 2f a1 3d de 01 c9 3d
       0.06875401 0.0929949 0.07870382 0.09814809
000370 ec 01 b1 3d 58 32 57 3d 45 b7 92 3c c2 e8 0a 3d
       0.08642945 0.052538246 0.017909655 0.03391338
000380 c2 b3 c7 3c d3 ab 57 bc 98 69 1e 3d 86 fa b5 bd
       0.024377707 -0.013163525 0.03867492 -0.08885674
000390 05 da 30 be 47 f6 3f 3d d9 3e c2 bd 61 53 0f 3d
       -0.17270668 0.046865728 -0.094846435 0.034991626
0003a0 ac 3c 12 bd 16 df 61 3d 6d 6d fb ba 2c c5 f2 3d
       -0.035702392 0.055144392 -0.0019182392 0.11854014
0003b0 2b 94 86 3d f9 2d ee bc d5 93 4b bd 61 e6 12 3e
       0.065712295 -0.029074656 -0.04970153 0.14345695
0003c0 8a 70 70 3d cc 35 34 bd 15 26 80 3d c6 f6 c7 bd
       0.058701076 -0.043996617 0.062572636 -0.09763865
0003d0 88 6d cd bd f0 23 d4 3d 9b f7 b7 bd b7 59 df bc
       -0.10030657 0.10358417 -0.08982774 -0.027264459
0003e0 5b 95 d2 3d 9a 93 a7 bc 4a 0d 98 bc c0 ba a8 3d
       0.102823935 -0.020456124 -0.018561024 0.08238745
0003f0 94 c3 a6 3d a6 27 4a 3c b5 be 93 3d a6 7e c5 bc
       0.08142772 0.0123385545 0.07214109 -0.024108242

actor.3.bias f4 [64]
000000 7f c8 80 bd ff 05 35 bc 21 f5 8a bd bc ab 37 3d
       -0.062882416 -0.011048793 -0.06785036 0.044841513
000010 ac ce 9a 3d b8 a6 13 3d 92 2a f5 3d 73 3d db bd
       0.07558951 0.036047667 0.1197101 -0.1070508
000020 b5 94 d1 bd d4 2d 1e bd 8f 04 4b bc be ad 58 bd
       -0.10233442 -0.038617924 -0.012391224 -0.05290007
000030 e9 58 cf 3d 48 e5 cc bd f7 f9 8c bd 4a 8e 75 3d
       0.1012438 -0.100046694 -0.068836145 0.05995015
000040 fb 96 0a bd fc d1 4b 3d be 29 04 3d 0e 75 20 bd
       -0.033835392 0.049760804 0.03226637 -0.039174132
000050 b5 6f 32 bb 8a 62 62 3c 0c 2d bb 3d 18 31 e8 3d
       -0.0027227227 0.013817439 0.091394514 0.11337489
000060 47 e1 de bc 0a a6 0d 39 14 e6 3c bd 5b 84 cb bd
       -0.02720703 0.00013508662 -0.046117857 -0.09937354
000070 a3 47 bf 3d b2 41 9c 3d 97 3a e5 3d de b5 bc 3d
       0.093398355 0.07629718 0.11192816 0.09214376
000080 32 cf fb bd a2 4b a3 bd 01 5a 96 3b 06 12 6c bd
       -0.12295379 -0.0797341 0.004588366 -0.057634376
000090 02 6a 1c 3d e4 c3 c9 bd 96 11 39 bd 19 cd 40 3c
       0.038187034 -0.09851816 -0.045182787 0.011767649
0000a0 fd e6 85 bd d4 2f 51 bc d9 cb a8 bc 23 a3 9b bd
       -0.06538198 -0.012767751 -0.020605015 -0.07599475
0000b0 5d c0 9f 3d d2 8c 36 bd ee 2d b9 3d e2 62 cd 3d
       0.07800362 -0.04456789 0.090419635 0.10028626
0000c0 96 ab b6 bd 17 3e 6c bd f9 cc da 3d 94 3d d6 bd
       -0.08919446 -0.0576764 0.10683627 -0.10460964
0000d0 2f 54 8e 3b 71 d4 b5 bd 91 a9 03 3e 8b 35 98 3d
       0.0043435316 -0.088784106 0.12857653 0.074320875
0000e0 b4 3b c2 bd 9d 4c 4d 3d 90 a9 49 3b ce 8f f5 bc
       -0.09484044 0.050121892 0.0030771233 -0.029975798
0000f0 9f 0c 90 3d d5 2c 92 3d 86 3a 6f 3c 30 eb 74 bd
       0.07033657 0.07137457 0.014601355 -0.059794605

actor.4.weight f4 [64]
000000 ab 14 81 3f 1d f9 83 3f 98 c3 81 3f 40 b4 83 3f
       1.0084432 1.0310398 1.0137815 1.0289383
000010 02 d4 81 3f 7f e0 83 3f 5a 3e 86 3f 5d cc 81 3f
       1.0142825 1.0302886 1.0487778 1.0140492
000020 ee 0d 81 3f aa 63 82 3f 41 3a 8e 3f 0e d7 84 3f
       1.0082376 1.0186665 1.1111528 1.037813
000030 18 80 8a 3f 9f 5a 7b 3f 18 f2 8d 3f 55 a4 87 3f
       1.0820341 0.9818515 1.1089506 1.0597025
000040 da a7 80 3f 2e 5e 81 3f 74 da 7a 3f ee 66 8a 3f
       1.0051224 1.0106866 0.97989583 1.0812662
000050 3d 53 8d 3f 93 14 9a 3f b8 2c 85 3f 7a 9e 7e 3f
       1.1041027 1.2037529 1.0404272 0.99460566
000060 ac 3d 82 3f 87 54 82 3f 74 67 88 3f 5e 04 88 3f
       1.0175071 1.0182046 1.0656571 1.0626333
000070 a1 35 83 3f cc 27 7f 3f 30 38 85 3f 2d d7 80 3f
       1.0250741 0.996701 1.0407772 1.0065666
000080 5a f1 7f 3f b7 58 90 3f 20 4c 89 3f f6 06 8d 3f
       0.9997765 1.1277074 1.0726357 1.1017749
000090 09 03 7d 3f 07 e3 8c 3f f6 9e 84 3f 83 30 81 3f
       0.98832756 1.1006783 1.0361011 1.009293
0000a0 b4 80 87 3f 8b 75 92 3f 1a 3e 81 3f eb 4b 85 3f
       1.0586152 1.1442121 1.0097077 1.0413793
0000b0 78 59 80 3f 6c 65 83 3f 00 3d 87 3f 23 3e 81 3f
       1.0027304 1.0265326 1.0565491 1.0097088
0000c0 4c e9 80 3f 6f 34 82 3f 74 58 82 3f 48 36 85 3f
       1.0071197 1.0172251 1.0183244 1.040719
0000d0 40 b2 84 3f f4 ec 8e 3f 47 cc 85 3f d6 df 7f 3f
       1.0366898 1.1166062 1.0452965 0.9995092
0000e0 f0 3d 82 3f bb c2 84 3f 60 d7 7f 3f 16 30 83 3f
       1.0175152 1.0371927 0.9993801 1.024905
0000f0 ff 9b 84 3f 82 94 83 3f 0d c8 81 3f 6d fd 7d 3f
       1.0360106 1.0279696 1.0139176 0.9921482

actor.4.bias f4 [64]
000000 0e be 5f 3c 19 30 92 3c 55 ab 0b 3c ba 0d 8b 3c
       0.013656152 0.0178452 0.008524735 0.016974319
000010 79 b0 fe 3b e6 82 bf 3c fb da a2 3c 74 5a 1b bc
       0.007772502 0.023377847 0.019879809 -0.009482015
000020 8d 86 20 3c 74 bd 1d 3c af dd 80 bc 47 d9 84 3c
       0.009797704 0.009627689 -0.015730707 0.016216887
000030 a8 83 31 3b a8 21 6c bd 98 02 5e b9 b0 2e 67 3c
       0.002708653 -0.057649285 -0.00021172536 0.014110252
000040 aa 4c 34 3c 95 e8 4e 3c 41 40 9c 3c 73 b7 9a bb
       0.011004606 0.012628694 0.019073607 -0.004721576
000050 4b 35 0d 3a 07 6e 0a 3d c1 24 18 bc 7d 0a 14 bd
       0.00053866644 0.033796337 -0.009286107 -0.036142815
000060 ac f7 8a bb dc 05 00 3c c5 f7 cf ba cc 99 5d bc
       -0.0042409506 0.007813897 -0.0015866688 -0.013525438
000070 7c 53 f4 3b df 64 5e 3c 91 c6 62 3c b5 8a e8 3a
       0.007456241 0.013573854 0.013841287 0.0017741533
000080 ac 79 f7 bc ba 35 9f 3c 0f 00 6a 3b 1f f2 9f 3c
       -0.030209385 0.019434799 0.0035705601 0.019524632
000090 cb 47 b5 bc 3a 77 be 3c 67 e4 27 3c ba a2 4d 3c
       -0.02212896 0.023250211 0.010247326 0.012551004
0000a0 8e 99 fd 3a a1 1f 79 3c c6 c1 0b bb 4a b7 27 3c
       0.0019348131 0.015205295 -0.0021325215 0.010236571
0000b0 8b 4d d3 3b ee 26 0a 3c f9 7e 15 3c 99 90 b7 bc
       0.006448453 0.008432133 0.009124511 -0.022407817
0000c0 8e 40 c2 ba 28 bf a9 3c b5 a1 f8 3b 54 0d d0 bb
       -0.0014820264 0.020721033 0.0075876364 -0.006349245
0000d0 c2 8b a1 3c 92 b0 1c bc 1b 19 c2 3c 7b fe 1c 3c
       0.019719962 -0.009563582 0.023693612 0.009582157
0000e0 22 42 84 bc 0c 18 ac 3c ff 9d d3 bb c0 09 c0 ba
       -0.016144816 0.02100756 -0.0064580436 -0.0014651343
0000f0 9e 8a 79 3c 07 e1 91 3c 67 44 1c 3a f7 7b e1 bb
       0.015230803 0.017807497 0.00059611205 -0.006881233

actor.6.weight f4 [8, 64]
000000 25 8f 34 3d 19 fb 01 bd 65 f8 02 be f6 ce b1 3d
       0.044081826 -0.031733606 -0.12790067 0.08682053
000010 01 40 d8 3d 77 0c 54 bd 4f 0f a1 3d 7f aa 13 3e
       0.10559083 -0.0517697 0.07864248 0.14420508
000020 0f be 33 3d e7 73 b0 bd 23 57 bd bd 65 f0 02 3d
       0.043882426 -0.086158566 -0.09245136 0.03196754
000030 e0 07 d7 3c 2c 4b f1 3d f1 98 24 bd cf 59 e4 bd
       0.026248872 0.11781916 -0.04018492 -0.11149942
000040 54 a6 3f bc 6b 59 11 bd 2a 56 82 bd 55 4e 16 bd
       -0.011697371 -0.035485666 -0.06364091 -0.036695797
000050 3c bf fb bd 97 73 29 3d 87 2c cf ba 51 fa 2f bd
       -0.122923344 0.04137 -0.0015806117 -0.04296333
000060 32 e3 16 3e 62 ef f4 3b 83 1b a8 bc 6b 99 b0 bd
       0.14735106 0.0074748257 -0.020520931 -0.08623012
000070 1f 22 82 bd 15 0d 23 bd d3 a6 f2 bd 9a a8 b3 bc
       -0.06354164 -0.039807398 -0.118482254 -0.021930981
000080 7a df 80 3c 91 59 51 bd 60 6b aa 3d 53 7e a5 ba
       0.015731562 -0.051110808 0.083212614 -0.0012626149
000090 d5 cb 30 bd 7f ce d9 3c a4 4a 07 3e eb 19 8e 3d
       -0.04316314 0.026587723 0.13212067 0.06938537
0000a0 87 ce 06 3d 4e 04 4b 3d cd 56 8b 3d a4 9c fd bd
       0.032911804 0.049564652 0.06803665 -0.123833925
0000b0 44 76 2e 3d f7 02 cb bd 33 89 c0 3d af 3d 1d bd
       0.042593256 -0.09912675 0.09401169 -0.038388904
0000c0 87 44 00 3d e5 f3 82 bc 9d 0e 14 bd d8 82 f2 bd
       0.031315353 -0.015985439 -0.03614675 -0.11841363
0000d0 01 13 cc 3d 09 ac f8 bd 36 80 84 3d c4 d2 a4 bd
       0.09964562 -0.12142188 0.06469767 -0.08048013
0000e0 a8 26 13 bd dc 58 56 3d 53 f4 c1 3d 20 3b b0 bc
       -0.035925537 0.052330837 0.09470429 -0.021512568
0000f0 55 75 c1 3d 8d e7 a5 3d f8 c5 e7 38 55 69 d6 3d
       0.094462074 0.081008054 0.00011051813 0.10469309
000100 82 3f cb bd cc 7c 7f 3d 03 38 fd 3d 6e c3 59 3d
       -0.099242225 0.062374875 0.12364199 0.053164892
000110 ee 0e 83 bc ca 80 b0 bd 57 f1 9f 3d ab 6c 9b 3d
       -0.01599833 -0.086183146 0.07809704 0.07589086
000120 f6 e8 85 bd 98 e8 0e 3e 60 d0 ae 3d 08 37 dc bd
       -0.065385744 0.13955915 0.08535838 -0.10752684
000130 d9 55 d6 3d 85 73 8a bd 25 60 3f bd a3 9d 45 bd
       0.10465593 -0.06760315 -0.04672255 -0.048246037
000140 91 50 23 3d 26 f4 82 bd ad b6 ed bd 47 14 f7 3c
       0.039871756 -0.06394224 -0.11607108 0.030161036
000150 5d a5 42 bd 59 86 e8 3a 18 79 b4 bc 4f e0 5d 3a
       -0.047520984 0.0017740234 -0.022030398 0.00084639055
000160 68 79 c8 3d 7d ac dc bd ab 9f be bd 76 ff 76 3d
       0.097887814 -0.10775087 -0.09307798 0.06030222
000170 06 98 60 3d 91 dd dd 3d db 82 32 bd f9 cf d8 bc
       0.05483248 0.10833276 -0.043581825 -0.026466357
000180 bd ac ac bd 9e 97 a8 bc d0 43 94 bc 63 3a 1e 3b
       -0.08431385 -0.02058011 -0.018098742 0.0024143688
000190 d4 8b b3 3c da c3 d1 bc f1 c0 91 3d e1 e8 c5 3d
       0.021917261 -0.025606085 0.07116879 0.09663559
0001a0 b8 7b 62 bd e7 06 8d bd 8e 9a cc bc e5 b0 52 bd
       -0.05529377 -0.06886082 -0.024976041 -0.05143823
0001b0 5c d9 9e bd 65 f0 38 3d 51 0d 0e be fc 22 f1 bc
       -0.07756302 0.045151133 -0.13872267 -0.029435627
0001c0 13 86 85 bd 52 70 41 3d 73 ee 84 3c 28 a6 1e 3c
       -0.06519713 0.047226258 0.016226983 0.009683169
0001d0 40 75 b6 bd 94 23 02 3d f3 ec b8 3d ab 7e d9 3d
       -0.089090824 0.03177221 0.090295695 0.10619863
0001e0 4d da ce bd 6c 69 33 bc 8a 47 d2 bc ff ca 4b bd
       -0.10100231 -0.0109504275 -0.025668878 -0.04975414
0001f0 03 3d 9f bd 49 dd 5b bd 28 9a 2f 3d 49 c6 0a be
       -0.07775309 -0.05367783 0.042871624 -0.13552202
000200 c3 80 6a bd c6 42 9c 3d c8 ec 07 3e be d2 e9 bc
       -0.057251703 0.076299235 0.13273919 -0.028542873
000210 75 3a ff bd bc 8a f6 bd a2 8e e8 bc b2 0f 18 3d
       -0.12462322 -0.1203818 -0.028388325 0.037124343
000220 bd e2 07 be d8 cd cd bd 7e 39 c4 3d 79 90 d9 bc
       -0.13270088 -0.10049027 0.09581278 -0.026558148
000230 7b 57 e9 bd b8 38 1f 3e 9d 18 c5 3c 1b 10 0c 3e
       -0.11393639 0.1554898 0.024059588 0.13678019
000240 69 65 7f bd 71 36 14 bd 01 06 5f bd 44 a2 1f 3c
       -0.06235257 -0.036184732 -0.054449085 0.009743277
000250 6e aa a5 3d ac cb b9 bc 13 bb 02 3e e4 18 b9 3c
       0.080891475 -0.022680126 0.12766676 0.022594877
000260 87 6b af bd 7c f2 eb bc 0d 53 d6 bd 28 3b 9a bd
       -0.08565431 -0.028802149 -0.104650594 -0.075308144
000270 7a 51 c9 3d fb 98 47 3c 58 cf c0 3d 3d 20 41 bc
       0.098299935 0.0121824695 0.09414548 -0.011787471
000280 fb 90 9b bd aa 30 1c 3c c5 70 a4 bd 83 5b c1 3d
       -0.07596012 0.009533087 -0.080293216 0.094412826
000290 48 fe e5 bd 62 48 3e bd 6d 4f 81 3d 65 8f d1 3d
       -0.11230141 -0.04645575 0.063139774 0.102324285
0002a0 c3 59 a3 bd 6e 6d a4 3d 4e c4 d0 bd 8e 88 c3 3d
       -0.07976105 0.080286846 -0.10193692 0.0954753
0002b0 78 08 51 bd a4 14 b7 bd 9b 51 7d bb f9 f8 dc bd
       -0.051033467 -0.08939484 -0.0038653377 -0.10789675
0002c0 ee dd 43 bd 89 80 68 bd 33 47 6c bd c8 6e 1a be
       -0.04781907 -0.056763206 -0.05768509 -0.15081322
0002d0 18 5d d8 bd f8 cb ec bd 30 cc d0 3d e6 49 3d bd
       -0.10564631 -0.115623415 0.10195196 -0.046213053
0002e0 95 02 42 3d 80 bc f6 bd 55 cb 6e bc 98 aa cf bd
       0.047365744 -0.12047672 -0.014574845 -0.1013996
0002f0 7e 4f 96 3c 92 2b 8d bd 1a 59 f2 3c 06 8e c4 bc
       0.018348452 -0.06893076 0.029583503 -0.023993503
000300 33 7a ef 3c 35 2f d1 3d d6 ea d6 3d 2b 33 9e 3d
       0.029233074 0.10214082 0.1049401 0.07724603
000310 68 c8 e3 3d 84 f2 ca 3d 2e ca 12 bd 63 93 18 bd
       0.11122209 0.099095374 -0.035837345 -0.037249934
000320 d5 7f 7c bc 9e e7 3b 3d fc c8 64 3d 5d b7 ba 3b
       -0.015411337 0.045875184 0.055855736 0.005698128
000330 ed ba 01 3e 75 1e b8 bd a7 8e 04 bd de 1b 80 bd
       0.12668963 -0.08990184 -0.032362606 -0.06255315
000340 d3 95 4e 3d bb 74 ef bd dd 6b d1 bd 58 d6 d3 bd
       0.050435852 -0.116921864 -0.102256514 -0.10343617
000350 ee 33 f0 3d ec 37 95 bd 2f 79 98 bd 61 ac d7 bd
       0.11728655 -0.07286057 -0.07444989 -0.105309255
000360 e3 f6 fe bb 90 b5 87 bc a4 8a 07 3c a6 62 d4 3d
       -0.007780896 -0.016566068 0.008272801 0.10370378
000370 44 d0 da bd e3 2d 16 3c ac 37 87 3d 93 63 02 3d
       -0.10684255 0.009166214 0.066024154 0.031833243
000380 63 97 15 bd 19 d5 05 be 46 75 a3 3d 6c 42 e2 bd
       -0.036521327 -0.13069572 0.079813525 -0.11047825
000390 a9 3f 62 bd 49 39 94 3c 52 95 dd bd 79 a0 9b bd
       -0.055236492 0.018093722 -0.10819496 -0.07598967
0003a0 03 46 e6 3d 47 e9 07 3e e6 f2 94 3d 46 29 92 bd
       0.112438224 0.13272582 0.07272892 -0.071367785
0003b0 2a 01 ab bd 29 69 0f bb 91 96 13 3d 3e e9 73 bd
       -0.083498314 -0.0021882749 0.036032263 -0.05954861
0003c0 f8 ce bb 3d c5 ba 4a bd fb 28 b2 bd 51 03 84 bd
       0.091703355 -0.049494524 -0.08699223 -0.06445945
0003d0 3b c5 f4 3d c0 99 da 3c 41 00 26 bb 2b ab 1a 3d
       0.11951681 0.026684642 -0.0025329741 0.037760895
0003e0 19 4d 57 3d 04 82 cf 3d b8 1a 2c 3d 09 55 73 3d
       0.05256376 0.101322204 0.04201767 0.059407268
0003f0 d1 af cf 3d 7d 33 4d bd 4a af 75 bc 16 e8 03 be
       0.10140956 -0.05009793 -0.014995405 -0.12881503

actor.6.bias f4 [8]
000000 6e f2 e0 3d ad 5f b0 3d 69 85 a4 bc ec 00 10 bd
       0.1098374 0.08611999 -0.020083146 -0.03515713
000010 49 90 ac bc a8 bd c1 3d 2f 68 fe 3c 77 c6 91 3d
       -0.021064894 0.09460002 0.031055538 0.07117932

critic.0.weight f4 [64, 29]
000000 79 90 d2 bd 10 a1 00 3d f6 05 02 be cd c2 77 3c
       -0.10281462 0.0314036 -0.12697586 0.015122128
000010 f1 74 2a bd fb b3 7c b9 ab 4b 08 be c4 ab e2 3d
       -0.04161543 -0.0002409964 -0.13310115 0.11067918
000020 db 1f 93 3c 07 f1 21 3c aa 11 97 bd f8 6d 16 bd
       0.017959526 0.009884126 -0.07376416 -0.036725968
000030 11 fc 17 bd 2a 44 40 bb 6b 98 83 3d fc a8 29 bc
       -0.037105624 -0.0029337504 0.06425556 -0.01035523
000040 40 e0 55 be b4 23 c7 3d 79 4a b6 3c 81 6d e1 bc
       -0.20886326 0.09723607 0.022252308 -0.027518036
000050 d1 af 6e be 4c fb c5 bd 16 e3 32 3d 25 94 21 be
       -0.23309256 -0.09667072 0.043673597 -0.15779169
000060 aa 27 b1 bc 5f 90 fe 3b 7f f2 0d be 1e de 1a be
       -0.021625359 0.007768675 -0.13862036 -0.15123793
000070 9c e6 98 bc de 93 16 3d f5 db 8f bc 76 a8 81 3d
       -0.01866465 0.03676211 -0.017560938 0.063309595
000080 53 89 ac 3c 72 ec 30 3d 15 e1 b0 3c 9f f8 b5 bd
       0.021061575 0.04319424 0.021591702 -0.08885311
000090 a3 f3 f6 3c a8 0c 56 bc ff 25 9d 3c af 3b 80 3b
       0.030145472 -0.013064541 0.019183157 0.003913365
0000a0 2e a7 99 3d 69 c2 09 3c ce 70 8c b9 36 fb 03 bd
       0.0750259 0.008408167 -0.00026786927 -0.032221995
0000b0 c7 94 e9 3c cd 32 72 be 2b b0 5e bd 9f a3 8d bd
       0.028513325 -0.23652191 -0.054367226 -0.06915974
0000c0 c5 64 a7 3d 93 f7 40 bb 10 ff 74 be 01 9b e3 3d
       0.08173517 -0.002944444 -0.23925424 0.11113549
0000d0 d3 04 2c be 78 28 d8 3d ed 93 c4 3d 4a 32 60 bd
       -0.16798715 0.10554594 0.09598527 -0.05473546
0000e0 1d 2f 62 be 3a 83 59 bc 10 93 76 3c eb 73 b2 3d
       -0.22088285 -0.013275916 0.015049711 0.08713516
0000f0 eb 07 8c bb 60 e7 aa bd 38 41 9b bd ba 17 49 3d
       -0.004273405 -0.083449125 -0.07580799 0.049094893
000100 36 e1 15 3b cc 5b 1a be 35 91 e3 3b 1f 1a 40 bd
       0.0022869832 -0.1507408 0.0069448003 -0.04689991
000110 3c 79 24 3d f6 8e bf bd 40 91 7a 3c ff 7d 73 bc
       0.04015468 -0.093534395 0.015293419 -0.014861583
000120 37 a0 a3 3d 57 21 bb bc bb 56 ab 3c 40 40 a0 bd
       0.07989543 -0.022843046 0.02091538 -0.07824755
000130 60 1c 38 be c8 6d 41 3c ea de 24 bc 19 92 bc 3d
       -0.17979574 0.011805959 -0.0100629125 0.092075534
000140 43 90 2a 3c ec 45 81 3d 0f 88 96 bd 3a 2b 12 3d
       0.010410371 0.06312165 -0.0735017 0.035685755
000150 75 36 05 3e 85 29 cc bd a8 d3 a1 3d 5d af dc 3d
       0.13009055 -0.09968857 0.07901698 0.107756354
000160 83 bb da bb 07 6b 06 3d c8 37 d8 bd a0 fd fa bd
       -0.006675185 0.032816913 -0.105575144 -0.122554064
000170 0a 3e 76 3d 99 d4 fd 3c ba 9c 8d 3b c1 34 22 bd
       0.06011776 0.030985164 0.004321662 -0.03960109
000180 85 c3 36 bd 81 54 d6 bd 64 ad 65 bd 99 7f 5b bd
       -0.044620056 -0.104653366 -0.05607356 -0.053588483
000190 f0 3f 13 bc 8b cd cf bc c5 cc 02 be 3a a1 28 3d
       -0.008987412 -0.025366565 -0.12773426 0.041169383
0001a0 45 96 26 3e 94 ce 2b 3e 7a ee d0 3d fc 69 c8 b9
       0.16268261 0.16778022 0.10201736 -0.00038225937
0001b0 c1 89 6d 3d fa 11 78 bd 9a 37 e1 bd 56 38 45 3e
       0.0579927 -0.06056402 -0.10996933 0.19259772
0001c0 96 72 32 bd 8a 35 94 3c a1 da bb bc 86 96 72 3d
       -0.04356631 0.018091936 -0.022931399 0.05922558
0001d0 a6 3d db bd e3 5a d8 bc 7d 8b e3 3c a8 73 97 bd
       -0.10705118 -0.026410526 0.027776474 -0.073951066
0001e0 53 45 79 bd 25 a3 5b 3d 0a 5a 1e 3e b1 d8 02 be
       -0.06085713 0.053622384 0.15464035 -0.12777974
0001f0 a0 23 00 3c 9d 59 d4 bc b1 d0 37 be 11 41 60 be
       0.007820994 -0.025921637 -0.17950703 -0.21899821
000200 c4 ec 02 be 76 03 1b bc 0e a8 8a 3c 96 a5 51 bd
       -0.12785631 -0.009461274 0.016925838 -0.051183306
000210 e0 1c 0a be 3a 08 a9 3d 5b 79 95 be 9b 25 a5 bd
       -0.13487577 0.08253522 -0.2919415 -0.08063813
000220 a8 6c 57 3d d7 0d 75 bd e7 5f dd bc e8 a9 84 3b
       0.052593857 -0.05982765 -0.027023269 0.0040485747
000230 08 c8 7f 3d 14 98 a3 bd 63 2f 16 3e 3e 31 45 bc
       0.062446624 -0.07987991 0.14666514 -0.012035666
000240 da c4 81 3d 79 10 3b 3d 86 d7 15 bd 5e 59 88 3d
       0.063363746 0.045670006 -0.036582492 0.066576704
000250 8c ba 5f 3c a8 ec c3 3c 32 b5 81 bd 2b 35 32 3c
       0.013655316 0.023916557 -0.063333884 0.010876934
000260 af a0 df bd d5 c5 92 ba f2 36 04 3d a6 a8 ff 3d
       -0.1091932 -0.0011197875 0.032278962 0.12483339
000270 f5 b9 c2 3d e8 82 c8 3d 31 06 0c ba ac 65 3d 3d
       0.09508125 0.097905934 -0.0005341499 0.04623954
000280 32 b4 c6 bb 92 4c c2 3d 00 86 bf bd fe 8a 14 3e
       -0.0060639614 0.09487261 -0.0935173 0.14506146
000290 cc 39 9c 3d 5d a9 ac 3e 04 c7 28 3e 71 db d0 bd
       0.076282114 0.33722964 0.16482168 -0.10198105
0002a0 db 9c 3f bd f8 41 41 bd a7 7b 83 3e de 8b 93 3e
       -0.04678045 -0.047182053 0.25680277 0.28817648
0002b0 32 9c 96 bd ae 4e 9f bd 09 9a f3 bd 78 b4 e5 3d
       -0.07354011 -0.07778679 -0.11894614 0.11216062
0002c0 7d b2 1d 3d 42 1c dd bd 0c 3e 50 bd 49 24 80 3c
       0.038500298 -0.107964054 -0.050840423 0.015642302
0002d0 d5 57 b6 3d 5f 9a 63 bd f5 42 1c 3d ad 7c 24 3c
       0.089034714 -0.05556714 0.038149793 0.010039491
0002e0 01 80 a9 3d 2a a1 00 be f1 92 af ba b3 62 bd bb
       0.08276368 -0.12561479 -0.0013395232 -0.005779588
0002f0 39 9d 96 3c 4b 94 47 3d 48 bb 48 bd c0 d1 9f 3d
       0.018385516 0.048725408 -0.04900673 0.078036785
000300 9a 84 36 3e ca d6 5e 3e 70 f5 2b be 09 7b 40 3e
       0.17824021 0.21761623 -0.16792846 0.18796934
000310 b0 69 7e 3c d7 e6 d7 3d 39 e2 48 3c 49 13 02 3e
       0.015528128 0.10542076 0.012260967 0.12702669
000320 5b 8f 0d be 6e 65 72 3e e5 ff 07 3d 61 a3 9d 3d
       -0.13824217 0.23671505 0.033203024 0.07697178
000330 0d 90 1c 3d fb 4e 5f 3d 21 89 ec bb 0e 29 2b 3e
       0.038223315 0.05451868 -0.0072184955 0.1671488
000340 e3 83 47 bd c1 81 24 bd 3c ef 08 3e af 16 21 bd
       -0.04870976 -0.040162805 0.1337251 -0.039328273
000350 1b ca 2e bd 23 0d c3 3b da 45 de bd c5 2c ad bd
       -0.04267321 0.0059524938 -0.10853167 -0.08455805
000360 d4 e7 7a bb 8f 4e d0 3d 95 e5 a4 bd b1 d3 c6 3d
       -0.0038285153 0.10171234 -0.08051602 0.09708346
000370 dd 2b 02 bd 9c 2f 34 be 78 36 9c bd 73 57 2e 3e
       -0.031780113 -0.17596287 -0.076275766 0.17025547
000380 ed 81 01 3e 05 7a fd bb 87 f2 7d bd 12 09 3d 3c
       0.12647219 -0.007735493 -0.06199887 0.011537807
000390 01 e5 13 be 60 a8 31 be 3b 68 60 bd 1c 53 b9 3c
       -0.14442827 -0.17349386 -0.054786902 0.022622637
0003a0 4b 92 23 be 8d 9d af bd 0a 3a f2 3d 3a 00 46 3d
       -0.15973775 -0.08574972 0.11827476 0.04834006
0003b0 c5 ea 07 3e 7f ff 88 3d 78 af d2 3d 8f d6 a0 3d
       0.13273151 0.06689357 0.10287374 0.07853424
0003c0 b9 aa bb 3c e9 0b 95 3b c5 82 fc 3d c4 21 bd 3c
       0.022908555 0.004548539 0.1232963 0.02308739
0003d0 f7 6c 4b 3d eb 66 a4 3b 70 75 f5 bd 3d 4e d2 bd
       0.049664464 0.0050171516 -0.1198529 -0.10268829
0003e0 cf 5d ff 3d f4 a8 26 be a4 81 08 bc ba 03 69 3d
       0.124690644 -0.16275388 -0.00833169 0.05688832
0003f0 0d 39 20 3e 00 74 00 3d 80 54 bb 3d 2b e9 c7 3d
       0.15646763 0.031360626 0.091469765 0.0976127

critic.0.bias f4 [64]
000000 9d 41 85 3d 93 08 05 be c5 7f cb 3c 9e c8 ec 3d
       0.06506655 -0.12991552 0.024841199 0.11561702
000010 32 b7 b1 3d c0 0d 83 3d 8a 15 b2 bd 09 a1 f5 bd
       0.0867752 0.06399107 -0.086955145 -0.11993606
000020 45 91 63 be c4 6e 24 be df 5d 22 3e a5 03 8a 3d
       -0.22223385 -0.16057879 0.15856121 0.067389764
000030 71 97 1d bd 42 76 84 3d 89 b8 b1 bc 37 61 00 3e
       -0.038474504 0.064678684 -0.021694439 0.12537085
000040 be 11 f1 3d fe 16 e8 bd f8 17 22 bd e6 3d 6d bd
       0.11770962 -0.113325104 -0.03957364 -0.05792036
000050 7c 22 41 3c 7e 10 82 3d 4f 7f 9b bd 4c 6d 6b be
       0.011788007 0.06350802 -0.075926416 -0.22990912
000060 08 db 10 3e 82 f8 2b 3e c0 0a 2d 3d c6 8f 65 bc
       0.14146054 0.16794017 0.04224658 -0.014011329
000070 ec ab 32 3e c0 7b e0 bd be f6 8d bd 5d 00 1f 3e
       0.17448395 -0.109611034 -0.06931828 0.15527482
000080 98 c0 2a 3e 9e ed 05 3e a0 56 b4 3d 49 75 a5 3d
       0.16675031 0.13078925 0.08805585 0.08079011
000090 30 3e 4e 3d 37 c0 91 bc 14 74 b8 3d b1 d7 92 3d
       0.050352275 -0.01779185 0.09006515 0.07170046
0000a0 2c c9 5a 3e 9c ae 24 be 64 4e a7 3d e9 31 c9 3c
       0.21365803 -0.16082233 0.08169249 0.024559932
0000b0 b9 e6 57 3d 0c 24 1f 3e f1 7f 75 3c af 78 2a 3e
       0.05271027 0.15541095 0.014984117 0.166476
0000c0 72 ea 43 3e ea 46 86 be 0b 42 bd 3d 79 d2 31 3e
       0.19132403 -0.26225978 0.09241112 0.17365445
0000d0 7b ed cd 3d c0 cd 72 3d 1f 27 d3 3d 51 eb 3f be
       0.100550614 0.05927825 0.10310196 -0.1874211
0000e0 ec be 37 be 86 7b 28 3e 66 84 14 bd bd 09 1d 3e
       -0.17943925 0.1645337 -0.036259077 0.15335746
0000f0 81 3c c8 bd 7b 79 78 bd 58 28 ef bc 27 4e 06 3e
       -0.09777165 -0.060662728 -0.029194042 0.1311575

critic.1.weight f4 [64]
000000 cc 40 81 3f 9b f7 80 3f c7 07 7b 3f 17 0c 79 3f
       1.00979 1.0075563 0.9805874 0.9728407
000010 8a a4 86 3f 46 6f 8b 3f ca c6 7f 3f 28 09 85 3f
       1.0518963 1.0893333 0.99912703 1.0393419
000020 16 c6 72 3f 17 f1 7a 3f e8 e6 81 3f 1c 4c 89 3f
       0.94833505 0.98024124 1.0148592 1.0726352
000030 9c bc 76 3f 72 51 7f 3f db 78 6d 3f 2c 9a 75 3f
       0.96381545 0.9973365 0.92762536 0.9593837
000040 f2 61 79 3f 75 f7 7d 3f 25 8b 7e 3f 2b 02 84 3f
       0.9741508 0.99205714 0.9943107 1.0313162
000050 d2 12 7f 3f 65 79 83 3f c4 25 77 3f b4 6e 85 3f
       0.9963809 1.0271422 0.96542 1.0424409
000060 47 dd 7f 3f 88 1f 7e 3f 28 00 7b 3f 70 ea 79 3f
       0.9994702 0.9926686 0.98047113 0.9762335
000070 a4 b6 80 3f 26 6d 7b 3f f9 77 79 3f c7 1d 82 3f
       1.0055737 0.9821342 0.9744869 1.0165337
000080 c8 ed 83 3f 11 ec 77 3f 2b de 7c 3f 99 db 80 3f
       1.030694 0.96844584 0.987765 1.0067016
000090 43 a0 7a 3f 4f 60 87 3f 4e 53 7d 3f ad dc 74 3f
       0.9790079 1.0576266 0.9895524 0.95649225
0000a0 a0 cb 7b 3f 9c 9e 76 3f 29 d1 7b 3f 7e a4 70 3f
       0.9835758 0.9633577 0.9836603 0.94000995
0000b0 cc 6f 80 3f c3 7a 7a 3f cb 81 81 3f a3 88 7a 3f
       1.0034118 0.9784357 1.0117735 0.9786474
0000c0 9b 93 7c 3f 5d 1b 89 3f f3 73 88 3f f0 c0 83 3f
       0.9866273 1.0711476 1.0660385 1.0293255
0000d0 2a 08 6d 3f d9 55 7f 3f 4f d6 84 3f 35 e4 7b 3f
       0.9259058 0.9974037 1.0377902 0.9839509
0000e0 6d 04 7c 3f 3b 80 89 3f 01 a3 81 3f ec 15 82 3f
       0.98444253 1.0742258 1.012787 1.016294
0000f0 b6 29 89 3f 1d b3 85 3f 8e 0f 82 3f f2 b9 6b 3f
       1.0715854 1.0445286 1.0160997 0.92080605

critic.1.bias f4 [64]
000000 25 5c e7 3c 46 8d a4 3c e7 1a 59 bc b4 54 53 3c
       0.02824218 0.020086896 -0.013251043 0.012898613
000010 93 29 87 3d 07 6c 8b 3d 26 9a c3 bb bf 02 ec 3c
       0.065997265 0.06807714 -0.0059693037 0.028809903
000020 21 34 e1 bc 1a 34 16 3d 5f cc ca 3c 98 f7 9a 3d
       -0.027490677 0.03667078 0.024755655 0.07566756
000030 db cc dc bc 37 d7 f9 3b 33 99 cb bb d8 1b 20 3b
       -0.026953151 0.0076245326 -0.006213331 0.0024430659
000040 d9 b7 49 bc 89 4e 5e 3c 0f e4 0d 3d 0b f8 02 3c
       -0.012311899 0.013568529 0.03464132 0.007993708
000050 bf 01 b7 3c dd f8 07 3d 68 6e 37 bc 0b 05 d3 3c
       0.0223397 0.03319632 -0.0111957565 0.02575924
000060 a7 6e bb 3c 45 ec d8 3b 9e 02 8b b9 8d 76 cb bc
       0.022879912 0.0066199624 -0.00026514096 -0.024836803
000070 4a a1 b2 3c f2 c4 9a 3d 55 51 a4 bc 56 8c 8e 3c
       0.021805424 0.075570956 -0.020058313 0.017400902
000080 bc 2d ba 3c c2 14 28 3c dc f4 88 3b af 27 68 3c
       0.022726886 0.010258855 0.00417958 0.014169618
000090 b4 c0 ad 3a 80 f1 54 3d b0 4b 02 3c e0 e5 ce 3b
       0.0013256283 0.051988125 0.007952616 0.0063140243
0000a0 25 35 99 3c 45 1b 53 3d d6 30 ba bb 61 c7 8d bc
       0.0187021 0.051539678 -0.005682091 -0.017306985
0000b0 16 cd 33 3c 57 2d 01 bc 55 80 07 3c e1 33 3b bc
       0.010974189 -0.007884345 0.008270343 -0.011425943
0000c0 35 ac 09 3c 79 4f 1f 3d ec 59 ba 3c ea 64 8e 3c
       0.008402874 0.03889415 0.022747956 0.017382104
0000d0 72 05 06 bd b4 a7 c6 3c 49 5e 4e 3b e5 fd db 3b
       -0.032720037 0.024249889 0.0031489304 0.006713616
0000e0 b1 b2 90 3c 33 e9 50 3d 76 3d c2 3c 8a 67 4a 3d
       0.017663332 0.051003646 0.023710947 0.04941515
0000f0 a6 5c 8c 3d d7 f6 c2 3c 8a a1 04 ba 67 cf e0 bb
       0.06853609 0.023799343 -0.00050594716 -0.006860662
