src/taser/locomotion/models/balance.pth (torch, 59102 bytes, 22 tensors)

log_std f4 [2]
-0.85934293 -0.8922783
00000000: e6fd 5bbf 5a6c 64bf

actor.0.weight f4 [64, 29]
0.13601932 -0.18434815 0.08815402 0.05962126 0.15552336 -0.15085472 0.11701018 0.11634791
-0.008051219 -0.077530324 -0.15215039 0.19619587 -0.110899456 -0.056948163 -0.10324271 0.15397961
-0.045659933 0.20589888 -0.007082866 -0.0981007 -0.13784713 0.06786834 -0.036442388 0.0134610105
0.015579188 0.010821815 0.17677571 -0.22652794 -0.100850105 0.050105695 -0.13505569 0.056450155
0.124579005 -0.07665344 -0.09055827 0.181537 0.025976717 0.026760967 -0.178851 0.09969497
-0.15029514 0.021758256 0.1780168 -0.046504438 0.052172076 -0.020528171 -0.12551422 -0.08120569
0.03994527 -0.08769161 0.0693038 -0.04414784 0.06058185 0.01818901 0.022969205 -0.017296549
0.0072432985 0.08703608 -0.077575095 0.026464257 0.042316258 0.0727538 -0.026396902 0.06878923
-0.13626371 -0.05614187 -0.015393103 0.080699824 0.007959383 0.02564707 -0.14271414 0.15060672
-0.015237659 -0.0023046397 0.015093121 0.1712359 0.28279242 -0.04126884 0.18081562 -0.21422333
0.009948681 0.07584582 0.14574817 0.019362152 0.17159998 -0.12861295 -0.1764809 -0.18089576
-0.017521208 -0.014441553 -0.02354215 -0.09802401 -0.1022775 -0.14087439 -0.10754354 0.16168408
-0.10375667 0.014718822 0.1673184 -0.02811837 -0.10818469 -0.07706291 -0.08262755 -0.06432133
-0.05939983 0.15815045 0.2237311 0.061633658 0.18338874 0.049728338 -0.059182778 0.009957929
-0.17785549 0.037445173 0.12021993 0.05032239 -0.11330943 0.12325255 0.13047303 0.09007931
-0.16568737 0.07908042 -0.20390244 -0.15187103 -0.10836285 0.012629089 0.12753259 -0.022747139
0.032014314 0.0760434 -0.06247205 -0.17150274 0.022918483 0.11551647 -0.0033260025 -0.1195081
-0.080006704 -0.21060172 -0.042426024 0.15479858 -0.028398404 -0.02121619 -0.005451904 -0.02358428
0.045566972 -0.14045517 -0.0703955 -0.17774276 -0.10727179 0.123478785 0.005296381 0.01365873
0.038089845 0.091770306 -0.033562407 -0.13955458 -0.054741226 -0.1341863 -0.10785758 0.005641187
0.024639903 0.119268954 -0.090710655 0.062261965 -0.012846531 0.17892301 -0.13504949 -0.14726967
-0.03140584 0.08764024 0.10010955 0.12446539 -0.0951192 0.03910033 -0.05052018 0.1565955
0.067402616 0.11052655 0.011697673 -0.16088983 0.16133565 -0.03946807 0.09352705 -0.11386751
0.12564553 0.04515642 -0.09780265 -0.046098724 0.05446047 -0.15236752 -0.020276189 0.053725384
-0.12869191 -0.091790095 -0.12645398 0.17490311 -0.097063154 0.053862195 0.06957839 -0.073516525
-0.010860901 0.13318269 0.027201042 0.11573871 -0.04515488 -0.069947466 0.027547296 -0.01229152
0.16656365 0.15153955 -0.14115353 0.16394907 -0.049847692 -0.096314885 0.057336513 -0.11560741
-0.14718905 -0.0012464662 -0.04022507 0.134184 0.33410117 -0.2928149 0.12038909 -0.14940295
-0.04017763 0.07720361 0.09440624 0.099527836 0.103643894 0.0667459 -0.1887885 0.19383627
0.14735341 -0.04793421 0.274704 -0.19056837 -0.05743977 0.12593849 -0.0952138 -0.100641586
0.01642458 -0.19945791 -0.07058674 0.10499906 -0.054060563 -0.035033874 -0.019790012 0.007875465
0.050378904 -0.047432117 -0.2541971 -0.07534608 -0.091039 0.106897146 0.15360676 0.08316588
00000000: a648 0b3e c3c5 3cbe 188a b43d 6c35 743d
00000010: 8441 1f3e a979 1abe 09a3 ef3d d047 ee3d
00000020: 43e9 03bc 38c8 9ebd 50cd 1bbe 92e7 483e
00000030: 411f e3bd 7a42 69bd ea70 d3bd d5ac 1d3e
00000040: e905 3bbd 28d7 523e 6317 e8bb 05e9 c8bd
00000050: cc27 0dbe 8efe 8a3d 9d44 15bd 928b 5c3c
00000060: da3f 7f3c fb4d 313c b104 353e f1f6 67be
00000070: 808a cebd a13b 4d3d 0a4c 0abe 4738 673d
00000080: 4723 ff3d 7bfc 9cbd 9d76 b9bd d6e4 393e
00000090: 20cd d43c d139 db3c b724 37be e02c cc3d
000000a0: f8e6 19be 5f3e b23c 094a 363e 707b 3ebd
000000b0: 63b2 553d b22a a8bc cd86 00be 2b4f a6bd
000000c0: a79d 233d a997 b3bd 27ef 8d3d 5ed4 34bd
000000d0: ad24 783d 1e01 953c ea29 bc3c 7eb1 8dbc
000000e0: 3159 ed3b f93f b23d b1df 9ebd 92cb d83c
000000f0: d053 2d3d f2ff 943d 513e d8bc 5ee1 8c3d
00000100: b788 0bbe 04f5 65bd 5a33 7cbc f345 a53d
00000110: 1268 023c ce19 d23c a823 12be a638 1a3e
00000120: 60a7 79bc 7009 17bb 2349 773c 7758 2f3e
00000130: 2bca 903e 8409 29bd bb27 393e 5c5d 5bbe
00000140: cbff 223c 0e55 9b3d 023f 153e 609d 9e3c
00000150: e8b7 2f3e 1db3 03be 69b7 34be bd3c 39be
00000160: a388 8fbc 439c 6cbc 78db c0bc d0c0 c8bd
00000170: de76 d1bd 6041 10be ca3f dcbd 8390 253e
00000180: 617e d4bd 3727 713c 8455 2b3e 7f58 e6bc
00000190: ef8f ddbd 29d3 9dbd a238 a9bd e7ba 83bd
000001a0: 3c4d 73bd 31f2 213e c419 653e 9373 7c3d
000001b0: 42ca 3b3e f1af 4b3d a469 72bd 9526 233c
000001c0: c01f 36be 1c60 193d de35 f63d da1e 4e3d
000001d0: c60e e8bd d56b fc3d b99a 053e 807b b83d
000001e0: f3a9 29be eaf4 a13d cdcb 50be 1484 1bbe
000001f0: 58ed ddbd 3dea 4e3c e797 023e 3558 babc
00000200: 7121 033d a4bc 9b3d b1e2 7fbd 6a9e 2fbe
00000210: 8bbf bb3c e693 ec3d 10f9 59bb aac0 f4bd
00000220: 8eda a3bd faa7 57be e9c6 2dbd 8583 1e3e
00000230: c5a3 e8bc 93cd adbc e3a5 b2bb d233 c1bc
00000240: 6fa4 3a3d 7bd3 0fbe 842b 90bd 3302 36be
00000250: 50b1 dbbd 72e2 fc3d 448d ad3b dec8 5f3c
00000260: 1904 1c3d 12f2 bb3d bc78 09bd 65e7 0ebe
00000270: 5638 60bd 2268 09be 6fe4 dcbd b5d9 b83b
00000280: 9fd9 c93c 4843 f43d 82c6 b9bd 6706 7f3d
00000290: 427a 52bc 9837 373e 6a4a 0abe dccd 16be
000002a0: 69a3 00bd ba7c b33d 3c06 cd3d b6e7 fe3d
000002b0: dbcd c2bd ab27 203d 40ee 4ebd 925a 203e
000002c0: 620a 8a3d be5b e23d 99a7 3f3c 4ec0 24be
000002d0: 2c35 253e 45a9 21bd 1c8b bf3d 5e33 e9bd
000002e0: 39a9 003e f0f5 383d c14c c8bd 04d2 3cbd
000002f0: f111 5f3d 3b06 1cbe 401a a6bc 260f 5c3d
00000300: d0c7 03be 72fc bbbd 277d 01be cd19 333e
00000310: 0cc9 c6bd 9b9e 5c3d 1d7f 8e3d d58f 96bd
00000320: ecf1 31bc 0b61 083e b8d4 de3c 6b08 ed3d
00000330: 53f4 38bd 9e40 8fbd deaa e13c 5f62 49bc
00000340: a98f 2a3e 2f2d 1b3e 8d8a 10be 44e2 273e
00000350: 182d 4cbd bd40 c5bd b1d9 6a3d 94c3 ecbd
00000360: bab8 16be 7760 a3ba 0bc3 24bd 8867 093e
00000370: 4f0f ab3e d6eb 95be 8e8e f63d 16fd 18be
00000380: 4c91 24bd ed1c 9e3d 0f58 c13d 40d5 cb3d
00000390: 4043 d43d 13b2 883d c651 41be 047d 463e
000003a0: d0e3 163e aa56 44bd 01a6 8c3e 5b24 43be
000003b0: f745 6bbd 05f6 003e 74ff c2bd 2d1d cebd
000003c0: d78c 863c b23e 4cbe c88f 90bd bf09 d73d
000003d0: 9c6e 5dbd ae7f 0fbd aa1e a2bc 1808 013c
000003e0: 1c5a 4e3d 2e48 42bd 1f26 82be 0c4f 9abd
000003f0: a872 babd e4ec da3d 174b 1d3e df52 aa3d

actor.0.bias f4 [64]
-0.179575 -0.055348814 -0.20093375 0.113813 0.15808289 -0.14502952 -0.1196904 -0.08288589
-0.12628189 -0.105191156 0.053602487 -0.18504193 -0.22554803 -0.18340166 0.12899578 -0.20903124
0.068921365 -0.12050764 0.02178646 -0.12804438 -0.16844992 0.16185236 0.07022676 0.1637344
-0.114674225 0.037194077 0.09595979 -0.0055645136 -0.18598936 0.0003952083 0.14083977 0.0931573
0.039867144 0.2015762 -0.038862843 0.024010234 -0.14428246 -0.0698802 -0.15316412 0.0789082
0.123580515 -0.16606751 -0.11351134 0.16571566 0.0064898254 0.093187116 -0.13277498 0.19530617
-0.11519344 0.05004306 -0.085997716 -0.0391164 -0.040073425 0.06585151 -0.014723692 -0.1479185
-0.15181258 -0.0448921 0.13293955 0.0884514 0.07482206 0.015147553 -0.026809804 -0.1729218
00000000: 82e2 37be 70b5 62bd 94c1 4dbe ca16 e93d
00000010: 7be0 213e 9e82 14be 3e20 f5bd 14c0 a9bd
00000020: 0a50 01be 766e d7bd 488e 5b3d a27b 3dbe
00000030: 10f6 66be a5cd 3bbe 7817 043e 490c 56be
00000040: a526 8d3d b6cc f6bd 8579 b23c 111e 03be
00000050: 237e 2cbe a0bc 253e 0cd3 8f3d fea9 273e
00000060: 52da eabd d158 183d 9186 c43d 8656 b6bb
00000070: ff73 3ebe f633 cf39 4d38 103e 41c9 be3d
00000080: bb4b 233d fe69 4e3e a52e 1fbd 1cb1 c43c
00000090: c8be 13be 5a1d 8fbd 0ed7 1cbe 9f9a a13d
000000a0: c817 fd3d 9a0d 2abe a278 e8bd 5eb1 293e
000000b0: 9aa8 d43b e3d8 be3d 2af6 07be 57fe 473e
000000c0: 8aea ebbd f4f9 4c3d 921f b0bd 8538 20bd
000000d0: 0824 24bd 28dd 863d a43b 71bc f277 17be
000000e0: c274 1bbe c7e0 37bd 4e21 083e 0226 b53d
000000f0: 4f3c 993d 712d 783c 3ca0 dbbc 6a12 31be

actor.1.weight f4 [64]
1.0188915 0.96466875 1.0959632 1.0112514 0.9948928 0.96420515 0.955629 1.05201
1.0157266 0.9864853 0.9706316 0.9736216 0.9547723 0.9776182 1.0180537 0.9600603
0.97701734 0.977543 0.9902125 0.9897386 1.0158844 1.0016493 0.9847211 1.0302697
0.9995324 0.9914325 0.9984267 1.0315714 0.9546261 1.0306215 0.99985754 0.9999387
0.99432975 1.0480783 0.9753218 1.0506641 0.98670137 0.9766258 0.9767932 0.9966936
0.99234325 0.93656063 1.0182441 0.9939581 1.0141417 0.9763993 1.0460753 1.0674753
0.99724483 1.0228894 0.97072935 1.0154411 0.99241734 0.99062425 1.0027709 1.0293784
1.0021774 0.9783091 0.9915118 0.9531883 0.99877834 1.0193268 1.0165887 0.9928552
00000000: 096b 823f 88f4 763f 8648 8c3f b070 813f
00000010: 4bb1 7e3f 26d6 763f 1aa4 743f 44a8 863f
00000020: 5403 823f 4d8a 7c3f 507b 783f 443f 793f
00000030: f56b 743f 3045 7a3f 954f 823f 83c6 753f
00000040: cf1d 7a3f 4240 7a3f 917e 7d3f 825f 7d3f
00000050: 8008 823f 0b36 803f af16 7c3f e1df 833f
00000060: 5be1 7f3f 85ce 7d3f e498 7f3f 880a 843f
00000070: 6062 743f 68eb 833f aaf6 7f3f fcfb 7f3f
00000080: 658c 7e3f 6e27 863f b1ae 793f 297c 863f
00000090: 7698 7c3f 2604 7a3f 1f0f 7a3f 5027 7f3f
000000a0: 350a 7e3f 70c2 6f3f d355 823f 0a74 7e3f
000000b0: 65cf 813f 4ef5 793f cce5 853f 08a3 883f
000000c0: 704b 7f3f 0aee 823f b881 783f f9f9 813f
000000d0: 100f 7e3f 8d99 7d3f cc5a 803f acc2 833f
000000e0: 5947 803f 7772 7a3f b8d3 7d3f 2604 743f
000000f0: f0af 7f3f 4d79 823f 941f 823f c22b 7e3f

actor.1.bias f4 [64]
-0.001883603 0.0050850115 0.051338594 0.0137037905 -0.01060272 0.00039648413 -0.025368152 0.0370007
0.031214928 0.02021545 -0.02127815 -0.013525736 -0.011664961 -0.008809777 0.008216478 -0.03529158
0.013652258 -0.008357308 0.005641015 -0.012369774 0.022005381 0.0027052988 -0.005353238 0.028574804
-0.020401694 -0.015678024 0.017673442 0.03241144 -0.0016343624 0.029808208 0.0031393063 -0.011415242
-0.0033019672 0.029604934 -0.008393045 0.053822547 0.009225927 -0.030743372 -0.035948295 -0.0030127673
-0.010170512 -0.014082203 0.022538604 -0.0096247215 0.043106314 -0.018718066 0.020548131 0.06179024
-0.039424628 0.012642959 -0.00031656146 -0.006995442 0.009255815 0.0052394946 0.0011826366 -0.007345889
0.02101463 0.0047057196 0.010190142 -0.06138885 0.01116631 0.04586938 0.014537836 -0.04879364
00000000: 3be3 f6ba 2ba0 a63b 6b48 523d dd85 603c
00000010: 08b7 2dbc 33df cf39 dfd0 cfbc 0c8e 173d
00000020: 73b6 ff3c df9a a53c 844f aebc 0c9b 5dbc
00000030: 651e 3fbc e256 10bc 689e 063c e78d 10bd
00000040: b8ad 5f3c 17ed 08bc 43d8 b83b 98aa 4abc
00000050: a144 b43c 624b 313b 376a afbb b515 ea3c
00000060: 7421 a7bc 336f 80bc e5c7 903c dcc1 043d
00000070: 1a38 d6ba 5830 f43c d2bc 4d3b ff06 3bbc
00000080: d165 58bb 0c86 f23c fb82 09bc 0875 5c3d
00000090: 5828 173c 86d9 fbbc 853e 13bd d971 45bb
000000a0: 38a2 26bc 0ab9 66bc e1a2 b83c 02b1 1dbc
000000b0: 3f90 303d a156 99bc 8e54 a83c c317 7d3d
000000c0: b87b 21bd 6a24 4f3c 29f8 a5b9 053a e5bb
000000d0: b4a5 173c 11b0 ab3b b302 9b3a c9b5 f0bb
000000e0: e026 ac3c 7032 9a3b 8ef4 263c e072 7bbd
000000f0: e6f2 363c 88e1 3b3d 1b30 6e3c d7db 47bd

actor.3.weight f4 [64, 64]
-0.048847347 0.063460104 -0.08325483 0.06432468 -0.033967532 -0.040996958 0.015171734 0.015017881
-0.05049894 0.0023021218 0.042517282 0.0785378 -0.07204034 0.02035313 -0.009201181 -0.023315191
-0.031348668 0.033514705 -0.06202097 -0.072489366 0.04557507 -0.13129398 0.09705395 -0.03902049
-0.07643226 -0.10256602 -0.016776847 0.052284963 -0.020419192 0.026926456 -0.09806372 0.10575186
0.082383096 -0.00028581684 0.042579375 -0.11778873 0.01708937 0.12380087 0.13944171 -0.048996296
-0.024426222 0.115861736 -0.032784484 -0.04682403 -0.19185978 0.12889467 -0.08610261 0.061747935
0.104725346 0.07417266 -0.030254662 -0.008902029 0.088425584 -0.13113731 0.010058951 0.06452364
-0.049217418 0.05373327 -0.045928504 -0.06696574 0.05628382 0.0941469 -0.09246201 -0.12293691
0.089680225 -0.11140083 0.091686845 -0.0685895 -0.003556588 -0.0709811 0.04011464 -0.12700538
0.02531291 -0.107495956 -0.03551064 -0.10611354 -0.14461403 0.050823875 -0.036557816 0.0834959
0.08460385 0.06356065 0.06301367 -0.05902803 0.12962042 -0.010349319 -0.072475545 -0.06483542
0.022759652 0.0052196714 0.065107994 0.11711786 0.03359551 0.1298503 -0.05810346 0.047292866
-0.054029226 0.020740721 -0.10493971 0.034189142 0.06923121 -0.11238764 -0.030148165 -0.01780246
0.091465496 -0.028172322 -0.05734428 -0.0071739685 -0.04020595 0.04423028 -0.0126789855 -0.04627688
0.057407077 0.114226826 0.051294096 -0.022787033 0.10435383 0.1124957 0.007755368 -0.07559223
0.03547846 0.06121161 0.07347281 0.05317317 -0.040709198 0.016036129 -0.011689338 -0.0068909447
-0.0733114 -0.0315749 0.014948399 0.09864338 -0.13293415 0.041097008 0.0138738025 -0.0060886703
-0.14081669 0.10575801 0.061632074 -0.047732484 0.046346158 -0.07416685 -0.084378034 -0.10182563
0.008692865 -0.072221115 0.010967495 0.10525312 0.07820745 0.12315377 0.043424316 0.12307447
0.06381474 0.05938276 -0.05711473 0.05883224 -0.14154172 -0.07903947 0.020087495 -0.08715135
0.03241831 0.12816186 -0.08191147 0.067243695 -0.09361229 -0.037228484 -0.0385429 0.048229344
-0.017482175 0.04780961 0.103189126 -0.0666274 -0.03391393 -0.01721696 -0.09593455 0.040906075
0.10245444 -0.06962307 -0.07873033 0.08495453 0.101754785 0.030820027 0.049363047 0.025774764
0.058263317 0.08966954 0.059612475 0.13904421 -0.09910668 0.004688156 -0.04566806 -0.03792465
0.020212589 -0.06399918 0.05175286 -0.033105258 -0.022643775 -0.11352158 0.01962231 -0.053083695
0.015579119 -0.01844246 0.020855466 0.10451871 0.1244039 -0.102089584 0.054973766 0.03917724
0.06513011 0.031510893 -0.06496799 0.015992694 -0.09301552 -0.11327818 0.094945766 -0.009397757
0.005158967 0.0971889 0.050214212 -0.10168376 0.11120617 -0.099684164 -0.039710473 -0.011705224
0.09618503 -0.085462674 0.020825742 -0.14793117 0.05523407 0.08453701 -0.05372796 0.05467038
-0.13441046 -0.0016748402 0.018524818 -0.083149135 0.09455499 0.055099905 -0.123848565 0.10362755
-0.027220199 -0.03329944 0.010628966 -0.030279217 -0.0765096 -0.03221144 0.031376015 0.04448245
0.090951756 0.010266418 0.0629916 0.004952306 0.03932644 0.003965894 -0.003855961 0.05459495
00000000: 2814 48bd 5ff7 813d 8281 aabd a8bc 833d
00000010: 8a21 0bbd 6dec 27bd dd92 783c 8f0d 763c
00000020: fad7 4ebd 32df 163b 9a26 2e3d 6dd8 a03d
00000030: e389 93bd 9bbb a63c 8dc0 16bc 80ff bebc
00000040: 7667 00bd b746 093d b309 7ebd 4e75 94bd
00000050: edac 3a3d ee71 06be 39c4 c63d f3d3 1fbd
00000060: 8488 9cbd 220e d2bd 996f 89bc c228 563d
00000070: 2646 a7bc df94 dc3c a2d5 c8bd 6e94 d83d
00000080: 78b8 a83d b0d9 95b9 b667 2e3d 383b f1bd
00000090: 02ff 8b3c 4f8b fd3d cfc9 0e3e 57b0 48bd
000000a0: 8019 c8bc eb48 ed3d 0649 06bd 8eca 3fbd
000000b0: e476 44be f7fc 033e 9156 b0bd 67eb 7c3d
000000c0: 3e7a d63d d6e7 973d a0d8 f7bc d1d9 11bc
000000d0: 7918 b53d dc48 06be 4cce 243c f824 843d
000000e0: 3498 49bd 6b17 5c3d 871f 3cbd 5525 89bd
000000f0: dd89 663d 17d0 c03d b95c bdbd 59c6 fbbd
00000100: 44aa b73d 1e26 e4bd 50c6 bb3d a778 8cbd
00000110: a515 69bb 8a5e 91bd 404f 243d b30d 02be
00000120: 055d cf3c d726 dcbd 9b73 11bd 0e52 d9bd
00000130: b315 14be b22c 503d a6bd 15bd e6ff aa3d
00000140: c944 ad3d 162c 823d 500d 813d 60c7 71bd
00000150: 37bb 043e 3190 29bc 0f6e 94bd 6fc8 84bd
00000160: 7372 ba3c c709 ab3b 5757 853d 7ddb ef3d
00000170: 729b 093d 7af7 043e e5fd 6dbd 2ab6 413d
00000180: c04d 5dbd 72e8 a93c a1ea d6bd ea09 0c3d
00000190: 18c9 8d3d 7e2b e6bd 49f9 f6bc 77d6 91bc
000001a0: 4352 bb3d a4c9 e6bc d6e1 6abd 9c13 ebbb
000001b0: ffae 24bd cf2a 353d 85bb 4fbc d38c 3dbd
000001c0: af23 6b3d c1ef e93d c219 523d dfab babc
000001d0: 76b7 d53d 2564 e63d be20 fe3b 19d0 9abd
000001e0: dd51 113d 06b9 7a3d ea78 963d 1ccc 593d
000001f0: b0be 26bd 335e 833c a384 3fbc 6fcd e1bb
00000200: 4a24 96bd af54 01bd 21ea 743c 8a05 ca3d
00000210: e41f 08be 5655 283d f24e 633c 7883 c7bb
00000220: 4032 10be a897 d83d ea71 7c3d 2383 43bd
00000230: 78d5 3d3d cae4 97bd 64ce acbd f589 d0bd
00000240: 856c 0e3c aae8 93bd 02b1 333c f38e d73d
00000250: 3a2b a03d 0b38 fc3d b2dd 313d 780e fc3d
00000260: 4db1 823d 563b 733d 23f1 69bd 13fa 703d
00000270: 50f0 10be 72df a1bd 888e a43c 687c b2bd
00000280: 10c9 043d dd3c 033e 33c1 a7bd 10b7 893d
00000290: cdb7 bfbd e57c 18bd 29df 1dbd 228c 453d
000002a0: c736 8fbc 02d4 433d d254 d33d f273 88bd
000002b0: 55e9 0abd 950a 8dbc 5579 c4bd 218d 273d
000002c0: a2d3 d13d 8a96 8ebd 5e3d a1bd a4fc ad3d
000002d0: d064 d03d 487a fc3c e830 4a3d 9925 d33c
000002e0: 84a5 6e3d aaa4 b73d 362c 743d 9b61 0e3e
000002f0: 71f8 cabd 1a9f 993b 6f0e 3bbd e156 1bbd
00000300: df94 a53c 0112 83bd cffa 533d 6199 07bd
00000310: 707f b9bc 017e e8bd f7be a03c 4a6e 59bd
00000320: 903f 7f3c a414 97bc 15d9 aa3c e80d d63d
00000330: 79c7 fe3d 5814 d1bd 2c2c 613d 5078 203d
00000340: ef62 853d 9111 013d f00d 85bd 1c03 833c
00000350: ec7e bebd 64fe e7bd ed72 c23d 0df9 19bc
00000360: 8d0c a93b f90a c73d 6bad 4d3d 933f d0bd
00000370: 0fc0 e33d 3627 ccbd 73a7 22bd 45c7 3fbc
00000380: a8fc c43d 0e07 afbd bf9a aa3c 457b 17be
00000390: 1f3d 623d bd21 ad3d d911 5cbd 0cee 5f3d
000003a0: e5a2 09be 5086 dbba 5cc1 973c 184a aabd
000003b0: 0ca6 c13d 70b0 613d 51a4 fdbd ae3a d43d
000003c0: e5fc debc fe64 08bd 1d25 2e3c 1f0c f8bc
000003d0: 11b1 9cbd 25f0 03bd 2384 003d 3b33 363d
000003e0: ea44 ba3d 7a34 283c bd01 813d f446 a23b
000003f0: c314 213d 55f4 813b 4ab4 7cbb f49e 5f3d

actor.3.bias f4 [64]
0.087513246 -0.10602688 -0.0785355 -0.022765636 -0.05293607 0.080680214 0.07620874 -0.12321811
0.003946511 -0.07976421 0.0584038 0.033252973 -0.076007254 -0.00057565846 -0.08945198 -0.054557227
0.080858104 0.10628681 -0.012367488 -0.05322879 -0.02181692 -0.06892471 0.040415347 0.115451016
-0.039603125 -0.050646774 0.04594335 0.025570005 -0.0006680955 0.10671579 -0.04420362 -0.089962944
-0.09724936 -0.026196929 0.083249986 -0.054141294 -0.087498076 -0.100556925 0.06539379 0.11824464
0.074668564 0.009733797 0.13505316 -0.10204847 -0.059454646 0.016129801 0.04206687 -0.027282983
-0.11466279 -0.0019045995 0.048741467 0.0344272 0.052775297 0.10769169 -0.029961271 -0.04582278
0.09191078 0.079785116 0.12647817 -0.043070808 -0.037802234 0.029201342 0.05440291 -0.04534267
00000000: 253a b33d 9f24 d9bd 38d7 a0bd 007f babc
00000010: 7ed3 58bd ab3b a53d 5413 9c3d c759 fcbd
00000020: bc51 813b 6b5b a3bd d338 6f3d 4534 083d
00000030: b1a9 9bbd c9e7 16ba 9a32 b7bd 6677 5fbd
00000040: ef98 a53d e6ac d93d 01a1 4abc 6f06 5abd
00000050: 66b9 b2bc 6628 8dbd 908a 253d 9571 ec3d
00000060: e336 22bd fe72 4fbd 182f 3c3d 3078 d13c
00000070: 2123 2fba cf8d da3d db0e 35bd 7e3e b8bd
00000080: ac2a c7bd f19a d6bc f87e aa3d 43c3 5dbd
00000090: 3132 b3bd caf0 cdbd 2eed 853d 3f2a f23d
000000a0: d5eb 983d 817a 1f3c 604b 0a3e cafe d0bd
000000b0: b786 73bd a522 843c 4f4e 2c3d 9080 dfbc
000000c0: 53d4 eabd c1a3 f9ba 22a5 473d 8903 0d3d
000000d0: e92a 583d 768d dc3d 5771 f5bc abb0 3bbd
000000e0: b83b bc3d 6166 a33d 7e83 013e 046b 30bd
000000f0: 84d6 1abd a737 ef3c 96d5 5e3d 3cb9 39bd

actor.4.weight f4 [64]
1.1239742 1.0504369 1.0857699 1.0134643 1.0173936 1.0693375 1.0672519 1.0776697
1.1059546 1.1341839 1.0033792 1.0620476 1.0835946 1.0768152 1.0579877 1.008103
1.0282726 0.99741817 1.1072094 1.0807458 1.1098962 1.0150673 1.0325599 1.0759279
1.0502403 1.0524788 1.0616534 1.112701 1.0630087 1.044953 1.0097123 1.0947134
1.093597 1.1272016 1.1159972 1.1723586 1.1432415 1.0606134 1.0856258 1.0789272
1.1123439 1.1143341 1.0944116 1.0546529 1.1093895 1.0047293 1.016543 1.1225578
1.06664 1.0996583 1.0177246 1.016304 1.0792907 1.0176599 1.0299015 1.1132274
1.1076791 1.0374308 1.1045253 1.1217083 1.0401189 1.158559 1.005091 0.99878055
00000000: 63de 8f3f b774 863f 82fa 8a3f 33b9 813f
00000010: f439 823f 0de0 883f b69b 883f 15f1 893f
00000020: ec8f 8d3f f02c 913f bb6e 803f 2df1 873f
00000030: 3ab3 8a3f 15d5 893f 246c 873f 8509 813f
00000040: 709e 833f cc56 7f3f 0ab9 8d3f e155 8a3f
00000050: 1411 8e3f baed 813f ec2a 843f 01b8 893f
00000060: 466e 863f a0b7 863f 42e4 873f fd6c 8e3f
00000070: ab10 883f 05c1 853f 413e 813f 921f 8c3f
00000080: fdfa 8b3f 2448 903f ffd8 8e3f d90f 963f
00000090: bd55 923f 2ec2 873f c9f5 8a3f 491a 8a3f
000000a0: 4961 8e3f 80a2 8e3f ae15 8c3f defe 863f
000000b0: 7a00 8e3f f89a 803f 151e 823f f9af 8f3f
000000c0: a987 883f 9ac1 8c3f cd44 823f 4016 823f
000000d0: 3326 8a3f ae42 823f d0d3 833f 3c7e 8e3f
000000e0: 6ec8 8d3f 88ca 843f 1661 8d3f 2394 8f3f
000000f0: 9e22 853f a94b 943f d2a6 803f 15b0 7f3f

actor.4.bias f4 [64]
0.05423124 0.03135129 0.027671255 0.0017463344 0.0015419739 0.030129332 0.040607955 0.02492143
0.059367884 0.059415147 0.019508379 0.05050461 0.034266047 0.033413988 0.031924658 0.010006304
0.013936871 -0.02708008 0.051206037 0.035597276 0.05401637 0.0074351295 0.02562486 0.052988023
0.02998337 0.019018311 0.025146527 0.05656102 0.04160573 0.022329187 0.0055284183 0.05656916
0.036886197 0.015959246 0.03761222 0.0615649 0.052677598 0.04335486 0.053075112 0.040545736
0.06092666 0.04239307 0.048766814 0.007987083 0.052278984 -0.004562517 0.005579133 0.05204284
0.035928894 0.058751747 0.00926195 0.008924102 0.03180759 0.009238335 0.021772027 0.031603456
0.040421136 0.016480353 0.06596669 0.02792128 0.025374407 0.061401557 -0.0016987679 -0.01461594
00000000: 9421 5e3d 366a 003d d4ae e23c 42e5 e43a
00000010: 0f1c ca3a cad1 f63c 8754 263d 0728 cc3c
00000020: bd2b 733d 4c5d 733d 09d0 9f3c ecdd 4e3d
00000030: 8e5a 0c3d 1bdd 083d 6ec3 023d 7bf1 233c
00000040: 7957 643c 0bd7 ddbc 6cbd 513d 73ce 113d
00000050: 4540 5d3d 63a2 f33b 3aeb d13c f809 593d
00000060: af9f f53c 4acc 9b3c 1700 ce3c 87ac 673d
00000070: c56a 2a3d b3eb b63c bc27 b53b 10b5 673d
00000080: fb15 173d f7bc 823c 450f 1a3d 7a2b 7c3d
00000090: 77c4 573d de94 313d 4a65 593d 4913 263d
000000a0: 3c8e 793d 5ba4 2d3d b6bf 473d 41dc 023c
000000b0: 7d22 563d 2b81 95bb 29d1 b63b df2a 553d
000000c0: 2d2a 133d aca5 703d 6fbf 173c 6636 123c
000000d0: ad48 023d 635c 173c 405b b23c a072 013d
000000e0: a290 253d ce01 873c 8b19 873d 2bbb e43c
000000f0: fddd cf3c 3380 7b3d 31a9 deba b277 6fbc

actor.6.weight f4 [2, 64]
-0.040457554 -0.15427296 0.17569403 -0.07162937 -0.08221696 -0.11239957 0.11870307 0.087798275
0.16951013 -0.07125039 0.03027352 -0.10659221 0.1186085 0.18318234 0.12783708 0.11859795
0.049925543 0.009783558 -0.055173572 0.11361932 -0.08252406 0.10707452 -0.14199406 0.12440964
0.153606 -0.14287569 -0.1541666 -0.16189033 0.14012586 -0.12751518 -0.009005089 0.08984203
-0.0035567863 -0.2512942 -0.082929045 -0.084182456 -0.20700403 -0.07992737 0.14440162 -0.07513948
0.026325028 -0.11930246 0.16470242 -0.1344851 -0.19163169 0.0066733384 -0.14338586 -0.15934831
0.11901038 -0.18957227 0.040075026 -0.101286754 0.15645313 0.10207633 0.028916614 0.018567838
0.22583029 0.141763 -0.17534313 -0.11571809 0.079143226 -0.04202364 -0.094263196 0.09696811
-0.119374916 0.10422532 0.02778813 0.030231271 0.010627105 0.10244905 0.017260924 0.17812274
-0.009209265 0.2447455 -0.04813618 -0.14149949 0.15178362 0.08704866 0.15567257 -0.079453
-0.111417085 0.10043667 -0.14699815 -0.14910956 -0.206042 -0.028704472 -0.024145955 0.18146689
-0.00956564 -0.05817048 0.05957419 -0.1997928 0.051572647 -0.01681406 0.12985057 0.06682228
0.14162803 0.034377966 0.15875955 0.15461104 -0.07134698 -0.059221208 0.14827107 -0.113466054
0.21633562 -0.18983136 -0.008342499 0.13854371 -0.009194452 0.10732934 0.09681218 0.057012666
0.14178245 -0.19295944 -0.113139965 0.06353841 0.15558143 -0.03734105 0.10673817 0.19296797
-0.007257341 -0.13940625 -0.21075487 0.19508688 0.068078354 -0.20176423 0.04829164 0.086071745
00000000: d2b6 25bd bbf9 1dbe 23e9 333e 6bb2 92bd
00000010: 5e61 a8bd bf31 e6bd 981a f33d 95cf b33d
00000020: 1094 2d3e b9eb 91bd 2c00 f83c 044d dabd
00000030: 03e9 f23d 2794 3b3e b9e7 023e 7be3 f23d
00000040: ba7e 4c3d 374b 203c affd 61bd 3fb1 e83d
00000050: 6002 a9bd e349 db3d e466 11be 7bca fe3d
00000060: e44a 1d3e 014e 12be d9dd 1dbe 94c6 25be
00000070: 277d 0f3e 5793 02be 158a 13bc 19ff b73d
00000080: f918 69bb a2a9 80be b4d6 a9bd da67 acbd
00000090: ddf8 53be f6b0 a3bd 05de 133e bae2 99bd
000000a0: 96a7 d73c d954 f4bd c0a7 283e 76b6 09be
000000b0: 193b 44be 05ac da3b bed3 12be 342c 23be
000000c0: b7bb f33d 3c1f 42be b625 243d 6e6f cfbd
000000d0: 4035 203e 650d d13d 89e2 ec3c 941b 983c
000000e0: 0e40 673e 522a 113e 268d 33be 9bfd ecbd
000000f0: d815 a23d fb20 2cbd 100d c1bd 3797 c63d
00000100: d67a f4bd 1674 d53d efa3 e33c 92a7 f73c
00000110: 4f1d 2e3c cfd0 d13d c866 8d3c cf65 363e
00000120: 75e2 16bc 909e 7a3e 712a 45bd 3ee5 10be
00000130: 2a6d 1b3e 9146 b23d a168 1f3e 41b8 a2bd
00000140: a42e e4bd beb1 cd3d af86 16be 2db0 18be
00000150: adfc 52be a425 ebbc bdcd c5bc 75d2 393e
00000160: 34b9 1cbc 2b44 6ebd 1104 743d 7c96 4cbe
00000170: d73d 533d a4bd 89bc 8cf7 043e 1fda 883d
00000180: f006 113e e9cf 0c3d dd91 223e 5b52 1e3e
00000190: 5e1e 92bd f091 72bd 5fd4 173e e460 e8bd
000001a0: 1687 5d3e 2763 42be faae 08bc 67de 0d3e
000001b0: 54a4 16bc 7ccf db3d 7745 c63d 1d86 693d
000001c0: 6b2f 113e 2997 45be edb5 e7bd 6d20 823d
000001d0: bd50 1f3e eef2 18bd 8b99 da3d 6599 453e
000001e0: fdce edbb 83c0 0ebe 20d0 57be dbc4 473e
000001f0: aa6c 8b3d 489b 4ebe 74cd 453d 6246 b03d

actor.6.bias f4 [2]
0.11673436 0.076374926
00000000: 6d12 ef3d 756a 9c3d

critic.0.weight f4 [64, 29]
0.048411172 0.074424855 0.07424744 -0.15346454 -0.06674559 0.0085545005 0.13867839 0.15082137
0.06584339 0.051050816 0.021565827 0.0318312 -0.06691052 0.011736568 0.031827286 -0.11119813
0.13455531 -0.22239535 -0.01694183 -0.07980829 0.052334465 0.106880486 0.13268805 -0.059496697
0.022085318 0.112475954 0.03552703 -0.008325356 0.098943554 -0.093692526 0.005754988 -0.1993536
0.09064809 -0.056040283 -0.09807052 0.10375391 -0.0787277 -0.011022968 -0.092959404 -0.0022753323
-0.049177416 0.0283902 0.0020127576 -0.06416564 -0.068431154 0.16045628 0.14009845 0.0898647
-0.10447878 0.053441584 0.09057009 -0.07368266 -0.009824193 -0.07942633 -0.024089912 -0.013689524
-0.044510026 0.07848007 -0.030052895 0.0067090006 -0.025403582 0.008152604 0.13941747 0.0047233663
-0.11062064 -0.03508725 0.020044604 0.08038819 -0.049217004 -0.06738249 0.07255571 -0.15211074
0.05637343 0.02028698 -0.089667365 -0.08008438 0.13465346 0.008294031 0.124845 0.098793894
-0.1901369 -0.18637094 0.13724649 0.18005855 0.12474051 0.13039285 -0.24808463 -0.08907164
0.16405758 -0.17248027 -0.10428479 -0.07734263 0.10993259 -0.08821288 0.05430527 0.10265883
-0.049363293 0.004400356 -0.124846175 -0.07197551 -0.065924294 -0.01454103 0.033019427 0.07269881
-0.16850892 -0.051206406 0.14010966 -0.046886597 0.096509516 0.10345285 -0.1760849 0.051748306
-0.018357929 -0.03664821 0.013607062 0.00027683552 0.064197026 -0.00949733 0.100407034 -0.13296792
-0.024448942 -0.019769646 -0.09215587 -0.051313937 -0.020306716 -0.057665206 -0.027912071 -0.008819362
0.0145327095 -0.048128586 0.042767636 -0.0011719208 0.23983455 0.06545924 0.0214641 0.04431116
-0.07564939 -0.023177354 0.14463848 -0.08878293 -0.043988664 -0.13721333 -0.036459673 -0.04877339
0.1177173 0.12713388 0.1130435 0.12397684 0.13211705 0.098865144 -0.1106415 -0.04405166
0.13410962 0.041373834 0.091408245 -0.10840812 0.13024957 -0.15912157 0.022597067 -0.04151715
-0.049504887 -0.11846783 -0.087569326 -0.12079712 0.047610976 0.0693535 -0.028272232 -0.20583695
0.008862294 0.21015458 0.017062651 -0.06696013 0.13481285 0.09586424 -0.07309811 -0.063345216
0.04743314 0.02570127 -0.013667521 0.04927933 0.020594947 -0.0699112 0.14339322 0.0010664838
0.12513135 -0.13796067 -0.031665746 0.0034635637 -0.0010030793 -0.0559134 -0.02210016 -0.19222054
0.023282325 0.00166987 -0.11278732 -0.08912746 0.060956463 -0.1926389 -0.0038348825 0.08536666
0.07406105 -0.078425065 0.22663312 -0.10275937 -0.13722862 0.0052364115 0.08759728 -0.07321095
0.15961756 0.0022557746 0.11306184 0.1192862 -0.037728142 0.028787754 -0.13113357 0.05693818
-0.11672056 -0.08069712 -0.045390014 0.07917063 -0.0055441638 0.05138918 0.09459603 0.07602003
-0.1079839 0.1265379 0.02934421 0.053587824 0.04792689 -0.12128785 0.108744435 0.16538349
-0.23933925 0.15114826 -0.16117437 0.14341222 0.10182828 -0.10500837 0.10482126 0.12484504
0.108544886 0.04638199 -0.035716955 -0.029760841 -0.06702096 -0.015785223 -0.057556286 -0.026464626
-0.22688448 0.0036687714 0.17136341 0.07018021 0.0615588 0.22972727 0.06982737 -0.12051571
00000000: cb4a 463d 0f6c 983d 0b0f 983d cf25 1dbe
00000010: e9b1 88bd 2d28 0c3c b501 0e3e eb70 1a3e
00000020: e6d8 863d a91a 513d d1aa b03c 6f61 023d
00000030: 6208 89bd bc4a 403c 545d 023d d8bb e3bd
00000040: dec8 093e 9bbb 63be 98c9 8abc 8772 a3bd
00000050: aa5c 563d 28e4 da3d 60df 073e cfb2 73bd
00000060: 45ec b43c cb59 e63d ca84 113d 1367 08bc
00000070: eba2 ca3d dee1 bfbd 5794 bc3b 5a23 4cbe
00000080: b5a5 b93d 7f8a 65bd 32d9 c8bd ee7c d43d
00000090: fd3b a1bd ae99 34bc 8061 bebd be1d 15bb
000000a0: 426e 49bd 9192 e83c 78e8 033b 4669 83bd
000000b0: a225 8cbd a74e 243e f875 0f3e fc0a b83d
000000c0: f8f8 d5bd 90e5 5a3d d07c b93d efe6 96bd
000000d0: a7f5 20bc 46aa a2bd 3558 c5bc 064a 60bc
000000e0: 2550 36bd 29ba a03d 7d31 f6bc 2dd7 db3b
000000f0: 2c1b d0bc 8092 053c 74c3 0e3e 78c6 9a3b
00000100: 138d e2bd a6b7 0fbd 9534 a43c 90a2 a43d
00000110: c597 49bd d5ff 89bd 1798 943d ebc2 1bbe
00000120: d3e7 663d e130 a63c 86a3 b7bd 4803 a4bd
00000130: 99e2 093e b0e3 073c bcae ff3d 7454 ca3d
00000140: 3fb3 42be 06d8 3ebe 588a 0c3e 4561 383e
00000150: f477 ff3d b485 053e e609 7ebe 316b b6bd
00000160: b6fe 273e ab9e 30be 4493 d5bd d065 9ebd
00000170: 5624 e13d f4a8 b4bd 346f 5e3d cb3e d23d
00000180: 2a31 4abd dd30 903b 5aaf ffbd e567 93bd
00000190: 5103 87bd 803d 6ebc 613f 073d 1de3 943d
000001a0: 9a8d 2cbe cfbd 51bd e878 0f3e 290c 40bd
000001b0: c8a6 c53d 16df d33d 9a4f 34be 08f6 533d
000001c0: 5e63 96bc 6f1c 16bd 28f0 5e3c 3c24 9139
000001d0: bb79 833d b09a 1bbc 34a2 cd3d be28 08be
000001e0: 2649 c8bc f4f3 a1bc 37bc bcbd 902e 52bd
000001f0: 455a a6bc 5a32 6cbd dba7 e4bc 167f 10bc
00000200: 9a1a 6e3c 7b22 45bd 1e2d 2f3d 239b 99ba
00000210: 3097 753e 7e0f 863d 7bd5 af3c 9e7f 353d
00000220: 11ee 9abd 6fde bdbc 1c1c 143e d3d3 b5bd
00000230: 752d 34bd a781 0cbe bd56 15bd 9bc6 47bd
00000240: c515 f13d 622f 023e 5a83 e73d 92e7 fd3d
00000250: b149 073e cf79 ca3d 0398 e2bd 836f 34bd
00000260: 0854 093e 9c77 293d 3f34 bb3d 1405 debd
00000270: 2560 053e c4f0 22be 7c1d b93c e30d 2abd
00000280: a3c5 4abd 439f f2bd 8c57 b3bd 7b64 f7bd
00000290: ba03 433d 3509 8e3d 2b9b e7bc ecc6 52be
000002a0: 2833 113c c332 573e f9c6 8b3c 6522 89bd
000002b0: 610c 0a3e 7854 c43d 76b4 95bd 23bb 81bd
000002c0: 4149 423d 788b d23c bded 5fbc 1fd9 493d
000002d0: bcb6 a83c 9a2d 8fbd acd5 123e 42c9 8b3a
000002e0: 6f22 003e 9045 0dbe f1b3 01bd f5fc 623b
000002f0: c279 83ba 7305 65bd 650b b5bc 76d5 44be
00000300: 93ba be3c 8adf da3a 0afd e6bd 7588 b6bd
00000310: 7cad 793d 2243 45be a752 7bbb b7d4 ae3d
00000320: 52ad 973d 529d a0bd 8312 683e 8173 d2bd
00000330: a985 0cbe 3496 ab3b 3466 b33d 9fef 95bd
00000340: c972 233e 9ed5 133b f78c e73d 534c f43d
00000350: d388 1abd 4cd4 eb3c e147 06be 0238 693d
00000360: 300b efbd 8844 a5bd e1ea 39bd 3624 a23d
00000370: d1ab b5bb 767d 523d 90bb c13d 64b0 9b3d
00000380: aa26 ddbd 2793 013e 4563 f03c e87e 5b3d
00000390: fd4e 443d c465 f8bd 67b5 de3d 4a5a 293e
000003a0: 5915 75be 9cc6 1a3e e50a 25be a7da 123e
000003b0: 588b d03d a10e d7bd 87ac d63d c2ae ff3d
000003c0: c84c de3d 0bfb 3d3d f14b 12bd 02cd f3bc
000003d0: 4942 89bd 0350 81bc 24c0 6bbd 58cc d8bc
000003e0: 6854 68be c56f 703b e479 2f3e a4ba 8f3d
000003f0: 1525 7c3d a03d 6b3e a701 8f3d f1d0 f6bd

critic.0.bias f4 [64]
-0.04752967 -0.05887737 0.070599176 0.0566829 0.0119191315 0.1299562 0.042365275 -0.12474342
-0.25142938 0.18204926 -0.041505832 -0.023827164 0.20335685 0.046956018 -0.032748897 0.035213627
0.15270753 -0.109571725 -0.054353096 0.21242622 0.020859472 -0.18485908 -0.11854895 0.17873749
-0.018230433 -0.20317735 0.1416844 -0.093156524 -0.1549464 -0.11143732 0.05906346 -0.025288146
0.15291592 -0.1762784 0.15742105 0.17433298 -0.04657649 -0.19755645 -0.021089548 0.19249155
-0.08870469 0.037984952 -0.00024510844 0.06952511 0.068014845 0.026493737 -0.18232006 -0.13417457
-0.23241214 0.123854905 0.017437242 0.13261327 -0.021466125 -0.27328977 0.048383083 0.024942255
0.13721684 0.20240408 -0.0006304056 -0.03281441 -0.13128775 -0.17754069 -0.23730321 -0.12507102
00000000: 79ae 42bd 6629 71bd 4d96 903d 542c 683d
00000010: 7648 433c 3d13 053e 3687 2d3d 7a79 ffbd
00000020: 5abb 80be 1f6b 3a3e 0502 2abd 2f31 c3bc
00000030: c73c 503e f454 403d b523 06bd 2a3c 103d
00000040: 5d5f 1c3e 2467 e0bd 5aa1 5ebd 4286 593e
00000050: 7ce1 aa3c b34b 3dbe cbc9 f2bd f606 373e
00000060: fd57 95bc b90d 50be b715 113e d9c8 bebd
00000070: 45aa 1ebe 4039 e4bd 87ec 713d 1629 cfbc
00000080: fe95 1c3e 5382 34be fc32 213e 5884 323e
00000090: fdc6 3ebd 3d4c 4abe fdc3 acbc 811c 453e
000000a0: ceaa b5bd 1c96 1b3d e681 80b9 2e63 8e3d
000000b0: 5e4b 8b3d 6509 d93c 1cb2 3abe 0f65 09be
000000c0: 73fd 6dbe a4a7 fd3d 8cd8 8e3c c6cb 073e
000000d0: bad9 afbc a3ec 8bbe 572d 463d b353 cc3c
000000e0: 9282 0c3e 0443 4f3e ce41 25ba 6768 06bd
000000f0: 4c70 06be 3acd 35be 9dff 72be 9e12 00be

critic.1.weight f4 [64]
0.97753847 0.99422145 1.037196 1.020615 1.0281473 0.9780346 1.0183355 0.95223844
0.96188474 1.0139599 0.94597983 1.0599495 1.0059363 1.0585294 0.93137616 1.0249532
1.1131728 0.94433373 1.0377712 0.9958589 0.9744492 0.96073323 1.0190514 0.9780288
0.95509124 1.1040959 1.0048457 1.0131475 0.962447 0.9805671 0.93624336 0.99497896
1.0670139 0.97717047 0.9711418 1.0215394 1.0325696 0.99196243 0.95984024 0.9982754
0.9534991 0.969568 0.9861092 1.0091206 1.034762 0.9443918 0.9756218 0.9718173
1.0616753 0.9837141 1.0472397 1.0141702 1.0202272 0.9257463 0.96899617 1.0976245
0.9973124 0.9857916 0.97491294 0.94144225 0.9962155 0.9655171 0.999564 1.0710492
00000000: f63f 7a3f 4c85 7e3f d7c2 843f 83a3 823f
00000010: 559a 833f 7a60 7a3f d158 823f e6c5 733f
00000020: 143e 763f 70c9 813f bc2b 723f 6dac 873f
00000030: 85c2 803f e47d 873f ab6e 6e3f ab31 833f
00000040: 727c 8e3f dbbf 713f b0d5 843f 9cf0 7e3f
00000050: 8175 793f 9df2 753f 4770 823f 1860 7a3f
00000060: dc80 743f 0453 8d3f c99e 803f d1ae 813f
00000070: ed62 763f 7206 7b3f a5ad 6f3f f1b6 7e3f
00000080: e993 883f d827 7a3f c09c 783f cec1 823f
00000090: 3e2b 843f 40f1 7d3f 17b8 753f fa8e 7f3f
000000a0: 8418 743f 9c35 783f a771 7c3f dd2a 813f
000000b0: 1573 843f a9c3 713f 5ac2 793f 05c9 783f
000000c0: fae4 873f b0d4 7b3f f30b 863f 54d0 813f
000000d0: ce96 823f b6fd 6c3f 2210 783f f67e 8c3f
000000e0: de4f 7f3f d75c 7c3f e593 793f 5c02 713f
000000f0: fb07 7f3f 212c 773f 6de3 7f3f 2418 893f

critic.1.bias f4 [64]
0.0063689086 0.035073593 0.0114508625 0.034780804 0.03898715 0.014176397 0.050826095 0.024837242
0.07768046 -0.0014823982 -0.02708534 0.03410385 0.0017170947 0.07384221 -0.043873336 0.036126647
0.04704754 0.0018937052 0.053433582 0.031412028 0.021935072 -0.028661694 0.012918826 0.001742653
-0.0812492 0.05713252 0.06944902 0.03734804 -0.024125746 0.0052527287 -0.0026792756 0.03296574
0.044425413 -0.004675089 0.0045060464 0.029823218 0.05671639 0.0810887 0.00096606644 0.029041091
0.0017176672 -0.030698214 0.00063919584 0.009521862 -0.037129577 0.0070913862 -0.019243507 0.052724723
0.040881597 -0.0009780956 0.028686462 0.05456771 0.07392152 -0.027979394 -0.007649287 0.050428167
0.037910786 0.09083535 0.013690366 -0.02886071 0.052684415 -0.0007544284 -0.014676258 0.06790526
00000000: 47b2 d03b 54a9 0f3d 669c 3b3c 5176 0e3d
00000010: fdb0 1f3d 1e44 683c 062f 503d 7977 cb3c
00000020: ef16 9f3d 084d c2ba 13e2 ddbc 7bb0 0b3d
00000030: 2310 e13a 963a 973d 87b4 33bd 89f9 133d
00000040: ecb4 403d 3436 f83a 2cdd 5a3d e6a9 003d
00000050: 2eb1 b33c eecb eabc 7ca9 533c bb69 e43a
00000060: fb65 a6bd ca03 6a3d 4a3b 8e3d 42fa 183d
00000070: 5ba3 c5bc 151f ac3b c996 2fbb 1507 073d
00000080: 6cf7 353d 7d31 99bb 75a7 933b d24f f43c
00000090: 724f 683d d511 a63d 9f3f 7d3a 95e7 ed3c
000000a0: 5923 e13a d27a fbbc b58f 273a 9501 1c3c
000000b0: 2f15 18bd dc5e e83b 8fa4 9dbc e1f5 573d
000000c0: 7673 273d 7133 80ba dfff ea3c 6482 5f3d
000000d0: 2a64 973d 0b35 e5bc dfa6 fabb c48d 4e3d
000000e0: 5748 1b3d e207 ba3d 8f4d 603c 4c6d ecbc
000000f0: 9dcb 573d d5c4 45ba b074 70bc ea11 8b3d

critic.3.weight f4 [64, 64]
0.16238534 0.1302483 -0.13110152 0.10098124 0.05729919 0.013905322 0.1349356 0.099152476
0.021219408 0.07604195 0.11933097 0.0041528046 0.17504221 -0.05095246 -0.0034800756 0.053577837
-0.0055624912 0.017329067 -0.0022482655 0.04441315 -0.053489614 -0.05365189 0.0019524551 0.0876041
-0.072215326 -0.0027403985 -0.020064378 -0.00659537 0.09371114 0.07676055 0.09135904 0.08345873
-0.046457354 -0.05247963 0.04263165 0.0016197952 0.10962665 0.016749376 0.08032193 0.039947804
0.065399945 0.033626985 0.029053042 0.03996995 -0.11928053 -0.06423092 0.07435651 0.11532277
-0.03378115 0.055018574 -0.07430635 0.1358352 0.101815365 -0.063674055 0.08961689 -0.09700908
-0.031332627 0.15614009 0.09918368 0.048235994 0.038016137 -0.07508999 -0.0468018 0.109066434
-0.042096037 -0.07407501 0.06930933 -0.0512436 0.0318484 0.055751625 -0.09669275 0.03780619
0.009495262 0.1236336 -0.079225704 0.009814674 -0.021993266 -0.10721486 0.0810229 0.0107757095
-0.0142902145 -0.011021387 -0.0027678034 0.11424351 0.02251734 0.11317803 0.039116792 0.047712106
0.1000938 -0.006747582 0.03092787 0.023988977 0.11800128 0.025127662 -0.08975256 0.11713417
0.06512472 -0.019817185 0.1268081 0.108677275 0.03855578 -0.100386776 -0.049045406 -0.039981898
0.10274216 0.056266434 -0.07795915 -0.09449785 0.020513168 -0.088703945 0.08593205 -0.039030656
0.085525356 0.041947857 -0.0792137 0.0028191556 0.020275606 0.029864972 -0.036866523 -0.114591956
0.09479381 0.0878419 -0.004708386 0.060177702 -0.06359376 0.08218162 -0.113569945 -0.06401366
-0.008729119 -0.024891008 0.0035710155 0.03112944 -0.058252357 0.04194795 -0.037120312 -0.085899495
-0.03119239 0.049649354 0.07651572 -0.006686459 -0.07237958 -0.10929596 0.07613696 -0.039686065
0.036225237 0.016039263 -0.058017977 0.08707565 0.0145885935 -0.05560729 -0.077127494 0.10745904
0.027289186 -0.007144924 -0.039789777 0.05384779 -0.014667784 -0.09119414 0.050359793 -0.04153877
0.03928865 0.043645956 0.04800557 -0.103061855 0.02627555 -0.047131494 0.059692387 -0.037513074
-0.11919071 -0.131161 0.037767753 -0.011486976 0.0390354 0.07350223 0.008865924 0.10487278
0.15904658 -0.048208565 0.032399233 -0.031100815 0.06939328 0.06527529 -0.061586928 -0.10962622
0.032630254 -0.083685644 -0.0976918 0.00090046396 0.03840136 0.033733465 -0.07406655 -0.17228313
-0.078558356 -0.030302485 -0.15567079 -0.09211071 0.0023521446 -0.01588074 -0.065900534 -0.029809698
0.023434224 0.046200592 -0.050985854 0.013413229 0.083752975 -0.163896 0.06069648 0.022939304
-0.049735416 -0.082427 0.033051126 -0.032935817 -0.054675438 0.07079484 -0.03318851 -0.012677222
0.100710645 0.17557284 -0.018939089 -0.0023279442 -0.09145964 0.056966916 0.058718044 0.0008300863
-0.018602822 -0.010476336 -0.054767735 -0.0585032 -0.021418847 -0.09420755 -0.044526704 0.07320033
0.040756624 -0.07094564 0.019092903 0.009379642 -0.059303068 -0.064006396 0.0019146071 0.03212457
0.08247982 -0.027744196 0.048665315 0.03846294 -0.046520654 -0.03326902 0.060721125 -0.14823629
-0.040656872 -0.118376695 0.08369052 0.01745413 -0.008057735 -0.10168517 0.04345718 -0.054460682
00000000: 5848 263e cf5f 053e 7a3f 06be 41cf ce3d
00000010: 8eb2 6a3d 26d3 633c 8f2c 0a3e 7410 cb3d
00000020: 53d4 ad3c e2bb 9b3d cc63 f43d 4014 883b
00000030: 443e 333e 87b3 50bd fb11 64bb 6f74 5b3d
00000040: 8f45 b6bb b0f5 8d3c a357 13bb 90ea 353d
00000050: ed17 5bbd 16c2 5bbd 86e9 ff3a c769 b33d
00000060: a1e5 93bd 4298 33bb 0d5e a4bc f91d d8bb
00000070: a0eb bf3d a334 9d3d 731a bb3d 69ec aa3d
00000080: 114a 3ebd e1f4 56bd 869e 2e3d 4f4f d43a
00000090: f083 e03d fd35 893c d37f a43d 4fa0 233d
000000a0: 68f0 853d 73bc 093d a500 ee3c 88b7 233d
000000b0: 5a49 f4bd 808b 83bd 3a48 983d 582e ec3d
000000c0: 1a5e 0abd 285b 613d ed2d 98bd 6218 0b3e
000000d0: 9384 d03d 8b67 82bd 0f89 b73d b2ac c6bd
000000e0: a456 00bd 30e3 1f3e d020 cb3d 1b93 453d
000000f0: cfb6 1b3d c8c8 99bd 3fb3 3fbd 395e df3d
00000100: e56c 2cbd a4b4 97bd 0df2 8d3d cfe4 51bd
00000110: 7873 023d d15b 643d d906 c6bd aada 1a3d
00000120: 0492 1b3c 9d33 fd3d 1641 a2bd bacd 203c
00000130: 392b b4bc 7793 dbbd 56ef a53d 9a8c 303c
00000140: 8121 6abc 0c93 34bc 0964 35bb 80f8 e93d
00000150: 4976 b83c e2c9 e73d ee38 203d c56d 433d
00000160: fafd cc3d d21a ddbb 725c fd3c 8884 c43c
00000170: a8aa f13d 87d8 cd3c 31d0 b7bd 0ae4 ef3d
00000180: 1c60 853d a657 a2bc fcd9 013e 3192 de3d
00000190: aaec 1d3d 9597 cdbd d6e3 48bd 0fc4 23bd
000001a0: 7b6a d23d a277 663d 0ca9 9fbd 1788 c1bd
000001b0: 3b0b a83c 6aaa b5bd 25fd af3d 9cde 1fbd
000001c0: eb27 af3d 84d1 2b3d cb3a a2bd 95c1 383b
000001d0: 0719 a63c 63a7 f43c 5a01 17bd 30af eabd
000001e0: 4223 c23d 74e6 b33d ce48 9abb e57c 763d
000001f0: 723d 82bd d64e a83d 5c97 e8bd 9819 83bd
00000200: 9404 0fbc 3ae8 cbbc b307 6a3b 2b03 ff3c
00000210: 069a 6ebd 9dd1 2b3d 780b 18bd 13ec afbd
00000220: 2f87 ffbc 1f5d 4b3d 46b4 9c3d 151a dbbb
00000230: bf3b 94bd 8fd6 dfbd b2ed 9b3d db8d 22bd
00000240: ea60 143d c664 833c 42a4 6dbd b854 b23d
00000250: ff04 6f3c 78c4 63bd 05f5 9dbd 7c13 dc3d
00000260: 928d df3c f71f eabb 9bfa 22bd 808f 5c3d
00000270: 2551 70bc fec3 babd 1246 4e3d 8f24 2abd
00000280: 23ed 203d 1ac6 323d 7da1 443d 1812 d3bd
00000290: d23f d73c f40c 41bd 0180 743d 4fa7 19bd
000002a0: 421a f4bd 124f 06be 5cb2 1a3d df33 3cbc
000002b0: 95e3 1f3d 5688 963d 6142 113c 8ac7 d63d
000002c0: 1bdd 223e 5876 45bd 0fb5 043d 23c7 febc
000002d0: 101e 8e3d 0daf 853d 9342 7cbd b683 e0bd
000002e0: 4da7 053d 6163 abbd a312 c8bd 1d0d 6c3a
000002f0: bf4a 1d3d 1a2c 0a3d 34b0 97bd fd6a 30be
00000300: 34e3 a0bd eb3c f8bc 2a68 1fbe 8aa4 bcbd
00000310: 7026 1a3b 5318 82bc dcf6 86bd 7833 f4bc
00000320: 21f9 bf3c d53c 3d3d 8bd6 50bd 29c3 5b3c
00000330: ae86 ab3d 5ad4 27be df9c 783d 35eb bb3c
00000340: 5db7 4bbd 7dcf a8bd 9e60 073d b5e7 06bd
00000350: 5af3 5fbd e3fc 903d adf0 07bd 1fb4 4fbc
00000360: 6241 ce3d 5ec9 333e 2626 9bbc 6c90 18bb
00000370: 314f bbbd 2456 693d 5582 703d 269a 593a
00000380: f264 98bc f0a4 2bbc 2254 60bd 0da1 6fbd
00000390: 9476 afbc e3ef c0bd a261 36bd 0eea 953d
000003a0: 6bf0 263d f34b 91bd b868 9c3c 12ad 193c
000003b0: c6e7 72bd c915 83bd 8ef3 fa3a 0e95 033d
000003c0: 2eeb a83d cc47 e3bc 4855 473d 518b 1d3d
000003d0: 718c 3ebd 1945 08bd b7b6 783d 41cb 17be
000003e0: d287 26bd 7b6f f2bd ef65 ab3d f7fb 8e3c
000003f0: 9704 04bc 5040 d0bd 2800 323d 2a12 5fbd

critic.3.bias f4 [64]
-0.023512363 -0.027524676 0.013964544 0.010928216 -0.031105133 0.017203918 0.047170874 0.014376003
0.06649145 -0.037085526 0.02677167 0.0034151403 -0.048111506 -0.040427 0.06566861 0.018420937
-0.045116093 0.1329456 -0.07212216 -0.071055435 -0.086026214 -0.08673311 -0.06540157 -0.013173807
-0.028950501 -0.05690397 -0.025226014 0.071517654 -0.059821684 -0.03161291 0.08824457 -0.08781951
0.017836813 -0.008190929 -0.020797508 0.1111949 0.012791297 0.08259141 -0.06319947 -0.12710375
-0.0809576 -0.08605051 0.039944474 -0.040741675 -0.06821819 0.08487196 0.018612629 -0.052916523
0.089698054 0.021929728 -0.08183958 -0.06427799 -0.117341444 -0.02291123 -0.12698904 0.008052711
0.08820899 -0.00967883 0.10360992 0.07002135 -0.12439703 -0.014358225 -0.06163522 0.07783057
00000000: 009d c0bc 6e7b e1bc 8bcb 643c 430c 333c
00000010: 31d0 febc 3bef 8c3c 3f36 413d 5489 6b3c
00000020: ab2c 883d fee6 17bd 4350 db3c 8cd0 5f3b
00000030: 9210 45bd c896 25bd 447d 863d 81e7 963c
00000040: a7cb 38bd e422 083e c8b4 93bd 8385 91bd
00000050: 832e b0bd 21a1 b1bd 42f1 85bd f4d6 57bc
00000060: 9a29 edbc 2314 69bd c9a6 cebc d977 923d
00000070: 9507 75bd 8a7c 01bd 92b9 b43d b7da b3bd
00000080: 821e 923c 3f33 06bc 895f aabc 27ba e33d
00000090: 9792 513c af25 a93d b96e 81bd 7c27 02be
000000a0: 19cd a5bd 403b b0bd d19c 233d bee0 26bd
000000b0: fab5 8bbd 5ad1 ad3d 8379 983c ffbe 58bd
000000c0: 9db3 b73d f9a5 b33c 829b a7bd 2ea4 83bd
000000d0: b650 f0bd 55b0 bbbc 6a09 02be 85ef 033c
000000e0: eaa6 b43d f593 1ebc 7031 d43d 5b67 8f3d
000000f0: dfc3 febd c33e 6bbc 3675 7cbd a265 9f3d

critic.4.weight f4 [64]
1.2495346 1.1125635 1.0222011 1.0382698 1.2000171 1.110267 1.085883 0.99263465
1.0041691 1.2299954 1.0055605 1.1852875 1.2540077 1.0223298 0.9876121 0.9882628
0.9917112 1.1270251 0.99145097 0.993267 0.9990099 0.9902886 0.9898422 1.2874184
1.138998 1.0459716 0.9973049 1.2315371 1.297999 0.9927766 0.99725956 1.0876552
1.0353688 1.2597035 0.9943724 1.1722329 1.0594476 0.9895798 1.0454756 0.9909529
0.98746145 1.0263107 0.98801315 1.1596081 0.98973095 1.0121505 0.9911522 1.1792388
1.0965581 1.1117908 1.0257527 1.0489883 1.1507753 1.0243713 0.9870379 1.1705538
1.1921868 0.98790807 0.9885019 1.0355313 1.0184573 0.9856662 1.0507928 0.9918184
00000000: c0f0 9f3f 7b68 8e3f 7cd7 823f 06e6 843f
00000010: 299a 993f 3b1d 8e3f 37fe 8a3f 4e1d 7e3f
00000020: 9d88 803f 7d70 9d3f 35b6 803f 80b7 973f
00000030: 5383 a03f b4db 823f 26d4 7c3f cafe 7c3f
00000040: c9e0 7d3f 5c42 903f bbcf 7d3f bf46 7e3f
00000050: 1dbf 7f3f 8e83 7d3f 4c66 7d3f 20ca a43f
00000060: b0ca 913f 66e2 853f 604f 7f3f 02a3 9d3f
00000070: d524 a63f 9b26 7e3f 674c 7f3f 4938 8b3f
00000080: f786 843f f73d a13f 318f 7e3f ba0b 963f
00000090: fb9b 873f 1a55 7d3f 25d2 853f 17af 7d3f
000000a0: 46ca 7c3f 265e 833f 6eee 7c3f 0a6e 943f
000000b0: 025f 7d3f 268e 813f 27bc 7d3f 4cf1 963f
000000c0: 045c 8c3f 294f 8e3f dd4b 833f 4045 863f
000000d0: 9b4c 933f 991e 833f 84ae 7c3f b5d4 953f
000000e0: 9499 983f 8be7 7c3f 760e 7d3f 4a8c 843f
000000f0: cf5c 823f 9f54 7c3f 6180 863f d0e7 7d3f

critic.4.bias f4 [64]
0.19085744 0.123010084 0.02876442 0.039265826 0.18146054 0.13628791 0.006687236 -0.017849851
0.019794215 0.19665183 0.0066163265 0.15909089 0.20776634 0.02929569 -0.014823164 -0.015787028
-0.010143018 0.13039653 -0.009659637 -0.0019078687 -0.0061707464 -0.014524752 -0.0066951616 0.24010715
0.13296622 -0.006980362 0.0039087543 0.19659144 0.24896234 -0.0130759785 -0.0012155303 0.005927103
0.011192705 0.20468415 -0.011432171 0.15013461 0.041575853 -0.008889978 0.066047974 -0.009484902
-0.0184254 0.0394821 -0.01899926 0.13083036 -0.011143475 -0.021850102 0.004198692 0.15927657
0.11378411 0.03477047 0.042930957 0.053680204 -0.01972905 -0.006661975 -0.017515743 0.14777826
0.17381108 -0.016491354 -0.013734251 0.045185253 0.029825464 -0.024017649 0.09607565 -0.003892989
00000000: 2270 433e b6ec fb3d 5ca3 eb3c 34d5 203d
00000010: cbd0 393e 0f8f 0b3e 9a20 db3b da39 92bc
00000020: 7a27 a23c 195f 493e c5cd d83b b9e8 223e
00000030: b3c0 543e 84fd ef3c dbdc 72bc cc53 81bc
00000040: e72e 26bc ab86 053e 7443 1ebc 7311 faba
00000050: f933 cabb 3af9 6dbc 1663 dbbb a6de 753e
00000060: 4c28 083e 85bb e4bb 0215 803b 444f 493e
00000070: fcef 7e3e a13c 56bc 6e52 9fba 2538 c23b
00000080: 9b61 373c b998 513e 004e 3bbc e3bc 193e
00000090: 714b 2a3d 45a7 11bc 2944 873d 9066 1bbc
000000a0: ddf0 96bc fcb7 213d 56a4 9bbc 65f8 053e
000000b0: 1f93 36bc fcfe b2bc 2e95 893b 6619 233e
000000c0: a507 e93d 7b6b 0e3d 5fd8 2f3d c6df 5b3d
000000d0: d19e a1bc b24c dabb 2d7d 8fbc 2f53 173e
000000e0: 88fb 313e e018 87bc a005 61bc 2c14 393d
000000f0: 8854 f43c a9c0 c4bc 4fc3 c43d 8421 7fbb

critic.6.weight f4 [1, 64]
0.3422505 0.17921533 0.027942138 0.058100805 0.20241506 0.16357313 -0.17244194 -0.074364245
0.023644347 0.25166464 -0.08312726 0.24164572 0.33005548 0.025283085 -0.09030133 -0.052691616
-0.06398964 0.21712159 0.00060773955 0.027419224 -0.07905459 -0.09771305 -0.03369549 0.35058048
0.20058832 -0.15279418 0.006446506 0.32029864 0.29014358 -0.07582716 -0.07215846 -0.092306
-0.06789901 0.2884764 -0.10918754 0.19889271 -0.12379481 -0.10576228 -0.08767322 -0.03707344
-0.06296903 0.049162198 -0.051935222 0.2576397 -0.10273044 -0.089077204 -0.07688957 0.23920348
0.20294936 -0.06811864 0.056290064 0.07444894 -0.17647608 -0.032150652 -0.021582216 0.24908179
0.21727753 -0.05738676 -0.11057724 0.0553921 0.017027657 -0.09143873 0.09117141 -0.044115953
00000000: 753b af3e 3984 373e e9e6 e43c 1cfb 6d3d
00000010: e545 4f3e b77f 273e 9f94 30be 484c 98bd
00000020: cab1 c13c 30da 803e a03e aabd fa71 773e
00000030: 08fd a83e 791e cf3c e7ef b8bd 2ad3 57bd
00000040: 000d 83bd 1f55 5e3e b650 1f3a 489e e03c
00000050: 5fe7 a1bd c81d c8bd 4804 0abd 497f b33e
00000060: 0667 4d3e 1476 1cbe 363d d33b 2ffe a33e
00000070: b38d 943e 454b 9bbd d1c7 93bd ee0a bdbd
00000080: a30e 8bbd 2eb3 933e b89d dfbd 88aa 4b3e
00000090: 2288 fdbd e599 d8bd 048e b3bd 52da 17bd
000000a0: e8f5 80bd 4d5e 493d 07ba 54bd 5ae9 833e
000000b0: 5664 d2bd 1c6e b6bd 4778 9dbd c2f1 743e
000000c0: f5d1 4f3e c981 8bbd 6990 663d b078 983d
000000d0: 25b6 34be 67b0 03bd 30cd b0bc 4c0f 7f3e
000000e0: 007e 5e3e 610e 6bbd 5276 e2bd d4e2 623d
000000f0: 967d 8b3c 3b44 bbbd 14b8 ba3d eeb2 34bd

obs_mean f4 [29]
-4.5051227e-05 0.3469306 6.266686e-05 -0.46034306 9.6634416e-05 0.00011922338 -4.3611028e-05 0.00018260028
-3.3992754e-05 -0.015880948 4.4951583e-05 0.32093227 6.938432e-07 -1.4269685e-06 -1.2728215e-05 3.3291533e-05
0.768781 0.0005066304 2.76207e-05 -0.11589379 0.00573801 0.021926349 -0.061999615 -0.0032981012
0.013521281 0.04344756 -0.03805863 0.09461113 0.6390024
00000000: 63f5 3cb8 e3a0 b13e 046c 8338 16b2 ebbe
00000010: 35a8 ca38 9107 fa38 fcea 36b8 6478 3f39
00000020: 7193 0eb8 c318 82bc 658a 3c38 3c51 a43e
00000030: 8b40 3a35 4486 bfb5 448b 55b7 83a2 0b38
00000040: d5ce 443f 64cf 043a 00b3 e737 b959 edbd
00000050: eb05 bc3b e39e b33c 4ff3 7dbd f524 58bb
00000060: 5d88 5d3c 12f6 313d 5ee3 1bbd 7bc3 c13d
00000070: a995 233f

obs_var f4 [29]
1.2732121e-06 8.013985 1.121546e-06 7.9769583 1.6327165e-07 2.2382979e-07 3.6340273e-06 5.3307876e-06
0.00013846329 7.755017 0.00011584023 8.920145 5.5110002e-05 6.227426e-05 0.00036535042 0.00036693813
0.06768477 0.005611017 0.0056782104 0.31638023 0.09550001 0.09961711 0.05566409 0.22716546
0.2202462 0.10618244 0.08761132 0.13112287 0.0016652961
00000000: 3ce3 aa35 4839 0041 0788 9635 3e43 ff40
00000010: c54f 2f34 dd55 7034 1de0 7336 1edf b236
00000020: 7530 1139 1929 f840 40ef f238 eab8 0e41
00000030: ea25 6738 3d99 8238 818c bf39 9a61 c039
00000040: 509e 8a3d 9fdc b73b 4810 ba3b 97fc a13e
00000050: 8295 c33d 0e04 cc3d 0700 643d 109e 683e
00000060: 3888 613e 2e76 d93d 906d b33d 1345 063e
00000070: 1146 da3a
