src/taser/locomotion/models/balance.onnx (onnx, 28577 bytes, 11 tensors)

model.log_std f4 [2]
00000000: a3fd 4cbf 4409 46bf
-0.8007452 -0.7735789

model.actor.0.weight f4 [64, 26]
00000000: 55d1 13be 7db5 24bd 43a2 6a3d d4aa 3abd
00000010: 6728 b7bc fcbb f03d cb75 68bd 1d53 c53d
00000020: fe70 8dbd 9950 1d3e f313 973c f278 9cbd
00000030: 11bb c6bc 7672 0a3d ab01 ca3d 2068 4dbd
00000040: 5636 a73e 27f5 2c3d 042b 913c 8b20 81bd
00000050: 9980 d13e 13c1 4bbe 3ae8 8e3d e686 173d
00000060: 87f0 c83e 0e01 883d b670 18be 8af3 30be
00000070: f9c4 a93c 7c9c 04be c864 a53d 1f34 b9bd
00000080: 09ab d23d 11c8 db3c 6604 b5bc 41a4 ddbd
00000090: 3943 3e3c b43a 9e3d 6601 723c 03a4 01bd
000000a0: 603e 113d 78a0 3fbe b254 913d f97a 873d
000000b0: 7c73 cfbd 7137 2e3e dbee 3dbd 0132 e8bd
000000c0: 4a0f 043d 4e6b 4f3d 1d11 283e a9b8 1abd
000000d0: 0daa a13d 0c08 e93d fc73 a7bb 36ed c5bd
000000e0: ab63 9bbb 286d 05bc e0b0 8bbd bea6 1dbe
000000f0: b606 1cbc 8e9b f43d 4105 c9bd da1e 94bc
00000100: 8893 febd 8faa cabd 150a bc3c 9433 b4bb
00000110: d780 593b 985d 26be e4a0 cebd 5c7b 5fbd
00000120: 1846 813e 7fd5 5cbd 1c6b 503e 21fa a8bd
00000130: 3ae0 93bc a1f9 523e 7648 823c 0e6c ba3c
00000140: 1455 f43d 3c0a d53b dcc9 04bd ef5b 87bc
00000150: 30fa e93c 4854 a5bd b6c3 fbbd 632d 113e
00000160: 2d14 6cbd 7dde 63bc 365b f83c bad7 d7bd
00000170: 4022 08be f120 503c 3db3 3d3e 9eaa 21be
00000180: 3fa7 343e 7b8a bf3d 2b85 eb3c ba68 7ebd
00000190: 3bb8 923d bffb d3bc 8b36 b43d 267b eabd
000001a0: db1d 56bd a628 bbbd dd9f 193d b058 c73d
000001b0: 3921 b53d d178 04be d60a 423d 8ab6 22bd
000001c0: 7cd3 2f3e 971e 0cbe 7aed 063b 6b5d 7bbd
000001d0: 0777 91bb 0cae b53c 4f33 633d 3c6b 96bc
000001e0: 32b3 69be f662 2ebe bd66 00be 6401 6a3e
000001f0: af8c 5fbe e2cc 623e 6957 c1bd e558 91be
00000200: 86b5 dfbd 3a02 34be 9412 1c3e 0d6a fc3d
00000210: bf24 163e 5fd8 453c 1ec4 98bd 936f bcbd
00000220: 6869 a83d 26e0 7cbd 6a2d 7d3d 735e e53d
00000230: aa6d bdbd d84a e83b 77a0 51be aed8 bdbd
00000240: 719b b8bc 9455 3ab9 8e3b 173e 2677 113d
00000250: 6197 b53d 74ed 1d3d 4df5 1d3c 3d9a 8fbe
00000260: bc76 8c3d f3a5 2ebe c9cc 5d3b a59f 873b
00000270: 94f3 a4bd 530a 953d b2e3 9e3d c1b1 72bd
00000280: 701a e43d 3d39 89bd 9423 0ebe f377 d8bd
00000290: 510e 673d 77ec 0ebe 0c0b c6bd 13d0 46bd
000002a0: 96e9 d6bb 642d 9c3d 21a1 913d 880c 27be
000002b0: 1778 003e 09aa 093e 707f 16bd fdd3 c83d
000002c0: 649a 6abc ec53 0abe b618 c1bd 2d44 10be
000002d0: 7313 093e 175b 2a3e 6445 243e 7448 343d
000002e0: 3bf8 06bd 94b5 09be 3d77 0d3d 467f b13d
000002f0: 0984 443d 2c7b d8bc 7164 133e 6491 6cbd
00000300: 9859 c2bd cbe6 2f3d a917 e53c c4d8 c13d
00000310: 79ba ffbc a22a 17be 2850 3abc 6a40 07be
00000320: f0b8 d9bd 5456 81be ecc7 0c3e 52b1 f6bd
00000330: e5bb 4abe 06a8 073e 1fcd d5bd 2758 c93d
00000340: 4585 053e 8e95 d43d 83e7 1fbc a2b2 c5bd
00000350: aa3e 493c 9006 893d 7e6d 353e 39c3 c6bc
00000360: 3230 bdbc 1cc5 41bb ead6 4a3e 83d5 04bc
00000370: 4cb0 d53d 7a17 943d 72ad c8bd db06 91bc
00000380: e004 18be bce3 f0bd 08a1 61be adb9 e63d
00000390: f1ad 063e 9b1f 8c3d 561b 43be 0675 f3bb
000003a0: f47f 953d 0b7b e6bd 220d 6dbd 0b85 ebbd
000003b0: 12b2 df3c fac4 91bc 5cfc a4bc 22f2 10bd
000003c0: 07f8 e9bd 256b ec3c 0ba1 013e 109f 143e
000003d0: dcdb c0bd 6a61 cdbd 3425 253e 0fb5 aa3d
000003e0: 0be1 20bc 126a 013d 29d9 463e 03f4 473e
000003f0: 7e95 ab3d e0e1 0f3e 9ffc 2a3e 53c8 e23d
-0.14435323 -0.040212143 0.05728365 -0.04557307 -0.022358133 0.11754605 -0.05675296 0.09634993
-0.06906317 0.15362777 0.01844213 -0.07640256 -0.024259122 0.033800565 0.098635994 -0.05014813
0.32658643 0.042225983 0.017720707 -0.06305035 0.40918425 -0.1989787 0.069778875 0.036993884
0.39246008 0.06640826 -0.14886746 -0.17280403 0.020723807 -0.12950319 0.08075863 -0.090431444
0.102865286 0.026828798 -0.022096824 -0.108223446 0.011612707 0.077260405 0.014770841 -0.031650554
0.035459876 -0.18713558 0.070962325 0.06615252 -0.10129449 0.17013337 -0.04637037 -0.113376625
0.032241143 0.050639443 0.16412778 -0.037773762 0.07893763 0.11378488 -0.005110262 -0.09664385
-0.004742106 -0.008143701 -0.068208456 -0.15395638 -0.009523084 0.11943732 -0.09815455 -0.018081117
-0.12430483 -0.09895813 0.022954026 -0.0054993127 0.0033188367 -0.1624664 -0.10089281 -0.054561004
0.2524879 -0.053914543 0.20353359 -0.08250833 -0.018051255 0.20603038 0.015903693 0.022756603
0.1193029 0.006501464 -0.03241907 -0.01652333 0.028561682 -0.08072716 -0.12293188 0.1417747
-0.05763643 -0.013908026 0.03031693 -0.105391935 -0.13294315 0.012703166 0.18525405 -0.15787742
0.17641924 0.09352585 0.028750023 -0.062111594 0.071640454 -0.025876878 0.08799466 -0.1144927
-0.052274566 -0.091386124 0.037505973 0.09733713 0.08844227 -0.12936713 0.047373615 -0.039724864
0.17170519 -0.13683544 0.0020588324 -0.061368387 -0.004439238 0.022177719 0.055468854 -0.01836168
-0.22822264 -0.17029938 -0.12539192 0.22852093 -0.2183101 0.22148469 -0.094405 -0.28388134
-0.10923295 -0.17578974 0.15241462 0.12324915 0.14662455 0.012075513 -0.074592814 -0.092009686
0.0822323 -0.061737202 0.06181089 0.111996554 -0.092494324 0.007089 -0.20471369 -0.09269844
-0.022535058 -0.00017770223 0.14768812 0.03551402 0.08866764 0.03855653 0.009641004 -0.28047362
0.06858584 -0.17055492 0.0033843985 0.004138904 -0.08054271 0.0727736 0.07758273 -0.05925155
0.11137855 -0.067003705 -0.1388076 -0.105697535 0.056410138 -0.13957392 -0.09670076 -0.04853828
-0.0065586073 0.07625845 0.07110811 -0.16313374 0.1254581 0.1344377 -0.036742628 0.098060586
-0.014319036 -0.13508576 -0.09428541 -0.14088507 0.13386326 0.1663631 0.16042095 0.04401441
-0.032951575 -0.13448173 0.034537543 0.086668536 0.04797748 -0.02642592 0.14393784 -0.057755843
-0.09489745 0.04294471 0.027965384 0.09465173 -0.031216847 -0.14762357 -0.01137165 -0.13208166
-0.10630977 -0.25261176 0.13748139 -0.1204554 -0.19798239 0.1324769 -0.10439514 0.09831267
0.1303912 0.10380088 -0.009759787 -0.09653212 0.012283007 0.06690705 0.17717549 -0.024263011
-0.02309427 -0.002956695 0.19808546 -0.008107546 0.104340166 0.0723104 -0.09798707 -0.017703464
-0.1484561 -0.11762187 -0.22034085 0.112658836 0.13152291 0.06841966 -0.19053397 -0.0074297218
0.07299796 -0.11253937 -0.057873853 -0.11499985 0.02730659 -0.017794121 -0.020139866 -0.035387166
-0.114242606 0.028859684 0.1265909 0.14513803 -0.09416935 -0.10028346 0.16127473 0.083353154
-0.009819279 0.031595297 0.19418778 0.19526677 0.08378123 0.14051008 0.1669793 0.11073365

model.actor.0.bias f4 [64]
00000000: f61f 303e 39b5 c7bc b47a 393c 4065 40be
00000010: eaf1 d9bb 5726 393e 706e 1ebd 322e 0bbe
00000020: a8f3 033e 689d 1e3e de66 353e 5525 efbd
00000030: 669c 86bd 170e bcbd 9e6e 05bc 505b 683d
00000040: 741a 6f3e b37c 1dbe f629 76bd 1e08 e3bd
00000050: b743 0a3e 7b8c abbd dcde 313e a15b 663d
00000060: 0ef8 b1bc d78d 45be a2c5 303d 4dc1 053e
00000070: f32c b7bd f63b 29bc 8e9f 0c3e 7377 0bbe
00000080: 3ae7 2b3c 8e59 db3d 21c1 5dbe bad0 cdbd
00000090: 2812 1a3e b0f1 1b3e 873d 47be 091f 8639
000000a0: e00f 073e f342 9f3d 5a00 ddbd 366f 643d
000000b0: 2291 d33d b79c 873d 81d6 403e 172b 8c3d
000000c0: 6554 b43d 8663 043e 512d c03d 622d 74bd
000000d0: 58db a93d 7208 52bd a518 613d abca 673d
000000e0: 238c a7bd 512d 383e ac53 56bd 36b0 ab3d
000000f0: 24b7 073e 7f30 5f3e 7c37 38be bb0c 1abe
0.17199692 -0.024378406 0.011320759 -0.18788624 -0.006651153 0.18081032 -0.03867954 -0.13591841
0.12885916 0.15489733 0.17715022 -0.116770424 -0.065727994 -0.09182375 -0.008144049 0.056727707
0.23349935 -0.153796 -0.06009861 -0.110855326 0.13502394 -0.08376404 0.1737017 0.056239728
-0.021724727 -0.19292389 0.043157227 0.1306202 -0.0894412 -0.010329237 0.1373274 -0.13619785
0.01049214 0.107104406 -0.21655704 -0.10049577 0.15045989 0.15228915 -0.19457065 0.00025581595
0.1318965 0.077764414 -0.10791083 0.05577012 0.10330416 0.06621688 0.18831827 0.06844156
0.088051595 0.1292859 0.093836434 -0.059613593 0.082937896 -0.051277585 0.054955143 0.056589764
-0.08181026 0.17986037 -0.05232589 0.08383219 0.13253456 0.21795844 -0.17989916 -0.15043919

model.actor.1.weight f4 [64]
00000000: 72fc 853f 089e 7c3f 0837 7c3f 168d 783f
00000010: 2b76 823f 7175 7a3f 5e07 6f3f 06b3 783f
00000020: 4029 7c3f 6753 763f f1d5 853f 3639 7c3f
00000030: 4801 803f ea63 753f 70f5 763f 66f5 763f
00000040: 85f5 843f 4068 753f eedd 7d3f f705 733f
00000050: 9b37 883f 6031 813f b9c0 803f 1879 703f
00000060: 1d3c 733f 5a26 7e3f 19f7 763f e8e3 783f
00000070: dedb 793f 0b11 6e3f 1aff 763f 4a8c 7e3f
00000080: 8507 773f 0897 693f 0830 793f 107c 873f
00000090: 6fb1 823f b4e3 783f cc0c 723f a421 773f
000000a0: 4fe2 7c3f c301 7a3f 50a9 743f 9286 733f
000000b0: 6bb9 783f b45d 823f 9f47 843f 0926 7c3f
000000c0: 4248 843f 99d9 7a3f 15f1 8d3f 3dd0 6f3f
000000d0: db0e 7e3f 9afe 803f 5ceb 723f 8aa9 803f
000000e0: 8165 823f b8c8 803f adb7 7c3f e467 813f
000000f0: 4965 893f c6fb 823f 33ed 733f 1119 843f
1.0467665 0.98678637 0.9852147 0.9709028 1.0192312 0.9783545 0.93370616 0.9714817
0.9850044 0.9622101 1.0455915 0.98524797 1.0000391 0.9585558 0.9646826 0.964682
1.0387427 0.958622 0.9916676 0.94930977 1.064197 1.0093193 1.0058814 0.93934774
0.950136 0.9927727 0.9647079 0.9722276 0.97601116 0.92994756 0.96483004 0.99432814
0.9649585 0.9124608 0.97338915 1.0584736 1.0210398 0.9722245 0.94550776 0.96535707
0.9878282 0.9765894 0.9557085 0.95127213 0.97157925 1.0184846 1.0334357 0.9849554
1.0334551 0.9798828 1.1089197 0.9367712 0.9924142 1.0077698 0.9489038 1.0051739
1.0187227 1.0061255 0.98717767 1.010983 1.0734035 1.0233085 0.9528381 1.032015

model.actor.1.bias f4 [64]
00000000: aa91 863d c7c6 ba3b a6f0 3d3c 76e2 80bb
00000010: eb99 823c 63f6 443d b61d ebbb 8405 84bb
00000020: 6cfa 753c 495b 1ebc 5838 fd3c a0c7 3f3c
00000030: 2ba2 9b3c 887a 7cbc ced6 bcbc c3a3 81bc
00000040: 2758 b53c 1aac 323c 326e bcbb 7eac 82bb
00000050: 50c5 003d 872b 6f3a ca23 103d d0c7 6bbc
00000060: befb 68bb ea83 5cbc ab35 94bc 9941 f0ba
00000070: c689 91bb 1165 d1bc bf58 6ebc 35c8 133d
00000080: 2bba 66bc f221 b4bc 5343 12bc 8946 3b3d
00000090: 9e8a a33c 20e7 9fba b5cc 1cbc 2d2a cebb
000000a0: 7f4f 9abb a0fd 293c 340a 2f3c 0b2a 81bc
000000b0: 880e 92bc dbad 033d 2583 253d 174e 3abc
000000c0: e0ef 303d bd4a 263c 1f9e 923d 1924 66bc
000000d0: 2448 b3bb cf82 553b 8ad3 39bc 758e a33c
000000e0: 357c b739 90e3 673c 4276 9e3b 465e bf3c
000000f0: c9ae a23d 4847 ec3c a427 dcbc b964 b1bb
0.06570752 0.0056999656 0.01159302 -0.0039332462 0.015942534 0.048086535 -0.0071751727 -0.004028978
0.0150133185 -0.009665319 0.030910656 0.011705309 0.018998226 -0.015410073 -0.023051646 -0.015825158
0.02213676 0.01090529 -0.005750441 -0.003987848 0.031438172 0.00091236125 0.03519038 -0.014390901
-0.003555044 -0.013459185 -0.018091997 -0.0018330096 -0.0044414727 -0.025560888 -0.014547526 0.036079604
-0.014082472 -0.021988843 -0.008927184 0.045721564 0.019963559 -0.0012199618 -0.00957029 -0.006291649
-0.0047091837 0.01037541 0.010683585 -0.015767118 -0.017829195 0.032148223 0.040408272 -0.011371157
0.043197513 0.010149655 0.071590655 -0.014046692 -0.0054712463 0.0032579189 -0.011341939 0.01996539
0.0003499702 0.014153376 0.004835875 0.023360383 0.07943494 0.028842583 -0.02687437 -0.0054136184

model.actor.3.weight f4 [64, 64]
00000000: b5da 82bd d2c3 85bd 67d8 023e 0d9a 85bd
00000010: 8efd 05bd 6b0f 76bd 10bd b33d 45a8 d63d
00000020: 30ea bebd d551 d03c 7eb2 2e3e 769a 2f3c
00000030: e2fb 5dbb afab 583d 7f25 acbd cd84 433d
00000040: 740d 60bc b36c 32bd 4554 a2bc 5676 f33d
00000050: 4cd1 74bd e06a 83bd 29e5 d93c e483 353d
00000060: a2b9 85bc 0f5e 883d 2049 9fbc f748 ecbc
00000070: 7705 9f3d e07b 5b3d 82b7 24bd dd61 b53b
00000080: 68be 833d 55fc 893d 1e20 613d 6971 eebc
00000090: 2a0d 0ebc 528e 073d cad3 233e f5bc 27bd
000000a0: 27b8 1e3c 27ac e2bb 0d46 213d 5a2c 75bd
000000b0: 1c78 afbd 1c0b d3bc 3892 213d 9035 6ebd
000000c0: 3431 753d 66e3 66bd 3fa7 2d3e 44c6 89bc
000000d0: 80d8 a9bd 9cca 4f3d 8f3e acba e1b0 ecbd
000000e0: ca64 d53c 2252 603d 9528 94bc b97e 8f3d
000000f0: 2ce3 fc3d 877f 22bd 9c82 82bc 15a7 1f3e
00000100: 7f3f 5ebd d31a 1b3d 06dc 93bb fe4a 8b3d
00000110: 4044 8d3d 2580 803c 418a 88bb 2ce6 113c
00000120: 4b40 3bbd 0ae1 3f3d ae5e 03bc 52ea 793d
00000130: f8ef d53c c618 acbd f3aa 4e3d c0fb d13d
00000140: 3d8a fb3d 4b2a 97bd 68d6 d2bc 8b8f 363c
00000150: aabd d03d 2162 90bc ff18 f83b 1df6 4cbd
00000160: aea1 0d3e df82 b8bb 56be d53d 6076 93bd
00000170: 8ed1 beba a8dd 123d cbde 91bd 8377 423d
00000180: f5b5 013d b2d4 89bd f0a1 c2bd 4d67 1cbe
00000190: 7f08 2b3c 5dfc aebc 5575 acbd d1e2 dbbd
000001a0: fb07 e33c b60a d83c 3b80 013e 14d2 743d
000001b0: 83b2 da3c e937 d43d a8ac 0bbd f947 34bd
000001c0: 5f3b 2d3c bc04 293c 0375 f9bd 0656 0dbd
000001d0: 8df7 0e3e 7a01 493d d029 81bd 05fe dc3a
000001e0: f275 1c3b 7997 643b 9ba4 2e3d b2fa f33d
000001f0: 9541 eebd 5604 bebd d44d b8bd d4cc bcbd
00000200: bb99 72bd d218 d93d c6ab b43d c78c 803d
00000210: 938b c33c 6811 a53b 3f7a b8bc da1b dabd
00000220: 516b 9cbc 2eb9 9abd 203c 1fbc b118 a33d
00000230: a4ba f63c f27c be3d f9fb 28bd 6770 f6bd
00000240: f10e 873c e18b 26bd 6ea9 8abd be35 99bd
00000250: 92dc 09bc 310a b53c 162a 6e3d 0703 e7bc
00000260: d063 e53c 6a1d 903d 132f d2bc 0cad 23bc
00000270: 3b38 5bbb 0d30 28bd b3b6 48bd f76b de3c
00000280: c2eb 813d 7405 743c 4537 2d3d f923 bebc
00000290: ebdb 7fbd cce1 93bd 5abb 60bc 60ac a43d
000002a0: 7ac1 1b3d d7a3 77bd 3f31 cebd f596 f93d
000002b0: 8ae0 a7bc e999 dabc a856 2b3d b497 dabd
000002c0: 5273 ce3c 6f39 683d 0f8a cf3c 864c 603d
000002d0: edec 973d 11c3 eb3b 1a08 df3d f34f ccbc
000002e0: 6ea2 0e3d 3628 abbd 1d25 c5bd 49c7 94bc
000002f0: 202b 6339 da52 c5bd 4a0d a43d 8ed0 92bd
00000300: 1dc2 99bd 082d e63c 9443 d7bd 309c ad3d
00000310: 9684 9e3d fc48 d63c 9b31 4abc e9ed 023b
00000320: 6800 f63b 8dc4 a03c bbdc 233d 435d 51bd
00000330: 0657 6d3c 8cbf 233d e6d9 933d 934a f33d
00000340: 4ce8 aabc 6bf6 9cbd 5e6a 0dbd b602 2dbc
00000350: 3b5d 773d 1ed7 cc3c 829e 403d 5c97 9ebd
00000360: 8fe4 e2bd b865 7a3d 5843 a23d 7e7e 743d
00000370: 97e2 f0bc 39ab a3ba 3fee 3e3d 628c 943d
00000380: 3339 01bd c74c a2bd ef3a d5bc 89d2 a7bd
00000390: 66dd 3abd 5d2e 8d3c 6962 83bd 3863 2c3c
000003a0: 150b 253c 2e19 adbd 10ad bdbd 572f 9fbc
000003b0: 5fa2 62bd 7c6f a53d 4058 ec3b c590 6dbd
000003c0: 181e 1c3c ed9f d3bd 3443 9e3d 7eb0 313d
000003d0: 3c16 543d 62ea 14bd 4308 e6bc 3704 7f3d
000003e0: 6000 893d d909 babd 5b08 14bd 4b48 b1bd
000003f0: 4683 c1bd 3732 f23c 1825 e8bd b1dc 353d
-0.06389371 -0.065314904 0.12777863 -0.065235235 -0.03271251 -0.060073297 0.08776295 0.104813136
-0.093220115 0.025429646 0.17060277 0.010717979 -0.0033872058 0.052898105 -0.08405589 0.04773407
-0.0136750825 -0.043560695 -0.019815573 0.11887805 -0.059769914 -0.06416869 0.02659853 0.044315234
-0.016323868 0.06658565 -0.019444048 -0.028843386 0.07764714 0.053584933 -0.04021407 0.005535348
0.064328015 0.06737582 0.05496227 -0.029106813 -0.008670131 0.03309471 0.1599876 -0.040951688
0.00968746 -0.006917495 0.039373446 -0.05985675 -0.08567831 -0.025762133 0.039446086 -0.05815655
0.059861377 -0.056369208 0.1695833 -0.016818173 -0.08293247 0.050730333 -0.0013141203 -0.115571745
0.026049037 0.054765828 -0.018085757 0.07006592 0.12348017 -0.0396724 -0.01593142 0.1559108
-0.054259773 0.03786738 -0.004512313 0.06801413 0.06897783 0.015686104 -0.004166872 0.008904975
-0.04571561 0.046845473 -0.008018179 0.06101448 0.026115403 -0.08403163 0.050456 0.102530956
0.12282226 -0.073811136 -0.025737002 0.011142622 0.101924255 -0.017624917 0.007571339 -0.0500394
0.13831207 -0.0056308354 0.10436694 -0.072003126 -0.0014558302 0.03585592 -0.071225725 0.047477257
0.03166767 -0.067300215 -0.095035434 -0.15273781 0.010439037 -0.02136057 -0.08420817 -0.10736621
0.027713766 0.026372295 0.12646572 0.05977066 0.02669645 0.103622265 -0.034100205 -0.04401395
0.010573237 0.01031607 -0.12180521 -0.034505866 0.1396162 0.049073674 -0.06306803 0.0016860372
0.0023874012 0.0034880324 0.04263745 0.11913051 -0.116336025 -0.09278171 -0.089992195 -0.09218755
-0.05922864 0.10600437 0.08821826 0.06276851 0.023870265 0.0050374754 -0.022519229 -0.106498435
-0.019094141 -0.075548515 -0.009718925 0.07963694 0.030118294 0.09301175 -0.041255925 -0.12033158
0.016486617 -0.040660743 -0.067705974 -0.07480954 -0.0084144045 0.022099586 0.058145605 -0.028199686
0.028001696 0.0703686 -0.025657212 -0.009989988 -0.0033450264 -0.04106145 -0.04900236 0.027151091
0.06343795 0.014893878 0.042289037 -0.023210512 -0.06246559 -0.07220802 -0.013716543 0.080406904
0.03802631 -0.060458984 -0.10067987 0.12186996 -0.02049281 -0.026684718 0.04183069 -0.10673466
0.025201473 0.056695398 0.025334386 0.05476048 0.07418237 0.0071948846 0.10890217 -0.024940467
0.034822874 -0.08357279 -0.096262194 -0.018161433 0.00021664472 -0.09634943 0.08010347 -0.07168685
-0.07507727 0.028097644 -0.105109364 0.08477056 0.077401325 0.026157849 -0.012340928 0.0019978231
0.0075073726 0.019624973 0.040005427 -0.051114332 0.01448608 0.039977595 0.07219295 0.11879458
-0.02086272 -0.07664188 -0.034525268 -0.010559728 0.060391646 0.02500492 0.047026165 -0.07743713
-0.1107875 0.061132163 0.07923001 0.059690945 -0.029404921 -0.0012486941 0.046613928 0.072533384
-0.03154869 -0.079248 -0.026029078 -0.08194453 -0.0456213 0.017234022 -0.064152546 0.0105217025
0.010073443 -0.08452068 -0.09261525 -0.019431753 -0.05533063 0.080779046 0.0072126687 -0.05799939
0.009528659 -0.10333238 0.07727662 0.043381207 0.051779017 -0.036356337 -0.028080111 0.06225988
0.06689525 -0.090839095 -0.03614078 -0.08656367 -0.094488665 0.02956496 -0.113352 0.04439992

model.actor.3.bias f4 [64]
00000000: 2001 39bd 8a17 f0bc db1a 68bd 64f9 153d
00000010: ff68 dabd e11d 19bd e5e7 203c 8efd 9fbc
00000020: 6e4b 583d 1713 8abb 0073 233b ebcd d23c
00000030: 4b8b 03ba b86b 7c3d 80cb 723d 4d7c c93c
00000040: 6eb4 4a3c ba4b 043e 9159 0dbd f432 ba3d
00000050: 7ea5 a9bd 468e 243d 5b85 55bd 71fe afbd
00000060: b9c2 88bd 24cc 993d 0581 77bd ef59 903c
00000070: d30c 9fbd 9d28 60bc d428 8abd dd28 d6bd
00000080: f169 b1bd 8abb 6a3d f7da c3bd 1fb8 ef3d
00000090: e8e7 663c c451 0d3e 22c5 6f3d 0acb 9a3d
000000a0: 7f59 f7bd 0f5a 723a 911c 99bd a8c6 c73c
000000b0: b060 ccbc 7d8c 22bd 1459 363d 7541 033c
000000c0: 6738 6c3d 3cef 1cbc f901 8c3d 2a65 ffbd
000000d0: 89c8 253c 3610 e43d 7aad b43d ffd9 b7bd
000000e0: b24a 553d 0019 d43c 7e47 b9bd d246 e2bc
000000f0: ccc1 b63d 3306 3bbd 6f96 a7bd 1a7e 023d
-0.04516709 -0.0293081 -0.056666236 0.03661479 -0.10664558 -0.03738201 0.009820913 -0.019530084
0.05280631 -0.0042137015 0.0024940372 0.025732955 -0.00050180097 0.061626166 0.059276104 0.024595404
0.012372119 0.12919512 -0.034509245 0.0909175 -0.08283518 0.040174745 -0.05212913 -0.08593453
-0.066777654 0.0750964 -0.060425777 0.017621009 -0.07766118 -0.013681558 -0.067460686 -0.10457013
-0.08662785 0.057307757 -0.095632486 0.1170504 0.014093377 0.13800722 0.05853761 0.07558258
-0.12077617 0.0009244987 -0.07476152 0.024386719 -0.024948448 -0.03968476 0.044518545 0.008011212
0.057670977 -0.009578522 0.06836314 -0.124704674 0.010118612 0.111359045 0.088221505 -0.08977126
0.052073188 0.025890827 -0.09046839 -0.02762166 0.089236826 -0.04566021 -0.0818299 0.03185854

model.actor.4.weight f4 [64]
00000000: eb26 823f 41a6 863f 3096 7d3f 3621 7e3f
00000010: 0196 823f 879c 843f ac30 7f3f 0732 813f
00000020: ddc3 863f c6e1 7d3f e4e1 883f a5e7 843f
00000030: c655 8c3f 910b 813f 9bb1 813f ccb5 843f
00000040: e7fa 833f a498 843f 7882 833f 5bda 823f
00000050: 5223 843f f233 813f 62b3 863f 9893 843f
00000060: 196a 833f c722 833f 5c05 893f d12d 823f
00000070: 8cb9 813f 3a70 863f 33f5 8b3f 882b 833f
00000080: a96b 823f 9b33 8d3f b4c3 803f 84d8 7f3f
00000090: 58dd 813f 5bd1 853f 2d38 893f 7952 7d3f
000000a0: 894f 843f 1b6e 813f e565 7f3f 77e5 7c3f
000000b0: c1fd 803f d8f8 843f b504 853f 825c 873f
000000c0: 0dd3 853f b3ef 823f 3594 803f 9397 803f
000000d0: f583 7b3f d5f5 8b3f 2305 803f 6164 843f
000000e0: 50d1 823f 65c3 853f b54d 813f 4a1f 833f
000000f0: 7251 8a3f d37d 8d3f 9bb8 803f 2206 903f
1.0168127 1.0519487 0.9905729 0.99269426 1.0202028 1.0360268 0.9968364 1.0093392
1.0528523 0.9917263 1.0693936 1.0383192 1.0963676 1.0081655 1.0132326 1.036798
1.0310944 1.0359082 1.0274191 1.0222887 1.0323279 1.0093977 1.0523493 1.0357542
1.0266753 1.0244988 1.070476 1.0170232 1.013475 1.0502999 1.0934204 1.024766
1.0189105 1.1031374 1.0059724 0.9993975 1.0145674 1.0454515 1.0720268 0.9895397
1.0336772 1.0111727 0.99764854 0.98787636 1.007744 1.0388441 1.0392061 1.0575106
1.0455033 1.02294 1.0045229 1.0046257 0.98248225 1.0934397 1.0001568 1.0343133
1.0220127 1.0450255 1.0101839 1.0243924 1.0806105 1.1054024 1.0056337 1.1251872

model.actor.4.bias f4 [64]
00000000: 52ae 673c 77cb 093d e884 703b ad17 f5bb
00000010: c971 4abb 1554 9c3c 6351 bebb 3d87 913c
00000020: d58e 6a3c b225 58bb 5b71 173d a1b0 ffbb
00000030: b4d8 963c ede0 2d3c 715b 223c 8cb0 993c
00000040: 4e98 3f3c f3ea a93c bb2d 703c f142 4c3c
00000050: 8e5a 703c 6ecc 1a3c 4619 f33c 7e84 b33c
00000060: fbc5 e63c ce04 623c 218d ec3c cbb5 dd3b
00000070: 0820 b3ba 0ba8 a43c 7637 073d e044 123c
00000080: 23ba 6e3c 6dcf 3a3d b69e 073c 8dd2 113c
00000090: ad4c 373c 393d 873c 3055 e83c 2219 4ebc
000000a0: d8ee 093c 8b4d 4b3c 0fbe 8439 d38b 35bb
000000b0: 4300 17bb eda0 a43c 59a1 9a3c 0da7 cc3c
000000c0: 0b1c d33c c2e3 383c c71d 5f3b 8a64 563b
000000d0: 5e7a e23a b698 183d 0f7d 1e39 7740 d53c
000000e0: 292b 303c 73bb 9a3c a78f b03b 2f8a 773c
000000f0: b9de 1b3d c18b 183d 94fd 7dbc 08d6 183d
0.014140682 0.033641305 0.0036700312 -0.007479629 -0.0030890575 0.019083062 -0.005808042 0.017764682
0.01431628 -0.0032981453 0.03697334 -0.007803038 0.018413879 0.0106127085 0.009909497 0.018760942
0.011694027 0.020741915 0.0146593405 0.012467132 0.014670027 0.009448154 0.029675137 0.021913763
0.028170576 0.013795091 0.02887589 0.006766056 -0.0013666162 0.02009966 0.033011876 0.008927554
0.014570746 0.045607973 0.008277586 0.008900297 0.0111877145 0.016508685 0.028360933 -0.012579234
0.008418761 0.012408624 0.00025318607 -0.002770175 -0.0023040927 0.020096267 0.018875765 0.024982
0.025770208 0.01128477 0.0034044848 0.0032713735 0.00172789 0.03725501 0.00015114642 0.026031716
0.010752478 0.01888821 0.0053882184 0.015108629 0.0380542 0.037242655 -0.015502352 0.03731349

model.actor.6.weight f4 [2, 64]
00000000: f92b 0dbe a51d ff3d 9f76 9a3d 711b a4bd
00000010: 21f8 8d3d c0ce 1e3e 43b9 b9bc c393 ab3b
00000020: 969d 1c3e a37a 3ebd e328 633c 2f50 1d3e
00000030: d270 36be a253 433b 63d5 eebd 88d8 c2bd
00000040: 09bf 103e dd5c ec3d a0ad c13d ab4e a0bc
00000050: 5107 e23d 8959 3cbd 642b f93d bc92 063d
00000060: c325 a83d 9c46 ffbd b476 86bd 8586 09be
00000070: 3f29 9b3d e7dc 0bbe 419a ab3d e31e cfbd
00000080: 7e90 dd3a 43de 523e 08fc f13c 34eb c03d
00000090: 0397 db3d ceed 74bd 1ccb 8a3c 1c1d 1a3d
000000a0: d5c1 1a3e 6d2d d23d e04e 54bc 6b22 ccbc
000000b0: a4b7 b2bd 3a45 f7bd 7f36 cebd d57c 14bd
000000c0: a077 083e 7bed 37bd abfc 78bd bd56 94bb
000000d0: 3e30 ac3d 4bd5 0a3e 4909 393d 331d 973d
000000e0: 4c64 e23d 4de3 68bd 13b9 803c a7c6 27bd
000000f0: 4787 1f3e b340 4fbe b07a 973d 9857 43be
00000100: d1b6 53bd 6cd7 d5bc 6033 51bd d47e 103d
00000110: f0b9 c83d 6b77 04bd f2b4 953c 746e 6d3d
00000120: e86d 003e ad49 f53c 6ab0 033e 3d01 083d
00000130: dff7 19be c499 53bc fa0b 98bd 088e c7bd
00000140: 6c8a babd 05f6 053e f206 37bd 6e60 85bd
00000150: f6f6 083e e699 ad3d a3da f63b 447b f3bd
00000160: a1f1 3dbd 7247 933c add1 b1bd e0cc 1b3d
00000170: 090d 873d d94c 303d 9478 473e 3d93 ddbd
00000180: 8d4a 0b3e 8a62 953d c310 8c3d 5bf8 06be
00000190: d763 8f3c 5413 1dbe 3ca9 1cbe 41c1 163d
000001a0: 9295 9b3d 9652 143d 992a 9e3d ce74 b03d
000001b0: 3ab9 ed3d 03ab 88bd 40fa 1ebc f033 14be
000001c0: f14d cbbc 1af7 e9bd ff6f 9c3d 15b3 e23d
000001d0: 4bb1 7cbc b6e3 5d3e 7248 06bd 6f48 b43d
000001e0: e687 17be 7b94 c0bd 19f1 a7bd 5c33 fa3c
000001f0: 20b7 0d3e 64e3 09be 4fc4 503d 1ecd 57be
-0.13786305 0.12456826 0.075421564 -0.080130465 0.069320925 0.15508556 -0.022671347 0.0052361204
0.1529449 -0.046503674 0.013864729 0.15362619 -0.17816475 0.0029804488 -0.11661794 -0.09513956
0.14135374 0.1154115 0.094569445 -0.019568762 0.11036552 -0.045983825 0.12166479 0.03285478
0.082103275 -0.124646395 -0.065656096 -0.13430221 0.075762264 -0.13658486 0.08379031 -0.10113313
0.0016904024 0.20592599 0.029539123 0.094198614 0.107221626 -0.0597971 0.016942553 0.037625417
0.15113004 0.102625705 -0.012958258 -0.024918756 -0.08726433 -0.12073751 -0.10068988 -0.03625186
0.13326883 -0.044904213 -0.060787838 -0.0045269416 0.08407639 0.13557927 0.04517487 0.07378616
0.11054286 -0.056857396 0.01571325 -0.040960934 0.15578948 -0.20239525 0.07396448 -0.19076383
-0.05168802 -0.026103698 -0.051074386 0.035277203 0.0980109 -0.03234045 0.018274758 0.057966664
0.12541926 0.029942358 0.12860265 0.033204306 -0.15035962 -0.012915079 -0.07424159 -0.09743887
-0.09108433 0.1308213 -0.044684358 -0.06512533 0.13375458 0.084766194 0.0075333877 -0.118887454
-0.046373013 0.017978404 -0.086825706 0.03803718 0.06594283 0.043042038 0.1947959 -0.10819099
0.13602658 0.072941855 0.068391345 -0.13180678 0.017503662 -0.15339404 -0.15298933 0.036805395
0.07596888 0.036211573 0.077229686 0.08616029 0.11607595 -0.06673243 -0.009703219 -0.14472938
-0.024817439 -0.11424084 0.07638549 0.110693134 -0.015423129 0.21668896 -0.032783933 0.08802878
-0.14797935 -0.094033204 -0.082002826 0.030542068 0.13839388 -0.13465649 0.050968464 -0.2107434

model.actor.6.bias f4 [2]
00000000: ec5c 8ebd 912a dc3d
-0.06951317 0.107503064
