src/taser/locomotion/models/balance.pth (torch, 59701 bytes, 22 tensors)

log_std f4 [2]
00000000: 03da 1fbf 84c4 2ebf
-0.62442034 -0.6826861

actor.0.weight f4 [64, 29]
00000000: bad8 a1bb ea52 32be 2616 30bc d516 003d
00000010: 8c0f 29be 7b30 c8bc bbbb 1b3d 7b80 23be
00000020: 75f0 9fbd 736b 243c 4dc7 c3bd 6bf6 a3bc
00000030: 5da5 793d d69c 22be a3c9 0bba 4e97 003c
00000040: 401d 813d fcd1 97bc 55e1 803d 3fc7 1dbe
00000050: bca4 e9bc d5e6 dbbc cb7d afbd 1e62 9abc
00000060: b945 ff3d 8de7 c63d 90b3 25bd 5cc1 13bd
00000070: 1ff6 e7bd 5303 10be 39b0 f0bd 4c92 093e
00000080: 7912 2f3e 5b89 0dbe 6745 9bbd ee9a 87bc
00000090: 3237 6abd 2f86 37bd 6a66 dbbd dd3f df3b
000000a0: 426a c83d a3d2 1b3e 19c4 26bd a81d 1f3e
000000b0: 2dac 23be fc8b 253e bda4 c4bd ea35 b53d
000000c0: 56a2 48bd f74c f7bb 6d02 1dbe 3358 26bd
000000d0: c61d 943d 1b56 913c 8d23 753d 6193 a43d
000000e0: 2fd5 473b 8c43 343e 5e0f cebd 03d0 bc3b
000000f0: 7dfa a73d b9e4 773d ace9 04be 89fb a2bd
00000100: 7031 d2bd 1a17 613e 9ab3 3c3d 2ffc 34be
00000110: 9c99 c9bd 3afd 933d b386 0b3d 9416 d93b
00000120: db93 973c ac95 89bd 82bf d33c 3d87 4bbe
00000130: bae7 37be ec9d 1ebe a11b 1ebe 2ead e83d
00000140: 6a33 8b3d b92a e9bd 2058 55be d78e 0b3e
00000150: 08df 573e 6419 c3bd 55a4 753c c878 ab3d
00000160: 957a cbbd fe1a ecbd 60e6 133e 7b4d 1dbe
00000170: e906 8bbc f57c bc3c 6db7 1f3e 4617 a23d
00000180: dca2 4abb e705 60bd fede 76bc d10c 903d
00000190: 2084 ddbd 415e abbd 158d cdbc 84f2 78bd
000001a0: 6fe1 05be 5cb7 183e 9d5b 7b3b 5e5a 84bc
000001b0: 525e 123d 0512 1abe d3e5 ea3d b765 55bd
000001c0: 9986 6b3e 52d6 b1bc baba 533e e7e0 55bd
000001d0: c4f6 bd3d 3b3b a13d 9926 7bbc 503b 25be
000001e0: 3c1c 54bd 69c3 b43d e0e8 5f3e 17ec 223d
000001f0: 2562 12be 138d 4d3d 264a d33d b7e2 40bd
00000200: 27b6 023e d5b3 96bd 24bf 593c 455c 0fbe
00000210: 5cdf 2dbd 03e1 93bd 641f 043d 2063 d7bb
00000220: c600 e3bd 0195 fbbc 19b4 c93d a753 053d
00000230: a977 c73d adb5 a43d 8bbd c23d 6051 29be
00000240: e965 b9bd 4365 bc3c 25e8 2c3d cd8c 58be
00000250: 898f 7cbd 3b94 02be 2e24 2cbe e726 103e
00000260: 9e00 e8bd d8c2 a8bd d607 0b3e 14f4 25bd
00000270: c32b 11bd 0e41 8e3c 2ebb 6ebd 0e72 a8bd
00000280: a9d0 8bbd 3517 bd3d 46b3 14be 07be 663d
00000290: befa f43d 5847 b83d d788 c13c 9ca4 23be
000002a0: b868 a7bd 5d6e 0dbe ac39 003e 0c70 153e
000002b0: f540 323d 6f39 a63d 3fd7 133e 7bc6 c73d
000002c0: 0e45 243d 7d62 debd ca24 0ebe 738f 313e
000002d0: 068f c03d d36d 85bd 38a0 e33d 4e5d fd3d
000002e0: 4eac db3d 443c b9bd 60ad 68bd 45fa 493d
000002f0: ee5e eabd 9a80 3cbd 70d7 053e 0628 47bd
00000300: 0b0a 243e 416a 2d3e 1778 c6bd 8aae 333e
00000310: 766a 1c3d 7cc6 fb3d e123 e23d c14e 8cbb
00000320: c0fe 05be b2c7 823c d48e 24be 9ba7 e2bd
00000330: edfd cbbd 5ef4 233e 9072 cdbd cff8 0b3c
00000340: 3bd3 183e 3a1b 503d 1d99 17be 7c86 173d
00000350: 9824 08bc 7ba8 90bc 5d3e 8fbd 4b75 813d
00000360: dd03 d5bd 17ff 0c3e 84f8 0dbe ba25 c53d
00000370: 1d14 30be 13d2 a03d 6184 b2bd fdd5 f1bd
00000380: 3831 f83d dbca 2c3e dc2d 40bb 23ac 123e
00000390: 6e9b e53d 9c2c 3a3e 01f3 3bbc 612a 273e
000003a0: e1b8 893d d404 abbd 975e a73d 8ada 96bd
000003b0: a657 033e b556 f8bd fb4d fdbd 2ee2 12be
000003c0: f3ec 983d 1c21 d93d 9899 b9bd 9020 c4bd
000003d0: dd13 adbd 4088 b2bd 4a58 b2bd 36c3 01be
000003e0: aecf 353e e95f ffbd 0cf8 08be c61c af3d
000003f0: 6e17 30bd db84 06be 1cbf 66bd 74b7 043e
-0.004939166 -0.17414442 -0.010747468 0.031271774 -0.16509837 -0.02443718 0.03802083 -0.1596698
-0.078095354 0.0100353835 -0.09559498 -0.020014962 0.06094872 -0.1588014 -0.00053324754 0.007848574
0.06304407 -0.018532746 0.06292979 -0.15408038 -0.028520934 -0.026843468 -0.08568915 -0.018845614
0.124644704 0.097121336 -0.040454447 -0.036073074 -0.11326241 -0.14063768 -0.11752362 0.13434714
0.1709689 -0.13821928 -0.07581597 -0.016553368 -0.057181545 -0.0448057 -0.10712893 0.006813033
0.09785892 0.1521707 -0.040714357 0.15538657 -0.15983649 0.16166681 -0.09601734 0.08848174
-0.04898294 -0.0075470167 -0.15332957 -0.040611457 0.07232241 0.017741254 0.059848357 0.08035923
0.0030492058 0.17603892 -0.10061525 0.0057621016 0.08202074 0.06052086 -0.12979764 -0.07958133
-0.10263336 0.21981469 0.04606972 -0.17674325 -0.09843752 0.072260335 0.034064006 0.006625006
0.01850312 -0.06718001 0.025848154 -0.19875808 -0.1795949 -0.1548993 -0.15440227 0.113611564
0.06796916 -0.11385102 -0.20834398 0.13628708 0.21081173 -0.09526327 0.014992793 0.083726466
-0.0993549 -0.11528586 0.1444335 -0.15361588 -0.016971068 0.023008803 0.15597315 0.07914595
-0.0030919826 -0.05469313 -0.015067814 0.070336945 -0.108162165 -0.08367587 -0.025091687 -0.060778156
-0.13074277 0.14913696 0.0038354166 -0.016156372 0.035734482 -0.15045936 0.11469617 -0.052098956
0.23000564 -0.021708641 0.206767 -0.052216437 0.092755824 0.078726254 -0.015329027 -0.16135907
-0.05178474 0.08826334 0.21866179 0.039775934 -0.14295252 0.050183367 0.10316877 -0.047091212
0.12764798 -0.07358519 0.0132902 -0.14000042 -0.04244934 -0.07220652 0.0322565 -0.006573096
-0.11084132 -0.030710699 0.09848804 0.03255048 0.0973962 0.080424644 0.09508809 -0.16534948
-0.09052641 0.022997504 0.042213578 -0.21147461 -0.061660323 -0.12751858 -0.16810676 0.1407734
-0.11328243 -0.082402885 0.13577208 -0.040515974 -0.035442125 0.017365005 -0.058283977 -0.08224879
-0.06826908 0.09232942 -0.14521512 0.056333568 0.11961888 0.08997983 0.02362482 -0.15980762
-0.081742704 -0.13811632 0.12522 0.14593524 0.04351898 0.08116423 0.14437579 0.09754654
0.04010492 -0.10858629 -0.13881221 0.17339878 0.094022796 -0.06515088 0.11114544 0.12371312
0.10726224 -0.09044698 -0.05680597 0.04931094 -0.11443888 -0.04602108 0.13070464 -0.048622154
0.16019456 0.16935064 -0.09690874 0.1754705 0.038187467 0.12293717 0.110419996 -0.004281849
-0.1308546 0.015964363 -0.1607011 -0.110671245 -0.09960542 0.16011187 -0.10031617 0.008543207
0.14924328 0.050807215 -0.14804502 0.03699349 -0.008309506 -0.017658463 -0.06994317 0.063212
-0.104011275 0.13769184 -0.13864332 0.096263364 -0.17195173 0.078525685 -0.087166555 -0.11808393
0.12118763 0.16874258 -0.002932421 0.14323477 0.112112865 0.1818108 -0.011471511 0.1632476
0.06724716 -0.0835053 0.081723385 -0.07365902 0.12826404 -0.12125913 -0.12368389 -0.14344093
0.074670695 0.10602018 -0.09062499 -0.09576523 -0.08451054 -0.08717394 -0.08708246 -0.12672123
0.17755005 -0.12469465 -0.13375872 0.0855041 -0.042991094 -0.13136618 -0.0563346 0.12960607

actor.0.bias f4 [64]
00000000: 93d9 0f3e 07dc 82bd da07 06be 2983 0a3e
00000010: 58cc a63d 61af c0bd b0b1 243e cc23 2bbe
00000020: 8a04 c9bd 0eb9 ccbd 0535 f0ba 6549 8cbc
00000030: 96bc d7bc 2b09 e73d 017a ab3c 9f78 0f3d
00000040: 7f00 20bd c1be 95bd 2944 18be d3c0 273e
00000050: f16c a6bd 750b 2fbd 4f8d f0bd b237 bebd
00000060: 8dee 47bd 583d 91bc 1d5e 04be 383e 62bd
00000070: 3924 2a3e d826 d93d 93d0 fa3d cd4c 3bbe
00000080: 538e 413e 2713 1cbc e166 313e e0d4 01bd
00000090: 3458 203e d0f1 afbd 422d 573d 037f 083d
000000a0: 88c5 4a3d a5cb 21bd 5961 083e 4c1d 96bd
000000b0: b8b3 683b e7aa a3bd 9aba a1bc 4b72 10be
000000c0: 1b7f b0bd 7997 84bc 23e0 073d fa59 0ebd
000000d0: e23f dcbc 8921 a3bc f88c c1bd bc2f 09be
000000e0: 065f 19bd c129 2abe 58b8 523b 9f32 51bd
000000f0: 224f 8a3d 902a 36be ceff 303c 4801 793b
0.14047842 -0.06389623 -0.13088933 0.13526596 0.08144444 -0.09408451 0.16083407 -0.16712874
-0.09815319 -0.09996234 -0.0018326348 -0.017124841 -0.026335042 0.112810455 0.0209322 0.035027143
-0.039062973 -0.07311774 -0.14869751 0.1638215 -0.08126248 -0.042735536 -0.117457025 -0.09287967
-0.048811484 -0.017729446 -0.12926526 -0.055235118 0.1661538 0.10603112 0.122468136 -0.18291016
0.18901949 -0.009526051 0.17324401 -0.031697154 0.15658647 -0.08591044 0.052533396 0.033324253
0.049504787 -0.03950085 0.13318385 -0.07329807 0.0035507511 -0.079915814 -0.019742299 -0.141061
-0.086179934 -0.016185509 0.033172738 -0.034753777 -0.02688593 -0.019913452 -0.09450716 -0.13397115
-0.037444137 -0.1661749 0.0032153334 -0.051073667 0.06753375 -0.17789674 0.010803176 0.0037995148

actor.1.weight f4 [64]
00000000: 598b 7d3f f9f6 7c3f ec0e 843f de7a 813f
00000010: 1dde 7d3f 3c38 813f a4f0 7b3f 9952 793f
00000020: e4ee 793f 124f 813f e1b0 7b3f 1429 7c3f
00000030: 61b7 7d3f d657 783f 086b 823f 596d 7b3f
00000040: 4370 7a3f ad19 833f 8f39 833f f17f 803f
00000050: 2a15 7b3f 9398 813f 406c 853f 8ed5 7a3f
00000060: 3608 7d3f b88a 7c3f 6035 813f c0a0 783f
00000070: 724d 803f bd82 753f f04a 843f 63a1 7a3f
00000080: db42 833f 0622 7d3f 4a79 813f 4424 7d3f
00000090: aa2d 7e3f 1d5f 7c3f 2751 7b3f 2296 7e3f
000000a0: a4fe 843f 54ab 803f 6c3c 7e3f c521 7e3f
000000b0: 3323 823f 5418 7e3f b142 7f3f 46b7 833f
000000c0: 0505 843f eeea 7c3f ebaa 7d3f ebc5 7f3f
000000d0: 7d9e 7e3f 1fa4 7f3f e4b1 7f3f a3a5 7b3f
000000e0: e186 833f 6d53 803f 2403 7b3f de4b 803f
000000f0: 8401 7b3f cfea 803f ba97 7e3f fb05 803f
0.9904075 0.9881435 1.0317054 1.0115621 0.9916704 1.0095286 0.98414063 0.9739166
0.97630143 1.0102255 0.9831677 0.9850018 0.9910794 0.97009027 1.0188913 0.98213726
0.9782755 1.0242211 1.025194 1.0039045 0.9807917 1.0124687 1.042366 0.9798211
0.98840654 0.9864917 1.0094414 0.97120285 1.0023634 0.95902616 1.0335369 0.97902507
1.0254778 0.9888004 1.011514 0.9888346 0.9928843 0.9858263 0.98170704 0.99447834
1.039021 1.0052285 0.99310946 0.9927028 1.0166992 0.9925587 0.9971114 1.0290306
1.0314032 0.98795974 0.99088925 0.99911374 0.99460584 0.99859804 0.99880815 0.98299617
1.0275537 1.002546 0.9805167 1.0023153 0.9804919 1.0071658 0.99450266 1.0001825

actor.1.bias f4 [64]
00000000: 96dd 51bc fd3e 18bc f781 123d cbd4 003d
00000010: 57f2 d5ba 571c 1a3c a402 35bc 5bcb 80bc
00000020: c862 d6bc 3fab c03c 981f 0a3c f972 4ebc
00000030: 8daf 82bb d0b7 40bb f895 9d3c 72aa 64bc
00000040: bcb0 23bc a076 993c 2ec2 be3c 66e6 673c
00000050: dfc4 74bc 2690 2f3c 9a0e 463d 1c6a f1bb
00000060: 16c9 30bb 3272 5cbc 38a8 603c f40d be3a
00000070: 376a 00bc 32b4 87bc bd7b 7f3c 6ddc af3c
00000080: d169 cc3c 0081 543b 5b4d 6f3c e32e 3bbc
00000090: 97ec 22bc 4098 343c 9774 d4bb 2e00 49bc
000000a0: 34b8 733c 1ac5 6f3c 4cc6 d6ba f048 d8bc
000000b0: 2d5d 953c cc88 65ba b39b 213b ebdc 903c
000000c0: fe26 4e3c e9e7 fc3b 09c7 fdbb 3537 d33a
000000d0: 19db bf3b f4e7 453b e117 003c da8e 22bc
000000e0: 2a1b 993b 4a1b cd3b 6164 59bb 489f 533c
000000f0: 5b1b 2b3b 769c 2b3c 4857 a6b9 1a6d 8e3b
-0.012809178 -0.009292361 0.035768475 0.031452935 -0.0016322833 0.009406171 -0.011047993 -0.015721967
-0.02617015 0.023519157 0.008430384 -0.012600654 -0.0039882124 -0.0029406436 0.01923655 -0.013956653
-0.009990867 0.018733323 0.023285951 0.014154052 -0.014939516 0.01071552 0.04835377 -0.0073673856
-0.0026975325 -0.013454961 0.0137119815 0.0014500008 -0.007837824 -0.016565416 0.015593466 0.021467412
0.024952801 0.0032425523 0.014605845 -0.011424753 -0.009944103 0.011022627 -0.006483625 -0.012268109
0.01487546 0.014634395 -0.0016386001 -0.026401967 0.018232906 -0.0008756041 0.0024659454 0.017683467
0.012582539 0.0077180755 -0.007744674 0.0016114475 0.005854976 0.003019807 0.007818193 -0.009921754
0.0046724277 0.0062593566 -0.0033171403 0.012916394 0.0026108834 0.010474315 -0.00031727017 0.004346502

actor.3.weight f4 [64, 64]
00000000: b4a2 b4bc b435 d43c e715 113e 5993 3bbc
00000010: c8a5 d73c 7b23 dabd fde7 3abd ed76 72bd
00000020: 49b9 a2bc 1664 a53c 6b5d 98bd 50b8 d33d
00000030: 7374 ba3c 45dd a03d 7902 e9bc d7e3 813d
00000040: e6a2 0d3d 7f34 d73c 12a3 1d3e 4502 d03d
00000050: 1ae5 d43c d4f2 c33d b998 15be 0ce3 46bd
00000060: a4e5 ebbc 96d6 133e fde8 a4bc e80f 49bd
00000070: bcdb cd39 bfda b0bd 8fa9 0bbd 712e cb3d
00000080: f070 b5bd 888b 113c 4e5e dcbd 8cab e7bd
00000090: b7a0 1abd 6d64 f23d 86e4 f33d 37d9 de3d
000000a0: 36b5 5fbd 0a97 9f3d f613 0b3d 2358 cfbc
000000b0: 6f72 ba3d 8050 61bd 0972 84bd 1a23 b83d
000000c0: a461 a43d d31e c63d b5a4 2e3d b46f 973d
000000d0: bbd6 82bd 33dd 91bd 7bd2 1d3d a24b 4b3d
000000e0: 9d7c a6bd b157 b93b 8a5e 1abb e9c9 833d
000000f0: 3b56 8b3d 13ff d4bc 9453 043e 0024 ecbd
00000100: ff2b d33d 0d3e fb3c 7fe9 a0bd ca97 92bd
00000110: 7585 2a3d bdce f63d 949b 84bd 8865 debd
00000120: 137e 903d 21ee 883c b1f9 8dbd 5627 be3d
00000130: 7b08 83bd a566 0abc 89b1 66bd 5bf2 2d3d
00000140: 9102 e1bd c765 9b3d a57f 373d 521c 52bd
00000150: 8a66 243d 95b8 ed3d a5ba ef3d 8147 c03c
00000160: 3a89 acbd f778 d73c a347 253d e923 40bd
00000170: e261 463d baf5 2bbd 43d2 da3c 83ba f3bd
00000180: 7e0e 0a3e f08c c03c 2d0e dabd bdc8 a53d
00000190: ff1d 423d 0976 803b ad42 9fbc d976 3e3d
000001a0: 864e 94bd c716 883d 1db5 f0bd 360c d83d
000001b0: 5865 17be 9b2e 8cbc a445 93bd cab8 a93d
000001c0: ea34 353d a5cf 903d 193d 20bd 5f4d 3b3d
000001d0: af45 3c3d 3aad e63d 6397 cb3d a682 32bd
000001e0: 258b af3c 8b50 3abd 6acb 303d 3103 efbc
000001f0: 6b65 ec3d 937d fdbc 540c d8bc 5d8e 15bd
00000200: b99c d03d 5d0a a23d ae9a b13c 8b9b afbd
00000210: 3611 3dbd 5749 783c 0a76 1c3d b08d 253d
00000220: 5bb8 04bd 5dab d5bd 1be6 d0bd 51ff 2abd
00000230: 8400 5dbc fc21 ac3d 622f bb3d 202f c9bd
00000240: e427 d43d c5b1 49bc 62dd 7fbd aa94 0f3d
00000250: 36db 213d b9c1 fb3d b5c3 6f3c 4b6a 823d
00000260: 7790 ebbd df3f 643d 3e8c aa3d d68f a43d
00000270: 1b17 7a3d b3f6 4fbd 391a ef3c f5fc 94bd
00000280: 352a 5dbd 7611 9ebd a800 ee3d 4930 d9bc
00000290: a6be 5abd 412a afbc ce88 7bbd 2ede 513d
000002a0: 89d1 fd3d 5ddc 93bd c5d6 4fbb 02ac db3d
000002b0: f13c e33c 8cb3 ea3d e7d1 b0bd c25e 4abd
000002c0: 9215 c8bd b320 afbd dc62 a1bd 91a0 5fbc
000002d0: 0b66 cc3d 9c4b 50bd 2da4 6cbd aa57 fe3d
000002e0: 3b31 bebd 9b0a a3bb 3623 bb3d a1ac cbbd
000002f0: 0da4 803d 757f e3bc 4ac8 e23c d07b 8ebd
00000300: 8a0e 3cbd 0278 823d 9b24 173d e3ad 873d
00000310: 6b3b e23d 7548 e93c dd73 63bd 64f7 9fbd
00000320: aa02 1e3e 14a2 d53d c261 d3bc 02b1 d53d
00000330: 9060 e73b 73a5 353d 7194 88bd 944d 81bd
00000340: 24d8 a5bc 159d 75bc ff09 713c 2ba5 4ebc
00000350: 104b 13bd 6b9c d93d e6bf 9bbd 297c 22bd
00000360: b77b e83d 1186 19bc d5d2 a6bd f61a febb
00000370: 0589 213c de49 87bd 3f94 76bd 0b47 c0bd
00000380: 3e96 99bd a734 99bd 7446 16bd 327a 9bba
00000390: dbfd e33d b437 cdbd 12e6 913d e6ae be3b
000003a0: 3da7 ad3d 2e58 863d 2d9f 233d 6902 96bd
000003b0: 7818 ceba 1aff 8dbd f857 36bd 4255 8ebc
000003c0: 2d37 88bd 0ff8 363b b1c1 5ebc 7981 f53c
000003d0: 8261 153d 5a12 bdbd ecf8 6a3d a3df a7bc
000003e0: ee22 a73d c69d 853c 038b febd 1236 4fbd
000003f0: b5a9 143d 6245 cbbd 7fdb 28bd 1023 3d3d
-0.02205024 0.025904514 0.14168511 -0.011448705 0.026324168 -0.106512986 -0.045631398 -0.059195448
-0.019863741 0.020189326 -0.07439693 0.10337889 0.022760605 0.07854704 -0.028443562 0.06342285
0.03457918 0.02627015 0.15394238 0.10156683 0.02598815 0.095678 -0.1460904 -0.048556373
-0.028796025 0.14437327 -0.020130629 -0.049087435 0.00039264362 -0.086354725 -0.03409725 0.09920967
-0.08859432 0.0088833645 -0.10760175 -0.11312017 -0.037750926 0.11835561 0.11908822 0.10881274
-0.054616176 0.0779248 0.033954583 -0.025310582 0.09103858 -0.05500841 -0.06467063 0.0899107
0.08026436 0.09673848 0.042637546 0.073943526 -0.06388613 -0.071222685 0.038530808 0.049632676
-0.08129237 0.0056562056 -0.0023554885 0.06434996 0.068035565 -0.026000535 0.12922508 -0.11530304
0.10311126 0.030669237 -0.07857036 -0.07157858 0.04163118 0.12051151 -0.06474987 -0.10859209
0.07055297 0.016715111 -0.069323905 0.092848465 -0.06398102 -0.008447324 -0.056321654 0.042467456
-0.10986818 0.07587772 0.044799466 -0.05129654 0.04013685 0.11607472 0.117055215 0.023471596
-0.084246114 0.026302798 0.04035152 -0.046909247 0.048433192 -0.04198239 0.026711589 -0.11900809
0.13482091 0.023504704 -0.10647235 0.080949284 0.047391888 0.003920321 -0.019440973 0.04650006
-0.0724154 0.066449694 -0.117532946 0.10549204 -0.14784753 -0.017112067 -0.07191017 0.08287199
0.044239916 0.07070855 -0.039120767 0.045728084 0.045964893 0.11263509 0.09940984 -0.043581627
0.021428654 -0.045486968 0.04316274 -0.029176326 0.115427814 -0.030943668 -0.026373066 -0.03651272
0.101861425 0.07912133 0.021680202 -0.08574589 -0.04615899 0.015154204 0.03819851 0.040418327
-0.032402378 -0.104330756 -0.10200139 -0.041747395 -0.0134888925 0.084049195 0.09139897 -0.098234415
0.10359171 -0.01231045 -0.062466986 0.035053886 0.039515696 0.12292809 0.014634063 0.0636793
-0.11502164 0.055724975 0.0832753 0.08035247 0.06105719 -0.05077238 0.029187309 -0.0727481
-0.05399533 -0.07718174 0.11621219 -0.026512282 -0.053404473 -0.021382453 -0.061409764 0.051237278
0.12393481 -0.07219765 -0.0031713706 0.10726167 0.02773902 0.11460027 -0.08633786 -0.049406774
-0.09769739 -0.08551159 -0.07880184 -0.013649122 0.09980401 -0.050853357 -0.057773758 0.12419064
-0.09286734 -0.0049756295 0.09137575 -0.09945036 0.0628129 -0.027770737 0.027683396 -0.06957209
-0.045912303 0.06370546 0.036900144 0.06624963 0.11046489 0.028476933 -0.055530418 -0.07810858
0.15430704 0.104313046 -0.02580345 0.10434152 0.0070610717 0.044347238 -0.06668938 -0.06313625
-0.020244665 -0.014991065 0.014711856 -0.012612621 -0.035960257 0.106255375 -0.07604961 -0.03966919
0.11351722 -0.009370343 -0.08145682 -0.007754679 0.009859328 -0.06605886 -0.060199972 -0.0938855
-0.074993595 -0.07480746 -0.036688283 -0.0011861979 0.111324035 -0.1002039 0.071239606 0.0058191894
0.08479164 0.06559788 0.039946724 -0.073246785 -0.0015723845 -0.069334224 -0.044517487 -0.017374638
-0.06651149 0.002791885 -0.013595984 0.029968964 0.036469944 -0.09232016 0.057366297 -0.02049238
0.08160959 0.016310584 -0.12428858 -0.050588675 0.036294658 -0.09925343 -0.041224953 0.046176016

actor.3.bias f4 [64]
00000000: be7c 58bd ee34 e83d a356 80bc 46e6 ff3d
00000010: 6b96 5f3d bdad 0fbd 94bd b3bd c055 c03d
00000020: e7e1 eabd 7e95 033e 1496 5abd 7f43 d4bb
00000030: 9d47 cbbc 53af 8e3d 95e5 8dbd 7a76 b03d
00000040: 69c2 63bd bda0 39bd 636d 6b3d d341 8c3c
00000050: cbb6 1fba 0874 733d 9685 85bd 6398 a63c
00000060: a3ea f73d 66be 01be d877 993d b5fe ebbc
00000070: 1236 193d 3900 973d 89a8 8fbd 5b28 2cbd
00000080: 34ac 17bd d7e1 433d bb9c 13bb 5dc7 97bd
00000090: 167a ad3d 2323 dfbc 7092 a5bd a05f d9bd
000000a0: 2545 c4bd 2dc4 f13c e409 243c 093d 8fbd
000000b0: beac ffbd 1880 c9bd 2258 bdbd 4bef 003d
000000c0: 73f3 fc3d c834 b8bd e8b8 eabd d673 c2bd
000000d0: 5c98 9d3c a0a8 e83c 6159 b4bd e5cc 1dbd
000000e0: 2205 a9bd 7dca a03b 3022 aebd 1e87 12bd
000000f0: 7ff2 2fbd e100 95bd 4751 6a3c 8e54 be3d
-0.05285334 0.113382205 -0.015666312 0.12495093 0.05458681 -0.0350778 -0.087763935 0.093913555
-0.11468869 0.12849995 -0.053365782 -0.0064777727 -0.024814421 0.06967034 -0.06928555 0.086163476
-0.055605326 -0.045319308 0.057477366 0.017121231 -0.0006092607 0.059436828 -0.0651962 0.020336336
0.121053 -0.12670287 0.074935615 -0.028807977 0.03740508 0.07373089 -0.070145674 -0.042030673
-0.03702946 0.0478228 -0.0022523839 -0.074110724 0.08470552 -0.027238434 -0.08084571 -0.10613942
-0.09583501 0.02951249 0.010012124 -0.069940634 -0.1248412 -0.09838885 -0.092453256 0.031478208
0.12351122 -0.08994442 -0.11461049 -0.0949475 0.01923769 0.02840072 -0.0880611 -0.03852548
-0.08252932 0.004906951 -0.085026145 -0.03577339 -0.04295587 -0.07275558 0.014301605 0.09293471

actor.4.weight f4 [64]
00000000: 83c9 863f 5365 803f b9db 803f 1646 7c3f
00000010: d97b 823f 2eba 813f 5e34 803f e780 833f
00000020: ed1f 823f f9e8 813f a267 843f 7d74 7e3f
00000030: a921 813f d181 813f f6c8 7b3f f9cf 803f
00000040: 154f 823f cf15 883f 4802 853f 90ba 7f3f
00000050: e4ad 7d3f 2b6f 823f 2e61 7d3f c1ef 803f
00000060: 6f90 803f 989a 803f c207 7e3f c96f 833f
00000070: 89cc 823f 3859 7c3f 4da6 803f 736f 803f
00000080: c30f 803f 0984 823f 1183 813f 8e10 833f
00000090: c308 853f db93 823f ba56 7e3f 46b5 7d3f
000000a0: 3346 803f 1bae 833f 9cd1 8a3f 1460 803f
000000b0: 6b67 833f 5029 823f a871 7f3f cfad 7d3f
000000c0: 972f 833f 2429 813f 246a 7f3f 1ef9 823f
000000d0: b47b 823f 5db8 833f 0352 843f 00c7 813f
000000e0: a4fd 803f 52ae 843f 1cce 823f 9981 863f
000000f0: 09b7 7f3f 2ce7 813f a8fb 823f 0dd7 803f
1.0530246 1.0030922 1.0067054 0.9854444 1.0194045 1.0134943 1.0015981 1.0273713
1.0165993 1.0149223 1.0344126 0.99396497 1.0088397 1.0117742 0.9835352 1.0063468
1.0180384 1.0631655 1.0391321 0.99894047 0.9909346 1.0190176 0.9897641 1.0073167
1.0044078 1.0047178 0.9923059 1.0268489 1.0218669 0.98573637 1.0050751 1.0034012
1.000481 1.0196544 1.0118123 1.0239427 1.0393299 1.0201372 0.99351084 0.99104726
1.0021423 1.0287508 1.0845218 1.0029321 1.0265936 1.0168858 0.997828 0.99093336
1.0248898 1.009068 0.9977133 1.0232275 1.0194001 1.0290638 1.0337528 1.0138855
1.0077405 1.0365698 1.021915 1.05083 0.99888664 1.0148673 1.0233049 1.0065628

actor.4.bias f4 [64]
00000000: d969 023d 2029 cdba 6154 053b 37eb 65bc
00000010: 4ba5 3cbb 476c bc3b c8c9 aa3b e143 c63b
00000020: 824c 373c d187 d33b b322 853c ee0e 3e3a
00000030: eff6 083c c7e3 b43b ed55 cdbc 9523 0a3b
00000040: 1c1b 7d3b 8233 f03c 2429 833c af26 413a
00000050: 1ba9 08bc 8806 893b e21a 20bc 1fcc c53b
00000060: 2a84 e03b dde1 bab9 5209 4bbc 4254 223c
00000070: 47be 5e3c 1ee7 81bb 06a1 903b 6e65 6338
00000080: 0cc2 0ebb 3242 403b 62fe 823c 7a94 693c
00000090: c3c9 093d 371c 4bbb 3e2c 89bb fcc9 2fbc
000000a0: 9ddf b7ba 5daf 163c 9686 033d 849d 7f3b
000000b0: df29 5e3c 4271 c13b 153a 9b3a 9797 1fbc
000000c0: 1293 4c3c 16ac 9e3b 3ef4 c2bb 626f 3d3c
000000d0: 8cc3 1a3c 3289 ab3c cdac 833c abe1 223b
000000e0: bf39 cf3b 2aa1 983c bfc0 783b 97cd a23c
000000f0: 6593 bbbb cb43 a73b 665e 7c3c d38e dd3b
0.031839225 -0.0015652515 0.0020344483 -0.01403313 -0.0028785046 0.0057502124 0.0052120425 0.0060505723
0.0111876745 0.0064553996 0.016251897 0.00072501495 0.008359655 0.0055203172 -0.025065387 0.0021078337
0.0038620895 0.029321436 0.016010828 0.000736813 -0.008341099 0.004181687 -0.009772034 0.006036296
0.0068516927 -0.00035644966 -0.012392359 0.009907784 0.01359517 -0.003964319 0.0044137267 5.421548e-05
-0.0021783141 0.002933633 0.01599044 0.014256591 0.03363968 -0.003099216 -0.0041861823 -0.010729309
-0.0014028434 0.009197083 0.032110773 0.0039003799 0.0135597875 0.005903394 0.0011842871 -0.009740732
0.012486236 0.0048422916 -0.005949526 0.0115622 0.009446036 0.020939443 0.016073609 0.0024853747
0.0063240225 0.018631537 0.0037956682 0.019873424 -0.005724358 0.005104517 0.015403366 0.0067614107

actor.6.weight f4 [2, 64]
00000000: 7ac5 6cbd 2c33 843d 8bdd 10bc 6af7 f4bc
00000010: c224 2b3d 4e06 91bd a32c c3bd f00d 01be
00000020: cca5 a73c 8ab7 0b3e 4a19 60bd 794f 843d
00000030: ed5f 84bd fc3d 243b 132e f2ba a89a 0bbd
00000040: b11a eb3d 9a60 e7bd 264a 09be 6b7a 013c
00000050: ee9c 043c ce31 06be bc45 b6bd d475 ff3d
00000060: 8082 523d 391d bd3d 9f43 073d f648 95bb
00000070: ddb9 0e3e 57c1 9a3d 5a81 f73d 7ce8 7b3d
00000080: 555e 213d bd3a 8cbd bbc9 06bc c348 fb3d
00000090: ff11 213b 517b d73d 8070 a13d 31e4 8e3d
000000a0: 77d4 df3d 9a8d dcbd 1d7a 25be 4632 d63c
000000b0: 553d 8a3c 78a6 a43d a53a 9dbc 545e 9b3c
000000c0: eb6f 723d f6e5 d7bd ff12 8aba 7f34 84bd
000000d0: 93e9 403d d911 d4bc 4abb eb3d 95cb 623d
000000e0: ea9b 7bbd 1b60 3c3d ee6e b93d 3511 a9bd
000000f0: bdd8 f2bd 102b e8bc 49f2 36bc 5a44 eabc
00000100: 0ac8 b4bd 4e6f ee3d 5d38 ef3d 2ede 933d
00000110: ffcb f43c 2831 7c3d 2006 973d c71e cfbd
00000120: cb6d ac3d 3873 a2bd 7b4c 10be 6980 e0bd
00000130: 085e 8b3d 8e49 68bd bac1 a4bc eb56 a33d
00000140: af53 e23c e24a 1cbe 2d63 fe3d e731 e1bc
00000150: ee8d 72bc b692 913c fecb 3ebc 04ed a1bd
00000160: 9d70 e93d ec7e 3a3d ed50 693b 7f37 94bd
00000170: 4c43 e53d a815 a4bd 9bd5 fa3d ad79 99bd
00000180: 24c5 943d 8117 5abd 7d78 1cbc 3890 5ebd
00000190: 02e3 b9bd 3131 cd3d 9aae e23d 287f 04be
000001a0: be70 9bbd ed84 bbbd 168c e9bc af3a b93d
000001b0: 3891 1b3d 1cb8 093e bca0 ec3d 2585 0bbc
000001c0: 68c5 0dbd 4f01 2b3c 502e 60bd 0687 8e3d
000001d0: ffc4 0a3e 6c3a dbbd c438 c4bd 13d1 003e
000001e0: 472f 53bb c3d3 cbbd 2c53 0c3e 9013 943d
000001f0: 6337 83bd 1d02 a0bd 3425 7bbd 2dcc 633d
-0.057805516 0.06455073 -0.008841882 -0.029903132 0.0417831 -0.07081281 -0.09529998 -0.12602973
0.0204648 0.13644233 -0.054711618 0.06460471 -0.06463609 0.002506136 -0.0018476866 -0.03408304
0.114797 -0.11297722 -0.13407192 0.007902722 0.008094056 -0.13104936 -0.089000195 0.12473646
0.051393986 0.092340894 0.033023473 -0.0045558168 0.13938089 0.07556408 0.12085219 0.06150101
0.039396603 -0.06847141 -0.008226807 0.122697376 0.0024577377 0.105215676 0.07882786 0.06977118
0.10929196 -0.10769196 -0.16159864 0.02614702 0.016874949 0.08039564 -0.019193003 0.018965878
0.059188765 -0.105419084 -0.0010534226 -0.06455325 0.047097754 -0.025887417 0.11510332 0.055369932
-0.061427988 0.04599009 0.09054361 -0.08255235 -0.11857746 -0.028340846 -0.011166164 -0.028597046
-0.08827217 0.116423234 0.11680672 0.07220112 0.02988243 0.061570317 0.07374215 -0.10113292
0.08419379 -0.079321325 -0.14091675 -0.10961992 0.068050444 -0.056710772 -0.020111907 0.07975563
0.027627794 -0.1526294 0.1242126 -0.027489616 -0.0148043465 0.017770153 -0.011645315 -0.07906535
0.113984324 0.0455312 0.0035601214 -0.072371475 0.111944765 -0.08011943 0.12247773 -0.07493911
0.07264164 -0.05324507 -0.009550211 -0.054336756 -0.090765014 0.10019148 0.11068459 -0.12939131
-0.07589863 -0.09156213 -0.028509181 0.09044396 0.03798029 0.13449138 0.11554095 -0.008515631
-0.03461209 0.010437324 -0.054731667 0.069593474 0.1355171 -0.107045025 -0.0958114 0.12579755
-0.0032224224 -0.099525 0.13703603 0.07230294 -0.064070486 -0.07812903 -0.061314777 0.05561464

actor.6.bias f4 [2]
00000000: e722 9f3d 2c19 d5bc
0.07770329 -0.02601298

critic.0.weight f4 [64, 29]
00000000: 2dd3 1b3e 2923 06be 21cb edbd 6c5d 01bd
00000010: abea d83d 8738 0ebe 85ca 3b3d ed60 37be
00000020: 102d 85bd d7d4 a6bc 33f7 933d 23ed ab3c
00000030: ffed dbba 3f94 063e d0c3 343d c2b8 0f3d
00000040: e639 243d 1669 ffbd 52df a4bd 5fe5 b7bd
00000050: 1ca1 cf3d d8e4 df3d 7704 23bd d2b2 d8bd
00000060: de9f e13d acb3 ee3d f762 863e 2c5d e93d
00000070: 5f66 31be db9b 6d3d 5d10 0e3d 5a1d fa3d
00000080: 5ca5 08be 2854 a1bc 7aea 983d f903 953b
00000090: 8b3c e13b e70d 82bd c398 20be e536 8abd
000000a0: 83bb 8f3c d91b 793d 4a68 45bd 5828 dfbd
000000b0: a039 57bc 19bc 62bd 5a16 3a3e 3e80 153e
000000c0: bfd4 093e 4c4f c13d cd03 e5bd 2f7b 073e
000000d0: f3ab 8d3d d6be ff3d 15ce 453e de8a 423d
000000e0: b320 463e 97d1 4d3e 19d0 013d 6cf2 a93d
000000f0: 9abe 0ebc aa36 233e 31fe 02be 4493 4f3d
00000100: eae1 dc3d 5e34 bdbd e9a1 77bd be15 223e
00000110: 7d0a e1bd b6c2 c9bd a0c6 a5bd d16e 4f3d
00000120: 0a81 e93d 7d66 7c3d a582 1a3e 14fd 3fbb
00000130: e660 4dbb 411f 01bb 3e8c 533d c4ae ff3d
00000140: 8403 413d 51e8 e0bd 2841 29bd 5cdd 23be
00000150: a8a8 80bc cb02 ebba c8ab 1a3e a96a 25be
00000160: e8f0 abbd dade 8f3d e312 dabc 4f78 aabc
00000170: c19e 1dbe 2b74 59be a9d9 723d ae94 a3bd
00000180: cae6 043d 50cc 80bd 264a 0a3e 8731 3bbc
00000190: 7dcd 90bc cdf2 523d fe6c 313d 988b 65bc
000001a0: 3757 133d 2e1b 9ebc 0652 5a3c 3531 b8bd
000001b0: d0c1 48be 46b1 4abe c203 773d b3dc 18be
000001c0: e888 24be 7729 58be e45a 193e de39 81bd
000001d0: 285e a93c 2988 d63d 09dd 01be 925f e53b
000001e0: 46b4 433c ca6e 5cbd 67bd 52be 6833 2e3d
000001f0: 2876 3dbd 2dcc 5f3d 036f 343d 8f3a dbbd
00000200: 33dc ecbd 3a75 ebbb 5627 62bd 8e2d 953c
00000210: 894e 14be 950c 04be a004 c73d a52f 76bd
00000220: ec48 5e3c 1d35 45be cb87 84bd 8207 223e
00000230: 8de4 05be f25f 62bd c661 2abe 28f2 bdbd
00000240: a0e8 01be 8855 073e f9f4 e43c 7248 773d
00000250: 4091 8ebb ab86 d9bd 2b65 d63d d035 5c3d
00000260: b8b7 0abe 06e7 0abd 549f 46bd c35d aebc
00000270: d49e 11bd a5e2 dfba 22d8 e8bb 72d5 903c
00000280: fbe5 9b3c 659b e3bc cdf3 b9bd 1bdb 723d
00000290: 84b5 603a 6d15 39be 193d 783e 0785 5f3d
000002a0: aafe 5ebd 96ef 4e3d 4d48 39bd fcec fdbd
000002b0: 3623 003e 0a3f 53be f323 aabd 7ac0 a83d
000002c0: b3d4 353d be51 d5bd edfd c53d bbfa e93d
000002d0: a06d 583d 688c 843d 70ff aebd 099c bf3c
000002e0: fb3c edbc 6422 833b e8c2 0b3d 3661 973d
000002f0: 4811 0b3e 4322 663d 874a 823d e34a d83d
00000300: 0392 ac3d 75e8 1abe 34de 023e 521e d2bd
00000310: bfc7 bf3d 1bab 863d 274c 8abd 28dd 6cbd
00000320: e42d 09be aedb a03d 7042 40be 76cc 123e
00000330: 7d06 da3d dd40 2dbe ba7d 043e 2cad d6bc
00000340: 6dd9 b83d e3b5 cbbb e7ac 053e 20d6 83bd
00000350: 7a9d da3d 5994 03bd 726a 63bd 65ba 97bc
00000360: b018 053e fbfa aebd 4229 33bd c34a 5a3d
00000370: 7d70 b73c 95f8 463e ae22 efbd 961f d63d
00000380: acdd 173d 9930 043e 2215 fb3d 564d 00be
00000390: 7ccd a5bd 4858 eebd c149 ff3d f244 c93d
000003a0: 1cf7 c9bb 4bcb 123d 7c19 e73d d43b d5bc
000003b0: 9069 c13d ac8f f83d e561 313d 308a ab3d
000003c0: c6e5 983d 036d 2cbd 35e6 983d ff64 763d
000003d0: cd7a e6bd 5115 a7ba 7c7b 86bd 95b3 803d
000003e0: 7149 863d df6b 783d e498 933d f71e bcbc
000003f0: 3100 b4bd bc8b fcbd 9f7c 48be c186 323e
0.15217276 -0.1309935 -0.116110094 -0.031583235 0.10591634 -0.13888751 0.045847435 -0.17908068
-0.065027356 -0.020365162 0.07224884 0.020987099 -0.0016779302 0.13142489 0.044132054 0.03508831
0.04009428 -0.124712154 -0.080504075 -0.08979296 0.10138151 0.1093232 -0.03979918 -0.10580982
0.1101682 0.116553634 0.2624738 0.11394724 -0.17324208 0.058009963 0.034683574 0.122126296
-0.1334433 -0.01969345 0.07466598 0.0045475927 0.0068736724 -0.06350308 -0.15683274 -0.067487516
0.017545467 0.060817573 -0.04819516 -0.10896367 -0.013136297 -0.055355165 0.18172589 0.14599702
0.13460062 0.09438953 -0.111823656 0.13230585 0.06917562 0.12487571 0.19316895 0.047495715
0.19348411 0.20099483 0.031692598 0.082981914 -0.008712435 0.15938821 -0.12792279 0.050677553
0.10785277 -0.09238504 -0.060457144 0.15828606 -0.109883286 -0.09851591 -0.08094525 0.050642792
0.114015654 0.061621178 0.150889 -0.0029295133 -0.0031338274 -0.0019702467 0.051647417 0.12484506
0.047122493 -0.10981811 -0.041321903 -0.1600241 -0.015705422 -0.001792991 0.15104592 -0.16153969
-0.083955586 0.070249274 -0.026620334 -0.02080932 -0.15392591 -0.21235721 0.05928961 -0.07987343
0.03244666 -0.062889695 0.13504848 -0.011425382 -0.01767611 0.051501084 0.043316834 -0.0140103325
0.035971846 -0.01930007 0.01332522 -0.089937605 -0.19605184 -0.19794187 0.060306318 -0.1492794
-0.1606785 -0.21109568 0.14976078 -0.063098654 0.02067478 0.10475189 -0.12681974 0.0069999183
0.011944836 -0.053816594 -0.20580064 0.042529494 -0.04625526 0.054638077 0.04405118 -0.107045285
-0.11565437 -0.0071856054 -0.055213295 0.018210199 -0.14483084 -0.12895425 0.09717679 -0.06010403
0.013567191 -0.19258542 -0.06471213 0.15823177 -0.13075466 -0.05526728 -0.1663886 -0.09274703
-0.12686396 0.13216221 0.027948843 0.060371824 -0.0043508112 -0.10621389 0.10468515 0.053762257
-0.13546646 -0.033911727 -0.04849179 -0.021284943 -0.03555186 -0.0017081095 -0.007105843 0.017679904
0.019030562 -0.027784059 -0.090797044 0.059290987 0.000857197 -0.1807458 0.24242057 0.054570224
-0.054442085 0.050521456 -0.045234967 -0.12398717 0.12513432 -0.20629516 -0.08307638 0.08239837
0.0443923 -0.10415982 0.09667573 0.11424776 0.05283892 0.06472093 -0.085448146 0.023389833
-0.028959742 0.0040019024 0.034121424 0.073915884 0.13580811 0.05618502 0.06361871 0.105611585
0.08426287 -0.15127738 0.12780076 -0.102596894 0.093642704 0.065756045 -0.06752806 -0.0578281
-0.13396412 0.078544006 -0.18775344 0.14335808 0.10645769 -0.16919275 0.12938586 -0.026205622
0.09025846 -0.006216751 0.13054238 -0.064373255 0.106745675 -0.032123897 -0.055521436 -0.018521497
0.12997699 -0.085439645 -0.04374052 0.053293955 0.022392506 0.19430764 -0.116765365 0.10455243
0.037076637 0.12909164 0.1225989 -0.12529501 -0.08095834 -0.11637932 0.12465239 0.098276034
-0.006163491 0.035838407 0.11284158 -0.026029505 0.094439626 0.12136778 0.04330625 0.083759665
0.07465701 -0.04209615 0.074657835 0.06015491 -0.11253891 -0.0012747442 -0.065665215 0.062842526
0.065569766 0.06064975 0.07206896 -0.022963984 -0.08789099 -0.1233134 -0.19578789 0.17434217

critic.0.bias f4 [64]
00000000: c0f9 d6bd 432f debd b29b 74bd 0f51 30be
00000010: 6a32 81be deeb 26be 8a18 2fbe c6ce 36be
00000020: ae1f 65be d06e 00be eadf 13be 668d debc
00000030: 67a7 d13d d580 86b9 73d1 d2bb 5e63 793e
00000040: 935d 10bd 2ebc 923c 0bc6 393b 4f4d df3d
00000050: 1c87 373c c8a8 58be ea5f 0a3e 0639 4abb
00000060: 67c0 253d 7196 7ebc 233b 27be 4a8e 843d
00000070: f828 183e c84f f7bc c281 4cbb 6def 2cbe
00000080: 1b76 223d 8995 303e 8cae 533e d407 04be
00000090: b77b aabd 834e 3a3e 40e3 e7bd 6b73 78bd
000000a0: 6ea3 9b3d f7c2 2fbc eaf9 50be a2f2 3ebd
000000b0: dd6e 783c eaff bfbd df72 6c3e bac0 e13c
000000c0: df24 573e d934 aa3d 9331 26bd 942c 61bc
000000d0: 8f93 683d 2c34 76bd 81c4 7e3d 2571 6fbd
000000e0: 530c 8f3d 081a 723c 53f5 bdbc 1426 d1bd
000000f0: bfa8 5abe ae2a 303e d186 633b be54 31bd
-0.10496855 -0.10848858 -0.059718795 -0.17218421 -0.25233775 -0.16300914 -0.17099205 -0.17852315
-0.22375366 -0.12542272 -0.14440885 -0.027167033 0.102370076 -0.0002565446 -0.0064336597 0.24354312
-0.03524549 0.017911997 0.0028346803 0.10903417 0.011201646 -0.21158135 0.13513151 -0.0030856743
0.040466692 -0.015538798 -0.16331153 0.06472452 0.14859378 -0.03018941 -0.0031205271 -0.16888209
0.039663415 0.17244543 0.20672053 -0.12893611 -0.08324378 0.18194012 -0.113226414 -0.060656946
0.07599531 -0.010727636 -0.20407835 -0.04661811 0.015163151 -0.093749836 0.23090695 0.02755772
0.21010159 0.08310861 -0.04057462 -0.013743538 0.056781348 -0.06010835 0.06219912 -0.058457512
0.069847725 0.014776714 -0.023188269 -0.10212341 -0.21353434 0.17203781 0.0034717808 -0.043293707

critic.1.weight f4 [64]
00000000: 5703 7d3f 86dc 7f3f f253 7a3f ed58 833f
00000010: 4ccc 7f3f 4f7a 8a3f 01a7 7f3f f98f 783f
00000020: c7c5 823f 1df5 7c3f e5b6 823f c958 823f
00000030: 3414 793f 9ddb 7f3f 0695 833f 311e 833f
00000040: 3794 803f 06e3 813f c63c 773f 97c4 713f
00000050: 66ba 7c3f 89d8 863f 7c82 783f 6b38 7e3f
00000060: 779a 793f 7616 813f 6c4a 7e3f ab57 783f
00000070: 260f 7a3f b375 773f 6e9f 793f e0f8 7d3f
00000080: 80cc 823f 0ec2 813f 2220 823f 3c64 7d3f
00000090: 6a54 793f 7932 843f 7121 823f a4d0 803f
000000a0: 6568 7e3f 7747 763f a29c 723f 948a 863f
000000b0: 4bfc 7f3f 3bd6 813f ebb1 823f b0c2 853f
000000c0: 5d52 823f 4478 793f 1b8b 793f be8e 7a3f
000000d0: ca2c 763f 5544 783f cac8 7b3f 6c47 7f3f
000000e0: 8c90 7d3f 34a3 7c3f 5215 7c3f 270b 893f
000000f0: 17e9 863f 1623 823f 61ef 7b3f d570 7a3f
0.9883322 0.9994587 0.9778434 1.0261513 0.9992111 1.0818576 0.998642 0.97094685
1.0216607 0.98811513 1.0212065 1.0183345 0.9729645 0.9994448 1.0279853 1.0243589
1.0045232 1.0147407 0.9657711 0.944406 0.9872192 1.0534831 0.97074103 0.99304837
0.9750132 1.008498 0.9933231 0.9700877 0.97679365 0.9666397 0.97508895 0.9920788
1.0218658 1.0137346 1.0166056 0.9898107 0.9739443 1.0327903 1.0166456 1.0063672
0.99378043 0.96202797 0.9477025 1.0511041 0.99994344 1.0143503 1.0210546 1.0450039
1.0181385 0.97449136 0.97477883 0.9787406 0.9616209 0.96979266 0.98353255 0.99718356
0.99048686 0.9868653 0.9847003 1.0706528 1.0539883 1.0166957 0.9841214 0.9782842

critic.1.bias f4 [64]
00000000: 8b50 0ebd 8f87 eb3c 4455 43bc c8d2 48bc
00000010: f45c 4e3c 7ece 1d3d 652e 963c cfff 74bc
00000020: 212a 55bb 84c1 8a3b 85d0 093d 4c81 383d
00000030: 996d be3c b16f f33c d468 133d a032 563d
00000040: 50ae b6bc 87b0 ff3c a7fb 9b3b d94f 7a3d
00000050: 1263 573b 340d 3d3d f2bf 623b aac1 30bc
00000060: 5f36 543c 45a9 0b3d 4e22 753d 6cc9 90bc
00000070: e3b9 4abb 2cf0 8dbc 8e43 a83b 4cd9 16bc
00000080: 1bba 27bc 3348 0f3d 0335 883d d88c 303d
00000090: 86cd aabc 380a 033d d089 f83c 4282 38bb
000000a0: 6bdc 383c 0ae6 00bd 58b1 31bd 0998 863c
000000b0: 7ecf 453d f441 a93c 50ea 793d 5fbf e93c
000000c0: 8119 f13c 5bae 0b3d a4d2 403c 9847 b9bc
000000d0: 6671 54bb 8a18 cebb 1e23 553b 189a 073d
000000e0: 63a9 863c 7c6f 673c 3caf 81bb 9e7a 883d
000000f0: 410c 353d a822 0c3d a530 2fbc 0031 913d
-0.03474478 0.028751163 -0.011922184 -0.012257285 0.012595404 0.038527004 0.01833267 -0.014953568
-0.0032526331 0.0042344946 0.033646125 0.045045182 0.02324562 0.029716345 0.035988644 0.052294374
-0.022299916 0.031212104 0.004760224 0.061111305 0.0032865447 0.04615517 0.0034599272 -0.010788361
0.012952416 0.034096975 0.05984717 -0.01767417 -0.003093355 -0.017326437 0.0051350063 -0.009207081
-0.010237242 0.034980964 0.06650736 0.04310307 -0.020849954 0.031992167 0.030339152 -0.0028153812
0.0112830205 -0.031469382 -0.04338202 0.016429918 0.048293583 0.020661332 0.061014473 0.028533636
0.029431107 0.034101825 0.011768971 -0.022617146 -0.0032416224 -0.0062895464 0.0032522152 0.03310594
0.016438192 0.014125701 -0.003957657 0.06664012 0.04420114 0.03421274 -0.01069275 0.07089424

critic.3.weight f4 [64, 64]
00000000: 88dd f73c 834b f9bc 05c6 66bd fcbb 8c3c
00000010: 735e 21bd 3028 643d 730d 913d 9cc1 6cbd
00000020: 63f1 0a3d 5856 f13c eba5 64bd 89ec c33d
00000030: fc1d a53d d801 093e 5ad6 20bd 1ca6 9d3c
00000040: 4987 a1bd 33bc 6c3d 1533 95bc 671f 94bd
00000050: ef56 1a3e 12c3 22be 47d8 863d 0d70 29bd
00000060: 204d ac3d 3d36 37bd 5d6e 133e 4f50 553d
00000070: 93ea d3bd 304a 76bc 802c 083e 839c 623c
00000080: 79d7 debd d222 023e ac68 0c3e 653a 62bc
00000090: 97ae 72bd e557 943d dcc0 003e f725 2f3c
000000a0: 8d67 f03d a60e babd ef98 1f3c ca78 a5bc
000000b0: ae4a 253e e304 07bd 4d55 663d 75a0 9b3d
000000c0: 4eb6 bcbc ad03 263d 04ce 7c3d 9f08 18bd
000000d0: d8d7 54bd 9506 8f3d f99c 823c cc6e 3ebc
000000e0: 6cb8 193e bdde 36bd f6df 013e a373 8cbc
000000f0: 039e 56bc bc5f d53c ffa1 bebc d8b2 023e
00000100: 72db e83d c294 c5bd e06f 89bb ba5e 903d
00000110: 658d ca3d aabe d43d f3e1 b4bc fb2a 5ebd
00000120: c945 91bd 66b3 dfbc 52b2 4cbd 3051 14be
00000130: dfb4 6e3d d0b5 d8bd 5fff 593d 51a2 bc3d
00000140: f142 9b3d bf2b 12be 7a8c 32bd 44cd c9bc
00000150: 5aa6 9aba 85a4 ee3d 0f79 bb3d f51f 413d
00000160: 59dd a43d 3332 6c3d f31e 9fbd e9ce b7bd
00000170: 07a2 2c3d 2dc6 00be 9b25 f5bd 8d31 5abd
00000180: 54c0 aebc 4eda 13be 1c9c cb3c a45a bebd
00000190: 9be7 883c 988b cd3c 1433 8ebd 6ff2 af3d
000001a0: d0e7 98bd d63b 95bd 98a2 6abd 6316 d43d
000001b0: 372e 693d aed1 a53d 480c a7bc 72db 34bd
000001c0: 6735 8cbc 0b00 bcbd 0ec5 a9bd f319 0c3c
000001d0: 073e eabd d5b1 87bd 93b5 323c fb7d 09bd
000001e0: 6046 fd3c 3050 f6bd d8e5 8c3d b19c de3c
000001f0: 888b 19bc f00b 703d 6e33 91bc 5699 7d3c
00000200: 3447 12be 1580 153d 933b 7d3d ad0d 2d3d
00000210: 4af4 81bd 90b6 30bd 8bcd e2bd f110 793d
00000220: 204b a13c 39f8 c93c a4ed a13d 0849 02be
00000230: bec3 ba3d febd c6bd ec21 0fbd 80a4 6dbd
00000240: 1818 20bd f8c5 013d 1036 b1bd e3e7 153d
00000250: 3325 f8bd da7f 8f3d f0da 2b3d 0431 9e3d
00000260: db32 fbbd 92eb 8fbd 7d45 b4bd 54bd e0bb
00000270: 1f16 a43d 24d7 22bd c0b2 0ebe 00b8 d8bd
00000280: 2583 d8bd 47dd 17bd 2679 2d3d 18cb e3bc
00000290: 50b1 99bd 9f6c b43d 7d6b b0bd 3934 47bd
000002a0: d950 b63c 99de abbd a811 09be ba32 14bb
000002b0: 1f8d 47bd ad9a c5bd 7bfc 8f3d 9cb9 b23d
000002c0: 1a02 61bd 6081 723d 1166 7b3d cb74 e4bc
000002d0: b332 de3c 40d4 7dbd 5846 a4bd ed72 cd3a
000002e0: 9bfb bdbd d532 12bd f486 8b3d dfea 023d
000002f0: 54ab fcbc 686c b63b e4cc 5f3b 2dc7 06be
00000300: bb53 acbd 18ad 6f3c 7794 54bd d315 443c
00000310: 808d f4bc 9f42 c9bd 0ecd b5bd 3b76 7cbd
00000320: d398 45bc f92a 5cbd fb70 433d bebe 213d
00000330: 0c15 9fbd df59 b83b 3219 643d 2755 debd
00000340: 9220 9c3d 3b00 90bd 4673 093d ea5e ec3b
00000350: 32d2 203c d824 a43d 31af d8bd 563b 213d
00000360: e55e a73c 7959 83bd 2fd6 c23c 94e7 36bc
00000370: a415 9e3d b472 ebbc a350 aa3c f3a9 aabd
00000380: 76bf 0fbd f9e8 933d 6938 333c d25b 743d
00000390: 1cf1 983d 5b69 95bd 1642 e6bd 85b3 06bd
000003a0: aeea 293d c2c6 883c 29c5 8bbd d7e5 943d
000003b0: 3405 803d cb88 b1bd 7f5d cbbd 23d1 3abd
000003c0: 0240 31bd 1a1f 85bd fcb9 433d d0a3 52bb
000003d0: 4e0a 113d b798 a9bd 9d44 ebbc 7bc2 093d
000003e0: 7f9d b1bc 9620 b83d 75e1 b6bc d514 c0bd
000003f0: f0f2 0a3b a4a1 08be a768 c83c d880 83bb
0.030257002 -0.030431515 -0.05634119 0.017179482 -0.039396714 0.05570239 0.07082643 -0.057801828
0.03392161 0.029460117 -0.055822294 0.095666 0.0806236 0.1337961 -0.03926692 0.019244246
-0.07887132 0.05779667 -0.018212834 -0.07232552 0.15072225 -0.15894726 0.065842204 -0.041366626
0.08413148 -0.04472946 0.14397569 0.05207854 -0.10347476 -0.015032336 0.13298225 0.013831261
-0.10880942 0.12708595 0.13711804 -0.013807868 -0.059248533 0.07243327 0.1257357 0.010690204
0.11738501 -0.09084825 0.009741052 -0.020199198 0.1614177 -0.032963645 0.056233693 0.07598964
-0.023036148 0.04053085 0.06171991 -0.037117597 -0.051963657 0.06983677 0.015943991 -0.011623096
0.15011758 -0.044646014 0.1268309 -0.017144984 -0.013099196 0.026046626 -0.023270605 0.12763536
0.11369981 -0.09647514 -0.0041942447 0.07049318 0.0989025 0.10387929 -0.022080397 -0.054240208
-0.070933886 -0.027307224 -0.049974747 -0.14484096 0.05827796 -0.10581553 0.053222056 0.09210647
0.075811274 -0.142745 -0.043591 -0.024634011 -0.0011798844 0.11652473 0.091539495 0.047149617
0.08050031 0.05766506 -0.07769575 -0.08975012 0.04214671 -0.12575598 -0.11970063 -0.05326991
-0.021331944 -0.14438745 0.024854712 -0.09294632 0.016712 0.025090978 -0.06943336 0.085911624
-0.0746609 -0.072868034 -0.057283968 0.103558324 0.05692884 0.08096634 -0.020391598 -0.04415459
-0.017115308 -0.09179696 -0.08289538 0.008551109 -0.11437612 -0.06625716 0.0109075485 -0.03356741
0.030917346 -0.12027013 0.06879777 0.027174326 -0.009371646 0.058605134 -0.017724719 0.015478453
-0.14284974 0.0364991 0.061824393 0.04224937 -0.063454226 -0.043142855 -0.110743605 0.060807172
0.019689143 0.024654495 0.079066545 -0.12723172 0.09119366 -0.09704207 -0.03494446 -0.058018208
-0.039085478 0.03168294 -0.0865289 0.036598098 -0.1211647 0.070068076 0.041956842 0.07724193
-0.12265559 -0.07027353 -0.08802316 -0.006858507 0.08012032 -0.039755955 -0.13935375 -0.1058197
-0.10571889 -0.03707626 0.042351864 -0.027806804 -0.07504523 0.0880978 -0.08614252 -0.048633788
0.022255348 -0.083920665 -0.13385642 -0.0022613243 -0.048718568 -0.09648643 0.07030579 0.087268084
-0.054933645 0.059205413 0.061376635 -0.027887722 0.027123785 -0.061969995 -0.080212295 0.0015674509
-0.092765056 -0.03569301 0.0681285 0.03196227 -0.030843414 0.0055671223 0.0034149224 -0.13161917
-0.08414408 0.014628671 -0.0518994 0.011968094 -0.029852629 -0.0982716 -0.08877002 -0.06163619
-0.012060362 -0.05375192 0.04771517 0.039488547 -0.07767686 0.005625948 0.05568809 -0.10856085
0.076234 -0.07031294 0.0335572 0.007213463 0.0098157395 0.0801484 -0.1058029 0.039363228
0.020430991 -0.0641355 0.023783771 -0.011163611 0.07718971 -0.028741218 0.020790404 -0.083331965
-0.0350947 0.072221704 0.010938742 0.05965788 0.07467863 -0.072954856 -0.11243074 -0.032886047
0.041483574 0.016696338 -0.06824715 0.07270401 0.062509924 -0.08668669 -0.09929942 -0.045609605
-0.043273933 -0.06500073 0.04778479 -0.0032141097 0.035410218 -0.08281081 -0.02871924 0.033632737
-0.021681545 0.0899059 -0.022324303 -0.093789734 0.002120193 -0.13342911 0.024463965 -0.004013162

critic.3.bias f4 [64]
00000000: ab42 a2bc e0fe f43c c209 bcbd abc0 223c
00000010: a572 8dbd 0ad0 063e b32e a2bd 5153 9b3d
00000020: 44e9 b13d cb9b d73d 1dab 633d 689b 87bd
00000030: 4c6d 88bd f38f 07be fd7d 71bb ff06 8abd
00000040: 1abe 9f3c ebe2 78bd 1480 06be a3dd 1ebd
00000050: 6e02 93bd bf26 853d 7824 ebbd 10b4 ffbb
00000060: ed45 9cbc a73d ddbd d96d d0bd 9307 2ebc
00000070: d053 9f3d 6e83 233d e952 e6bc 621e 053e
00000080: e8e5 ff3c 364a 683d c0b7 da3d fac8 c33d
00000090: 906d f8bb 081c 25bd 7d37 cdbc b79c 12bd
000000a0: bbfe f1bd 3e35 323d 538e 823d fbe4 5ebd
000000b0: 0569 a1bd 353a 0d3e 103d 993c 254b b93c
000000c0: 629a 133d 5b40 0abd b042 b1bc f7f3 a93d
000000d0: b282 b3bd b216 753d 8b11 d1bd 9cfc e33d
000000e0: 7ea0 b73d 5a07 0ebe b2a9 133b 51a5 cabd
000000f0: 0f9d 613d d5cd babd d36c 51bd a552 3e3d
-0.01980718 0.02990669 -0.09181549 0.009933631 -0.06906632 0.13165298 -0.079190634 0.07584251
0.0868707 0.10527762 0.05558311 -0.06621438 -0.06661472 -0.13238506 -0.0036848777 -0.06739616
0.019499827 -0.06076328 -0.13134795 -0.038785588 -0.07178198 0.06501531 -0.11481565 -0.0078034475
-0.019076312 -0.10802775 -0.10177202 -0.010621923 0.07779658 0.039920263 -0.028115707 0.12999871
0.031237558 0.056711398 0.10679579 0.095598176 -0.0075814202 -0.040309936 -0.025050873 -0.035793986
-0.11816164 0.043507807 0.063748024 -0.05441759 -0.07881359 0.13791735 0.018705875 0.02261884
0.036035903 -0.03375278 -0.021638244 0.08298486 -0.087651625 0.059836097 -0.10208424 0.11132166
0.08966158 -0.13869992 0.0022531566 -0.09894813 0.055081423 -0.091212906 -0.051129173 0.046465535

critic.4.weight f4 [64]
00000000: 42e5 923f 859f 7d3f 28fd 7c3f 3b04 7e3f
00000010: 4356 7d3f db94 8d3f ca13 903f a83f 823f
00000020: 1a24 8a3f a2cb 873f 9d50 943f 9003 7f3f
00000030: 9555 823f c8d1 803f be0f 7e3f 6931 813f
00000040: e109 893f 121f 8e3f cc08 7f3f d963 863f
00000050: dca1 893f b530 833f ad28 833f 9fa4 893f
00000060: be73 7d3f 37ef 7c3f 0926 853f 5acc 8e3f
00000070: 35ab 903f 1022 8f3f a88e 8d3f a3e0 933f
00000080: a50b 7c3f 35c0 843f 442c 843f 01b9 8e3f
00000090: 16b6 7c3f f4f2 803f 8380 833f 2c2e 7b3f
000000a0: 5628 7e3f d90c 7e3f a7d2 843f 4ace 7d3f
000000b0: 4e3d 7e3f e173 7f3f 0c45 7c3f 0f1b 923f
000000c0: 8ff3 833f 6460 7f3f 9618 803f 47b6 853f
000000d0: 632d 873f e572 853f 09e2 7c3f 51a2 873f
000000e0: 41ea 833f 2d8d 803f f593 8b3f 7574 7e3f
000000f0: 801b 7d3f a67e 853f 79d7 913f 9ea5 8d3f
1.1476214 0.9907153 0.98823786 0.99225205 0.9895975 1.1061052 1.1256039 1.0175676
1.0792267 1.0609019 1.1587101 0.9961481 1.0182368 1.006402 0.9924277 1.0093204
1.070614 1.1103232 0.996228 1.0499221 1.075252 1.0249239 1.0246788 1.0753363
0.99004734 0.9880251 1.0402232 1.1156113 1.1302248 1.118227 1.105916 1.1552929
0.9845527 1.0371157 1.0326009 1.1150209 0.9871534 1.0074143 1.0273594 0.9811733
0.992803 0.99238354 1.0376786 0.991429 0.99312294 0.9978619 0.9854286 1.1414508
1.0308703 0.99756455 1.0007503 1.0446252 1.0560726 1.0425688 0.987824 1.059641
1.0305864 1.0043083 1.0904528 0.9939645 0.98870087 1.0429275 1.1393882 1.1066167

critic.4.bias f4 [64]
00000000: 948a f63d 4ce6 8ebc 5c26 97bc 1d95 b33c
00000010: cf1b 7bbc e4d4 cf3d a1d8 d63d a7a7 fb3c
00000020: 53c8 9b3d 1238 b33d 7192 083e a99c 7fbc
00000030: 9f9c ae3a d935 28bc 77f4 41bc 9355 c0bc
00000040: de5f a23d a89e be3d 0e15 ae3c d6c0 fd3a
00000050: 5811 1c3d 6754 91bb b25d 98bb 4d35 a53d
00000060: 33b0 5abc d3d2 8fbc c8ba 833b 4cab c63d
00000070: 179c e63d 6312 d03d 7c93 b03d 5155 083e
00000080: 8940 c5bc 81c7 523d c9b3 61bc 2352 c93d
00000090: c007 91bc 52b2 d73c ddc4 393d bc75 e5bc
000000a0: d31c 64bc 50e6 5dbc f740 f23b b007 2bbc
000000b0: 7fe9 6dbc 9de3 3abc 4212 b9bc a863 e83d
000000c0: 088f 953c b9ad 18bc 5ef1 fa39 c7ce aa3c
000000d0: 9617 853c 0ddc 81bc 2a17 89bc d3df a03d
000000e0: aae7 3a3d eec6 60bc 82b9 d43d 0131 7ebc
000000f0: 7b6e 82bc f7fe 803d 5dca ee3d ae57 c33d
0.120381504 -0.017443798 -0.018450908 0.021921689 -0.015326454 0.101480275 0.104905374 0.030719591
0.07606568 0.08750929 0.13337113 -0.015601316 0.0013321823 -0.0102667445 -0.01183807 -0.023478305
0.079284415 0.09307605 0.021250274 0.0019359838 0.038102478 -0.0044351104 -0.004649841 0.08066807
-0.013347673 -0.017556584 0.004020069 0.09700641 0.112602405 0.10159757 0.086218804 0.13313796
-0.024078624 0.051459793 -0.013775774 0.098301195 -0.01770389 0.026330147 0.04535376 -0.028010242
-0.013922888 -0.01354368 0.0073929983 -0.010438845 -0.014521002 -0.011406806 -0.022591714 0.11347133
0.01825668 -0.009318762 0.00047863548 0.020850552 0.016246598 -0.015851999 -0.016734678 0.07855191
0.04563109 -0.0137193035 0.10386945 -0.015514613 -0.015921822 0.06298631 0.116596915 0.09538208

critic.6.weight f4 [1, 64]
00000000: c660 5b3e e751 bdbd 7553 a0bd d927 b93d
00000010: 9959 89bd 6914 623e 5307 403e 2728 c53c
00000020: b5b9 3d3e 3b0f d73d 12e6 6f3e 200b aebd
00000030: d86d 0abe f9c9 cabc 5a77 01bc 5767 bebc
00000040: 0d3b 113e 5338 563e 2b7d 863d 1870 63bd
00000050: 6d16 07be e64f 29bd a77f 13be fd9c 403e
00000060: 713b febc 02ac 7dbd 20d9 7abd 59b1 4a3e
00000070: 5095 4a3e 8794 283e cce2 5f3e ed28 3c3e
00000080: 1862 8bbd d2b1 643d 55c1 0dbe e918 5a3e
00000090: d7c5 32bd d233 2e3c 0dc2 133d 4094 cebd
000000a0: 5214 b7bc 90f0 d7bd 802c f1bd 6c9c 75bc
000000b0: 6294 d0bd cb97 dcbc e838 8bbd ec22 763e
000000c0: 3e7f 99bd 1d45 b0bd 37de dbbc d917 09be
000000d0: 1f97 fcbd 5338 afbd 0786 cebc 7fe3 ca3d
000000e0: 9d39 453d 1e9c d6bd 06ae e03d 5d3d babd
000000f0: 48f0 d9bd 952b 903d f3e5 813e 3227 393e
0.21423635 -0.09244137 -0.07828418 0.090408035 -0.067065425 0.22078098 0.18752794 0.024066998
0.18527873 0.10500952 0.23427609 -0.08498216 -0.13518465 -0.024754511 -0.007901991 -0.023242636
0.14182682 0.20919923 0.06566843 -0.055526823 -0.13192149 -0.041335963 -0.14404164 0.18809886
-0.031034203 -0.061931618 -0.061242223 0.19794215 0.1978352 0.16462909 0.2186386 0.18374987
-0.06805819 0.055833645 -0.13843282 0.21298565 -0.043645706 0.010632472 0.036073733 -0.1008687
-0.022348557 -0.105439305 -0.11776066 -0.014990907 -0.10184552 -0.02692785 -0.067979634 0.24036759
-0.07494973 -0.08606932 -0.026839359 -0.13388003 -0.123335116 -0.08555665 -0.025210394 0.09906673
0.048150647 -0.10478996 0.10970692 -0.09093735 -0.10641533 0.070395626 0.2537075 0.18081358

obs_mean f4 [29]
00000000: ff35 3cb9 54eb 1a3d d065 8d38 459f 0f3f
00000010: c001 35b9 19a4 6fb9 8d49 9ab9 5954 d7b7
00000020: 7fdd 85b8 219a b53e 12dc d638 1fb6 653f
00000030: c98e e1b7 baa8 0bb8 9e8f 71b8 fad9 d938
00000040: 7383 0c3f d295 6dba c044 bbb8 a63b 863e
00000050: 1c26 bb3c 1ba7 3cbc 9d5f 4ebd 413d b0bb
00000060: 856c 83bc 9660 eb3d 378f d53d f42e 62bd
00000070: 88fd 233f
-0.00017949192 0.037822083 6.742368e-05 0.561024 -0.00017262157 -0.00022853947 -0.0002942797 -2.5669275e-05
-6.383191e-05 0.35469154 0.000102453065 0.8973102 -2.688858e-05 -3.329732e-05 -5.759263e-05 0.000103879676
0.54888076 -0.00090631575 -8.9296605e-05 0.26217383 0.02284532 -0.01151445 -0.050384153 -0.005378396
-0.016042957 0.11493032 0.10427707 -0.05522056 0.64058733

obs_var f4 [29]
00000000: b311 b935 d59a 0541 97a9 5c35 d0f7 2c41
00000010: 24d1 8d33 edb3 4e34 b327 7c36 7d52 9636
00000020: e6f4 8739 42c0 7642 8a07 4a39 16bd 6542
00000030: 4a11 3339 ea3f 1739 9940 4a3a f5c0 0f3a
00000040: 3fbc 5a3e 1639 893b 9d05 a93b 7a5f d03e
00000050: c20f ed3d de34 de3d 94cb 3f3d b719 4b3e
00000060: de95 5e3e 976b f43d 8693 483e 56d0 703e
00000070: 9c38 b03a
1.3788725e-06 8.350301 8.220317e-07 10.810501 6.6038666e-08 1.9250702e-07 3.7574034e-06 4.4799513e-06
0.0002593167 61.68775 0.0001926703 57.434654 0.00017077211 0.00014424292 0.0007715314 0.000548377
0.21360873 0.0041877134 0.00515814 0.40697843 0.11575271 0.10849927 0.046825007 0.19834028
0.21736857 0.11934584 0.19587526 0.23516974 0.0013444605
