src/taser/locomotion/models/balance.onnx (onnx, 29334 bytes, 11 tensors)

model.log_std f4 [2]
00000000: 1b65 08bf 36d2 01bf
-0.53279275 -0.5071138

model.actor.0.weight f4 [64, 29]
00000000: 11db 34be 30f9 a3bd 8e71 00be 1cd9 843d
00000010: a663 053d 9bdd 083e b679 35be 4ab6 d63d
00000020: 1eb3 983d 0659 b63a 9eb8 1a3b b43f 24be
00000030: a3c3 f63d e1a7 d53c 0549 69bc 2014 00be
00000040: a25a c13d 0133 ee3d dee2 8d3d 97a9 2fbe
00000050: cebf da3d c8e1 1b3e ecb9 a7bd e73d 60bd
00000060: 6d8f 553e 05c9 373a 4e1c c43c 4004 08be
00000070: 4a4e bdb9 3739 d1bd 17b2 31be 07ac e8bd
00000080: 2823 833b e6d1 9fbd 6a0e ea3d f7e7 c6bd
00000090: aa19 3abc d355 a6bd 897c 9bbc b4ce 763c
000000a0: ce35 e9bd 1799 1a3e b4b4 07be 8466 c93d
000000b0: 6d1f bc3d b1dc 023e 320b 0f3e f382 fc3b
000000c0: 96f3 a03c 84a3 243e a4c7 1abe d6b7 fcbd
000000d0: d0fe 87bd 0019 ba3d 6604 663e 944e 15be
000000e0: 4e5b 683d 0509 273e 43d2 d43d ad1f 073e
000000f0: ebeb 66be c2a1 023e 21d5 04bd 19bd eabd
00000100: 22ad f0bd d4e8 383d 1ebc e93d 5538 c43d
00000110: 9d78 03be 74b8 f5bc 953b fbbd 5174 95bc
00000120: 4699 5e3d efd6 263e cca5 9f3d 956a 03be
00000130: 1389 bb3d 2a07 14bd d0c9 a03d c2ad d1bd
00000140: 8803 f5bd 9837 16be ba84 403d c7c7 d7bd
00000150: 8ba5 b8bd 4caa 66bd 7bc5 40bd 8496 4b3e
00000160: d65d c6bc 4d71 313e 53bb d93c 2233 193e
00000170: 08b5 a43c 8388 593d 6039 f93d 1e28 fcbc
00000180: 2713 16be 6b51 533d d37a c1bd 0736 c53c
00000190: 21f1 bfbd 7198 b0bd b02c ee3d 3945 03bd
000001a0: 1de4 08be f49e 07be 8f94 a33d 5d5b 20be
000001b0: 99cd 363e d3fe 00be 42a7 dabd f528 a2bd
000001c0: 18dd 2bbe eaf4 95bd 0ad2 b9bd ec9a 263e
000001d0: 7634 313d 8634 393d 983a 25be 287b f4bd
000001e0: 734a f7bd c931 963c f530 02be a000 a3bc
000001f0: eceb 073d 39da 8cbc 2dad 3b3e 1830 fbbd
00000200: 15cc b83b 7d7b ff3d 40fe 123d d325 5bbc
00000210: c799 c43c 929b 803e 0875 20bd 4367 19be
00000220: 789a f73d 0d29 bcbd 3171 a0bd b314 6abd
00000230: a390 88bd 7fda 86bd e85a 0a3e c7ef 133e
00000240: a073 213e 98b9 26be e1dc 2d3c dae5 483d
00000250: ffbf 0c3d d681 1a3e 336a 283d 1160 56be
00000260: e180 e53d 44c4 15bd 7ff5 603d 422d b2bc
00000270: 76b6 313d 368a 12bd f650 12be 0eba 92bd
00000280: b486 18bc 7194 91bb a2a1 19be 7cca d4bd
00000290: e8dd 113e c367 a83d a532 17be 582f b03d
000002a0: ac7c d33d 18a9 013e e7cf 6cbd 480a 333d
000002b0: 9315 37bd d684 15be 18e7 343e 7088 973c
000002c0: 3d7f ab3d 8b21 c0bd 1b0d 6bbd bdaf 4a3e
000002d0: c42b 5a3e 2d85 0bbe 44f5 04be 5459 0a3d
000002e0: da4b c43c 892b 26be 8d99 333e bbca 1cbe
000002f0: a5d0 973d 58d9 4c3a 9bc6 bd3d f657 afbd
00000300: f44d f2bd 97e9 08be 8f8a b63d 2766 653b
00000310: 98a5 123e 003b f6bd 7f03 bfbd 0cf1 333e
00000320: 5ffb 05be 6163 cf3a 023c 733d 6d92 7fbd
00000330: e09a c4bd 3b1c 2b3e 20a3 70bd 59c6 743d
00000340: 869c 3f3e 10c2 aebc c1f1 07bd d7a5 f03d
00000350: c89a 6d3d 09de 163d 1eee 3b3d cf70 413d
00000360: 30ea 7cbc d8ac 3f3e af61 cc3d cec4 1c3e
00000370: dcd3 ecbd 8cf1 c1bd 169b 8bbc 9668 51be
00000380: cbcf 56bd 779f 38bd 5bc6 1dbe 974b 91bd
00000390: a61a d23b cb5b 01be 7421 1cbd 2fef b63d
000003a0: bc1b 04be 38b1 4bbd 4479 80bd 6e9b b0bc
000003b0: e758 37be 9806 613c 6bc2 96bd e151 da3d
000003c0: 8f49 113e 85eb d4bd 6595 fcbb f929 a23d
000003d0: 0d53 df3d 767d a8bd 847f 23bd 0309 33bc
000003e0: ccea 6b3d 29cf c53d a520 6fbe 4aa7 0dbe
000003f0: 2f3b 93bd 4c4a 043e f8a0 29be 79c2 d03d
-0.17661692 -0.08006513 -0.12543318 0.06486723 0.032565735 0.13365786 -0.1772221 0.10483988
0.07456039 0.0013912029 0.0023608576 -0.16039926 0.120490335 0.026081027 -0.014238601 -0.12507677
0.09441115 0.11630822 0.06928037 -0.17154537 0.10681115 0.15222847 -0.08189759 -0.054746535
0.20855494 0.000701085 0.023939278 -0.13282871 -0.0003610722 -0.10215991 -0.17353092 -0.113609366
0.0040019937 -0.07803707 0.114285305 -0.097122125 -0.011358658 -0.081218384 -0.018980281 0.01506393
-0.113872156 0.15097462 -0.13252527 0.098340064 0.091856815 0.127795 0.13969114 0.00770604
0.0196474 0.16078001 -0.1511522 -0.123397514 -0.066403985 0.090867996 0.22462615 -0.14580756
0.0567277 0.16312034 0.10391667 0.13195677 -0.22550933 0.12757018 -0.032429818 -0.11461849
-0.117517725 0.045143917 0.11412834 0.09581057 -0.12838979 -0.02999518 -0.12267224 -0.01824394
0.05434539 0.16292928 0.07795295 -0.12833627 0.09157004 -0.036139645 0.07850993 -0.1023822
-0.11963564 -0.14669645 0.047001578 -0.105361514 -0.0901595 -0.05631475 -0.047063332 0.19881636
-0.024214666 0.17328377 0.026578581 0.14960912 0.020105854 0.053108703 0.121691465 -0.030780848
-0.14655744 0.051591318 -0.09447255 0.024073614 -0.093721636 -0.08622826 0.11629617 -0.032048438
-0.13368268 -0.1324423 0.0798732 -0.15659852 0.17851867 -0.12597208 -0.10676433 -0.07917968
-0.1678356 -0.07322104 -0.09073265 0.16270036 0.04326292 0.045216106 -0.16135633 -0.11937553
-0.12074747 0.018334286 -0.12713988 -0.019897759 0.033183977 -0.0171939 0.1832778 -0.122650325
0.005639563 0.124747254 0.035887003 -0.013375717 0.023999108 0.2511869 -0.03917411 -0.14980797
0.120900095 -0.09187517 -0.078340895 -0.057148647 -0.06668212 -0.065846436 0.1351124 0.14446937
0.15766764 -0.16281736 0.010611744 0.04904733 0.03436279 0.15088591 0.041116904 -0.20935084
0.11206222 -0.036564127 0.054921623 -0.021750096 0.0433869 -0.03577634 -0.14288697 -0.07164393
-0.0093094595 -0.0044427444 -0.15003064 -0.10390183 0.14244807 0.08222916 -0.14765413 0.0860278
0.10326514 0.1266216 -0.05781546 0.043710977 -0.04469831 -0.14601454 0.1766628 0.018497676
0.08373878 -0.09381398 -0.057385545 0.19793601 0.21305758 -0.13625021 -0.12984186 0.033776596
0.02396195 -0.16227545 0.17539044 -0.1531171 0.07412843 0.0007814369 0.092663966 -0.08561699
-0.11831275 -0.13370357 0.08913147 0.0035003514 0.14320982 -0.12022972 -0.09326839 0.17572421
-0.13084172 0.0015822464 0.0593834 -0.062395502 -0.095998526 0.16709988 -0.058749318 0.05975947
0.18712053 -0.02133277 -0.03318954 0.117503814 0.05800894 0.036832843 0.045881383 0.047226723
-0.015436694 0.18718278 0.09979569 0.1530945 -0.115638465 -0.094698995 -0.017041724 -0.20450053
-0.05244426 -0.045073953 -0.15407698 -0.07094496 0.006411868 -0.12632672 -0.03811784 0.089323394
-0.12901205 -0.049729556 -0.062731296 -0.02155849 -0.17905007 0.013734482 -0.07361301 0.106601484
0.14188217 -0.10396484 -0.007708239 0.07918162 0.109045126 -0.08227055 -0.03991653 -0.0109274415
0.057596967 0.09658653 -0.23352297 -0.13833347 -0.07189023 0.12918967 -0.16565311 0.10193343

model.actor.0.bias f4 [64]
00000000: 4027 913d b7b0 573d e296 9cbc c79c 92bd
00000010: 4daa 0abe cde1 34bd 7e7a 333e a840 893d
00000020: c921 4a3d 42ea c33d 89d3 573d c2c5 c9bd
00000030: 8ed8 8b3d 62c7 c4bc 66df fa3d 43fe c03b
00000040: f4d0 033d 7f10 25be c70e f63d 1b21 3b3e
00000050: 75fa 533d 9143 96bd 1ae3 3c3e 99fa 16bd
00000060: 3fba 8d3d 6f54 eebc a147 423e 9b71 68bc
00000070: 7d52 86bd 9244 c8bd d518 24be c704 563c
00000080: 1a3a 86bd dcf5 bcbd 78f4 593d 68d9 473c
00000090: feb9 ee3d 38a5 153e 3e6a 853d 53de 14bd
000000a0: bacb c63d 166b b73d 04f6 0f3e b892 1ebe
000000b0: 1d98 1b3c 8dba 27be b2d4 a3bd 2afc b13d
000000c0: b906 c4bd 07c3 e6bd 2994 e1bd 4dcc c33d
000000d0: 3be8 623d 7066 b63d 1c52 88bd cfb2 d9bd
000000e0: f39c 1b3d 18e3 3a3d bf46 cc3d 62b9 a9bc
000000f0: a481 17be 099a 83bc 8218 2cbe 419f 0bbd
0.070875645 0.052658763 -0.019114915 -0.07158809 -0.13541527 -0.044160653 0.17527196 0.06701785
0.049348626 0.095661655 0.05269197 -0.098521724 0.06828414 -0.024020854 0.12249641 0.0058896854
0.032181695 -0.16119574 0.12014537 0.18274347 0.051752526 -0.07337106 0.18446007 -0.036860082
0.06920289 -0.029092995 0.18972637 -0.014187242 -0.06558702 -0.09778704 -0.16025098 0.013062662
-0.06554051 -0.092265815 0.05321166 0.01219783 0.11656569 0.14613807 0.06514405 -0.036344837
0.097068265 0.08955972 0.14058691 -0.15485656 0.009496716 -0.16379757 -0.07999553 0.086906746
-0.09571595 -0.11267667 -0.110145874 0.09560452 0.055397253 0.08906257 -0.06656286 -0.10629808
0.037991475 0.04562673 0.09974431 -0.02071828 -0.14795548 -0.01606466 -0.16806224 -0.034087423

model.actor.1.weight f4 [64]
00000000: 62ec 7e3f 1156 7d3f c1ed 7c3f 7673 823f
00000010: 1e1b 803f b11c 823f b827 803f aaec 7c3f
00000020: 9b86 7b3f 1a7b 7e3f 89ef 7b3f f5f0 803f
00000030: 1959 7d3f 9f3b 843f dad4 7f3f 22bc 823f
00000040: 963e 7c3f 65f8 7e3f 59cc 733f 0504 853f
00000050: 5624 7f3f e395 833f 5b1f 7e3f 2031 813f
00000060: c355 7a3f ff04 723f 2a76 833f 48aa 763f
00000070: b2c6 793f f078 7e3f dfb5 793f 0816 803f
00000080: f76a 803f 8752 7d3f 00b0 7a3f 8cba 843f
00000090: be09 783f efca 813f fffb 783f 3647 7d3f
000000a0: f133 823f b43f 853f e1ae 7c3f a617 763f
000000b0: 830c 833f 9ba8 7e3f d0d4 823f 9be3 803f
000000c0: 1c94 7c3f efb6 823f ea5a 803f f428 863f
000000d0: b5fb 803f 5fa5 7e3f c371 733f 3fab 813f
000000e0: 85dc 823f e285 7d3f a90f 843f b285 7e3f
000000f0: 2391 793f 0966 7d3f aff0 843f 23c3 803f
0.9957944 0.9895945 0.98800284 1.0191486 1.0008276 1.0165006 1.0012121 0.9879862
0.98252267 0.9940659 0.98412377 1.0073534 0.9896408 1.0330695 0.9993416 1.0213664
0.98533 0.9959777 0.95233685 1.0391852 0.9966482 1.0280117 0.99266595 1.0093117
0.9778711 0.94538873 1.0270436 0.9635358 0.9756881 0.99403286 0.9754314 1.0006723
1.0032643 0.9895405 0.97924805 1.036943 0.96889865 1.0140055 0.97259516 0.98936784
1.0172101 1.0410066 0.98704344 0.96129835 1.0238193 0.9947602 1.0221195 1.006946
0.98663497 1.0212077 1.0027745 1.0481248 1.0076815 0.99471086 0.9509546 1.0130385
1.0223547 0.99032414 1.0317279 0.9942275 0.97487086 0.9898382 1.0385951 1.0059551

model.actor.1.bias f4 [64]
00000000: 838c 16bc 6ae0 d1bb 98ba 99bb 4626 493c
00000010: 8a97 acbc 278c 423b b8a0 c6bb 9938 d8bb
00000020: abc0 d4bb ed31 3c3a 9ca8 64bc a225 9d3b
00000030: 6de4 70b8 5dda a63b e90f 263b 6cf0 1a3c
00000040: 992b c2bb f978 55ba efd4 ddbc 0f05 063d
00000050: 4a20 1dbd 3742 463c c41b a43b 8142 d1ba
00000060: 0eec 31bb 87e7 aebc d28c 4f3c 6027 f5bc
00000070: 5b33 b3bc 0e0e 43bc be56 86bc d766 6e3c
00000080: 9d67 633b 0d2f 8dbb e97a bdbc 9e19 f33c
00000090: d673 45bd 49b3 22bb 7535 fcbc 5dc8 b93b
000000a0: d0a3 19bb f4f6 0c3d 6491 59bc 2022 b8bc
000000b0: 5d6f 123c ebd7 f63b c770 a53c 720b ddbb
000000c0: 90e3 abbb 9da3 893c 3a2f bfbc b65b a73c
000000d0: d50c 85ba fd91 a5bb 05d6 26bc f4ce f0bc
000000e0: dada 173c 476e a1bc 27b0 a33c 92e7 45bc
000000f0: 15bd 8cbb 3bf0 fa3b e5b1 a8bb fab1 cc3a
-0.009188774 -0.006404926 -0.004691433 0.0122771915 -0.021068353 0.0029685588 -0.0060616396 -0.006598544
-0.0064926944 0.00071790704 -0.013956215 0.004795746 -5.7433197e-05 0.005091949 0.0025339073 0.009456735
-0.0059256074 -0.00081433315 -0.027079074 0.032719668 -0.03836087 0.012100748 0.0050081927 -0.0015965254
-0.0027148756 -0.021350635 0.0126678515 -0.029926002 -0.021875074 -0.011905206 -0.016398784 0.014550886
0.003469921 -0.0043085874 -0.023129897 0.029675301 -0.048206173 -0.00248261 -0.030787209 0.005669637
-0.0023443587 0.0344152 -0.013279293 -0.02247721 0.008937684 0.0075330636 0.020195378 -0.006745749
-0.0052456334 0.01680165 -0.023337949 0.020429473 -0.0010150919 -0.0050528035 -0.010182862 -0.029395558
0.009268487 -0.019705905 0.019981457 -0.012079136 -0.0042950013 0.0076580322 -0.00514816 0.0015617006

model.actor.3.weight f4 [64, 64]
00000000: cb4e 803d 4065 893d 2060 c2bd dc1e 0f3e
00000010: d340 833d 1c2c 98bd ee63 58bd 3465 f33d
00000020: 2b02 5bbd 1405 673d bdc0 c13c 7df8 d83d
00000030: a30a b93d 4b70 96bd d018 1f3d 342e 1f3e
00000040: e191 88bd dd41 46bd 36c5 c9bd 3719 02be
00000050: 46b2 8bbd 0ad9 45bd 818b bd3d 8ffa 8a3d
00000060: fd9d b4bd 9af8 003e eea1 ab3d 6341 823d
00000070: 6320 713d c388 2abc 3b03 a83d d69e afbd
00000080: 4f75 293d a24f 69bd 5d49 d43d 504e a3bd
00000090: 3d26 97bd 7b15 f43c eb0e cc3d ee87 4e3d
000000a0: 6949 ab3d 9391 ee3c 9aa2 96bd e5ad e2bd
000000b0: 01f3 ad3d ed5f 92bd 97c2 95bd 558d 1abd
000000c0: 8019 033d 82db 8fbc 79ad a1bd bae1 d03c
000000d0: da37 efbd 9966 43bb 72be 3dbd b58b 0a3e
000000e0: 7805 aebd 44b9 09bd e636 613d dca2 d73c
000000f0: 79c2 fe3d e9e9 e43c eedf 073e 05ae 07be
00000100: 97bd 1b3d 280f 9abd d44d 723d 4353 ddbc
00000110: 062f aebb e0c9 4abd ccc2 47bd 945b e9bb
00000120: fb40 cebd b106 e63c d4ba 433d 571d e93d
00000130: 0201 20bd 8a09 cd3d 02a8 81bd 537b 53bd
00000140: ca02 f8bb b6ff 5dbb 2f18 9b3d fd7a 7f3d
00000150: ebf4 853b 0b9e 91bd 4073 a33d 5add 083e
00000160: 7efc 9c3d 1044 b93c 0c12 b53d 9d81 f73c
00000170: 395e b0bd 8d29 67bc 60f9 bc3d 845f e03d
00000180: 812a 55bd 77ab 4a3d 0b93 2a3d 7a55 18be
00000190: b011 b53d 867e 083e d8e3 b2bd a562 dabc
000001a0: 63de 723d 74b4 d63c 94db e8bd d9d2 dabd
000001b0: d407 99bc fd4f 7bbd 4364 033e b862 b83d
000001c0: 2620 7fbd d164 2f3d 0e66 263d 7a6b ca3d
000001d0: e2b2 033e 1ac8 80bd 554a f93d e2ba d33d
000001e0: 2b0e 9e3d 947e 353d 2a70 9bbd 61f3 80bd
000001f0: 2644 ac3d 0f03 0f3d 0f7d a33c 7466 a33d
00000200: 11f9 e73d 993b b63d 3c6b 7ebd 95a4 39bd
00000210: 5249 9f3d d86e 81bd e2ab debd 3f84 943d
00000220: dfd5 bcbd 82ce 3dbd ad0c af3d e811 ebbd
00000230: 4676 34be 2d02 39ba f551 aabc 4d7e d73c
00000240: 08ef bd3d a59b 183d 459a 6dbc 195b 613d
00000250: b74b e73d 1bbc fabb 0dc1 bfbd b653 96ba
00000260: 8c9d 2e3d 52c6 a03d 6678 a0bd 8565 963d
00000270: 6458 3a3d 1509 fa3d 1198 813d bc3d c9bd
00000280: bee8 5cbd 8d57 bbbd 46b7 45bd 02bb a13c
00000290: db9a 1cbc 4258 9b3d ca21 833d 8a17 e1bc
000002a0: 3a28 c5bd 6036 55bd e566 92bd 3b46 093d
000002b0: 0114 273d 6683 c9bd e56f ca3d 4a43 7abd
000002c0: feee 1a3c a85f 90bd 8460 0dbe 76db ed3d
000002d0: 8157 b0bd 0d89 cf3d 1def eabc c3f2 bdbd
000002e0: f353 473d bd75 b13d 1ab3 cf3b 2bfe 15bc
000002f0: 36d7 ee3d 8830 c5bc 5073 4c3c a687 f7bd
00000300: 62b0 00be c387 ed3d db79 cebc 51ed ce3b
00000310: 6ecd e9bd acec 453d 42f5 533c 3948 ec3c
00000320: 53ad e43c a2df d0bd a66c 173d 4533 c53c
00000330: 48b5 53bd 629f 693d 4fda 103d c045 b73d
00000340: b7b2 c9bd 3e9c 0dbe d68c 023d e1b3 04be
00000350: ebcc 16be aaa7 e6bd 9b3a 813d 2990 26be
00000360: 2e8d 363d eb25 833d e230 07be c5b4 b33d
00000370: 340d 8e3d d771 493d e222 9cbb 7ec7 193c
00000380: 63dd aa3d 1915 f73d f2b9 b63d df72 213d
00000390: 5edb c13d 196b dbbd 4bd2 523d 6394 e13d
000003a0: a16e 563c c8d5 353c 468e 8e3c 7ae3 803b
000003b0: 3523 973c a331 acbd 599a d7bd f163 11bd
000003c0: 3e06 0abd ecb3 afbd 5292 b53d f30d 153d
000003d0: e6b3 feba f8cc 5db9 91ec 9a3d 228c dc3c
000003e0: 61a4 a0bc e6ea d33d ab2a 843c fa93 8c3d
000003f0: 33db e8bb 9437 823c 7d8e f6bd 3221 753d
0.062650286 0.06708765 -0.09490991 0.13976616 0.064088486 -0.07430288 -0.052829675 0.11884537
-0.053468864 0.056401327 0.023651475 0.105942704 0.09035232 -0.07345637 0.038842022 0.15544969
-0.06668449 -0.048402656 -0.09852068 -0.12704931 -0.06821112 -0.048302688 0.09255124 0.067860715
-0.088191964 0.12594834 0.08380495 0.06360128 0.058868777 -0.010408583 0.08203741 -0.085752174
0.04137164 -0.05696071 0.103655554 -0.07973921 -0.0738034 0.029795399 0.09963783 0.0504226
0.08363611 0.02912215 -0.073552325 -0.11068324 0.08493615 -0.07147203 -0.07312506 -0.03773244
0.03200674 -0.017560724 -0.078944154 0.02549826 -0.11680575 -0.0029815792 -0.0463242 0.13529857
-0.08497137 -0.03362395 0.054983996 0.026322775 0.124394365 0.027943568 0.13269016 -0.13249977
0.038022604 -0.07522422 0.059156254 -0.027017241 -0.005315664 -0.04950893 -0.048769757 -0.0071215127
-0.10070988 0.028079363 0.047785595 0.11382549 -0.03906346 0.10011585 -0.06330873 -0.051631283
-0.007568692 -0.003387434 0.07572972 0.06237315 0.0040880344 -0.071102224 0.079809666 0.13365689
0.076653466 0.022615463 0.08841333 0.030213172 -0.086117215 -0.014109028 0.09227252 0.10955718
-0.052042488 0.049479928 0.041644137 -0.14876357 0.08841264 0.13329515 -0.08734864 -0.026658366
0.059294116 0.026209094 -0.11370006 -0.10684747 -0.01868049 -0.06135558 0.12831216 0.09003204
-0.06228652 0.042820755 0.04062467 0.09883781 0.12861207 -0.06288166 0.12172381 0.103383794
0.07717546 0.044310167 -0.07589753 -0.06296421 0.08411436 0.034915026 0.019957094 0.07978526
0.113268025 0.08898086 -0.062113985 -0.045322973 0.077776566 -0.0631997 -0.10872628 0.072517864
-0.0922048 -0.04633952 0.085473396 -0.11478025 -0.17623243 -0.0007057514 -0.020791033 0.026305342
0.09274107 0.03725781 -0.014502113 0.055018518 0.11293738 -0.0076518185 -0.093629934 -0.001146904
0.042630717 0.078503266 -0.07835464 0.07343582 0.045494452 0.122087635 0.063278325 -0.09826228
-0.053932898 -0.09147558 -0.048270486 0.019742493 -0.009558405 0.07585193 0.06402929 -0.027477045
-0.09626813 -0.05205381 -0.07148532 0.033514243 0.04079056 -0.098395154 0.098846234 -0.061099328
0.009456394 -0.07049495 -0.13806349 0.116141245 -0.0861044 0.10133562 -0.028678471 -0.09274819
0.048664045 0.08665035 0.0063384892 -0.009154837 0.11662142 -0.024070993 0.0124786645 -0.1208642
-0.12567285 0.1159816 -0.02520459 0.0063149114 -0.11416136 0.04832141 0.012936892 0.028843032
0.027914679 -0.101989046 0.03696885 0.024072299 -0.051686555 0.057036765 0.035364445 0.08948851
-0.0984854 -0.13829133 0.031872593 -0.12959243 -0.14726608 -0.11262448 0.06310006 -0.1626593
0.044568233 0.06403717 -0.13202241 0.087747134 0.06936112 0.04918083 -0.0047649005 0.009385942
0.083430074 0.12064571 0.08922185 0.03941619 0.09465669 -0.10713787 0.051470082 0.11014631
0.013087899 0.011098333 0.017401826 0.0039333673 0.018449405 -0.08407905 -0.10527486 -0.035495702
-0.03369736 -0.08579239 0.08865799 0.036390256 -0.0019432276 -0.00021152559 0.07564653 0.02692229
-0.019609632 0.10347538 0.016133627 0.06864162 -0.0071062087 0.015895642 -0.12038896 0.05984611

model.actor.3.bias f4 [64]
00000000: b6a4 97bd c894 843c da62 1c3d 892c c23c
00000010: a6ca d73d 2a5a c4bd 5f3c 9c3d 1918 6cbc
00000020: 035b 063d 983f c8bc ac88 903d 7ba3 103c
00000030: 635a b23d 236e 5ebd a427 38bd 8ce2 cebd
00000040: 956b ba3d 165a f03d 635d d9bd e51e f1bc
00000050: 68ee d6bd f585 c6bd 0dd9 59bc b2cf debd
00000060: 0cb3 bc3d 8e1c fdbd c949 9f3d 852d 053c
00000070: fdc9 b73d 4a96 3e3c 0e7f 023e 4d80 08be
00000080: 5e41 04bb 2de1 ddbd a0af d23d f1ca 523a
00000090: 31b3 ff3d 4605 d9bd 2c85 e33d 35b7 01bc
000000a0: 10a6 9a3d 4488 bcbd ccc4 1cbd f82f 89bd
000000b0: d8af 95bc 5b10 38b9 c81d 803d 6c4b 003e
000000c0: 54e8 263d 42b9 e0bd 1cdf 793d dff2 3bbd
000000d0: 3ac6 083e 5335 403d e7be c7bd 2da7 3bbc
000000e0: c4de d33d 8bd5 b33d cbad f5bd b032 b7bd
000000f0: 971c a13d 96bb b43d 2dc1 e53c 1dc4 f6bd
-0.07404463 0.016184226 0.03818021 0.023702877 0.10536699 -0.0958751 0.07628702 -0.014410042
0.03280164 -0.024444386 0.07057318 0.008828039 0.08708646 -0.054304253 -0.04495968 -0.10101804
0.09102551 0.117359325 -0.10613515 -0.029433677 -0.10494691 -0.09693519 -0.013296378 -0.108794585
0.09213838 -0.12358962 0.07777745 0.0081285285 0.08974073 0.011632511 0.1274378 -0.13330193
-0.0020180563 -0.108339645 0.10287404 0.0008041105 0.1248535 -0.10596709 0.11109385 -0.007917215
0.07551205 -0.09205678 -0.038273618 -0.066986024 -0.018272325 -0.000175537 0.0625568 0.12528771
0.04074891 -0.10972835 0.06100379 -0.045885917 0.13356867 0.046925854 -0.097532086 -0.011453432
0.103452235 0.087809645 -0.11996039 -0.08945215 0.07866781 0.08824842 0.028046215 -0.120491244

model.actor.4.weight f4 [64]
00000000: f8f0 853f 5f3e 833f 157f 823f 990e 853f
00000010: d931 873f 8cec 833f d526 823f 4565 883f
00000020: 4d8c 803f c6fb 863f dfa8 833f 6ac3 873f
00000030: e28b 823f c62b 8a3f 89c3 823f 366c 933f
00000040: 6fd4 853f c2a2 853f bcc1 843f 94f8 843f
00000050: 71b9 823f 5546 873f 19b2 7e3f 2acc 813f
00000060: 0453 883f 5336 7f3f eb39 843f 5d26 8a3f
00000070: fe18 833f 9705 873f db6f 8b3f 7a29 7f3f
00000080: 80da 823f 045a 853f 0ad1 873f bf0f 853f
00000090: 2ac3 833f c63e 873f 63f8 853f 5f8a 813f
000000a0: 9b53 7d3f 4dc6 833f 8268 823f bc14 893f
000000b0: b53f 863f 09fb 833f a00c 823f c37a 8a3f
000000c0: f174 803f 3190 843f 9342 823f f637 843f
000000d0: 0fe5 843f 45bb 823f 88c0 8a3f f664 833f
000000e0: 53ad 873f e79b 813f 86d1 883f c72f 813f
000000f0: 1d59 833f 29a0 833f f079 863f 6ddd 833f
1.0464163 1.0253409 1.0195032 1.039508 1.0562087 1.0306563 1.01681 1.0655905
1.0042816 1.0545585 1.028591 1.0606511 1.0198939 1.0794609 1.0215923 1.1517398
1.0455455 1.0440295 1.0371623 1.038836 1.0212842 1.0568339 0.99490505 1.0140431
1.0650334 0.9969227 1.0330175 1.0792958 1.0242002 1.0548581 1.089351 0.99672663
1.0222931 1.0418096 1.0610669 1.039543 1.0293934 1.0566032 1.0466427 1.0120353
0.98955697 1.0294892 1.0188143 1.0709453 1.0488192 1.0310985 1.0160103 1.0818714
1.0035688 1.0356504 1.0176567 1.0329578 1.0382403 1.02134 1.0840006 1.0265186
1.0599769 1.0125703 1.0688941 1.0092705 1.026157 1.0283252 1.0505962 1.0301949

model.actor.4.bias f4 [64]
00000000: edc2 c03c 7f49 a33c 4d26 97bb ae8f 223c
00000010: 85be 113d de45 8e3b 187d b0bc 78af db3c
00000020: f8d6 693c e90d 9c3c b6dc 233c bf24 993c
00000030: c0fb 383c 04ff bc3c f04a 303c e68a f63c
00000040: a20f f33c 5a40 ff3c 5b1a 643b ad9f 953c
00000050: 4c29 6e3c e969 c43c 1e61 debb d5d6 013b
00000060: c245 3c3d f320 b5bb 6b3c 493c 3f72 513c
00000070: f044 293c 78e7 c93c 11a6 363d b3a9 8e38
00000080: 37f6 2e3c 59a9 f83c 7132 cd3c d59f 913c
00000090: e532 a73c e576 363c 7e76 903c 81ae 203c
000000a0: 573e f7bb 9e3d 623c 6ceb 803c f697 0c3d
000000b0: 8d5c ac3c 7077 953c 5b2b 573c ce2e 563d
000000c0: d5ed e1bb 7a08 813c 9604 443c 2b74 6c3c
000000d0: cb93 d43c 0ab3 363c dd33 283d 64b5 ec3c
000000e0: ebee 0b3d e0b7 e63b a08a 2f3d 172e 4439
000000f0: 31c3 373c 6212 7a3c 9f88 823c 663c a93b
0.023530448 0.019932507 -0.00461272 0.009921951 0.035582084 0.004341825 -0.021544024 0.026817068
0.014272444 0.019049602 0.010001352 0.01869428 0.011290491 0.02307082 0.010760054 0.030095529
0.02967054 0.031158615 0.0034805748 0.018264616 0.014536213 0.023976283 -0.0067864796 0.0019811888
0.045964964 -0.0055276095 0.012282471 0.012783586 0.010331377 0.024646506 0.044591967 6.8026966e-05
0.010678819 0.030354189 0.025048466 0.01777641 0.02041001 0.011136745 0.017634626 0.00980723
-0.0075452733 0.013808636 0.015737258 0.03432461 0.021040225 0.018245429 0.013132895 0.05229073
-0.006894807 0.015751112 0.011963984 0.0144319935 0.02594938 0.011151085 0.041065086 0.028895088
0.034163397 0.0070409626 0.042856812 0.00018709186 0.011215971 0.015263172 0.015934287 0.0051646708

model.actor.6.weight f4 [2, 64]
00000000: feaf d2bd 8555 f53d 6477 0f3d 697a 913d
00000010: 8b26 573c bd25 933d 28e3 f93d b4da c3bc
00000020: 81f4 cd3d 16a3 c53d 1a61 a43c 1fc2 733d
00000030: 32e5 afbd ec5f e43d ef14 983d caf7 e73d
00000040: 23c6 243d a2e3 96bd 50d7 2a3e 49a1 01be
00000050: 83f3 f7bd 114c 2bbe 89d0 c83d efcb f13d
00000060: 48a0 c93c dd3d c63d f8b8 55bd dc42 9f3d
00000070: e050 f43d 57d2 bc3d 2a92 15be c3cc 6b39
00000080: d5fd 32bc fdef 22bd 5f76 ed3d 64f0 1cbe
00000090: b105 bfbd afa9 0a3e 3b1d fcbd 2e3f e03d
000000a0: eea5 1e3d df14 ec3d 9575 acbd 6116 233e
000000b0: a2dc 04be b472 f73d 0f1c 03be ccc7 ae3d
000000c0: 17f8 973d 5564 02be 61ef f53d 529e aabb
000000d0: 93f3 1e3e 9547 023e 043d 34be 37dd 44bd
000000e0: 8ead f9bd 248e 033e 8bc1 0cbe 1a47 f1bd
000000f0: d0d9 5d3d a5d6 0ebe 8316 eebd 807b 0dbe
00000100: 571a 03be 4fbf f83d b6c8 613d 25d5 05be
00000110: 3e67 123e e9f3 0f3e 62fc d0bd fb76 eabd
00000120: 4a96 eebd 406d 21be 697e c53d 463f fa3d
00000130: 3666 c0bd 4532 7bbd 9cf3 1f3d 6705 4fbe
00000140: d58a adbd 90d9 d4bd 0998 053e 9db9 7fbd
00000150: 7a30 163d f0b8 5abd 9ce0 20bd 6083 033e
00000160: 83e4 8d3d 3166 323c ac1a fcbd 12e1 55bd
00000170: 89e1 073e 04dc ba3d 7ffb cdbc a7c2 b1bd
00000180: a4c3 ccbd f88b dcbd c5a8 063e 07b9 20be
00000190: 9b9d 1fbd f6a1 203e d8dc 0c3e ec35 9f3d
000001a0: e7dc 653a 2a1f 563d 6579 88bd 1d94 883d
000001b0: 1c9b 05be 7606 043e aac4 733c e4b2 0abe
000001c0: 324f 29bd d5d7 c9bd 16e6 ddbc b241 e73d
000001d0: 0f77 c83d d718 e53d 06c3 aabd d065 31bd
000001e0: cb96 913d 3cc2 5b3d a3eb dc3d 806b b63d
000001f0: cb9e d63d fb67 1dbd cddc d9bd 569b 45bc
-0.10287474 0.11979202 0.03502597 0.07103426 0.013131748 0.071849324 0.1220153 -0.023907997
0.10056401 0.09650247 0.020065833 0.0595113 -0.085886374 0.11151108 0.07425868 0.11326559
0.04022802 -0.07367636 0.16683698 -0.12659182 -0.12106993 -0.16728236 0.098054 0.11806475
0.02461256 0.09679768 -0.052178353 0.07776424 0.11929488 0.09219807 -0.14606538 0.00022487626
-0.010924776 -0.039779652 0.11594843 -0.15326077 -0.093272574 0.13541292 -0.12310263 0.109495506
0.03873246 0.11527418 -0.084208645 0.15926506 -0.1297479 0.12082425 -0.12803672 0.08534202
0.07420366 -0.12733586 0.120085485 -0.0052068615 0.15522604 0.12722619 -0.176014 -0.04806253
-0.12191306 0.12847191 -0.13745706 -0.1178114 0.0541628 -0.13949068 -0.116253875 -0.13816643
-0.12803017 0.12145864 0.055123053 -0.1306959 0.14297196 0.14057888 -0.10204388 -0.11448475
-0.11649759 -0.15764332 0.096432514 0.122191 -0.09394495 -0.061327238 0.039050683 -0.20216905
-0.08473746 -0.10393059 0.13046278 -0.062432874 0.036667325 -0.053399026 -0.039276704 0.12843084
0.06928351 0.010888622 -0.12309775 -0.052216597 0.13269629 0.09123996 -0.025144337 -0.08679705
-0.09998253 -0.107688844 0.13150318 -0.15695582 -0.038968664 0.15686783 0.1375612 0.07773957
0.0008768574 0.052275814 -0.06663779 0.06668875 -0.13047451 0.1289309 0.014878431 -0.13544804
-0.041335292 -0.0985562 -0.027087253 0.11291827 0.097883336 0.111863784 -0.08337979 -0.043309987
0.071088396 0.053652033 0.10787132 0.08907223 0.10479506 -0.03842924 -0.106378175 -0.012060961

model.actor.6.bias f4 [2]
00000000: 6dce afbb dca9 bfbd
-0.005365184 -0.0935857
