src/taser/locomotion/models/balance.onnx (onnx, 29334 bytes, 11 tensors)

model.log_std f4 [2]
000000 e6 fd 5b bf 5a 6c 64 bf
       -0.85934293 -0.8922783

model.actor.0.weight f4 [64, 29]
000000 a6 48 0b 3e c3 c5 3c be 18 8a b4 3d 6c 35 74 3d
       0.13601932 -0.18434815 0.08815402 0.05962126
000010 84 41 1f 3e a9 79 1a be 09 a3 ef 3d d0 47 ee 3d
       0.15552336 -0.15085472 0.11701018 0.11634791
000020 43 e9 03 bc 38 c8 9e bd 50 cd 1b be 92 e7 48 3e
       -0.008051219 -0.077530324 -0.15215039 0.19619587
000030 41 1f e3 bd 7a 42 69 bd ea 70 d3 bd d5 ac 1d 3e
       -0.110899456 -0.056948163 -0.10324271 0.15397961
000040 e9 05 3b bd 28 d7 52 3e 63 17 e8 bb 05 e9 c8 bd
       -0.045659933 0.20589888 -0.007082866 -0.0981007
000050 cc 27 0d be 8e fe 8a 3d 9d 44 15 bd 92 8b 5c 3c
       -0.13784713 0.06786834 -0.036442388 0.0134610105
000060 da 3f 7f 3c fb 4d 31 3c b1 04 35 3e f1 f6 67 be
       0.015579188 0.010821815 0.17677571 -0.22652794
000070 80 8a ce bd a1 3b 4d 3d 0a 4c 0a be 47 38 67 3d
       -0.100850105 0.050105695 -0.13505569 0.056450155
000080 47 23 ff 3d 7b fc 9c bd 9d 76 b9 bd d6 e4 39 3e
       0.124579005 -0.07665344 -0.09055827 0.181537
000090 20 cd d4 3c d1 39 db 3c b7 24 37 be e0 2c cc 3d
       0.025976717 0.026760967 -0.178851 0.09969497
0000a0 f8 e6 19 be 5f 3e b2 3c 09 4a 36 3e 70 7b 3e bd
       -0.15029514 0.021758256 0.1780168 -0.046504438
0000b0 63 b2 55 3d b2 2a a8 bc cd 86 00 be 2b 4f a6 bd
       0.052172076 -0.020528171 -0.12551422 -0.08120569
0000c0 a7 9d 23 3d a9 97 b3 bd 27 ef 8d 3d 5e d4 34 bd
       0.03994527 -0.08769161 0.0693038 -0.04414784
0000d0 ad 24 78 3d 1e 01 95 3c ea 29 bc 3c 7e b1 8d bc
       0.06058185 0.01818901 0.022969205 -0.017296549
0000e0 31 59 ed 3b f9 3f b2 3d b1 df 9e bd 92 cb d8 3c
       0.0072432985 0.08703608 -0.077575095 0.026464257
0000f0 d0 53 2d 3d f2 ff 94 3d 51 3e d8 bc 5e e1 8c 3d
       0.042316258 0.0727538 -0.026396902 0.06878923
000100 b7 88 0b be 04 f5 65 bd 5a 33 7c bc f3 45 a5 3d
       -0.13626371 -0.05614187 -0.015393103 0.080699824
000110 12 68 02 3c ce 19 d2 3c a8 23 12 be a6 38 1a 3e
       0.007959383 0.02564707 -0.14271414 0.15060672
000120 60 a7 79 bc 70 09 17 bb 23 49 77 3c 77 58 2f 3e
       -0.015237659 -0.0023046397 0.015093121 0.1712359
000130 2b ca 90 3e 84 09 29 bd bb 27 39 3e 5c 5d 5b be
       0.28279242 -0.04126884 0.18081562 -0.21422333
000140 cb ff 22 3c 0e 55 9b 3d 02 3f 15 3e 60 9d 9e 3c
       0.009948681 0.07584582 0.14574817 0.019362152
000150 e8 b7 2f 3e 1d b3 03 be 69 b7 34 be bd 3c 39 be
       0.17159998 -0.12861295 -0.1764809 -0.18089576
000160 a3 88 8f bc 43 9c 6c bc 78 db c0 bc d0 c0 c8 bd
       -0.017521208 -0.014441553 -0.02354215 -0.09802401
000170 de 76 d1 bd 60 41 10 be ca 3f dc bd 83 90 25 3e
       -0.1022775 -0.14087439 -0.10754354 0.16168408
000180 61 7e d4 bd 37 27 71 3c 84 55 2b 3e 7f 58 e6 bc
       -0.10375667 0.014718822 0.1673184 -0.02811837
000190 ef 8f dd bd 29 d3 9d bd a2 38 a9 bd e7 ba 83 bd
       -0.10818469 -0.07706291 -0.08262755 -0.06432133
0001a0 3c 4d 73 bd 31 f2 21 3e c4 19 65 3e 93 73 7c 3d
       -0.05939983 0.15815045 0.2237311 0.061633658
0001b0 42 ca 3b 3e f1 af 4b 3d a4 69 72 bd 95 26 23 3c
       0.18338874 0.049728338 -0.059182778 0.009957929
0001c0 c0 1f 36 be 1c 60 19 3d de 35 f6 3d da 1e 4e 3d
       -0.17785549 0.037445173 0.12021993 0.05032239
0001d0 c6 0e e8 bd d5 6b fc 3d b9 9a 05 3e 80 7b b8 3d
       -0.11330943 0.12325255 0.13047303 0.09007931
0001e0 f3 a9 29 be ea f4 a1 3d cd cb 50 be 14 84 1b be
       -0.16568737 0.07908042 -0.20390244 -0.15187103
0001f0 58 ed dd bd 3d ea 4e 3c e7 97 02 3e 35 58 ba bc
       -0.10836285 0.012629089 0.12753259 -0.022747139
000200 71 21 03 3d a4 bc 9b 3d b1 e2 7f bd 6a 9e 2f be
       0.032014314 0.0760434 -0.06247205 -0.17150274
000210 8b bf bb 3c e6 93 ec 3d 10 f9 59 bb aa c0 f4 bd
       0.022918483 0.11551647 -0.0033260025 -0.1195081
000220 8e da a3 bd fa a7 57 be e9 c6 2d bd 85 83 1e 3e
       -0.080006704 -0.21060172 -0.042426024 0.15479858
000230 c5 a3 e8 bc 93 cd ad bc e3 a5 b2 bb d2 33 c1 bc
       -0.028398404 -0.02121619 -0.005451904 -0.02358428
000240 6f a4 3a 3d 7b d3 0f be 84 2b 90 bd 33 02 36 be
       0.045566972 -0.14045517 -0.0703955 -0.17774276
000250 50 b1 db bd 72 e2 fc 3d 44 8d ad 3b de c8 5f 3c
       -0.10727179 0.123478785 0.005296381 0.01365873
000260 19 04 1c 3d 12 f2 bb 3d bc 78 09 bd 65 e7 0e be
       0.038089845 0.091770306 -0.033562407 -0.13955458
000270 56 38 60 bd 22 68 09 be 6f e4 dc bd b5 d9 b8 3b
       -0.054741226 -0.1341863 -0.10785758 0.005641187
000280 9f d9 c9 3c 48 43 f4 3d 82 c6 b9 bd 67 06 7f 3d
       0.024639903 0.119268954 -0.090710655 0.062261965
000290 42 7a 52 bc 98 37 37 3e 6a 4a 0a be dc cd 16 be
       -0.012846531 0.17892301 -0.13504949 -0.14726967
0002a0 69 a3 00 bd ba 7c b3 3d 3c 06 cd 3d b6 e7 fe 3d
       -0.03140584 0.08764024 0.10010955 0.12446539
0002b0 db cd c2 bd ab 27 20 3d 40 ee 4e bd 92 5a 20 3e
       -0.0951192 0.03910033 -0.05052018 0.1565955
0002c0 62 0a 8a 3d be 5b e2 3d 99 a7 3f 3c 4e c0 24 be
       0.067402616 0.11052655 0.011697673 -0.16088983
0002d0 2c 35 25 3e 45 a9 21 bd 1c 8b bf 3d 5e 33 e9 bd
       0.16133565 -0.03946807 0.09352705 -0.11386751
0002e0 39 a9 00 3e f0 f5 38 3d c1 4c c8 bd 04 d2 3c bd
       0.12564553 0.04515642 -0.09780265 -0.046098724
0002f0 f1 11 5f 3d 3b 06 1c be 40 1a a6 bc 26 0f 5c 3d
       0.05446047 -0.15236752 -0.020276189 0.053725384
000300 d0 c7 03 be 72 fc bb bd 27 7d 01 be cd 19 33 3e
       -0.12869191 -0.091790095 -0.12645398 0.17490311
000310 0c c9 c6 bd 9b 9e 5c 3d 1d 7f 8e 3d d5 8f 96 bd
       -0.097063154 0.053862195 0.06957839 -0.073516525
000320 ec f1 31 bc 0b 61 08 3e b8 d4 de 3c 6b 08 ed 3d
       -0.010860901 0.13318269 0.027201042 0.11573871
000330 53 f4 38 bd 9e 40 8f bd de aa e1 3c 5f 62 49 bc
       -0.04515488 -0.069947466 0.027547296 -0.01229152
000340 a9 8f 2a 3e 2f 2d 1b 3e 8d 8a 10 be 44 e2 27 3e
       0.16656365 0.15153955 -0.14115353 0.16394907
000350 18 2d 4c bd bd 40 c5 bd b1 d9 6a 3d 94 c3 ec bd
       -0.049847692 -0.096314885 0.057336513 -0.11560741
000360 ba b8 16 be 77 60 a3 ba 0b c3 24 bd 88 67 09 3e
       -0.14718905 -0.0012464662 -0.04022507 0.134184
000370 4f 0f ab 3e d6 eb 95 be 8e 8e f6 3d 16 fd 18 be
       0.33410117 -0.2928149 0.12038909 -0.14940295
000380 4c 91 24 bd ed 1c 9e 3d 0f 58 c1 3d 40 d5 cb 3d
       -0.04017763 0.07720361 0.09440624 0.099527836
000390 40 43 d4 3d 13 b2 88 3d c6 51 41 be 04 7d 46 3e
       0.103643894 0.0667459 -0.1887885 0.19383627
0003a0 d0 e3 16 3e aa 56 44 bd 01 a6 8c 3e 5b 24 43 be
       0.14735341 -0.04793421 0.274704 -0.19056837
0003b0 f7 45 6b bd 05 f6 00 3e 74 ff c2 bd 2d 1d ce bd
       -0.05743977 0.12593849 -0.0952138 -0.100641586
0003c0 d7 8c 86 3c b2 3e 4c be c8 8f 90 bd bf 09 d7 3d
       0.01642458 -0.19945791 -0.07058674 0.10499906
0003d0 9c 6e 5d bd ae 7f 0f bd aa 1e a2 bc 18 08 01 3c
       -0.054060563 -0.035033874 -0.019790012 0.007875465
0003e0 1c 5a 4e 3d 2e 48 42 bd 1f 26 82 be 0c 4f 9a bd
       0.050378904 -0.047432117 -0.2541971 -0.07534608
0003f0 a8 72 ba bd e4 ec da 3d 17 4b 1d 3e df 52 aa 3d
       -0.091039 0.106897146 0.15360676 0.08316588

model.actor.0.bias f4 [64]
000000 82 e2 37 be 70 b5 62 bd 94 c1 4d be ca 16 e9 3d
       -0.179575 -0.055348814 -0.20093375 0.113813
000010 7b e0 21 3e 9e 82 14 be 3e 20 f5 bd 14 c0 a9 bd
       0.15808289 -0.14502952 -0.1196904 -0.08288589
000020 0a 50 01 be 76 6e d7 bd 48 8e 5b 3d a2 7b 3d be
       -0.12628189 -0.105191156 0.053602487 -0.18504193
000030 10 f6 66 be a5 cd 3b be 78 17 04 3e 49 0c 56 be
       -0.22554803 -0.18340166 0.12899578 -0.20903124
000040 a5 26 8d 3d b6 cc f6 bd 85 79 b2 3c 11 1e 03 be
       0.068921365 -0.12050764 0.02178646 -0.12804438
000050 23 7e 2c be a0 bc 25 3e 0c d3 8f 3d fe a9 27 3e
       -0.16844992 0.16185236 0.07022676 0.1637344
000060 52 da ea bd d1 58 18 3d 91 86 c4 3d 86 56 b6 bb
       -0.114674225 0.037194077 0.09595979 -0.0055645136
000070 ff 73 3e be f6 33 cf 39 4d 38 10 3e 41 c9 be 3d
       -0.18598936 0.0003952083 0.14083977 0.0931573
000080 bb 4b 23 3d fe 69 4e 3e a5 2e 1f bd 1c b1 c4 3c
       0.039867144 0.2015762 -0.038862843 0.024010234
000090 c8 be 13 be 5a 1d 8f bd 0e d7 1c be 9f 9a a1 3d
       -0.14428246 -0.0698802 -0.15316412 0.0789082
0000a0 c8 17 fd 3d 9a 0d 2a be a2 78 e8 bd 5e b1 29 3e
       0.123580515 -0.16606751 -0.11351134 0.16571566
0000b0 9a a8 d4 3b e3 d8 be 3d 2a f6 07 be 57 fe 47 3e
       0.0064898254 0.093187116 -0.13277498 0.19530617
0000c0 8a ea eb bd f4 f9 4c 3d 92 1f b0 bd 85 38 20 bd
       -0.11519344 0.05004306 -0.085997716 -0.0391164
0000d0 08 24 24 bd 28 dd 86 3d a4 3b 71 bc f2 77 17 be
       -0.040073425 0.06585151 -0.014723692 -0.1479185
0000e0 c2 74 1b be c7 e0 37 bd 4e 21 08 3e 02 26 b5 3d
       -0.15181258 -0.0448921 0.13293955 0.0884514
0000f0 4f 3c 99 3d 71 2d 78 3c 3c a0 db bc 6a 12 31 be
       0.07482206 0.015147553 -0.026809804 -0.1729218

model.actor.1.weight f4 [64]
000000 09 6b 82 3f 88 f4 76 3f 86 48 8c 3f b0 70 81 3f
       1.0188915 0.96466875 1.0959632 1.0112514
000010 4b b1 7e 3f 26 d6 76 3f 1a a4 74 3f 44 a8 86 3f
       0.9948928 0.96420515 0.955629 1.05201
000020 54 03 82 3f 4d 8a 7c 3f 50 7b 78 3f 44 3f 79 3f
       1.0157266 0.9864853 0.9706316 0.9736216
000030 f5 6b 74 3f 30 45 7a 3f 95 4f 82 3f 83 c6 75 3f
       0.9547723 0.9776182 1.0180537 0.9600603
000040 cf 1d 7a 3f 42 40 7a 3f 91 7e 7d 3f 82 5f 7d 3f
       0.97701734 0.977543 0.9902125 0.9897386
000050 80 08 82 3f 0b 36 80 3f af 16 7c 3f e1 df 83 3f
       1.0158844 1.0016493 0.9847211 1.0302697
000060 5b e1 7f 3f 85 ce 7d 3f e4 98 7f 3f 88 0a 84 3f
       0.9995324 0.9914325 0.9984267 1.0315714
000070 60 62 74 3f 68 eb 83 3f aa f6 7f 3f fc fb 7f 3f
       0.9546261 1.0306215 0.99985754 0.9999387
000080 65 8c 7e 3f 6e 27 86 3f b1 ae 79 3f 29 7c 86 3f
       0.99432975 1.0480783 0.9753218 1.0506641
000090 76 98 7c 3f 26 04 7a 3f 1f 0f 7a 3f 50 27 7f 3f
       0.98670137 0.9766258 0.9767932 0.9966936
0000a0 35 0a 7e 3f 70 c2 6f 3f d3 55 82 3f 0a 74 7e 3f
       0.99234325 0.93656063 1.0182441 0.9939581
0000b0 65 cf 81 3f 4e f5 79 3f cc e5 85 3f 08 a3 88 3f
       1.0141417 0.9763993 1.0460753 1.0674753
0000c0 70 4b 7f 3f 0a ee 82 3f b8 81 78 3f f9 f9 81 3f
       0.99724483 1.0228894 0.97072935 1.0154411
0000d0 10 0f 7e 3f 8d 99 7d 3f cc 5a 80 3f ac c2 83 3f
       0.99241734 0.99062425 1.0027709 1.0293784
0000e0 59 47 80 3f 77 72 7a 3f b8 d3 7d 3f 26 04 74 3f
       1.0021774 0.9783091 0.9915118 0.9531883
0000f0 f0 af 7f 3f 4d 79 82 3f 94 1f 82 3f c2 2b 7e 3f
       0.99877834 1.0193268 1.0165887 0.9928552

model.actor.1.bias f4 [64]
000000 3b e3 f6 ba 2b a0 a6 3b 6b 48 52 3d dd 85 60 3c
       -0.001883603 0.0050850115 0.051338594 0.0137037905
000010 08 b7 2d bc 33 df cf 39 df d0 cf bc 0c 8e 17 3d
       -0.01060272 0.00039648413 -0.025368152 0.0370007
000020 73 b6 ff 3c df 9a a5 3c 84 4f ae bc 0c 9b 5d bc
       0.031214928 0.02021545 -0.02127815 -0.013525736
000030 65 1e 3f bc e2 56 10 bc 68 9e 06 3c e7 8d 10 bd
       -0.011664961 -0.008809777 0.008216478 -0.03529158
000040 b8 ad 5f 3c 17 ed 08 bc 43 d8 b8 3b 98 aa 4a bc
       0.013652258 -0.008357308 0.005641015 -0.012369774
000050 a1 44 b4 3c 62 4b 31 3b 37 6a af bb b5 15 ea 3c
       0.022005381 0.0027052988 -0.005353238 0.028574804
000060 74 21 a7 bc 33 6f 80 bc e5 c7 90 3c dc c1 04 3d
       -0.020401694 -0.015678024 0.017673442 0.03241144
000070 1a 38 d6 ba 58 30 f4 3c d2 bc 4d 3b ff 06 3b bc
       -0.0016343624 0.029808208 0.0031393063 -0.011415242
000080 d1 65 58 bb 0c 86 f2 3c fb 82 09 bc 08 75 5c 3d
       -0.0033019672 0.029604934 -0.008393045 0.053822547
000090 58 28 17 3c 86 d9 fb bc 85 3e 13 bd d9 71 45 bb
       0.009225927 -0.030743372 -0.035948295 -0.0030127673
0000a0 38 a2 26 bc 0a b9 66 bc e1 a2 b8 3c 02 b1 1d bc
       -0.010170512 -0.014082203 0.022538604 -0.0096247215
0000b0 3f 90 30 3d a1 56 99 bc 8e 54 a8 3c c3 17 7d 3d
       0.043106314 -0.018718066 0.020548131 0.06179024
0000c0 b8 7b 21 bd 6a 24 4f 3c 29 f8 a5 b9 05 3a e5 bb
       -0.039424628 0.012642959 -0.00031656146 -0.006995442
0000d0 b4 a5 17 3c 11 b0 ab 3b b3 02 9b 3a c9 b5 f0 bb
       0.009255815 0.0052394946 0.0011826366 -0.007345889
0000e0 e0 26 ac 3c 70 32 9a 3b 8e f4 26 3c e0 72 7b bd
       0.02101463 0.0047057196 0.010190142 -0.06138885
0000f0 e6 f2 36 3c 88 e1 3b 3d 1b 30 6e 3c d7 db 47 bd
       0.01116631 0.04586938 0.014537836 -0.04879364

model.actor.3.weight f4 [64, 64]
000000 28 14 48 bd 5f f7 81 3d 82 81 aa bd a8 bc 83 3d
       -0.048847347 0.063460104 -0.08325483 0.06432468
000010 8a 21 0b bd 6d ec 27 bd dd 92 78 3c 8f 0d 76 3c
       -0.033967532 -0.040996958 0.015171734 0.015017881
000020 fa d7 4e bd 32 df 16 3b 9a 26 2e 3d 6d d8 a0 3d
       -0.05049894 0.0023021218 0.042517282 0.0785378
000030 e3 89 93 bd 9b bb a6 3c 8d c0 16 bc 80 ff be bc
       -0.07204034 0.02035313 -0.009201181 -0.023315191
000040 76 67 00 bd b7 46 09 3d b3 09 7e bd 4e 75 94 bd
       -0.031348668 0.033514705 -0.06202097 -0.072489366
000050 ed ac 3a 3d ee 71 06 be 39 c4 c6 3d f3 d3 1f bd
       0.04557507 -0.13129398 0.09705395 -0.03902049
000060 84 88 9c bd 22 0e d2 bd 99 6f 89 bc c2 28 56 3d
       -0.07643226 -0.10256602 -0.016776847 0.052284963
000070 26 46 a7 bc df 94 dc 3c a2 d5 c8 bd 6e 94 d8 3d
       -0.020419192 0.026926456 -0.09806372 0.10575186
000080 78 b8 a8 3d b0 d9 95 b9 b6 67 2e 3d 38 3b f1 bd
       0.082383096 -0.00028581684 0.042579375 -0.11778873
000090 02 ff 8b 3c 4f 8b fd 3d cf c9 0e 3e 57 b0 48 bd
       0.01708937 0.12380087 0.13944171 -0.048996296
0000a0 80 19 c8 bc eb 48 ed 3d 06 49 06 bd 8e ca 3f bd
       -0.024426222 0.115861736 -0.032784484 -0.04682403
0000b0 e4 76 44 be f7 fc 03 3e 91 56 b0 bd 67 eb 7c 3d
       -0.19185978 0.12889467 -0.08610261 0.061747935
0000c0 3e 7a d6 3d d6 e7 97 3d a0 d8 f7 bc d1 d9 11 bc
       0.104725346 0.07417266 -0.030254662 -0.008902029
0000d0 79 18 b5 3d dc 48 06 be 4c ce 24 3c f8 24 84 3d
       0.088425584 -0.13113731 0.010058951 0.06452364
0000e0 34 98 49 bd 6b 17 5c 3d 87 1f 3c bd 55 25 89 bd
       -0.049217418 0.05373327 -0.045928504 -0.06696574
0000f0 dd 89 66 3d 17 d0 c0 3d b9 5c bd bd 59 c6 fb bd
       0.05628382 0.0941469 -0.09246201 -0.12293691
000100 44 aa b7 3d 1e 26 e4 bd 50 c6 bb 3d a7 78 8c bd
       0.089680225 -0.11140083 0.091686845 -0.0685895
000110 a5 15 69 bb 8a 5e 91 bd 40 4f 24 3d b3 0d 02 be
       -0.003556588 -0.0709811 0.04011464 -0.12700538
000120 05 5d cf 3c d7 26 dc bd 9b 73 11 bd 0e 52 d9 bd
       0.02531291 -0.107495956 -0.03551064 -0.10611354
000130 b3 15 14 be b2 2c 50 3d a6 bd 15 bd e6 ff aa 3d
       -0.14461403 0.050823875 -0.036557816 0.0834959
000140 c9 44 ad 3d 16 2c 82 3d 50 0d 81 3d 60 c7 71 bd
       0.08460385 0.06356065 0.06301367 -0.05902803
000150 37 bb 04 3e 31 90 29 bc 0f 6e 94 bd 6f c8 84 bd
       0.12962042 -0.010349319 -0.072475545 -0.06483542
000160 73 72 ba 3c c7 09 ab 3b 57 57 85 3d 7d db ef 3d
       0.022759652 0.0052196714 0.065107994 0.11711786
000170 72 9b 09 3d 7a f7 04 3e e5 fd 6d bd 2a b6 41 3d
       0.03359551 0.1298503 -0.05810346 0.047292866
000180 c0 4d 5d bd 72 e8 a9 3c a1 ea d6 bd ea 09 0c 3d
       -0.054029226 0.020740721 -0.10493971 0.034189142
000190 18 c9 8d 3d 7e 2b e6 bd 49 f9 f6 bc 77 d6 91 bc
       0.06923121 -0.11238764 -0.030148165 -0.01780246
0001a0 43 52 bb 3d a4 c9 e6 bc d6 e1 6a bd 9c 13 eb bb
       0.091465496 -0.028172322 -0.05734428 -0.0071739685
0001b0 ff ae 24 bd cf 2a 35 3d 85 bb 4f bc d3 8c 3d bd
       -0.04020595 0.04423028 -0.0126789855 -0.04627688
0001c0 af 23 6b 3d c1 ef e9 3d c2 19 52 3d df ab ba bc
       0.057407077 0.114226826 0.051294096 -0.022787033
0001d0 76 b7 d5 3d 25 64 e6 3d be 20 fe 3b 19 d0 9a bd
       0.10435383 0.1124957 0.007755368 -0.07559223
0001e0 dd 51 11 3d 06 b9 7a 3d ea 78 96 3d 1c cc 59 3d
       0.03547846 0.06121161 0.07347281 0.05317317
0001f0 b0 be 26 bd 33 5e 83 3c a3 84 3f bc 6f cd e1 bb
       -0.040709198 0.016036129 -0.011689338 -0.0068909447
000200 4a 24 96 bd af 54 01 bd 21 ea 74 3c 8a 05 ca 3d
       -0.0733114 -0.0315749 0.014948399 0.09864338
000210 e4 1f 08 be 56 55 28 3d f2 4e 63 3c 78 83 c7 bb
       -0.13293415 0.041097008 0.0138738025 -0.0060886703
000220 40 32 10 be a8 97 d8 3d ea 71 7c 3d 23 83 43 bd
       -0.14081669 0.10575801 0.061632074 -0.047732484
000230 78 d5 3d 3d ca e4 97 bd 64 ce ac bd f5 89 d0 bd
       0.046346158 -0.07416685 -0.084378034 -0.10182563
000240 85 6c 0e 3c aa e8 93 bd 02 b1 33 3c f3 8e d7 3d
       0.008692865 -0.072221115 0.010967495 0.10525312
000250 3a 2b a0 3d 0b 38 fc 3d b2 dd 31 3d 78 0e fc 3d
       0.07820745 0.12315377 0.043424316 0.12307447
000260 4d b1 82 3d 56 3b 73 3d 23 f1 69 bd 13 fa 70 3d
       0.06381474 0.05938276 -0.05711473 0.05883224
000270 50 f0 10 be 72 df a1 bd 88 8e a4 3c 68 7c b2 bd
       -0.14154172 -0.07903947 0.020087495 -0.08715135
000280 10 c9 04 3d dd 3c 03 3e 33 c1 a7 bd 10 b7 89 3d
       0.03241831 0.12816186 -0.08191147 0.067243695
000290 cd b7 bf bd e5 7c 18 bd 29 df 1d bd 22 8c 45 3d
       -0.09361229 -0.037228484 -0.0385429 0.048229344
0002a0 c7 36 8f bc 02 d4 43 3d d2 54 d3 3d f2 73 88 bd
       -0.017482175 0.04780961 0.103189126 -0.0666274
0002b0 55 e9 0a bd 95 0a 8d bc 55 79 c4 bd 21 8d 27 3d
       -0.03391393 -0.01721696 -0.09593455 0.040906075
0002c0 a2 d3 d1 3d 8a 96 8e bd 5e 3d a1 bd a4 fc ad 3d
       0.10245444 -0.06962307 -0.07873033 0.08495453
0002d0 d0 64 d0 3d 48 7a fc 3c e8 30 4a 3d 99 25 d3 3c
       0.101754785 0.030820027 0.049363047 0.025774764
0002e0 84 a5 6e 3d aa a4 b7 3d 36 2c 74 3d 9b 61 0e 3e
       0.058263317 0.08966954 0.059612475 0.13904421
0002f0 71 f8 ca bd 1a 9f 99 3b 6f 0e 3b bd e1 56 1b bd
       -0.09910668 0.004688156 -0.04566806 -0.03792465
000300 df 94 a5 3c 01 12 83 bd cf fa 53 3d 61 99 07 bd
       0.020212589 -0.06399918 0.05175286 -0.033105258
000310 70 7f b9 bc 01 7e e8 bd f7 be a0 3c 4a 6e 59 bd
       -0.022643775 -0.11352158 0.01962231 -0.053083695
000320 90 3f 7f 3c a4 14 97 bc 15 d9 aa 3c e8 0d d6 3d
       0.015579119 -0.01844246 0.020855466 0.10451871
000330 79 c7 fe 3d 58 14 d1 bd 2c 2c 61 3d 50 78 20 3d
       0.1244039 -0.102089584 0.054973766 0.03917724
000340 ef 62 85 3d 91 11 01 3d f0 0d 85 bd 1c 03 83 3c
       0.06513011 0.031510893 -0.06496799 0.015992694
000350 ec 7e be bd 64 fe e7 bd ed 72 c2 3d 0d f9 19 bc
       -0.09301552 -0.11327818 0.094945766 -0.009397757
000360 8d 0c a9 3b f9 0a c7 3d 6b ad 4d 3d 93 3f d0 bd
       0.005158967 0.0971889 0.050214212 -0.10168376
000370 0f c0 e3 3d 36 27 cc bd 73 a7 22 bd 45 c7 3f bc
       0.11120617 -0.099684164 -0.039710473 -0.011705224
000380 a8 fc c4 3d 0e 07 af bd bf 9a aa 3c 45 7b 17 be
       0.09618503 -0.085462674 0.020825742 -0.14793117
000390 1f 3d 62 3d bd 21 ad 3d d9 11 5c bd 0c ee 5f 3d
       0.05523407 0.08453701 -0.05372796 0.05467038
0003a0 e5 a2 09 be 50 86 db ba 5c c1 97 3c 18 4a aa bd
       -0.13441046 -0.0016748402 0.018524818 -0.083149135
0003b0 0c a6 c1 3d 70 b0 61 3d 51 a4 fd bd ae 3a d4 3d
       0.09455499 0.055099905 -0.123848565 0.10362755
0003c0 e5 fc de bc fe 64 08 bd 1d 25 2e 3c 1f 0c f8 bc
       -0.027220199 -0.03329944 0.010628966 -0.030279217
0003d0 11 b1 9c bd 25 f0 03 bd 23 84 00 3d 3b 33 36 3d
       -0.0765096 -0.03221144 0.031376015 0.04448245
0003e0 ea 44 ba 3d 7a 34 28 3c bd 01 81 3d f4 46 a2 3b
       0.090951756 0.010266418 0.0629916 0.004952306
0003f0 c3 14 21 3d 55 f4 81 3b 4a b4 7c bb f4 9e 5f 3d
       0.03932644 0.003965894 -0.003855961 0.05459495

model.actor.3.bias f4 [64]
000000 25 3a b3 3d 9f 24 d9 bd 38 d7 a0 bd 00 7f ba bc
       0.087513246 -0.10602688 -0.0785355 -0.022765636
000010 7e d3 58 bd ab 3b a5 3d 54 13 9c 3d c7 59 fc bd
       -0.05293607 0.080680214 0.07620874 -0.12321811
000020 bc 51 81 3b 6b 5b a3 bd d3 38 6f 3d 45 34 08 3d
       0.003946511 -0.07976421 0.0584038 0.033252973
000030 b1 a9 9b bd c9 e7 16 ba 9a 32 b7 bd 66 77 5f bd
       -0.076007254 -0.00057565846 -0.08945198 -0.054557227
000040 ef 98 a5 3d e6 ac d9 3d 01 a1 4a bc 6f 06 5a bd
       0.080858104 0.10628681 -0.012367488 -0.05322879
000050 66 b9 b2 bc 66 28 8d bd 90 8a 25 3d 95 71 ec 3d
       -0.02181692 -0.06892471 0.040415347 0.115451016
000060 e3 36 22 bd fe 72 4f bd 18 2f 3c 3d 30 78 d1 3c
       -0.039603125 -0.050646774 0.04594335 0.025570005
000070 21 23 2f ba cf 8d da 3d db 0e 35 bd 7e 3e b8 bd
       -0.0006680955 0.10671579 -0.04420362 -0.089962944
000080 ac 2a c7 bd f1 9a d6 bc f8 7e aa 3d 43 c3 5d bd
       -0.09724936 -0.026196929 0.083249986 -0.054141294
000090 31 32 b3 bd ca f0 cd bd 2e ed 85 3d 3f 2a f2 3d
       -0.087498076 -0.100556925 0.06539379 0.11824464
0000a0 d5 eb 98 3d 81 7a 1f 3c 60 4b 0a 3e ca fe d0 bd
       0.074668564 0.009733797 0.13505316 -0.10204847
0000b0 b7 86 73 bd a5 22 84 3c 4f 4e 2c 3d 90 80 df bc
       -0.059454646 0.016129801 0.04206687 -0.027282983
0000c0 53 d4 ea bd c1 a3 f9 ba 22 a5 47 3d 89 03 0d 3d
       -0.11466279 -0.0019045995 0.048741467 0.0344272
0000d0 e9 2a 58 3d 76 8d dc 3d 57 71 f5 bc ab b0 3b bd
       0.052775297 0.10769169 -0.029961271 -0.04582278
0000e0 b8 3b bc 3d 61 66 a3 3d 7e 83 01 3e 04 6b 30 bd
       0.09191078 0.079785116 0.12647817 -0.043070808
0000f0 84 d6 1a bd a7 37 ef 3c 96 d5 5e 3d 3c b9 39 bd
       -0.037802234 0.029201342 0.05440291 -0.04534267

model.actor.4.weight f4 [64]
000000 63 de 8f 3f b7 74 86 3f 82 fa 8a 3f 33 b9 81 3f
       1.1239742 1.0504369 1.0857699 1.0134643
000010 f4 39 82 3f 0d e0 88 3f b6 9b 88 3f 15 f1 89 3f
       1.0173936 1.0693375 1.0672519 1.0776697
000020 ec 8f 8d 3f f0 2c 91 3f bb 6e 80 3f 2d f1 87 3f
       1.1059546 1.1341839 1.0033792 1.0620476
000030 3a b3 8a 3f 15 d5 89 3f 24 6c 87 3f 85 09 81 3f
       1.0835946 1.0768152 1.0579877 1.008103
000040 70 9e 83 3f cc 56 7f 3f 0a b9 8d 3f e1 55 8a 3f
       1.0282726 0.99741817 1.1072094 1.0807458
000050 14 11 8e 3f ba ed 81 3f ec 2a 84 3f 01 b8 89 3f
       1.1098962 1.0150673 1.0325599 1.0759279
000060 46 6e 86 3f a0 b7 86 3f 42 e4 87 3f fd 6c 8e 3f
       1.0502403 1.0524788 1.0616534 1.112701
000070 ab 10 88 3f 05 c1 85 3f 41 3e 81 3f 92 1f 8c 3f
       1.0630087 1.044953 1.0097123 1.0947134
000080 fd fa 8b 3f 24 48 90 3f ff d8 8e 3f d9 0f 96 3f
       1.093597 1.1272016 1.1159972 1.1723586
000090 bd 55 92 3f 2e c2 87 3f c9 f5 8a 3f 49 1a 8a 3f
       1.1432415 1.0606134 1.0856258 1.0789272
0000a0 49 61 8e 3f 80 a2 8e 3f ae 15 8c 3f de fe 86 3f
       1.1123439 1.1143341 1.0944116 1.0546529
0000b0 7a 00 8e 3f f8 9a 80 3f 15 1e 82 3f f9 af 8f 3f
       1.1093895 1.0047293 1.016543 1.1225578
0000c0 a9 87 88 3f 9a c1 8c 3f cd 44 82 3f 40 16 82 3f
       1.06664 1.0996583 1.0177246 1.016304
0000d0 33 26 8a 3f ae 42 82 3f d0 d3 83 3f 3c 7e 8e 3f
       1.0792907 1.0176599 1.0299015 1.1132274
0000e0 6e c8 8d 3f 88 ca 84 3f 16 61 8d 3f 23 94 8f 3f
       1.1076791 1.0374308 1.1045253 1.1217083
0000f0 9e 22 85 3f a9 4b 94 3f d2 a6 80 3f 15 b0 7f 3f
       1.0401189 1.158559 1.005091 0.99878055

model.actor.4.bias f4 [64]
000000 94 21 5e 3d 36 6a 00 3d d4 ae e2 3c 42 e5 e4 3a
       0.05423124 0.03135129 0.027671255 0.0017463344
000010 0f 1c ca 3a ca d1 f6 3c 87 54 26 3d 07 28 cc 3c
       0.0015419739 0.030129332 0.040607955 0.02492143
000020 bd 2b 73 3d 4c 5d 73 3d 09 d0 9f 3c ec dd 4e 3d
       0.059367884 0.059415147 0.019508379 0.05050461
000030 8e 5a 0c 3d 1b dd 08 3d 6e c3 02 3d 7b f1 23 3c
       0.034266047 0.033413988 0.031924658 0.010006304
000040 79 57 64 3c 0b d7 dd bc 6c bd 51 3d 73 ce 11 3d
       0.013936871 -0.02708008 0.051206037 0.035597276
000050 45 40 5d 3d 63 a2 f3 3b 3a eb d1 3c f8 09 59 3d
       0.05401637 0.0074351295 0.02562486 0.052988023
000060 af 9f f5 3c 4a cc 9b 3c 17 00 ce 3c 87 ac 67 3d
       0.02998337 0.019018311 0.025146527 0.05656102
000070 c5 6a 2a 3d b3 eb b6 3c bc 27 b5 3b 10 b5 67 3d
       0.04160573 0.022329187 0.0055284183 0.05656916
000080 fb 15 17 3d f7 bc 82 3c 45 0f 1a 3d 7a 2b 7c 3d
       0.036886197 0.015959246 0.03761222 0.0615649
000090 77 c4 57 3d de 94 31 3d 4a 65 59 3d 49 13 26 3d
       0.052677598 0.04335486 0.053075112 0.040545736
0000a0 3c 8e 79 3d 5b a4 2d 3d b6 bf 47 3d 41 dc 02 3c
       0.06092666 0.04239307 0.048766814 0.007987083
0000b0 7d 22 56 3d 2b 81 95 bb 29 d1 b6 3b df 2a 55 3d
       0.052278984 -0.004562517 0.005579133 0.05204284
0000c0 2d 2a 13 3d ac a5 70 3d 6f bf 17 3c 66 36 12 3c
       0.035928894 0.058751747 0.00926195 0.008924102
0000d0 ad 48 02 3d 63 5c 17 3c 40 5b b2 3c a0 72 01 3d
       0.03180759 0.009238335 0.021772027 0.031603456
0000e0 a2 90 25 3d ce 01 87 3c 8b 19 87 3d 2b bb e4 3c
       0.040421136 0.016480353 0.06596669 0.02792128
0000f0 fd dd cf 3c 33 80 7b 3d 31 a9 de ba b2 77 6f bc
       0.025374407 0.061401557 -0.0016987679 -0.01461594

model.actor.6.weight f4 [2, 64]
000000 d2 b6 25 bd bb f9 1d be 23 e9 33 3e 6b b2 92 bd
       -0.040457554 -0.15427296 0.17569403 -0.07162937
000010 5e 61 a8 bd bf 31 e6 bd 98 1a f3 3d 95 cf b3 3d
       -0.08221696 -0.11239957 0.11870307 0.087798275
000020 10 94 2d 3e b9 eb 91 bd 2c 00 f8 3c 04 4d da bd
       0.16951013 -0.07125039 0.03027352 -0.10659221
000030 03 e9 f2 3d 27 94 3b 3e b9 e7 02 3e 7b e3 f2 3d
       0.1186085 0.18318234 0.12783708 0.11859795
000040 ba 7e 4c 3d 37 4b 20 3c af fd 61 bd 3f b1 e8 3d
       0.049925543 0.009783558 -0.055173572 0.11361932
000050 60 02 a9 bd e3 49 db 3d e4 66 11 be 7b ca fe 3d
       -0.08252406 0.10707452 -0.14199406 0.12440964
000060 e4 4a 1d 3e 01 4e 12 be d9 dd 1d be 94 c6 25 be
       0.153606 -0.14287569 -0.1541666 -0.16189033
000070 27 7d 0f 3e 57 93 02 be 15 8a 13 bc 19 ff b7 3d
       0.14012586 -0.12751518 -0.009005089 0.08984203
000080 f9 18 69 bb a2 a9 80 be b4 d6 a9 bd da 67 ac bd
       -0.0035567863 -0.2512942 -0.082929045 -0.084182456
000090 dd f8 53 be f6 b0 a3 bd 05 de 13 3e ba e2 99 bd
       -0.20700403 -0.07992737 0.14440162 -0.07513948
0000a0 96 a7 d7 3c d9 54 f4 bd c0 a7 28 3e 76 b6 09 be
       0.026325028 -0.11930246 0.16470242 -0.1344851
0000b0 19 3b 44 be 05 ac da 3b be d3 12 be 34 2c 23 be
       -0.19163169 0.0066733384 -0.14338586 -0.15934831
0000c0 b7 bb f3 3d 3c 1f 42 be b6 25 24 3d 6e 6f cf bd
       0.11901038 -0.18957227 0.040075026 -0.101286754
0000d0 40 35 20 3e 65 0d d1 3d 89 e2 ec 3c 94 1b 98 3c
       0.15645313 0.10207633 0.028916614 0.018567838
0000e0 0e 40 67 3e 52 2a 11 3e 26 8d 33 be 9b fd ec bd
       0.22583029 0.141763 -0.17534313 -0.11571809
0000f0 d8 15 a2 3d fb 20 2c bd 10 0d c1 bd 37 97 c6 3d
       0.079143226 -0.04202364 -0.094263196 0.09696811
000100 d6 7a f4 bd 16 74 d5 3d ef a3 e3 3c 92 a7 f7 3c
       -0.119374916 0.10422532 0.02778813 0.030231271
000110 4f 1d 2e 3c cf d0 d1 3d c8 66 8d 3c cf 65 36 3e
       0.010627105 0.10244905 0.017260924 0.17812274
000120 75 e2 16 bc 90 9e 7a 3e 71 2a 45 bd 3e e5 10 be
       -0.009209265 0.2447455 -0.04813618 -0.14149949
000130 2a 6d 1b 3e 91 46 b2 3d a1 68 1f 3e 41 b8 a2 bd
       0.15178362 0.08704866 0.15567257 -0.079453
000140 a4 2e e4 bd be b1 cd 3d af 86 16 be 2d b0 18 be
       -0.111417085 0.10043667 -0.14699815 -0.14910956
000150 ad fc 52 be a4 25 eb bc bd cd c5 bc 75 d2 39 3e
       -0.206042 -0.028704472 -0.024145955 0.18146689
000160 34 b9 1c bc 2b 44 6e bd 11 04 74 3d 7c 96 4c be
       -0.00956564 -0.05817048 0.05957419 -0.1997928
000170 d7 3d 53 3d a4 bd 89 bc 8c f7 04 3e 1f da 88 3d
       0.051572647 -0.01681406 0.12985057 0.06682228
000180 f0 06 11 3e e9 cf 0c 3d dd 91 22 3e 5b 52 1e 3e
       0.14162803 0.034377966 0.15875955 0.15461104
000190 5e 1e 92 bd f0 91 72 bd 5f d4 17 3e e4 60 e8 bd
       -0.07134698 -0.059221208 0.14827107 -0.113466054
0001a0 16 87 5d 3e 27 63 42 be fa ae 08 bc 67 de 0d 3e
       0.21633562 -0.18983136 -0.008342499 0.13854371
0001b0 54 a4 16 bc 7c cf db 3d 77 45 c6 3d 1d 86 69 3d
       -0.009194452 0.10732934 0.09681218 0.057012666
0001c0 6b 2f 11 3e 29 97 45 be ed b5 e7 bd 6d 20 82 3d
       0.14178245 -0.19295944 -0.113139965 0.06353841
0001d0 bd 50 1f 3e ee f2 18 bd 8b 99 da 3d 65 99 45 3e
       0.15558143 -0.03734105 0.10673817 0.19296797
0001e0 fd ce ed bb 83 c0 0e be 20 d0 57 be db c4 47 3e
       -0.007257341 -0.13940625 -0.21075487 0.19508688
0001f0 aa 6c 8b 3d 48 9b 4e be 74 cd 45 3d 62 46 b0 3d
       0.068078354 -0.20176423 0.04829164 0.086071745

model.actor.6.bias f4 [2]
000000 6d 12 ef 3d 75 6a 9c 3d
       0.11673436 0.076374926
