src/taser/locomotion/models/balance.pth (torch, 57566 bytes, 22 tensors)

log_std f4 [2]
00000000: d0fc eabf ba27 e6bf
-1.8358402 -1.7980874

actor.0.weight f4 [64, 26]
00000000: ffd3 4abd 4c59 e3bc 8015 8abd 70c3 963d
00000010: 07a0 903c 2a95 363d 207b 353d e460 9e3c
00000020: 55e3 573d 7319 1cbd c587 963d 28d1 68bd
00000030: dba9 cbbc 555f 0ebe d06b 01bb cf38 773d
00000040: fc81 c4bd d4c7 d93d f9d7 bdbd b348 303d
00000050: ff92 79be 8c5f a73d 1ead 88bd 07a6 b0be
00000060: 4200 06bc bf3c 52be cb75 203d 017a 30be
00000070: cb58 f13c f0e4 9cbb 2f44 0bbd 8714 493d
00000080: ea93 b5b9 8a11 923c cab9 d33c 5a0b 003e
00000090: 2d44 fbbd 5318 32be 635b b93d 611c 30bd
000000a0: 388f 6f3d e497 8a3d 1ad1 3e3e f419 81bc
000000b0: fa93 a9bd fbf8 403d fec8 b53e e9c0 adbd
000000c0: f21f fbbc d9f1 483d 9ecf 1a3e 2ba0 21bd
000000d0: cae8 dcbd e08f 0e3d a8b1 9cbb 4cc5 3b3d
000000e0: 7530 52bb 93a7 393d 93ee 033d 728c 673d
000000f0: fd1f e6bd 2589 05be 5e74 dfbc ebbc ba3c
00000100: 107e ef3c 2044 60bd f3a0 95bd c857 a13c
00000110: 7857 9f3e e185 1fbe 0c0e 5fbc c49e 9cbd
00000120: 8352 8f3e f8b9 4f3e 2e36 74bd dacd 5c3d
00000130: 93a6 c53e ef7f 633c 83ec 8f3d 9297 19bc
00000140: bb73 04bd adc8 05bd e49a 8e3b 2c5b 013d
00000150: 9e91 ba3c d2ea c5bb 15fd 2d3d 9e59 043e
00000160: 9da8 82bd 80cc 99bc 18bb 4b3d a9dd ccbd
00000170: 55d4 bd3d 7861 8f3d 8b44 1b3e 4241 5e3e
00000180: fb09 abbd d3ff 653c 37dc a3bd 88b5 81be
00000190: 603f 81bc 599f 8e3c 7201 2d3e 777e 463b
000001a0: bac7 9fbc c410 46bd 8dae 0dbd 57e2 b93a
000001b0: f682 f2bb 8c83 143d 1633 983c f2da 4f3c
000001c0: 9ee4 86bd d674 fb3b 4756 7abc 4fb0 c1bb
000001d0: 241f 973c df6e eebc ad99 94bd c9c7 3f3e
000001e0: 95aa 5c3e fe0a a8bd 3c22 e33e 6afc d8bd
000001f0: 8451 82be 860c 41bb 364e 7f3c 85f5 4d3e
00000200: beb9 3dbe 4bae 3bbd c3cd 1abe 988a 303d
00000210: 262a 03bd 9b3c 2b3d 5d42 3a3c 13ed 763d
00000220: 40cb 8fbd 3c37 543c 4b96 babd bb96 cf3c
00000230: 8bec 8a3d 6647 a63c b9bd 8c3d 43bf de3d
00000240: 09ee 433e 8a92 383e fa44 55be 6fbc dd3d
00000250: bb6f f93b 1f73 1d3e 0480 2ebd 3d9e 9e3d
00000260: 4579 50bc a7ad 6cbe 17a5 d53d bcf4 b5bd
00000270: 2ce0 413c 24e7 4c3e 92ff 863d 2402 913e
00000280: 7038 07bc dedc 843d 902a 5f3c 0f7a 533d
00000290: 3976 863c 3dad 06bb b2f1 1b3d 646f 2abd
000002a0: 0706 17be 9a7a 843d daef f8bd 556f cdbc
000002b0: 9374 d8bb 6e10 7dbe e50d 93bd 99bc 9dbd
000002c0: 1f66 f2bc dbff 92bd 1e24 c63c 37a2 183e
000002d0: 74ba 95bd e489 0fbd aedb cbbb 9a07 d2bd
000002e0: fcbf e1bc 160c febc 90c9 51bc fe0e a93d
000002f0: 3593 0d3b a558 183c 8a15 7bbd 33a9 953d
00000300: 2081 a1bd 2f3b b9bc 7ff6 1dbd 5148 2e3d
00000310: 7278 1b3d ecfe b63c 8533 e73d b871 ed3d
00000320: b8b1 043d b62c e43c 753b 113e 4eba 6c3d
00000330: 7bfd 5c3d a6fb a93e 28d6 1b3e e03b 4abe
00000340: c6dc 0d3e 41ba 0dbd 09e2 cf3b 9052 a03d
00000350: e041 683d 6474 db3d e3d3 ad3d 40fe 66bd
00000360: df05 00be ceb7 d1bd c933 993d 928b 1a3e
00000370: c0d8 2bbc 75d7 fabd 6d55 29bd b5d6 cd3d
00000380: c584 433e 982e 20be 48be e6bd 1d2b 56bd
00000390: 4301 d83d 2c27 89bd c2b0 1a3e 3405 ca3d
000003a0: be90 3dbd 348c 1d3d f846 28bd 9566 c13d
000003b0: de21 09bd e789 933d 024e 293b 685b 193d
000003c0: f44d b83a 8358 5f3b f994 e9bd 057d 4abc
000003d0: b293 ad3c 6f69 7abd 129f c83d 0ea0 5b3c
000003e0: 4543 093e d97e 8d3d 23d1 5a3e f858 283e
000003f0: a217 a0bd 3e60 8ebc b4bc 483e 7338 923c
-0.04951858 -0.027752541 -0.06742382 0.073614955 0.017654432 0.044575848 0.044306874 0.01933331
0.052707035 -0.038110208 0.07350115 -0.056840092 -0.024861267 -0.13903554 -0.00197481 0.06035691
-0.09595105 0.10633817 -0.09269709 0.04303808 -0.24372481 0.08172521 -0.066736445 -0.3450167
-0.008178772 -0.20530985 0.039174836 -0.17234041 0.029461285 -0.0047880337 -0.03400057 0.049091842
-0.00034633215 0.017830629 0.025845427 0.1250433 -0.12268863 -0.17392091 0.09050634 -0.042995814
0.058486193 0.06767252 0.18634453 -0.015759446 -0.082801774 0.047112446 0.35504907 -0.0848406
-0.030654881 0.04905877 0.15118262 -0.03945939 -0.107865885 0.03480518 -0.0047819205 0.045842454
-0.003207234 0.045325827 0.032209944 0.056530423 -0.1123657 -0.13040598 -0.027277168 0.022795161
0.029234916 -0.05475247 -0.07306089 0.019695178 0.3112142 -0.15578414 -0.013614189 -0.0764747
0.2799264 0.20285785 -0.059621982 0.053907253 0.3860365 0.013885482 0.07027533 -0.009374516
-0.03233693 -0.032662082 0.0043519605 0.03158109 0.022774514 -0.0060399557 0.042477686 0.12924811
-0.06379817 -0.018774271 0.049738973 -0.10003216 0.09269015 0.070010126 0.15162866 0.21704581
-0.08351513 0.014038044 -0.08000987 -0.2533381 -0.01577729 0.017409967 0.16895083 0.0030287781
-0.019504417 -0.048355833 -0.034590293 0.0014181834 -0.0074008657 0.036258265 0.018579047 0.012686478
-0.06586574 0.00767384 -0.015279359 -0.00591091 0.018447466 -0.029105602 -0.07255874 0.18728556
0.21549447 -0.082052216 0.44362056 -0.10595019 -0.25452816 -0.0029456927 0.015582612 0.2011319
-0.18527886 -0.045820516 -0.15117554 0.043100923 -0.032022618 0.041805845 0.011368361 0.060284685
-0.07021189 0.012952622 -0.09110697 0.025340429 0.06783398 0.020297717 0.06872124 0.10876324
0.19133772 0.1802465 -0.20827094 0.108269565 0.0076121963 0.15375946 -0.042602554 0.07745025
-0.012724225 -0.23113118 0.10431879 -0.0888457 0.011833232 0.20010048 0.06591715 0.28321946
-0.008253202 0.064874396 0.013620988 0.051630076 0.016413795 -0.0020550035 0.038072295 -0.041610137
-0.14748393 0.06468697 -0.12155123 -0.025077501 -0.0066056936 -0.24713299 -0.071803845 -0.07701988
-0.02958971 -0.07177707 0.024187144 0.1490563 -0.07310954 -0.035043612 -0.006221256 -0.10255356
-0.027557366 -0.031011622 -0.012804404 0.08254813 0.0021602635 0.009298478 -0.061299838 0.07307663
-0.07885957 -0.022611229 -0.038565155 0.042549435 0.037956662 0.022338353 0.112891234 0.11593956
0.03239605 0.027853351 0.14182837 0.05779486 0.053952675 0.33199805 0.15218413 -0.19749403
0.1385375 -0.034601454 0.006344084 0.078282475 0.05670345 0.10715559 0.0848768 -0.056394815
-0.1250224 -0.10240136 0.0748058 0.15092304 -0.010488689 -0.122481264 -0.041341234 0.10050718
0.19093616 -0.15642774 -0.11266762 -0.05228721 0.10547116 -0.066969246 0.1510649 0.09864274
-0.046280615 0.038463786 -0.041083306 0.09443394 -0.033479564 0.07204037 0.002583385 0.037440687
0.0014061318 0.0034079857 -0.114053674 -0.012358909 0.02118859 -0.061135706 0.09795965 0.013404859
0.13404568 0.0690896 0.21368842 0.16440189 -0.078170076 -0.017379876 0.19603235 0.017849183

actor.0.bias f4 [64]
00000000: 6a42 48be 9cd1 163c f371 41bd 2bdd 813c
00000010: 8e6d b6be c6ae 54be 852f 05be 3699 433e
00000020: 2f0f 25be 0072 123b 981b 413d 96f9 7d3d
00000030: 8972 53be f10b c9bc 5749 02be b709 43be
00000040: f565 59be 8d98 643e 1e9d 9fbe d9f0 31bd
00000050: 3bf9 913b 24ca 81be 4d76 b2bd 64e0 a9bd
00000060: 6949 fc3c 6289 46bd bcf3 443d 554b c73d
00000070: 8df7 923d 4863 ad3e 5382 84be 456e 96bd
00000080: 131e 81be 75d6 0dbe 1d2d 8b3e 0a3f b1bd
00000090: f452 b6be e266 313e 6e75 73be 676f 71be
000000a0: 1cf6 1bbe 6413 613e 8237 003e 9fa5 90bd
000000b0: 3d2b 98be 70b0 c83d 66dd 23be f54a 973e
000000c0: 4527 6c3e 3784 d6be 2c7b 9dbe 999e 4bbe
000000d0: b2d9 533e ebc0 c4ba 2272 533e e328 fd3a
000000e0: a300 43be 5e99 003e 0f3b 88be b01a 7cbe
000000f0: 6f84 973e 406e 54be fd4a 463e 9ebf 95bd
-0.19556585 0.009205248 -0.04722781 0.015852531 -0.3563046 -0.20769796 -0.13006409 0.19101414
-0.16119073 0.0022345781 0.047145456 0.0620056 -0.2064916 -0.024541827 -0.1272329 -0.19046675
-0.212303 0.22323819 -0.31174558 -0.04344258 0.0044547594 -0.25349534 -0.0871397 -0.08294752
0.030796723 -0.048470862 0.048084006 0.09731165 0.07176123 0.33864808 -0.2588068 -0.07345251
-0.25218257 -0.1385134 0.27182856 -0.08654602 -0.35610163 0.17324403 -0.23775265 -0.23577653
-0.15230602 0.21980053 0.12521175 -0.0706284 -0.29720488 0.09799278 -0.16002426 0.29549375
0.23061855 -0.41897747 -0.30758035 -0.19884719 0.20688513 -0.0015011107 0.20649007 0.0019314553
-0.19043212 0.12558505 -0.26607558 -0.24619555 0.29593226 -0.20745182 0.19364543 -0.07311939

actor.1.weight f4 [64]
00000000: 88b3 803f d78e 813f 7697 803f 7583 733f
00000010: fae8 993f 717c 7a3f c5a4 803f e8ad 813f
00000020: 1057 653f 8841 823f 2713 813f 3333 643f
00000030: e948 7a3f 0cc0 733f 2c98 663f 133b 6e3f
00000040: a7fc 813f 2a1a 843f 17f1 633f 4d86 7e3f
00000050: 829d 7b3f 7bf3 813f 787c 813f ed58 813f
00000060: 2669 853f 39b7 7a3f 770d 7c3f 4b1a 7b3f
00000070: 7a0b 6b3f 7269 843f 8137 863f 42e2 693f
00000080: bf99 6e3f 0c3b 603f 4ca1 833f 0f21 803f
00000090: ed4f 863f 72d6 863f 8721 863f c1bd 733f
000000a0: da5c 683f 94a5 813f b8c4 803f e313 853f
000000b0: 70c3 933f 7b8b 7b3f 45d5 6b3f ba3e 8a3f
000000c0: 95c0 7b3f 3236 843f 0177 7b3f 7625 833f
000000d0: 7539 813f 0eb7 753f a03b 7d3f 0f67 7d3f
000000e0: 3cb8 783f f1d3 6c3f 63dc 8b3f 53ba 7e3f
000000f0: 4880 813f 6903 823f 33e1 813f 658d 6d3f
1.0054789 1.0121716 1.0046222 0.9512246 1.2024224 0.9784613 1.0050284 1.0131197
0.8958597 1.0176249 1.008397 0.89140624 0.977675 0.95214915 0.90075946 0.9305889
1.0155228 1.0320485 0.8903975 0.99423677 0.9828721 1.0152429 1.011611 1.0105263
1.0422714 0.97935826 0.98458046 0.98086995 0.91814387 1.0344679 1.0485688 0.9136087
0.9320335 0.875901 1.0283599 1.0010089 1.0493141 1.0534194 1.0478982 0.95211416
0.9076668 1.0128655 1.0060034 1.0396694 1.1544018 0.98259705 0.921223 1.0800393
0.9834073 1.0329039 0.9822846 1.0245807 1.009566 0.95982444 0.98919106 0.9898538
0.9715612 0.92510897 1.0926632 0.9950306 1.0117273 1.0157291 1.014685 0.92793876

actor.1.bias f4 [64]
00000000: b8eb 9f3b f77e f63c e7cc bdbb 4a94 793c
00000010: b717 95bc 7316 a4bc 9b53 f3bc ebc7 ce3c
00000020: 84a6 80bc 63e4 eb3c f6ad be3d 673f ae3d
00000030: 4232 803d 6b36 7ebb 0fd9 8aba f792 01bd
00000040: 3198 503d 662d 103d a4aa 1fbc 765d 873d
00000050: 68a6 18bc e0d3 df3b 2feb 25bc 0212 283d
00000060: fa43 9e3d 6dfb 253d ff3e 053c dc83 60bd
00000070: c92e 1ebc b1ae 8a3d 3029 103d a064 b53c
00000080: 164a 53bd a25a 83bc 2130 6e3c 6f47 3bbd
00000090: b5b3 36bd d96c 4c3d 34df 233d 8b48 f0bc
000000a0: 412d 15bd 1c81 043d 2be4 1e3d 4424 13bd
000000b0: da2b 473e f9c0 833c 8ad1 01bd 10e7 3b3d
000000c0: 6278 0b3c 4427 eb3b c01d dfbc a5fd c33b
000000d0: 6d3b 6b3d e50a 96bb 5930 b13c 6863 b03c
000000e0: 0199 1ebc 8215 2cbc 7342 843d 2b27 21bc
000000f0: db06 fc3c 896f 343d ac0c 263d ff49 48bb
0.004880395 0.030089838 -0.0057922485 0.015233109 -0.018199785 -0.020030236 -0.029702952 0.025241813
-0.0157044 0.028795427 0.09310524 0.08508187 0.06259586 -0.003878976 -0.0010593253 -0.031634297
0.05092639 0.035199545 -0.009745274 0.06609623 -0.009317018 0.0068306774 -0.010126873 0.0410328
0.07727809 0.04052298 0.008132695 -0.05481325 -0.009654709 0.06771601 0.03519553 0.022142708
-0.051584326 -0.016034428 0.014537842 -0.04572242 -0.044604976 0.049908493 0.040007785 -0.029331466
-0.03642011 0.03234969 0.038791817 -0.035923257 0.19450322 0.016083227 -0.031693973 0.045874655
0.008512588 0.0071763117 -0.027235866 0.0059811645 0.05742972 -0.0045789354 0.0216295 0.021531776
-0.009680034 -0.010503175 0.06457987 -0.0098359985 0.030764988 0.04405168 0.04053943 -0.0030561683

actor.3.weight f4 [64, 64]
00000000: 6595 603c 0f52 c1bd 909a 0e3e 03ee 703c
00000010: df86 a83e f896 95bd adaa f5bb 6fc3 1d3d
00000020: 9425 273d 6d1d ddba 3777 c63d a190 afbc
00000030: 9d04 b2bc 9282 64bc edfa 08bb 023f 003c
00000040: dfea 3e3e 3163 a9bc 0fc1 163c 1d98 e03d
00000050: 039c 00be e6a6 ad3d afcd 62bd 600a 503b
00000060: 6eb6 0a3d 09d5 e6bd 4078 95bd dc95 063e
00000070: 2bb5 e93d d151 62bc 3bd7 333d af44 41bb
00000080: 8579 96bd 9fca cd3b e723 47be 6750 183d
00000090: a125 cabb 2b2c 483c 4e44 88bd 4a24 b6bd
000000a0: a391 c1bd f984 08be 0c2d 803b 999f 073e
000000b0: c45a 903d bc16 a53c ba64 373d 97d5 40be
000000c0: 11bc 61bd 1283 8a3d f2eb 51bd 4590 b73d
000000d0: 6d88 b6bd cfb9 713d 6644 cfbd 79ab d53d
000000e0: e5dd 92bd 8842 19be 95dc c03e dedd 613e
000000f0: 7ddd 8d3d ce08 6a3d 742b 84bd 8684 f9bd
00000100: ad93 90b8 cc68 d33d 04cc 0c3d cd9e 8ebd
00000110: ff80 b13d ee8e 6c3d 2388 a5bc bf5d 7cbd
00000120: abff df3c e7dd 8dbd c8ac 103e b27e e2bc
00000130: 0e64 133a 77a3 933d 0b46 86bc 604c 463d
00000140: 509d 703b 50cb 973d e8d0 f2bd b88d 2fbd
00000150: e0b5 aabc 6c1d 3e3d 5906 703b f9d1 38bd
00000160: 61ad 16be 37a8 883d cbdd 74bc be58 4b3c
00000170: fb11 4d3d f228 0c3d 06e4 95bc bc98 083d
00000180: 2e78 913d a279 d43b f43a 8f3d 809e e43d
00000190: 7ae2 d4bc dda7 e2bd 7e96 ec3d 1a83 253d
000001a0: 3f42 3cbd 4e55 ec3c 2555 cb3d 3d72 f5bc
000001b0: 4681 79bd 93ff 3d3d 5304 f9bc 5241 8ebd
000001c0: 137b ff3b 6751 7e3c 37e3 0cbc 8469 af3d
000001d0: 1d45 e03d 0864 55bd eef6 45bd 6f46 e83d
000001e0: c96e 2abc 1377 9f3d 5950 01bc bb91 88bd
000001f0: c5bd b9bc bed1 21bc a8eb fa3d 1100 8e3c
00000200: 56a4 033d 4f71 dd3c 6a22 e93c 8757 c13d
00000210: 4464 1ebe 62be b4bd 1fc6 d63c 5664 723d
00000220: 9f49 2bbc 619e 50bd b76f 553d 4ee5 273c
00000230: 049f 4fbc 7831 9ebc 67bf 94bd b9da f13d
00000240: 834b a2bd c4a3 72bc b7ad 61bd c610 ca3c
00000250: 6277 12bd 9d34 d63d bc67 823c e1b5 0bbe
00000260: c491 86bd ba9c 033d 6155 c3bd b7ae 453d
00000270: 22c9 763d a1c9 013e 7258 1b3c f7c8 cbbd
00000280: 2458 0b3e d683 87bd 87f9 9c3d 2923 18bd
00000290: de95 c0bc 2f7e 4ebd 0756 b63d 185b 4abd
000002a0: 4116 563d 34ce 943d 9f8a 543d d411 06be
000002b0: e2f7 d1bd c0ce 8c3d 59f2 e4bd d215 ccbd
000002c0: 87e7 e93c 73df b8bd 715d 5a3d 2c75 393d
000002d0: 2965 77bd 54c6 3abd 5fbf 483d f4be bd3c
000002e0: 8740 2e3c 2e39 c43d e468 68bd d9d9 ad3a
000002f0: 345c 1c3d 4453 19be a816 e83d 9d61 7b3c
00000300: 1f6b f6bb ba3a 01ba bc8e 893d f38f d03d
00000310: e1f3 0dbe 62b3 c53b dda9 16be 1513 21bd
00000320: c682 0a3d 9258 f93c 6431 96bc 92d5 bcbd
00000330: 199b 9ebd 690e 9cbd 4cc8 863d 64e3 893d
00000340: 2272 bcbd de64 a6bd d101 86bc 9823 143d
00000350: 1da2 d73c 6bb0 dd3b 52fa 2bbd 59fb 93bc
00000360: b1f1 82bd aa46 6dbd cab7 3d3d 16a0 fc3c
00000370: 556d 8bbd d3aa a7bd 4303 6abd 7eac 0c3c
00000380: e21c 10bc 66c7 543d ddb8 3d3d a4ff 60bd
00000390: 2dc8 d03c a7f9 92bd 89cf 333d 2d13 033d
000003a0: 6bac 73bd e82f 903d 770e 8f3d 9971 86bd
000003b0: 43f6 183d 3d26 293d c7a7 e23c 0e4d 483d
000003c0: 9311 a8bc 3571 963d e2a6 313d a85f 1b3d
000003d0: 32ea 90bd 01bb 873d 7513 9a3d 3d1e 2f3d
000003e0: 5216 6d3c d788 ee3d 19ab f93c bcbb 1cbb
000003f0: 38d9 30bd 6bc5 2c3d 8c26 cd3d d9e7 9e3d
0.013707493 -0.094394796 0.13926148 0.014705184 0.32915398 -0.07304186 -0.007497153 0.038516458
0.04080732 -0.0016869731 0.09690707 -0.02143127 -0.021730715 -0.013947146 -0.0020901517 0.007827522
0.18644284 -0.020677181 0.009201302 0.10966513 -0.12559514 0.08479099 -0.055371936 0.0031744465
0.033865385 -0.11271102 -0.072983265 0.13143104 0.11411508 -0.013813452 0.04390643 -0.0029490402
-0.07347397 0.006280258 -0.1944729 0.037186053 -0.0061690365 0.012217562 -0.06653653 -0.0889364
-0.09451606 -0.13331975 0.00391162 0.13244475 0.07048562 0.020152442 0.044773795 -0.18831478
-0.055110995 0.06763281 -0.051250406 0.08963064 -0.0891274 0.05901509 -0.10120468 0.104330964
-0.07171229 -0.14966786 0.3766829 0.22057292 0.06927011 0.057137303 -0.064536005 -0.1218348
-6.893962e-05 0.10322723 0.034374252 -0.069638826 0.08667182 0.057753496 -0.020206517 -0.06161284
0.027343592 -0.0692709 0.14128411 -0.027648304 0.0005622514 0.07208913 -0.016390821 0.04841268
0.003671486 0.07411826 -0.11856252 -0.042859763 -0.020838678 0.046414778 0.0036624877 -0.04512212
-0.14714576 0.066727094 -0.014945458 0.0124112945 0.050065976 0.034218736 -0.018297207 0.033348784
0.071030006 0.0064842263 0.06993666 0.11163044 -0.025986899 -0.11067174 0.115521416 0.04040823
-0.045961615 0.02884927 0.099283494 -0.0299617 -0.0609143 0.046386313 -0.03039757 -0.069460526
0.007796654 0.0155223375 -0.008599094 0.085650474 0.10950682 -0.05209735 -0.048331194 0.11341559
-0.01040239 0.077863835 -0.0078926915 -0.06668421 -0.022673497 -0.009876667 0.12251979 0.017334016
0.032139145 0.027031569 0.028458793 0.09440523 -0.15467936 -0.08825375 0.026217518 0.05917772
-0.010454564 -0.050932292 0.052108493 0.010247542 -0.01267219 -0.019310698 -0.072630696 0.11809296
-0.07924559 -0.014809553 -0.055097308 0.024666201 -0.035758384 0.10459254 0.015918605 -0.136436
-0.06570771 0.032131888 -0.09537769 0.048262324 0.06025041 0.12674572 0.009481536 -0.099504404
0.13607842 -0.066169426 0.07664781 -0.037142906 -0.023508962 -0.050413307 0.08903127 -0.04940328
0.052267317 0.072658926 0.051890012 -0.13092738 -0.10252358 0.06875372 -0.11179037 -0.099650994
0.028552784 -0.090269946 0.05331177 0.04527776 -0.06039921 -0.045599297 0.04901063 0.023162343
0.010635502 0.09581219 -0.056740656 0.0013263776 0.03817387 -0.1497317 0.11332446 0.015343097
-0.007520094 -0.00049297104 0.067166775 0.10183706 -0.13862564 0.006033347 -0.14713235 -0.03932484
0.03381612 0.030437741 -0.018334098 -0.09220423 -0.07744426 -0.07619936 0.06581172 0.067328244
-0.092014566 -0.08124708 -0.016358288 0.036166757 0.026322419 0.0067654154 -0.04198677 -0.018064188
-0.06393755 -0.05792872 0.046317853 0.030838054 -0.06807963 -0.08186879 -0.057132017 0.008586047
-0.008795949 0.051947974 0.046318877 -0.054931298 0.025486076 -0.07176524 0.043899093 0.03200071
-0.059490602 0.070403874 0.06985181 -0.06564636 0.03734423 0.041296232 0.027667893 0.04890161
-0.020516193 0.07345811 0.043372042 0.03793302 -0.07075919 0.06627465 0.075232424 0.042753447
0.014470654 0.11647194 0.030477094 -0.002391561 -0.043175906 0.04218046 0.10017118 0.07759065

actor.3.bias f4 [64]
00000000: 0d8a 6cbd 2960 78bd 5455 693d e028 03bd
00000010: c269 003d 903f 0cbe 8465 f43c 4906 833c
00000020: 5a11 3bbe bed2 9fbc 9366 f63d a977 9d3d
00000030: e322 b03c 5400 913d 87b4 89bb 42f9 bdbd
00000040: 1a98 d0bc 8acc e53c ba9e fa3c b0a4 383d
00000050: aea8 d13d 016e 823d bbe2 903d 8260 44bc
00000060: 8442 d63d 9bdc e83a 4ee0 26bc 9745 96bd
00000070: 76d8 a3bd 05e5 21bd 01db 90bc 8848 96bd
00000080: d493 c1bd 1e09 343d e1ce 82bd 006a edbd
00000090: 2433 eb3d 206a cb3d 2ff3 eabd 5dac 73bc
000000a0: 6aa3 2f3d 069f 56bd 48ec 463d 7968 e73c
000000b0: d425 06be 3e96 afbc 5e3b c33d e4a1 e03d
000000c0: 4555 f43c d0b8 dcbd 98c0 923c bf7d 783d
000000d0: b466 9a3c 3943 eb3c dc55 6f3d 098e c93d
000000e0: 1795 b93d 02bc f23d 7726 d83d e009 153e
000000f0: 1fec a3bd 52d0 e4bd 1571 86bc cb1c 283d
-0.057748843 -0.06063858 0.05696614 -0.032021403 0.03135086 -0.13696122 0.029833563 0.015994208
-0.18268338 -0.01950967 0.12031283 0.07688839 0.02150101 0.07080141 -0.0042024287 -0.09276058
-0.025463153 0.028051633 0.030593265 0.045078933 0.10237251 0.06368638 0.070744954 -0.0119859
0.104619056 0.0017765941 -0.010185314 -0.07337492 -0.08000271 -0.03952505 -0.017682554 -0.07338053
-0.09452024 0.043954007 -0.06387115 -0.115924835 0.11484364 0.09932351 -0.11472165 -0.014872638
0.042880453 -0.05239775 0.04856518 0.028248059 -0.13100368 -0.021433946 0.09532808 0.10968378
0.029825816 -0.10777438 0.017914101 0.060666796 0.0188478 0.028718578 0.05843149 0.09841544
0.0906164 0.11852266 0.105542116 0.14554548 -0.08004021 -0.111725464 -0.016411344 0.041043084

actor.4.weight f4 [64]
00000000: 4789 bc3f fce7 7c3f d442 863f f435 7f3f
00000010: 1b68 803f f3ed 833f 783e 793f 5edf 823f
00000020: 02f3 7d3f 0e92 893f 8e50 a93f 1d66 833f
00000030: 0eb0 a63f d8fc 823f bdcc 793f b56f 7a3f
00000040: 16f9 833f 3261 813f 3446 833f 379c 873f
00000050: 06c3 813f a088 843f cee2 893f fc5f 883f
00000060: f0fe 893f fc08 853f 4ade 8b3f f3ad aa3f
00000070: 25f0 753f 4765 833f 2ce5 803f 3850 8c3f
00000080: e901 873f 9502 8a3f c5bd 823f 062f 7e3f
00000090: ab2c 843f 6920 833f c29e 833f bc77 813f
000000a0: c43b 8e3f b0a4 973f 5b31 853f f4b8 a83f
000000b0: 9275 7b3f 03b5 903f 85fe 863f cebf 823f
000000c0: 36df 8c3f b8b4 7c3f 9169 833f 1206 913f
000000d0: 11a0 863f c721 8f3f ac4a 833f 7f64 813f
000000e0: c613 893f f6cc 833f 1700 803f 6e24 873f
000000f0: ca4c 793f 3f86 813f a1a1 843f 72e7 7b3f
1.4729394 0.9879148 1.0489144 0.996917 1.003177 1.0306991 0.97360945 1.0224416
0.99198925 1.0747697 1.3227708 1.0265538 1.3022478 1.0233412 0.9757803 0.978267
1.031039 1.0107787 1.0255799 1.0594548 1.0137641 1.0354195 1.077234 1.0654292
1.0780926 1.0393367 1.0927212 1.3334335 0.96069556 1.0265282 1.0069938 1.0961981
1.0547458 1.0782038 1.0214163 0.992905 1.0326132 1.0244266 1.0282824 1.0114665
1.1111989 1.1847134 1.0405687 1.3181443 0.98226273 1.130524 1.0546423 1.0214784
1.1005619 0.98713255 1.0266591 1.1329978 1.0517598 1.1182183 1.0257163 1.0108794
1.0709159 1.0296924 1.0000027 1.0557992 0.97382796 1.0119094 1.0361825 0.9840003

actor.4.bias f4 [64]
00000000: 892d 6d3c 484c 013b 5f5f 183d 96f5 acbc
00000010: 7ee7 24bb d28a f43c 4542 94bc 32a0 183d
00000020: d212 f3bb 8fef af3c da1c e5bc da62 133d
00000030: d7d9 c63c d668 4a3b 0c21 acb5 13b5 0a3c
00000040: 41de 25bd b07b 1b3d 06f6 0c3d a5d8 063d
00000050: 0dd9 25bc 2d57 15bc 27c2 a3bb da34 32bc
00000060: 3c25 883d 61b4 383d cb92 9ebc 1c3c 05bd
00000070: dc5a fdbc 0a4d 4f3d aeb6 963b 8c4b a23b
00000080: 243a 0e3d 720a fa3c 9dd5 3e3b 67cc 143d
00000090: cfe6 353d 085f 913c fa1c dd3c 01e7 8f3c
000000a0: bb1f 9f3d 2ebf a93c f0e7 a13c 1ad7 e6bc
000000b0: c7db 25bc a3aa bebc 7c16 d8bd 0db0 d83b
000000c0: 2c5c 353c cb7f b1bc 4ea2 bb3c 6286 9e3d
000000d0: 29a0 553d 09d8 93bc c3ca 8839 0513 21bc
000000e0: 32e9 453d 0b9d a2bb 40c0 923c 21d5 743d
000000f0: 2c7f d5bc 2c4c b23b 0184 96bc 7f27 1cbc
0.014476188 0.0019729305 0.037200328 -0.021113198 -0.0025162394 0.029851351 -0.018098006 0.03726215
-0.007418015 0.021476535 -0.027967859 0.035982944 0.024273796 0.003088524 -1.2824617e-06 0.008466023
-0.04049516 0.037959754 0.034414314 0.032921452 -0.01012255 -0.009115023 -0.00499751 -0.010876859
0.06647727 0.045093898 -0.019357106 -0.032528028 -0.030927114 0.05061058 0.004599414 0.0049528535
0.034723416 0.030522559 0.0029119023 0.036327746 0.04440957 0.01774551 0.026991356 0.017566206
0.07769724 0.020721044 0.019763917 -0.02817874 -0.0101232 -0.023274725 -0.105511636 0.0066127838
0.011069339 -0.021667382 0.022904541 0.07740475 0.052154694 -0.01804735 0.0002609101 -0.009831195
0.048318096 -0.0049625686 0.017913938 0.059773568 -0.026061617 0.0054412093 -0.018373491 -0.009530901

actor.6.weight f4 [2, 64]
00000000: 75d4 ce3e a82f a63d 2875 89bd 4c0e 803d
00000010: c069 85bd ebd5 93bc 2eb5 db3d 5bf0 383d
00000020: 62af bfbc 8d54 bb3b 1bd1 abbe 2c20 e3bd
00000030: c5b3 bc3e 7015 d23d 4b8c d6bc 2f64 bc3d
00000040: ada1 11bd b730 d13d 7595 75bd b285 5fbd
00000050: 2841 9ebb 0241 c43d 9ae9 413e 4761 093e
00000060: 1085 493e 25b0 13be 8110 09bd 04db 80be
00000070: bea0 2c3b fdcb edbc 21dc 933d 8c38 e5bd
00000080: 2757 4b3d 6616 c2bd 50ea a43c e8cb d0bd
00000090: 0a29 acbd c150 eabd 91f0 c83c 7863 383d
000000a0: 1215 e1bd 50f6 633c 594d bdbd 02e2 9cbe
000000b0: 3455 4cbc 88ed a8bb b0fd fbbd a38c ed3d
000000c0: 1d03 1abe 8d6d 0fbd fbdb 0b3e dbec 0bbd
000000d0: 744a 063e da77 6bbc ee13 f03d d7b7 fdbd
000000e0: 6f19 62bd 7ad5 853d 4a34 f53d 2ab3 35be
000000f0: 2503 6cbc 902c c63d aec7 8a3d a3da 8fbd
00000100: 00ea c63e fa56 80bd 8de9 30bd f929 fcbd
00000110: fa83 afbd 9664 8d3d eeb8 0cbd 1e64 e23d
00000120: f056 c53c b12f 37be 4799 89be d374 153e
00000130: 89ad 80bd 1e34 e33d bc55 b93c a748 af3d
00000140: c7f0 02be 5abd a53d 829c a4bd 59da c4bd
00000150: e226 d3bd f7b1 fc3c 68f4 c93d 9e32 d83d
00000160: f4c0 f73c 6686 69bd 37e7 343e b94c 97be
00000170: cfae 713d 5c50 a2bd 7042 85bc 2492 6cbc
00000180: 0f5d 153e a2a3 2ebe d52b 113e fe38 b9bc
00000190: 3307 d7bd 53fa 12be 794b 98bd 94b0 e7bd
000001a0: b550 19be 4b67 873e c756 26bd 288a b73c
000001b0: 8507 d83d 7e9a ef3d 4562 063d 0a9b cf3d
000001c0: 9f5c debd 65c5 7ebd 521e eabd 0ad2 36bd
000001d0: e400 393e 598d 1cbe dde6 c63d 8e1a 88bd
000001e0: 7bfd bd3d 3db8 ac3d d5e8 b83d 772e b1bc
000001f0: a9cc a83d f7fa 0bbd 5ac9 0e3e d055 773d
0.40396467 0.081145585 -0.06711799 0.06252727 -0.06514311 -0.01804634 0.10727917 0.045151096
-0.023399059 0.0057168663 -0.33557972 -0.11090121 0.36855903 0.10257995 -0.026189944 0.09198796
-0.035554577 0.1021437 -0.059956986 -0.05457086 -0.0048295446 0.09582712 0.18936768 0.13416015
0.19679666 -0.14422663 -0.033463005 -0.25167096 0.0026340927 -0.029027933 0.07219721 -0.11192426
0.04964366 -0.094769284 0.02013126 -0.10195142 -0.08406265 -0.11441184 0.024528774 0.045016736
-0.10990347 0.013913706 -0.092432685 -0.3064118 -0.012471486 -0.005155269 -0.123042464 0.1159909
-0.1504025 -0.035016585 0.13658135 -0.03416143 0.13114339 -0.014371837 0.11722551 -0.1238858
-0.055200037 0.06534858 0.11972864 -0.17744127 -0.014405047 0.09676468 0.06776367 -0.070241235
0.38850403 -0.062665895 -0.04319148 -0.12312693 -0.085700944 0.06903951 -0.03435605 0.11054252
0.024089307 -0.17889287 -0.26874754 0.14595346 -0.06283099 0.11093925 0.02262389 0.08558779
-0.12787162 0.080927566 -0.08037664 -0.09611959 -0.10310151 0.030846579 0.0986107 0.105565295
0.030243374 -0.057012938 0.17666326 -0.29550722 0.0590046 -0.079254836 -0.016267031 -0.0144391395
0.1458628 -0.17054608 0.14176877 -0.022610184 -0.1049942 -0.14353304 -0.0743627 -0.113129765
-0.14972194 0.26445994 -0.0406101 0.022404745 0.10548309 0.11699389 0.03280856 0.10136993
-0.1085751 -0.06219997 -0.114315644 -0.044633903 0.18066746 -0.15288295 0.097120024 -0.0664569
0.09276863 0.08433578 0.09028784 -0.021628601 0.08242161 -0.034174886 0.13943997 0.06038457

actor.6.bias f4 [2]
00000000: 656a 3cbd 1256 3e3d
-0.045999903 0.0464688

critic.0.weight f4 [64, 26]
00000000: 11da c8bc 36f0 12be 2710 313d 561f b2bd
00000010: 72d7 0c3c 6abc 573d ba15 f5bb c462 af3c
00000020: f73c d9bc 8ab9 cabd 37ba fabc e3b1 1bbd
00000030: 2c5d 63bc ba48 c5bc 0401 8b3c d856 39bd
00000040: 1678 353e 2bdc 763d 9c77 56bd 7def 913c
00000050: 0a35 8a3e 5df7 a1bc 132d 9a3d 0912 d0bc
00000060: 8eb9 f1bb 4c34 abbd 5309 2d3e 4ad9 03be
00000070: c4ef ab3e 2ba8 5a3d d8c7 4ebd 513c 73bd
00000080: d4e2 a2bc be0c 2d3d 34c4 70bc fb1a 0d3d
00000090: d31a c03c 277e 123e 863a 9dbc 91a9 b4bb
000000a0: e6eb 313b 9ba6 e3bc 870d 7e3d 0e66 313e
000000b0: 84f9 0d3d 9524 ed3b 229e aabd 4871 38bd
000000c0: 1fd9 88bd 9be7 a23c 8f87 103e 6a3f 40bc
000000d0: f45f b53d 84ca 56bb 7857 923c 2efb 31bd
000000e0: 6f68 e03b ce82 1d3c 632e c8bb 7e88 873c
000000f0: 308b 14bd 51b5 87bd 9181 82bc fb3c 863c
00000100: 052c d7bb f730 4abc 9a5e 8237 9553 1dbd
00000110: 3b96 dc3d 7412 263d ba6d 0abe 5b5e 3e3d
00000120: 7149 00bd 6107 b9bc 9f6e 253e bd50 f9bd
00000130: a897 0c3e fdb5 093e 4005 c63d 5de5 19bd
00000140: a038 0d3c daba f7bc a1fe 9fbd 7c4a d7bc
00000150: e9f3 babc 475a aabd deaa bfbc 4267 ccbc
00000160: f327 1b3d 1d8f bf3d 3d69 e1bc 38c4 adba
00000170: 6445 a4ba 0a58 debb edfc babc 08cb 0d3d
00000180: 2938 c53d aa04 df3b de22 ad3c 9788 04bd
00000190: 3515 02be a406 4e3d d601 13be d4aa 6ebe
000001a0: ff02 9b3d 2cba aebc 00d8 19be eb08 89bd
000001b0: 1d0c 9b3b 098a 9ebc b84a 5d3c cbb4 70bd
000001c0: aa79 c33b 03b7 843d b0ff f63c 087f 5ebc
000001d0: 18c7 24bd 1bd6 75bc 9aa8 c73c b6c5 473c
000001e0: 0500 153d 8dee c2bc 09cf 8e3d f0a1 833d
000001f0: e762 a93d 73ee c53c 9ebc 27be 7f57 0a3a
00000200: 381c 3b3e 3799 42bd 7d62 163e ffd7 83bb
00000210: f3ab 86bd 5a9b b6bd 9196 c53c b20f e13c
00000220: 000b adbb dc80 4bbd 4679 84bd 753a a4bd
00000230: da76 a33b b1d5 4abd ea5f 163b 9141 24bc
00000240: 7a71 b7bc 2fc7 f2bc 501e c0bd e5ca a1bd
00000250: 54bd 7d3c 2e8f c13d f68c 65be 00ad 34bd
00000260: 1f2e bc3c 82ad f9bd cd87 8dbe 1d05 24bd
00000270: e857 343d a516 fdbd 5dba 37bd 9ce0 b73d
00000280: a549 5cbd 67cc e03c 1512 c03d 2de1 c8bd
00000290: 23f8 10bd 7500 e6bd f670 44bc 2d4c 473c
000002a0: d93f adbc 4327 d8bc 00ba 243b 1137 27bd
000002b0: 3dce 49be 984a 183d 0c48 403e 1dee 5dbd
000002c0: 4c15 cabd 0de8 07bd 5b6d 21bd 4465 e03d
000002d0: 1385 5fbe 9f00 a3bd dcc9 bb3c 8d68 01be
000002e0: d429 b5bb 95d0 bd3d a031 123b 05ec 41bc
000002f0: d1da 18bc 60ed c43c 2fbc efbc 4d0b 0c3c
00000300: 0279 343b 71ea a5bc 80b7 68bc a487 23bc
00000310: ea31 2a3b db87 d3bc 454f 15bc 7b4d edbb
00000320: 1618 8f3b 57ee 89bc 4ad0 97bc 3c65 94bb
00000330: 42c0 d33d 8abc 713e 9b94 9c3d 7dbf d1be
00000340: 6e6a 34bd 95dd 03be 527a aa3d eb27 1dbe
00000350: b2ea a9bc 4066 833d 20f7 c23a 3791 5dbd
00000360: f9c9 28bd a552 dbbd 6164 dcbc 99d1 babc
00000370: 8c2b ca3b b0c1 bebc f12c a13b dbe8 6abd
00000380: 9be8 76bd 62eb e4bc 8a81 ca3d d11f 8cba
00000390: de75 9fbc 2df3 93bc 1268 92bd 126a 483e
000003a0: 0d26 9abe c709 a2bc ad13 7f3d f109 1d3d
000003b0: caa6 a93c d3dc 2dbd 3959 8ebd 33d0 a33c
000003c0: 8258 60bd ea87 d3bb 3958 91bc 9781 a43c
000003d0: 1fa0 ca3c aa1d 133d 5be4 41bc 8e2a 16bc
000003e0: dd68 5abb 366f ccbc afda 30be ce4c c3bc
000003f0: e0e2 f3bd af92 933b 011c c3bd f78a 08bc
-0.024518045 -0.14349446 0.043228295 -0.08697383 0.008596288 0.05266992 -0.0074793966 0.0214094
-0.026518328 -0.0989867 -0.030606372 -0.038011443 -0.013877194 -0.02408253 0.016968258 -0.045248836
0.1772159 0.060268562 -0.052360162 0.017814392 0.2699359 -0.019771272 0.075281285 -0.025399225
-0.007376856 -0.08359584 0.16898088 -0.12875858 0.33581364 0.053383034 -0.050483555 -0.059383694
-0.01988355 0.04224848 -0.014695216 0.03444956 0.02345029 0.14305936 -0.019192945 -0.005513378
0.0027148663 -0.027789405 0.06202462 0.17324087 0.034661785 0.007237027 -0.08330943 -0.04502991
-0.066820376 0.019885829 0.14114211 -0.011733869 0.08856192 -0.0032774517 0.017863974 -0.043452434
0.006848387 0.009613706 -0.0061090454 0.016544577 -0.036265552 -0.0662638 -0.015930923 0.0163865
-0.006566527 -0.012340776 1.554126e-05 -0.03840979 0.10770842 0.040544942 -0.1351842 0.046476703
-0.03132004 -0.022586526 0.1615548 -0.12173603 0.13729727 0.1344833 0.0966897 -0.037572253
0.0086194575 -0.030240465 -0.078122385 -0.026280634 -0.022821384 -0.08318 -0.023396906 -0.02495158
0.037879895 0.093534686 -0.027516002 -0.001325733 -0.0012532887 -0.0067853974 -0.022825683 0.034617454
0.09629852 0.006805976 0.02113479 -0.032356825 -0.12703402 0.0502993 -0.14356169 -0.23307353
0.07568931 -0.021329008 -0.15023804 -0.06691154 0.0047316686 -0.01935293 0.013506584 -0.058766168
0.005965431 0.06480219 0.030151218 -0.013580091 -0.040228933 -0.01500466 0.024372388 0.012193134
0.03637697 -0.02379539 0.069730826 0.064273715 0.08270817 0.024161553 -0.16380545 0.000527732
0.18272483 -0.0475094 0.14686008 -0.0040235515 -0.065757655 -0.0891635 0.024119647 0.027473304
-0.0052808523 -0.049683437 -0.064684436 -0.08018962 0.0049885334 -0.0495202 0.0022945353 -0.010025398
-0.022392977 -0.029635994 -0.09380782 -0.07900027 0.015487034 0.094511375 -0.22417054 -0.0441103
0.022971211 -0.12191297 -0.2764267 -0.04004394 0.044029146 -0.12357835 -0.044855464 0.08978388
-0.05378117 0.027441217 0.09378449 -0.09808574 -0.03539289 -0.11230556 -0.011989823 0.012164158
-0.021148609 -0.026385909 0.0025135279 -0.040824 -0.1970758 0.037180513 0.18777484 -0.05418216
-0.09867343 -0.033180285 -0.03941093 0.10956815 -0.21828108 -0.07959103 0.022923402 -0.12637539
-0.005528668 0.092682995 0.002230741 -0.011836057 -0.009329514 0.02403897 -0.029264538 0.008547616
0.0027537947 -0.020253392 -0.014203906 -0.00998107 0.0025969693 -0.025821617 -0.009113138 -0.0072419024
0.004366885 -0.016837282 -0.018531937 -0.0045286696 0.10339405 0.23607078 0.07645532 -0.40966406
-0.04404681 -0.12877496 0.08324112 -0.15347259 -0.020741794 0.06415987 0.0014874674 -0.054093566
-0.04120824 -0.107091226 -0.026903333 -0.022805022 0.006169742 -0.023285717 0.0049186875 -0.057350975
-0.060280424 -0.02794427 0.09887989 -0.0010690634 -0.019465383 -0.018060291 -0.07148756 0.19571713
-0.30107155 -0.019780053 0.062274624 0.03833956 0.020709414 -0.042446923 -0.069506116 0.019996738
-0.054771908 -0.006455411 -0.017742263 0.020081325 0.024734555 0.03591696 -0.011834229 -0.009165419
-0.0033326664 -0.024955373 -0.17270921 -0.023840334 -0.11908507 0.00450357 -0.09526826 -0.008333913

critic.0.bias f4 [64]
00000000: 9c12 743d d714 143e 9c88 673e 5f17 43bd
00000010: 13ae 78be fae9 cabd d7e3 1ebe cbcd 803d
00000020: a48a 43be b1b1 8f3e e201 bebd 98ff 98bd
00000030: 754a 5cbe 75c9 a1bd 3874 53be 5fa5 ca3b
00000040: e566 d23d 7a61 13be 8662 0b3d 303a 61be
00000050: 1307 09be afb5 64be b25a 6e3e 5495 163e
00000060: 1aeb 253e 5cf8 25be 6733 5e3d bbae 363e
00000070: 0090 8fbd ff67 773e 42ae 4ebe 98ea 793e
00000080: 4614 8bbe 4144 313e 7ddd 98bc e109 3d3e
00000090: 78c1 2bbe d96d 5dbe edad e5bd 1a70 07be
000000a0: 5e14 c9bd be4c 8abd 44de adbe e1b5 cc3d
000000b0: dc22 bb3d c398 9b3e 00b0 0f3e e2f4 40be
000000c0: 7ef6 153c bfdd 4fbd e12a dbbb 8619 6cbe
000000d0: ff70 0b3e 2328 ec3d ddf1 9dbe aa75 683d
000000e0: cf07 88be 4bfb 3ebd fcc7 e5bd 541f dabd
000000f0: 8e08 643e b94a 3ebc 742a a83b 6ce2 533e
0.05958806 0.14461075 0.22610706 -0.04762971 -0.24285154 -0.09907909 -0.15516602 0.06289252
-0.19095856 0.28065255 -0.09277703 -0.07470626 -0.21512778 -0.07899753 -0.20649803 0.0061842646
0.10273532 -0.14392653 0.034029506 -0.21994853 -0.13381605 -0.22334932 0.23276785 0.14705402
0.16202965 -0.16208023 0.05424824 0.17840092 -0.07009888 0.24160765 -0.20183662 0.24405897
-0.27163905 0.17311193 -0.018660301 0.184608 -0.16773021 -0.21623935 -0.11214814 -0.13226357
-0.09818338 -0.06752919 -0.33958638 0.09995628 0.09137508 0.30389985 0.14031982 -0.18843415
0.009153007 -0.050748583 -0.006688461 -0.23056611 0.13617323 0.11531093 -0.3084859 0.05675284
-0.26568457 -0.04662637 -0.112197846 -0.106505066 0.22268888 -0.011614495 0.005132014 0.20691842

critic.1.weight f4 [64]
00000000: 4bbb 7a3f 0006 7b3f 4f09 853f e121 793f
00000010: 589c 6a3f d45c 7b3f 7e3f 723f b359 853f
00000020: 39c3 763f 2986 833f 2d32 733f 2337 643f
00000030: 27ad 893f dd2d 623f 668d 6e3f 8bf8 633f
00000040: 35b1 813f 1f95 633f a84e 6e3f a280 803f
00000050: ad7d 703f bc7b 6e3f 3a33 843f ea34 913f
00000060: dc9e 803f e6af 693f 9b84 6d3f 355f 823f
00000070: e5fe 723f b13e 7e3f 4c12 863f 74b6 853f
00000080: 3140 963f 976b 873f 1cc4 7e3f ad52 723f
00000090: 692b 8c3f 2e8e 783f c5c6 6b3f be65 683f
000000a0: d3a3 653f bfbb 813f f1a8 993f 3add 713f
000000b0: c2e2 6c3f 43d7 843f 5fb4 713f edfe 843f
000000c0: ab90 723f 364f 773f ef36 6c3f ca98 7b3f
000000d0: 4b1a 773f c431 733f 9921 9d3f 2df8 723f
000000e0: d5d6 943f e300 843f 009c 613f 0765 893f
000000f0: 66c6 7f3f f994 773f 52ad 6d3f a3bd 853f
0.97942036 0.9805603 1.0393466 0.9731732 0.9164481 0.9818852 0.9462813 1.0417999
0.96391636 1.0275317 0.9499844 0.8914663 1.0755967 0.8835123 0.93184507 0.8905112
1.0132204 0.88899416 0.9308877 1.0039256 0.93941766 0.93157554 1.0328133 1.1344273
1.004848 0.91284025 0.92780465 1.0185305 0.9492019 0.9931441 1.0474334 1.0446305
1.173834 1.0579709 0.9951799 0.94657403 1.0950748 0.9709195 0.92100173 0.90780246
0.897031 1.013542 1.2004682 0.9447819 0.92533505 1.0378193 0.9441585 1.0390297
0.94751996 0.9660524 0.9227132 0.9828001 0.96524495 0.9499781 1.2275878 0.94909936
1.1628062 1.0312771 0.8812866 1.0733956 0.99912107 0.9671169 0.9284259 1.0448498

critic.1.bias f4 [64]
00000000: 2780 da3c 464a b13a f5e7 3a3d 52cf a0bb
00000010: fc40 853c ec3e 163c ff7a 61ba 2ec9 823d
00000020: 27d5 a23c daa7 7b3d 0cd8 adbc 5a72 a5b9
00000030: 7a4a 913d 0c5a 8dbd a5ae 83bd c77b 0b3d
00000040: dbe0 f93c 7052 07bd f48a b13c 0b69 f23c
00000050: d3de 8f3c 13a1 c13d f44f 9c3d a5dc e13d
00000060: e1f4 113d 839a 03bc 87a4 80bc e71b 4db9
00000070: 3002 07bd 6cbe 953d 61b4 f9bc d9ed d73d
00000080: 556a 0e3c 5963 023d 116b ba3d 60a1 1bbd
00000090: 22a8 4e3d ab60 ec3c fa98 093d db63 d33d
000000a0: c65e 27bc 0329 5b3d bf27 0e3d 12a5 6d3b
000000b0: 8583 843c ea79 de3d 8293 82bc 5349 a83d
000000c0: 22d6 2bbd 0dce 34bc 4897 533b fb84 6f3c
000000d0: f100 d93b 2536 193d 2aff 773d c901 3d3b
000000e0: c3f5 0bbe ef31 b83d a660 15bd 1d08 7cbc
000000f0: b8f0 ae3c ac6a 7b3c 10df 12bb d2f5 423d
0.026672436 0.0013526164 0.045631368 -0.004907527 0.016266339 0.009170275 -0.00086013967 0.06386028
0.01987703 0.061439373 -0.021221183 -0.0003155645 0.070942834 -0.06901941 -0.06429795 0.03405359
0.030502727 -0.033037603 0.021672703 0.029591104 0.017562306 0.094545506 0.07632437 0.11028413
0.035633925 -0.008032444 -0.015703453 -0.00019560718 -0.03296107 0.07311711 -0.03048152 0.10543413
0.008692344 0.031833027 0.091024525 -0.037995696 0.050453313 0.028854689 0.033593155 0.1032178
-0.010215467 0.05350591 0.034705874 0.003626172 0.016175995 0.10863097 -0.015939478 0.082171105
-0.04195226 -0.011035454 0.0032286216 0.014619107 0.0066224267 0.037405152 0.060546078 0.0028840175
-0.1366797 0.08993899 -0.036469124 -0.015382794 0.021355018 0.015345257 -0.0022410788 0.047597714

critic.3.weight f4 [64, 64]
00000000: 9252 843d fdaf 633d 4c71 de3d 7f0f 4fbc
00000010: a32c 643d d84f 573d 2867 e63d 4391 593d
00000020: 3c81 ad3d 73ff 293c ba8e 2abd b8a3 413d
00000030: bf06 333b 0bed 90bd dc42 68bc ca9d 373c
00000040: 4e6e e4bd 9cdc f03c ba3f 833c d4f9 f73c
00000050: f6af 1ebd 7fd0 7bbd 9d48 b6bd f576 693c
00000060: 7e89 933d c070 acbc 4685 05bd 1d01 d0bc
00000070: 1771 10be 9be0 afbd 2977 d3bc 624e 87bd
00000080: 3169 0cbb 174c 5f3d a59c f2bb e861 51bd
00000090: 9899 cd3d 08cb 32bd 8f2b 683d b28c 20bd
000000a0: 434b 89bc 7045 973d 1e21 35bc 5725 d1bc
000000b0: 0718 5abd 070e a63d 2fc4 433d cd25 ed3a
000000c0: a428 fdbb 16f2 edbc 40b2 293c 8a0f 773d
000000d0: c409 3a3d fcea 82bd cfbc 0f3d fd55 233b
000000e0: 56ae ae3d 6c35 d4bd 3c28 ccbd 7b1b ab3d
000000f0: a4d5 eebd 5c76 113b 14f5 19be b2c7 da3d
00000100: 4f72 a03d a7ff 33bd d074 023c 5668 5abd
00000110: c7f6 823c 87bf deba c1cc a6bc bdaf 343c
00000120: 388f caba 8480 14bd 6c68 b33d 00cd 99bd
00000130: 6bfe af3c fbd0 3dbd c09c eb3b 288a e43d
00000140: 02cd a8bc cca6 013d 1ee1 813d 55af 3e3e
00000150: 7224 1f3c 078f bcbc b0ad 0ebd 8244 61bc
00000160: 84c5 f63d ac44 a2bb 156b 823d f812 90bd
00000170: c7fb 93bd 5c74 d93c 1938 1e3d 68b8 bbbd
00000180: 0ff0 60bb caf3 283c 5f48 c3bd 7ef1 933d
00000190: 0021 183e 72b3 65bb 4521 dd3b 5c8d 0d3d
000001a0: 814a 07bd 91f8 abbb 6661 e53d d88a 973c
000001b0: fa48 5bbd fcd3 c0bd c449 7f3d 8ad5 8a3d
000001c0: 2f8e c1bd 12a2 3ebd 5a5e 29bd a2a6 8a3d
000001d0: c893 593d e0e6 6dbb ef99 333c 3d16 adbc
000001e0: 9519 a63c 2de8 12be ff92 3d3d 3e57 e93c
000001f0: da47 a23d f881 383d 5671 e2bd 377f fabd
00000200: 7dd4 a23d 57f8 4dbc 4860 693d 8617 103e
00000210: 6006 72bc 367f b8bc 2c7a 84bd 3b66 213d
00000220: 9b6e 8cbd 57ab c13d f865 383d 1df2 85bc
00000230: bf17 9bbd 05fd ffbd b451 ac3d b92f 28bc
00000240: 93db afbd 5fd0 c639 e6e0 6d3d eac2 babb
00000250: 5974 fbbd dc68 bcba c765 373d 9081 e93d
00000260: acce ad3d 676f 533d 5178 71bd f316 833d
00000270: a406 1abd 36ac 32bb bd83 92bd 0759 293d
00000280: d016 9d3c 87f7 6c3d 15db 03be 584d f73d
00000290: 814b 5fbd 200b 293d dcbe c43c b926 3fbd
000002a0: 1ae5 7a3d 2c0b 1d3d 675f 01bd a52b 4a3d
000002b0: e779 1aba 4160 d03d 6b99 2bbd 9267 debd
000002c0: 7662 ccbb 5a6d e83c ef42 4e3d 1386 99bd
000002d0: 4e59 713d 80b0 1e3d 64e4 b6bd 9d27 7bbc
000002e0: 2e17 09be c644 5f3d 3f6e 7bbd 716d e2bd
000002f0: 8e9b 683d f7e3 24bd 633b 7dbd d6b7 a03d
00000300: 61e1 8dbc a4b2 25bb 605a 01bd 9291 a83c
00000310: 61ef 603d b8b2 9fbd 6298 f2bb 1269 d2bd
00000320: d734 9cbc 8025 c1bd 29cd 0c3d ce53 ddbd
00000330: 59d8 4fbd 2cd8 c83d 6600 483c 3bf1 673d
00000340: 0d8e b7bd 1f02 70bd e432 a93c 49c1 60bc
00000350: f892 993d fe45 fab9 b603 22bc e9b1 73bc
00000360: b8fc 1a3d 93d2 a73d 6fd1 b73d 4557 703d
00000370: 0719 15be 5025 f13d f1bd 2a3d ce8b 0ebe
00000380: a49f d13c adce 913d 8cb9 fbbd 9b2c 1abb
00000390: 76b0 b53d 37aa ab3c 05fa c83c dd93 853b
000003a0: 1c2a 3f3c 9418 563d 6753 cf3d b36c bd3c
000003b0: c569 d5bd b2ea 8b3d 62cd 35bb 2a16 223e
000003c0: 88af 07bc 5840 473c 53c1 9abd 10c6 7b3d
000003d0: b1cd a93d 38e2 2b3d 50da c73d f8c0 903c
000003e0: 5547 cc3d 84b7 81bd 578c d8bd 3807 31bc
000003f0: 7dc5 f63c 3ddf 49bd dd12 c9bd 8e24 5cbd
0.064610615 0.055587757 0.108614534 -0.012637972 0.05570663 0.05256638 0.11250144 0.053117048
0.08471915 0.010375845 -0.04164002 0.047275275 0.0027317253 -0.07076462 -0.014176097 0.011207053
-0.111538514 0.02940207 0.016021598 0.030270495 -0.03874203 -0.061478134 -0.08900569 0.014249553
0.07203959 -0.021049857 -0.032597803 -0.025391156 -0.1410564 -0.08587762 -0.025813656 -0.06606747
-0.0021425004 0.054515924 -0.0074039274 -0.05111876 0.10039061 -0.043650657 0.056682166 -0.039196678
-0.01675952 0.07386291 -0.011055259 -0.0255305 -0.05324557 0.08108144 0.047794517 0.001809293
-0.007725792 -0.0290461 0.0103574395 0.060317554 0.04541947 -0.06392476 0.03509217 0.002492308
0.08529346 -0.10361752 -0.099686116 0.08354851 -0.116618425 0.0022195792 -0.15034896 0.1068262
0.07834303 -0.04394498 0.007962421 -0.05332216 0.015986813 -0.0016994335 -0.020361306 0.011028227
-0.001545406 -0.036255375 0.08760151 -0.07509804 0.02148362 -0.046341877 0.007190317 0.11159164
-0.020605568 0.03165321 0.06341766 0.18621571 0.009713279 -0.02301742 -0.03483361 -0.013749244
0.12049392 -0.004952034 0.063680805 -0.07034868 -0.07225757 0.026544742 0.038627718 -0.09166032
-0.0034322774 0.01031203 -0.09535288 0.07223795 0.14856339 -0.0035049585 0.006748351 0.03455864
-0.033030037 -0.0052481373 0.11200218 0.018498823 -0.053536393 -0.09415433 0.062326208 0.067790106
-0.094509475 -0.04654128 -0.041349746 0.06770064 0.05311945 -0.0036300942 0.010961994 -0.021128768
0.02027587 -0.1434638 0.046282765 0.028483983 0.07923861 0.045045823 -0.11056773 -0.122312956
0.07950685 -0.012571416 0.056976587 0.14071473 -0.014772028 -0.022521596 -0.06468615 0.039404135
-0.06857034 0.094565086 0.04501912 -0.0163508 -0.075728886 -0.124994315 0.08414021 -0.010265284
-0.08586802 0.00037920751 0.058075808 -0.005699505 -0.12278051 -0.0014374512 0.044774797 0.11401665
0.08486685 0.051619913 -0.058952633 0.064008616 -0.03760399 -0.002726329 -0.07154033 0.04134467
0.019175917 0.057853248 -0.12876542 0.12075299 -0.054515366 0.041270375 0.02401679 -0.04666779
0.061253645 0.038340732 -0.031585123 0.04935803 -0.00058927987 0.10174609 -0.041894358 -0.10859598
-0.0062373234 0.028372455 0.0503568 -0.07496276 0.05892306 0.038742542 -0.08930281 -0.015329269
-0.13387749 0.054508947 -0.061384436 -0.110560305 0.056788974 -0.040256467 -0.061824214 0.07847564
-0.017319383 -0.002528348 -0.03158033 0.020577226 0.05491579 -0.0779776 -0.0074034194 -0.10273947
-0.019068165 -0.09430981 0.034375343 -0.10807 -0.050743435 0.098068565 0.012207126 0.05662654
-0.08962641 -0.058595773 0.02065415 -0.013717958 0.07498735 -0.00047735864 -0.00988858 -0.01487396
0.037838668 0.08194461 0.08975493 0.058676977 -0.14560328 0.11774695 0.04168505 -0.13920519
0.025588818 0.071194984 -0.1229125 -0.0023525122 0.08871548 0.020955188 0.024533281 0.0040764646
0.0116677545 0.052269533 0.101233296 0.02312312 -0.104205646 0.06831874 -0.0027740826 0.15828767
-0.008281596 0.012161337 -0.07556405 0.061468184 0.08291186 0.041963786 0.09758437 0.01767014
0.09974543 -0.06333831 -0.10573643 -0.010804944 0.030123467 -0.049285162 -0.09818051 -0.0537458

critic.3.bias f4 [64]
00000000: 5e43 8a3d ec81 43bd bffb 69bd 079b cbbd
00000010: 0d82 a8bd 6b24 ab3d 822f 1e3e cf4b debb
00000020: 755b 94bc 9354 24bd 7ad1 ce3d 917e 453d
00000030: 2c0c c83d 543d 443c 0a47 463c 2a8a 193c
00000040: a1a3 4d3d c534 98bb c5cf 9d3c dc67 16bd
00000050: 5686 143e 2100 a2bd 83c8 1ebe 7dfa 4abd
00000060: 8a10 23bd d6de e73d 1fc5 c93c 334b 373d
00000070: ee19 703c 0a5a 3cbd b88c c2bc c880 49bd
00000080: 6856 2b3d 9627 983d 4274 80bd 0e7b ab3d
00000090: bc25 c43a fefb 173d 317b 51bd 3ef7 4b3c
000000a0: f1aa c73d 1df3 be3d dd77 cebd ca08 683d
000000b0: a31c 533c 96f2 69bb 2277 f03c 5058 fdbd
000000c0: 80f2 f73d edda 30bd 5780 ad3d 3c03 97bd
000000d0: 4492 a33c 9240 883d a3e6 a0bc bd1a 043c
000000e0: b59b 973d 1545 993d d596 8ebd 8d35 d43d
000000f0: 72d5 82bd 06d1 533c dc90 a8bd 2123 90bd
0.067511305 -0.047731325 -0.05712485 -0.099416785 -0.0822793 0.083565556 0.1544781 -0.0067839394
-0.018110016 -0.04011972 0.10098548 0.048216406 0.097679466 0.011977512 0.012101898 0.00937132
0.050204877 -0.0046449625 0.019264111 -0.03672014 0.1450437 -0.07910181 -0.15506177 -0.04955529
-0.039810695 0.113217995 0.024630127 0.04474945 0.01465462 -0.045984305 -0.02374874 -0.04919508
0.04183045 0.074294254 -0.062721744 0.0837308 0.0014964859 0.037105553 -0.051142875 0.012449084
0.09749401 0.09323714 -0.10081456 0.056649007 0.0128852455 -0.003569757 0.029353682 -0.1237036
0.121068 -0.043177534 0.084717445 -0.07373664 0.019967206 0.06652941 -0.019641226 0.0080630155
0.07402746 0.074838795 -0.06962363 0.103617765 -0.06388368 0.012928253 -0.08230755 -0.0703795

critic.4.weight f4 [64]
00000000: 00e3 8d3f 161a 803f ff96 903f cf75 823f
00000010: c1b8 843f c11e 953f 32ce 8e3f 1cbc 833f
00000020: 86f5 853f 760c 943f 0ac3 823f e9ec 913f
00000030: bc18 9a3f 9cc8 8c3f 7bb1 7e3f 6b7b 8a3f
00000040: 9e93 8b3f 2c11 923f 4ae6 883f 0c04 8c3f
00000050: df66 953f 41b3 853f 8e5c 803f 904e 8b3f
00000060: 39c9 8c3f 671d 8b3f c992 983f 3196 813f
00000070: 1aed 9f3f ffd0 8f3f 1a93 823f f7dc 833f
00000080: 25e9 983f 4db4 963f 3f46 913f 2daf 913f
00000090: c7e6 893f c222 8b3f b2cd a73f ffe3 8e3f
000000a0: c897 823f ce9b 843f be68 823f c042 893f
000000b0: aa9c 953f aee5 873f 82f1 833f 8594 883f
000000c0: 8f7a 8b3f 5263 8a3f 5ddd 803f 4055 903f
000000d0: 983f 8d3f a654 893f 24ac 843f 90f7 913f
000000e0: d3c8 823f 3588 7e3f 843a 8e3f 6018 843f
000000f0: dd96 9e3f 4ca7 913f 2759 833f 10e8 903f
1.10849 1.0007961 1.129608 1.0192202 1.0368882 1.165001 1.1156676 1.0291781
1.0465553 1.1566303 1.0215771 1.1400424 1.2038798 1.0998721 0.99489564 1.0818914
1.0904424 1.141149 1.0695279 1.0938735 1.1672019 1.0445329 1.0028245 1.088335
1.0998908 1.0868348 1.1919795 1.012396 1.2494233 1.1235656 1.0201142 1.0301808
1.194615 1.1773773 1.1349562 1.1381584 1.0773553 1.0869982 1.3109648 1.1163329
1.020257 1.0360048 1.0188215 1.0723495 1.1688435 1.0616968 1.0308077 1.0670325
1.0896777 1.081156 1.0067555 1.1276016 1.1035032 1.0728958 1.0365033 1.1403675
1.0217537 0.99426585 1.1111608 1.0319939 1.238979 1.137918 1.0261582 1.132082

critic.4.bias f4 [64]
00000000: 83fb 953d 1da6 46bc 5375 d33d 7426 34bc
00000010: 9841 4fbc 9df2 b23d 1b95 be3d 461f 4dbc
00000020: dd9c 39bc 5612 a23d 6a17 48bc d95c cebb
00000030: 965e 0c3e 489e a33d ceb9 81bc f4ad ffbb
00000040: 0271 233c 8ccb db3d 1c85 803d 3e36 543c
00000050: c38b 7c3d 6cf5 a9bc abe3 18bc 9f40 80bc
00000060: 3489 d7bc 665b 993d 4c5b 913d b47c 663c
00000070: 977a cd3d c47e 243d bd29 9e3c d915 08bb
00000080: 00c3 0b3e cddb 0d3c 7653 c53d eee6 13bd
00000090: 7e5b 903b dff4 433d 5a3a 283d e4be 8d3d
000000a0: 33bc 6c3c 91a2 52bc 16e3 d2bc e77b 40bc
000000b0: 8de9 b93d 10de c0bb d294 ee3c 14f2 2bbc
000000c0: 52a8 a73d c1e6 843d ec42 2e3b 648a 7c3d
000000d0: c645 a33d 31cc 5e3c 46eb f2ba 0b4c 543d
000000e0: d5ae 49bc f5e4 8f3c b21f e539 9244 c0bb
000000f0: 37d9 053d e81d a63d 659c 76bc 1fd2 643d
0.07323363 -0.012124565 0.10325112 -0.010995496 -0.012649916 0.08737681 0.09305783 -0.012519663
-0.011328903 0.079136536 -0.012212614 -0.0062976894 0.13707957 0.07989174 -0.015835669 -0.0078027193
0.009975674 0.10732183 0.062753886 0.0129523855 0.061656725 -0.02074691 -0.009331624 -0.015655814
-0.02631054 0.07488136 0.070974916 0.0140678175 0.10033148 0.040159956 0.019307012 -0.0020764975
0.13648605 0.008658362 0.096350595 -0.036108904 0.004405438 0.04784095 0.041071273 0.06921175
0.014449167 -0.012856142 -0.025743049 -0.011748291 0.090777494 -0.005885847 0.029123697 -0.010494728
0.081864014 0.06489325 0.0026590182 0.061655417 0.079722926 0.013598488 -0.0018533252 0.051830333
-0.01230975 0.01756523 0.00043701899 -0.005867549 0.032677855 0.08111173 -0.015051936 0.05586445

critic.6.weight f4 [1, 64]
00000000: b097 e43d 6d31 8ebd cca0 0d3e 70f7 7b3d
00000010: 30ae cabd c001 263e a6c6 4e3e 94b3 e6bd
00000020: 0e53 e43c 9451 2e3e 481b dfbd 48c6 0fbe
00000030: c9d9 333e d5b1 2e3e 447a d9bd c177 29be
00000040: 9668 36be 6f8d 1e3e 89a9 013e 2f37 febd
00000050: df20 633e 0f7f 21be 673e 04bd ec80 d9bd
00000060: 4ce4 0dbe d213 383e c909 8c3e 7f40 03be
00000070: f34e 363e c72a e0bd a589 78bc 7822 373d
00000080: ed0a 243e df7f 0cbe 5907 453e d95a 0ebe
00000090: 46be bbbd 3f8f a43d ae02 4abd 0e32 223e
000000a0: 180e b1bc 5ec2 65bd 9c25 6cbd 2f44 3cbe
000000b0: e7d9 823e abcd 68bd cd07 2bbd 14d9 22be
000000c0: debc 373e 6952 383e 6a18 aabd 300c 763e
000000d0: deea 283e 5d56 e3bd ca3a 113d 74b5 00be
000000e0: f6ed 133d d7b5 303d 598d 5bbe 9c38 b4bd
000000f0: e947 9dbe 2606 3b3e dd5c c2bd d673 513e
0.111617446 -0.06943021 0.1383087 0.06151527 -0.09896505 0.16211605 0.20192966 -0.112647206
0.027871635 0.17023307 -0.10893875 -0.14040482 0.17563547 0.17060025 -0.106190234 -0.16549589
-0.17813334 0.1548364 0.12662329 -0.12412869 0.22180508 -0.15771125 -0.032286074 -0.10620293
-0.1385662 0.17976311 0.27351215 -0.12817572 0.17803554 -0.10945659 -0.015169536 0.044710606
0.16019793 -0.13720654 0.19241084 -0.13901843 -0.09167151 0.080351345 -0.04931896 0.15839407
-0.021613166 -0.056093566 -0.057653055 -0.18385385 0.2555687 -0.056836765 -0.041755486 -0.15903121
0.17943141 0.18000187 -0.08305438 0.24028087 0.16495845 -0.11100457 0.035456456 -0.12569219
0.03611561 0.043142166 -0.21440639 -0.0879986 -0.30718926 0.18264064 -0.094903685 0.20454344

obs_mean f4 [26]
00000000: 319c 8b3b 94b5 15be 854e 213b 1dc7 d1bd
00000010: 428a 8e3a 129a 523b da55 4e3b f33c 973a
00000020: a2a1 3539 daeb 5f3d 4113 1d39 056a 8e3d
00000030: d643 d437 70f7 90b8 323b 8338 a44a de38
00000040: 2cc7 5d3b e9c6 9639 9630 6a3c f3c1 5fba
00000050: 1f18 97bb 023d 5aba 21ef 253f 34ec 09b9
00000060: 5979 57ba d423 b439
0.004260563 -0.14620048 0.0024613452 -0.10243056 0.0010874944 0.003213529 0.0031484277 0.001153855
0.00017321718 0.054668285 0.0001497986 0.06953815 2.5303958e-05 -6.912544e-05 6.257593e-05 0.00010599688
0.003384064 0.0002875843 0.01429381 -0.00085356756 -0.0046110298 -0.0008325131 0.64818007 -0.0001315333
-0.00082196813 0.0003435897

obs_var f4 [26]
00000000: 930a f33e 2023 0341 92ea e03e 5a38 0241
00000010: cbc3 4f3f d789 4f3f 9948 193f 5676 093f
00000020: c890 073b b1c9 d040 5ed2 143b 36be e840
00000030: 0606 db3c 50d2 db3c d324 3a3c 457d 343c
00000040: 6317 893d 7062 c93a c105 043c b446 1f3b
00000050: 8a68 213e cfae 4d3d 9d05 ba3d 8d18 813b
00000060: 7580 7f3b b267 f63e
0.47469005 8.196075 0.43928963 8.138758 0.8115813 0.810697 0.598764 0.5369619
0.0020685662 6.5246205 0.0022708396 7.273219 0.02673627 0.026833683 0.011361319 0.011016195
0.06693914 0.001536442 0.008058012 0.0024303617 0.15762535 0.05021554 0.09083102 0.0039396943
0.0038986478 0.48125988
