src/taser/locomotion/models/balance.pth (torch, 57566 bytes, 22 tensors)

log_std f4 [2]
0	0xbf950eaf	-1.1645106
1	0xbf957fc4	-1.1679616

actor.0.weight f4 [64, 26]
0	0xbd971010	-0.073761106
1	0x3da4e36f	0.08051192
2	0x3dcfba7c	0.10142991
3	0xbda5ed6a	-0.08101924
4	0x3e5203a4	0.20509201
5	0xbc8913cb	-0.01673307
6	0x3da6f529	0.08152229
7	0xbd4b9877	-0.04970595
8	0x3e005989	0.12534155
9	0xbc0edb19	-0.008719229
10	0x3e08177e	0.13290212
11	0x3db651ce	0.08902322
12	0xbb185ee4	-0.0023249919
13	0xbd314a05	-0.04328348
14	0xbde7c0de	-0.11316083
15	0x3dc1f2b0	0.09470117
16	0xbe016630	-0.12636638
17	0x3cb3ccba	0.021948207
18	0xbd8bccd7	-0.068261795
19	0x3bbc5ce3	0.0057483776
20	0x3d9ed4f7	0.077554636
21	0x3cae498e	0.021275308
22	0xbd205327	-0.0391418
23	0xbe115524	-0.14192635
24	0xbbff0b7c	-0.0077833515
25	0xbbb79317	-0.0056022513
26	0xbe49a35d	-0.19691224
27	0x3daacc57	0.08339756
28	0x3c63d848	0.013906546
29	0x3d9519ff	0.07280349
30	0x3cc03328	0.023461893
31	0x3d3dff62	0.04638613
32	0x3bdb4196	0.006691168
33	0xbd39c1b4	-0.045350745
34	0x3d9de5fa	0.0770988
35	0xbded5eb5	-0.115903296
36	0xbd88c5f7	-0.06678384
37	0xbde2863d	-0.1106076
38	0xbde43dac	-0.111445755
39	0x3c0a6c6a	0.0084486995
40	0xbe1351d5	-0.14386685
41	0xbdac530e	-0.08414279
42	0x3e31fa2d	0.1738059
43	0x3e1942c2	0.14966872
44	0x3c94f17d	0.018181557
45	0x3e3a4755	0.18191274
46	0x3e12e1fe	0.14344022
47	0x3dbcf798	0.09226912
48	0xbd14f2da	-0.036364414
49	0xbd0215eb	-0.031759184
50	0x3e6e8eb0	0.23296618
51	0xbe2064c8	-0.15663445
52	0xbd1150ef	-0.035477575
53	0xbe3c1c44	-0.18370157
54	0xbe16e6f5	-0.1473654
55	0x3e14b21d	0.1452107
56	0x3ca6fb56	0.020383518
57	0x3dc773b2	0.09738864
58	0x3e52d0ff	0.20587538
59	0xbd4de0cf	-0.050263222
60	0xbc3d7a08	-0.011564739
61	0x3e0fb161	0.14032508
62	0x3de0712e	0.10959087
63	0xbde1f93e	-0.11033867
64	0x3e3afb2d	0.18259878
65	0x3cf09194	0.029366292
66	0x3d93135e	0.071814284
67	0x3d77a854	0.060463265
68	0xbe6e01b9	-0.23242845
69	0xbdc101be	-0.094241604
70	0xbba834cd	-0.0051332475
71	0xbd6f57a7	-0.0584332
72	0x3b27a9e4	0.002558344
73	0x3d346585	0.04404213
74	0xbcbb5399	-0.02286701
75	0xbe3eeb52	-0.18644455
76	0xbe042109	-0.12903227
77	0xbcb4e1b0	-0.022080272
78	0x3c02e115	0.007988234
79	0xbd24e58b	-0.04025797
80	0xbe0f2f1e	-0.13982818
81	0xbcfc29ff	-0.030781744
82	0x3d28df83	0.041228782
83	0x3e237435	0.15962298
84	0x3d5c8940	0.05384183
85	0x3d6c8d83	0.057752144
86	0x3e1bbc35	0.15208514
87	0xbb4696a1	-0.0030302184
88	0xbc9e5ccc	-0.019331358
89	0x3dc86267	0.09784394
90	0x3e0832fd	0.133007
91	0x3e1191ec	0.14215821
92	0x3c4f91d8	0.012669049
93	0xbe722624	-0.23647362
94	0x3ddfe84d	0.1093298
95	0xbe6b3d38	-0.22972572
96	0x3e0eaa8d	0.13932247
97	0x3e644e0b	0.22295396
98	0xbdd870dd	-0.10568402
99	0x3d2dc22a	0.042421497
100	0xbc5cd668	-0.013478853
101	0xbd65ed83	-0.056134712
102	0x3d1f95e0	0.03896129
103	0x3d526801	0.051368717
104	0xbd548395	-0.0518833
105	0xbdd62df7	-0.10457986
106	0xbd5ab9cb	-0.053399842
107	0x3d6f7a23	0.058466088
108	0xbd4cf7dc	-0.050041065
109	0xbd8bb697	-0.068219356
110	0x3dd3fc6f	0.10350882
111	0xbdac00c7	-0.08398586
112	0x3d9168bd	0.07100055
113	0x3dbabcab	0.09118017
114	0xb9c68bda	-0.000378697
115	0xbe22c3cf	-0.15895008
116	0x3d32563d	0.043539274
117	0x3d3e3148	0.046433717
118	0xbdcab8ef	-0.098985545
119	0xbdf7aeb1	-0.120938666
120	0xbe64d804	-0.22348028
121	0xbd488d3b	-0.048962813
122	0x3e200d37	0.15630041
123	0x3e192564	0.1495567
124	0x3dbbaf7d	0.09164331
125	0x3dba5bb2	0.09099521
126	0xbe25a1ad	-0.16174956
127	0x3e07fcad	0.13279982
128	0xbcf6c0fe	-0.030121323
129	0x3df1d3e3	0.11807992
130	0xbde9b29b	-0.114110194
131	0xbd327191	-0.043565337
132	0xbd9b39e0	-0.07579398
133	0x3e1da1a0	0.15393686
134	0x3c9cd9b6	0.019146781
135	0x3e0ab125	0.13544138
136	0x3d0ea4f0	0.034825265
137	0x3cc327d2	0.023822699
138	0xbd517e8d	-0.05114608
139	0x3db12c05	0.08650974
140	0x3d965d69	0.07342035
141	0xbd91eb9b	-0.07125016
142	0x3e156c52	0.14592102
143	0x3daf138d	0.08548651
144	0x3de618dd	0.11235211
145	0x3ca00114	0.019531764
146	0xbe220e0e	-0.15825674
147	0x3da04602	0.07825853
148	0x3e0c6567	0.13710557
149	0xbdfbf423	-0.12302425
150	0x3dbd52e6	0.09244327
151	0xbe0cbfad	-0.13744994
152	0x3d79c640	0.06098008
153	0xbdf47c7b	-0.11937805
154	0x3e00c93b	0.12576763
155	0x3e23f23d	0.16010375
156	0xbe03595a	-0.12827054
157	0xbd93fd50	-0.0722605
158	0xbdd0a05f	-0.10186838
159	0x3e2ca15b	0.16858427
160	0xbc7e7533	-0.015530872
161	0xbdcac0bc	-0.099000424
162	0xbdd4ffd0	-0.10400355
163	0xbc8625da	-0.01637547
164	0xbb864714	-0.0040978286
165	0xbddaf1d5	-0.10690657
166	0xbdd87d19	-0.105707355
167	0x3dc019f6	0.09379952
168	0xbbd29380	-0.006426275
169	0xbcce09cb	-0.025151154
170	0x3d785dd5	0.06063636
171	0xbd597096	-0.053085886
172	0xbc439ade	-0.011938779
173	0xbe3a169b	-0.18172686
174	0x3c67bb8b	0.014143835
175	0xbe512aa4	-0.20426422
176	0x3dd5e875	0.10444728
177	0x3e179e03	0.1480637
178	0xbd87e804	-0.0663605
179	0x3df84a4a	0.121235445
180	0x3dedc1cf	0.11609232
181	0xbdc08c42	-0.09401752
182	0xbe20f3ed	-0.1571805
183	0xbb66011f	-0.0035095883
184	0x3d84cabc	0.06483981
185	0xbe02f135	-0.12787326
186	0xbdd1838d	-0.102301694
187	0xbd82c6f5	-0.06385604
188	0xbc53013f	-0.012878715
189	0xbd881236	-0.066440985
190	0x3c5c5ee2	0.013450356
191	0xbdae6102	-0.085145965
192	0xbd6b2d34	-0.057416156
193	0x3d9a7c32	0.075432196
194	0xbd8e1720	-0.069380045
195	0xbe36b21b	-0.1784138
196	0xbddd82ad	-0.1081594
197	0x3e3373e6	0.1752468
198	0x3e38c3e5	0.18043478
199	0x3d5918d1	0.053002182
200	0xbc811079	-0.015754925
201	0xbc00cce2	-0.007861348
202	0xbd11ce81	-0.035597328
203	0x3e1b3edc	0.15160698
204	0x3dc6b35f	0.09702181
205	0xbdcb5e86	-0.09930138
206	0xbd3a2b0b	-0.045451205
207	0x3d3c80b3	0.046021175
208	0x3dd0763e	0.10178803
209	0xbd88a5fa	-0.066722825
210	0x3decbb37	0.11559146
211	0xbda21256	-0.079136536
212	0xbdfffcc6	-0.124993846
213	0xbcd36a74	-0.025807597
214	0x3e2a817a	0.16650954
215	0x3d55ca79	0.052195046
216	0x3dd22414	0.102607876
217	0x3e03e4f9	0.12880315
218	0x3dc7d7ad	0.09757934
219	0xbdc10851	-0.09425414
220	0xbd5951a4	-0.053056374
221	0x3da043a0	0.078253984
222	0xbdad5fd8	-0.08465546
223	0xbdda7e71	-0.10668648
224	0xbd3946aa	-0.045233406
225	0x3e39185f	0.18075703
226	0xbdf7375e	-0.12071107
227	0xbcabc4f6	-0.020967942
228	0xbd29c1f9	-0.041444752
229	0xbcaf5a14	-0.021405257
230	0xbc4e5f2b	-0.012595932
231	0xbd2a20bb	-0.04153512
232	0xbe9fdb54	-0.31222022
233	0xbd9c1406	-0.07621007
234	0x3d53c55a	0.05170188
235	0x3de02c95	0.10946003
236	0x3d1f3426	0.038868092
237	0x3ddc9f2b	0.107725464
238	0x3e63f6f2	0.22262171
239	0xbc2efdf4	-0.010680664
240	0xbdbd3efc	-0.09240529
241	0xbd012581	-0.031529907
242	0x3d8c6b47	0.06856399
243	0xbd9b860b	-0.07593926
244	0x3e0b1810	0.13583398
245	0x3c0c95de	0.008580653
246	0xbdd756f0	-0.10514629
247	0x3e21067d	0.15725131
248	0xbd2387a7	-0.03992429
249	0xbe172914	-0.14761764
250	0x3e6c432c	0.23072499
251	0x3e1629ae	0.14664337
252	0xbe0b264d	-0.1358883
253	0x3e227343	0.15864281
254	0x3d7431d5	0.059617836
255	0xbe29ed1f	-0.16594361

actor.0.bias f4 [64]
0	0xbd12d5b6	-0.035848342
1	0x3e0323d8	0.12806642
2	0xbdc435cd	-0.09580574
3	0xbe2e83dd	-0.1704249
4	0x3d9eff1b	0.07763501
5	0x3d946ee8	0.07247716
6	0xbe10e91b	-0.14151423
7	0xbca79eca	-0.020461459
8	0x3e25a27c	0.16175264
9	0x3e0c8407	0.1372224
10	0x3e098b50	0.1343205
11	0x3de449b1	0.11146868
12	0x3ce22128	0.0276037
13	0xbdd437b9	-0.10362191
14	0x3c95b702	0.018275741
15	0xbcaddd4a	-0.021223683
16	0xbbac42a8	-0.0052569695
17	0xbe4c5a0e	-0.19956228
18	0x3de59175	0.11209384
19	0xbe1a07cd	-0.15042038
20	0xbe392ac7	-0.18082725
21	0x3dab81a1	0.08374334
22	0xbcf92961	-0.030415239
23	0xbe09379e	-0.13400123
24	0x3e4db1a8	0.20087302
25	0x3c927990	0.017880231
26	0x3cb36c10	0.021902114
27	0x3d88080a	0.06642158
28	0x3d46f1de	0.048570506
29	0xbc136adc	-0.008997645
30	0x3dd36d14	0.103235394
31	0xbe86e1ae	-0.26344055
32	0x3cfac6fc	0.030612461
33	0x3c8166e1	0.015796127
34	0xbdc8c6d2	-0.09803547
35	0xbdcea444	-0.10089925
36	0xbd39f104	-0.045395866
37	0x3d94f4c1	0.072732456
38	0xbe016c07	-0.12638865
39	0x3cd729be	0.026265021
40	0xbe0837cb	-0.13302533
41	0x3e1e6d0a	0.15471283
42	0xbd614e48	-0.055006295
43	0x3dd06fa2	0.10177542
44	0xbe4e9680	-0.20174599
45	0x3cf8e5cf	0.030383019
46	0xbe43d1e1	-0.19123031
47	0xbe260285	-0.16211899
48	0x3ba397db	0.004992468
49	0x3d73c7ea	0.059516825
50	0x3d88db00	0.06682396
51	0x3e42ce61	0.1902404
52	0x3dc7cd37	0.097559385
53	0xbcb4bc95	-0.02206258
54	0x3e29cc08	0.16581738
55	0x3dd015c4	0.101604015
56	0xbe116057	-0.14196907
57	0x3e3f3929	0.18674149
58	0xbe484b56	-0.19559988
59	0x3e5c56fd	0.21517558
60	0xbd96ab4e	-0.073568925
61	0x3d656063	0.056000125
62	0xbd78f39a	-0.06077919
63	0xbddd64d4	-0.10810247

actor.1.weight f4 [64]
0	0x3f809f20	1.0048561
1	0x3f8269a0	1.0188484
2	0x3f80d6aa	1.006551
3	0x3f835a4c	1.0261931
4	0x3f8085be	1.0040815
5	0x3f7951d1	0.97390467
6	0x3f727d41	0.9472237
7	0x3f7ebe06	0.995087
8	0x3f81c1e5	1.0137297
9	0x3f85be0a	1.044862
10	0x3f731e04	0.94967675
11	0x3f82f16d	1.0229927
12	0x3f7aef84	0.9802172
13	0x3f76b84e	0.96374977
14	0x3f7ebaf5	0.99504024
15	0x3f7e5524	0.99348664
16	0x3f79fbcb	0.9764983
17	0x3f778364	0.9668486
18	0x3f7c3177	0.9851298
19	0x3f7fe93e	0.99965274
20	0x3f7e13ed	0.99249154
21	0x3f7cff32	0.988269
22	0x3f7cd528	0.9876275
23	0x3f807d7a	1.0038292
24	0x3f82961b	1.0202059
25	0x3f79719a	0.9743897
26	0x3f7ad900	0.97987366
27	0x3f7f3286	0.9968647
28	0x3f7fbba2	0.9989568
29	0x3f7d2249	0.9888044
30	0x3f812cb7	1.0091771
31	0x3f816a28	1.0110521
32	0x3f7fe83d	0.9996374
33	0x3f8073eb	1.0035375
34	0x3f779eb3	0.9672653
35	0x3f800aed	1.0003334
36	0x3f8488a2	1.0354197
37	0x3f820536	1.015784
38	0x3f796066	0.9741272
39	0x3f82526d	1.0181404
40	0x3f804362	1.0020564
41	0x3f8568bc	1.0422587
42	0x3f77000e	0.9648446
43	0x3f81ed23	1.0150493
44	0x3f757ada	0.9589058
45	0x3f7bf4ca	0.98420393
46	0x3f79a5f7	0.9751887
47	0x3f828eb6	1.0199802
48	0x3f7e3de0	0.99313164
49	0x3f7d0ae7	0.9884476
50	0x3f71db70	0.9447546
51	0x3f83139b	1.0240358
52	0x3f7bb583	0.9832384
53	0x3f820cc8	1.016015
54	0x3f83f151	1.0308019
55	0x3f817701	1.0114442
56	0x3f7e68f5	0.993789
57	0x3f8431f9	1.032775
58	0x3f84da03	1.0379032
59	0x3f824452	1.01771
60	0x3f815947	1.010537
61	0x3f7afe5c	0.9804437
62	0x3f80261f	1.0011634
63	0x3f806e8d	1.0033737

actor.1.bias f4 [64]
0	0x3cca7314	0.024713077
1	0x3ca56ac9	0.02019252
2	0x3a62739c	0.0008638443
3	0x3c0eeb6a	0.008723119
4	0x3be76b91	0.0070623835
5	0xbc813f90	-0.01577738
6	0xbd17ffc8	-0.037109166
7	0x3cfc7d83	0.030821567
8	0x3c334671	0.0109420875
9	0x3cf3630d	0.029710317
10	0xbcde4227	-0.027131153
11	0x3cc9cf2e	0.024634924
12	0xbcad51e8	-0.02115722
13	0xbca3a65f	-0.019976793
14	0xbba8105e	-0.0051289042
15	0x3c8c1414	0.017099418
16	0x3c60fb64	0.013731811
17	0xbc9ae1ee	-0.01890656
18	0xbc4bd709	-0.012441405
19	0xbafc05b6	-0.0019227776
20	0xbce21664	-0.027598567
21	0x3c109dc9	0.008826681
22	0xbd0674f1	-0.032826368
23	0x3d4dac76	0.0502133
24	0x3c9e4051	0.019317778
25	0xbcdb1b4e	-0.026746418
26	0xbc8c8740	-0.017154336
27	0xbac25db6	-0.0014828953
28	0xbb949bd1	-0.0045351763
29	0xbbf1563c	-0.0073650163
30	0xb9609df9	-0.00021421154
31	0x3c1978ef	0.009367212
32	0x3c9620a2	0.018326107
33	0x3c4cc09b	0.012497093
34	0xbc342077	-0.010994068
35	0xbc97f601	-0.018549921
36	0x3ce37396	0.027765077
37	0x3ba27d21	0.004958764
38	0x3b48e837	0.003065599
39	0x3bba1822	0.0056791464
40	0x3c8eb582	0.017420534
41	0x3cbcadd9	0.023032116
42	0xbcbb789b	-0.022884658
43	0x3c34b5e6	0.011029696
44	0xbba31e86	-0.004978004
45	0xbbbea7d7	-0.005818348
46	0xbc3c264a	-0.011483738
47	0xbc8c05ba	-0.017092574
48	0x3c1c4363	0.009537551
49	0xbc700f44	-0.014652077
50	0xbd0e6150	-0.034760773
51	0x3c713719	0.014722609
52	0xbba8af98	-0.0051478855
53	0x3c8f34c7	0.01748122
54	0x3cb2f5b7	0.021845682
55	0x3c5042d8	0.012711249
56	0xba42cb77	-0.00074308313
57	0xbbd9d7c5	-0.006648036
58	0x3ac92cf2	0.0015348478
59	0x3c7eef0a	0.015559921
60	0x3c0279a1	0.007963569
61	0xbc1fa59f	-0.009744077
62	0x3c142a5c	0.009043302
63	0x3c97d740	0.018535256

actor.3.weight f4 [64, 64]
0	0x3d9ab8e0	0.07554793
1	0x3e1a7587	0.15083896
2	0x3d1b4b82	0.037913807
3	0x3d95cd25	0.07314519
4	0xbbf05ccf	-0.0073352824
5	0xbd133a67	-0.03594437
6	0x3ca09e84	0.019606836
7	0x3e0927e7	0.13394128
8	0xbdc2abba	-0.095054105
9	0x3df4b1c8	0.119479716
10	0xbd179870	-0.03701061
11	0x3c364bde	0.011126487
12	0xbd444219	-0.047914598
13	0xbd9ad01b	-0.07559224
14	0x3dabf479	0.08396239
15	0x3d723964	0.059136763
16	0xbc2194b1	-0.009862111
17	0x3df674ed	0.120340206
18	0xbdd7eb91	-0.105429776
19	0xbd80ed63	-0.06295278
20	0xbcca0223	-0.024659222
21	0xbc82e907	-0.015980257
22	0x3d71345d	0.05888783
23	0xbd4bb2e7	-0.04973116
24	0xbd08554c	-0.03328447
25	0xbd7f1f38	-0.062285632
26	0xbd12d316	-0.03584584
27	0x3ca9d6b0	0.020732254
28	0x3df2197d	0.11821268
29	0xbcb29969	-0.021801667
30	0xbd7e2682	-0.062048443
31	0xbd530ce2	-0.051525958
32	0x3bb8d324	0.0056404043
33	0xbd2f2d72	-0.04276795
34	0x3c7160a7	0.014732516
35	0x3de7f9fc	0.113269776
36	0x3d7c4764	0.06159152
37	0x3de04498	0.10950583
38	0xbc5925a5	-0.013253604
39	0xbd9c3b96	-0.076285526
40	0xbd7303a2	-0.059329636
41	0xbc2c55b7	-0.010518483
42	0x3da253f5	0.0792617
43	0x3e1a8740	0.15090656
44	0x3ca8550c	0.020548366
45	0x3d300596	0.042974077
46	0xbd9288fa	-0.071550325
47	0xbcb3bf35	-0.02194176
48	0x3dd83f0d	0.10558901
49	0xbcbe6ad9	-0.023244308
50	0xbc88aef7	-0.016684992
51	0x3deeba74	0.11656657
52	0xbd5c8ec7	-0.0538471
53	0xbd156fa5	-0.036483426
54	0xbcd1834c	-0.025575303
55	0xbc00ed91	-0.00786914
56	0xbd38c478	-0.045109242
57	0x3e0830e0	0.13299894
58	0x3e0eb884	0.13937575
59	0x3cb10af2	0.021611664
60	0x3c1ce69c	0.009576466
61	0x3c9ec4a8	0.019380882
62	0x3d54c5f0	0.05194658
63	0x3db993e5	0.09061412
64	0xbc36c53e	-0.011155425
65	0x3dd12e1b	0.10213872
66	0x3cfe2c9d	0.031027133
67	0x3d052ccf	0.032513436
68	0xbcae71c8	-0.02129449
69	0x3dd69326	0.10477285
70	0xbdac70e5	-0.084199704
71	0x3afd9807	0.0019347676
72	0x3cff853f	0.031191466
73	0x3d93f800	0.072250366
74	0xbca6c0ae	-0.020355549
75	0x3d8678b3	0.0656599
76	0x3d91d854	0.071213394
77	0x3d2aa420	0.041660428
78	0xbd6e3ba1	-0.058162335
79	0xbdf42f25	-0.119230546
80	0x3db6455a	0.088999465
81	0xbcc10bb7	-0.023565156
82	0x3cf91546	0.030405652
83	0xbcaf1c4d	-0.0213758
84	0xbd71c649	-0.05902699
85	0xbd8a82b0	-0.06763208
86	0x3c592521	0.013253481
87	0x3dc90be8	0.09816724
88	0x3d3c7216	0.04600724
89	0x3cec6fbb	0.028861871
90	0x3ca659f4	0.020306565
91	0xbd8d44a5	-0.068978585
92	0xbd20783e	-0.039177172
93	0xbc8cab0b	-0.017171403
94	0x3e153153	0.14569597
95	0x3df88148	0.121340334
96	0x3d9c9d1d	0.076471545
97	0x3dcf8bfb	0.10134121
98	0xbd47a5d2	-0.048742123
99	0xbcb10fb8	-0.02161394
100	0xbbad977c	-0.0052975994
101	0xbdd83832	-0.105575934
102	0x3dcc2291	0.099675305
103	0xbc223655	-0.009900649
104	0x3d499609	0.04921535
105	0x3dff8fb5	0.12478582
106	0x3dde7c22	0.1086352
107	0x3d9b288e	0.075760946
108	0xbab80b83	-0.0014041517
109	0xbd6f54c2	-0.05843044
110	0x3d573fbb	0.052551012
111	0xba73da4d	-0.00093022437
112	0xbcb3e90c	-0.021961711
113	0x3df04436	0.1173176
114	0xbddf3c95	-0.10900227
115	0xbd6a55ab	-0.057210606
116	0x3da50c97	0.08059042
117	0xbc47adb7	-0.012187413
118	0xbc47f11c	-0.012203481
119	0xbcec5d3e	-0.028853055
120	0xbc950ba1	-0.018194022
121	0xbcebd89c	-0.02878981
122	0xbd047383	-0.032336723
123	0x3c8275cc	0.01592531
124	0xbd211bd4	-0.03933318
125	0xbd5ecbd5	-0.054393608
126	0xbdbf7dbb	-0.09350153
127	0xbde6662d	-0.11249957
128	0x3d856617	0.06513613
129	0xbe3cd2ba	-0.18439761
130	0xbdb7cfb8	-0.08975166
131	0xbd735c34	-0.059414104
132	0xbce29a0c	-0.027661346
133	0xbd19b580	-0.037526608
134	0xbc2f0470	-0.01068221
135	0xbdb6977d	-0.08915613
136	0x3b9c7dab	0.004775723
137	0x3bc0655b	0.0058714575
138	0x3db2d96e	0.08732878
139	0xbd9541e3	-0.072879575
140	0xbd237bda	-0.039913036
141	0xbd9a0dc2	-0.07522155
142	0xbdac7a47	-0.0842176
143	0x3c1213d9	0.008915865
144	0x3dbb4394	0.09143749
145	0xbd4fcb94	-0.050731257
146	0x3da2c0cb	0.079469286
147	0xbc33e204	-0.010979179
148	0xbc820872	-0.015873168
149	0xbc24605b	-0.010032739
150	0x3cf06a60	0.029347599
151	0x3ddd09eb	0.10792907
152	0xbc068cbb	-0.008212264
153	0x3df35e55	0.11883227
154	0x3cbb0738	0.02283059
155	0xbe1f0309	-0.15528502
156	0xbd23ddd7	-0.040006485
157	0xbdeb8713	-0.11500373
158	0x3c926ee9	0.017875152
159	0x3d3ec63d	0.046575774
160	0x38ad9ae4	8.2781335e-05
161	0x3da0b062	0.07846142
162	0x3dfbd281	0.1229601
163	0x3d7cab5c	0.06168686
164	0x3ddcc51f	0.10779785
165	0xbd42164d	-0.04738455
166	0xbd82471e	-0.06361221
167	0x3d4accb8	0.04951164
168	0x3d847d76	0.06469242
169	0x3de1b0fc	0.11020085
170	0xbdfd10fc	-0.12356755
171	0x3d35eae9	0.04441348
172	0x3da12809	0.07868964
173	0xbdc66d6b	-0.096888386
174	0xbcd2fe64	-0.025756069
175	0x3dfd0b94	0.12355724
176	0x3d944d52	0.0724131
177	0xbc4be219	-0.012444043
178	0xbd2f5d47	-0.042813566
179	0xbd5be713	-0.053687166
180	0xbdad1c43	-0.08452656
181	0x3cbb23f0	0.022844285
182	0x3c9576d4	0.018245138
183	0xbd70c8f2	-0.058785386
184	0x3e158714	0.1460231
185	0xbdff3d41	-0.12462855
186	0xbc75a1fa	-0.0149922315
187	0xbdfbfb0a	-0.12303741
188	0xbd6f2fe1	-0.05839527
189	0x3d154259	0.036440227
190	0x3de1386d	0.109970905
191	0x3da26945	0.07930235
192	0x3de196e5	0.11015109
193	0x3d1bf112	0.0380717
194	0xbda2a19a	-0.07940979
195	0x3dcf779c	0.101302356
196	0xbcd01ae7	-0.025403453
197	0x3da7f549	0.08201081
198	0x3dcf7414	0.10129562
199	0x3daf5dcf	0.085628144
200	0x3d127517	0.035756197
201	0x3d7fbedc	0.062437877
202	0xbd253753	-0.040335964
203	0x3d0cc33c	0.034365878
204	0xbd996176	-0.07489292
205	0xbe0d4e05	-0.13799293
206	0xbe0635bb	-0.13106434
207	0x3d00936e	0.0313906
208	0x3c234cc9	0.0099670375
209	0xbd13354d	-0.035939503
210	0xbd5f96ca	-0.054587163
211	0x3d6f4a1b	0.05842028
212	0xbd0c2c45	-0.034221906
213	0xbdf753b8	-0.12076515
214	0xbd308c70	-0.04310268
215	0x3d28cac6	0.041209005
216	0xbdf3797a	-0.11888404
217	0x39cc20ef	0.0003893445
218	0xbdc00374	-0.09375659
219	0x3dd74350	0.10510886
220	0x3cbf07b8	0.02331911
221	0x3db33421	0.08750177
222	0x3dac3a86	0.084096
223	0x3d31ecb3	0.043438625
224	0x3df3a9ef	0.11897647
225	0xbb6cd5b0	-0.003613811
226	0xbda5a4d3	-0.08088078
227	0xbce641b7	-0.028107507
228	0x3daeb89e	0.08531307
229	0x3d5f2428	0.05447784
230	0x3d8111bc	0.06302211
231	0xbdf00954	-0.11720529
232	0xbe1dd4c6	-0.15413198
233	0x3ccfe003	0.025375372
234	0xbd95708b	-0.072968565
235	0xbdc29d2d	-0.09502635
236	0x3c42242c	0.011849444
237	0xbdf48f30	-0.11941373
238	0xbd6b9d8b	-0.05752329
239	0x3cfefabd	0.03112542
240	0xbddfe174	-0.10931674
241	0xbdaac32e	-0.08338009
242	0x3d4e43ec	0.050357744
243	0x3b9d2657	0.00479583
244	0x3df64614	0.12025085
245	0xbd593f43	-0.053038847
246	0xbd08f60d	-0.033437777
247	0xbd8ac1fb	-0.0677528
248	0x3d903d1a	0.07042904
249	0xbd1c5b98	-0.038173288
250	0x3d94b0c3	0.07260277
251	0x3e0abda2	0.13548902
252	0xbdc20b74	-0.09474841
253	0x3d916e3a	0.07101102
254	0x3e07d72f	0.1326568
255	0x3da98c16	0.082786724

actor.3.bias f4 [64]
0	0xbd644def	-0.055738386
1	0xbd307813	-0.04308326
2	0x3d6f5281	0.05842829
3	0x3def6a6e	0.11690222
4	0x3cd9265a	0.026507545
5	0xbdef39a0	-0.11680913
6	0xbd34625d	-0.04403912
7	0xbe2942fc	-0.16529459
8	0x3d73966e	0.059469633
9	0x3d7c4072	0.061584897
10	0xbdbec7c4	-0.09315446
11	0xbdaf48f6	-0.08558838
12	0xbd95525b	-0.07291099
13	0x3d3680b5	0.04455634
14	0x3b9eff04	0.0048521776
15	0x3d86d1d2	0.06582989
16	0x3dd37b0f	0.10326206
17	0x3d8a0795	0.067397274
18	0xbd50d2bd	-0.050982226
19	0xbd0bc745	-0.034125585
20	0xbc173cbe	-0.009230791
21	0x3c77a90d	0.015115988
22	0xbd4c771e	-0.049918287
23	0xbdea23d4	-0.11432615
24	0xbd8b9cd6	-0.068170235
25	0xbdb1cc00	-0.08681488
26	0x3d9bd2e7	0.07608586
27	0xbdc92ebe	-0.098233685
28	0x3df22f8d	0.11825476
29	0x3cf1eb9b	0.02953129
30	0xbd1e4a92	-0.038645335
31	0xbd501f03	-0.050810825
32	0xbbe8672e	-0.007092378
33	0xbdf14217	-0.11780184
34	0x3d503e65	0.050840754
35	0xbd1d6409	-0.03842548
36	0x3cc1440f	0.023592023
37	0x3d3860db	0.045014244
38	0x3d8130ce	0.06308137
39	0x3d1931fb	0.03740118
40	0xbdb8a22a	-0.09015305
41	0x3da51e78	0.08062452
42	0xbd52e9fd	-0.05149268
43	0x3d0f9afc	0.035059914
44	0x3db2f353	0.08737817
45	0xbd9b2b8d	-0.07576666
46	0xbde0c437	-0.10974925
47	0x3d148f85	0.036269683
48	0xbdb73202	-0.08945085
49	0x3d10f930	0.035393894
50	0x3de7f623	0.11326244
51	0xbcbbcca1	-0.022924723
52	0x3d172122	0.036896832
53	0xbc4131b8	-0.011791639
54	0x3db8fc16	0.090324566
55	0x3c944ed5	0.018103996
56	0x3d71f5a5	0.059072156
57	0x3dc4ef1c	0.09615919
58	0x3db87644	0.090069324
59	0xbcf7a91d	-0.030232007
60	0xbd768909	-0.06018928
61	0xbd7400e2	-0.059571154
62	0xbdf75068	-0.12075883
63	0x3c84675e	0.01616257

actor.4.weight f4 [64]
0	0x3f8486aa	1.0353596
1	0x3f88b52a	1.0680287
2	0x3f86175d	1.047588
3	0x3f854481	1.0411531
4	0x3f841f57	1.0322064
5	0x3f7f2fad	0.9968212
6	0x3f81ca06	1.0139778
7	0x3f81d163	1.0142025
8	0x3f8a4ce5	1.0804716
9	0x3f830add	1.023769
10	0x3f82ae35	1.0209414
11	0x3f87e1cd	1.0615784
12	0x3f8750d4	1.0571542
13	0x3f7cec75	0.98798305
14	0x3f81ef36	1.0151126
15	0x3f81931e	1.0123022
16	0x3f80177c	1.0007167
17	0x3f80861e	1.0040929
18	0x3f7fb36d	0.99883157
19	0x3f7f87a7	0.99816364
20	0x3f881793	1.0632194
21	0x3f851df0	1.0399761
22	0x3f7c48a9	0.9854837
23	0x3f8492d9	1.0357314
24	0x3f881e51	1.0634252
25	0x3f8a0562	1.0782893
26	0x3f825d7b	1.0184778
27	0x3f835398	1.0259886
28	0x3f8835e1	1.0641443
29	0x3f819a36	1.0125186
30	0x3f856ed6	1.042445
31	0x3f859559	1.0436202
32	0x3f9409c5	1.1565481
33	0x3f832c0c	1.0247817
34	0x3f8d7124	1.1050153
35	0x3f884d06	1.0648506
36	0x3f8214c8	1.0162592
37	0x3f8641f2	1.0488875
38	0x3f88247a	1.0636132
39	0x3f8120f7	1.0088185
40	0x3f7df39c	0.99199843
41	0x3f83efda	1.0307572
42	0x3f854fc3	1.0414966
43	0x3f83d712	1.0300009
44	0x3f82dc8b	1.0223554
45	0x3f809902	1.0046694
46	0x3f7c4a0f	0.98550504
47	0x3f8241fc	1.0176387
48	0x3f802bef	1.0013407
49	0x3f849f72	1.0361159
50	0x3f886781	1.0656587
51	0x3f858068	1.0429811
52	0x3f86294b	1.0481352
53	0x3f8916ea	1.0710118
54	0x3f7dd381	0.99150854
55	0x3f7ae389	0.9800344
56	0x3f84ea81	1.0384065
57	0x3f857fd1	1.0429631
58	0x3f80fb0b	1.0076612
59	0x3f830181	1.0234834
60	0x3f877ebe	1.0585554
61	0x3f82765c	1.019237
62	0x3f84ee78	1.0385275
63	0x3f7e26e7	0.9927811

actor.4.bias f4 [64]
0	0x3d08cfb5	0.03340121
1	0x3d069874	0.032860234
2	0x3c88fa87	0.016721023
3	0x3ca42fbc	0.020042293
4	0x3c3be612	0.011468427
5	0xbc9eabc8	-0.019369021
6	0x3c1d32a8	0.009594597
7	0x3c568bb4	0.013094831
8	0x3d03e62c	0.03220193
9	0x3c8a4cfa	0.016882408
10	0x39caf04c	0.00038707478
11	0x3cf16102	0.029465202
12	0x3cc10180	0.023560286
13	0x3a711d13	0.0009197753
14	0x3bf38fd4	0.007432917
15	0x3cb20b2f	0.021733848
16	0xbc6c7097	-0.01443114
17	0x3c372526	0.0111782905
18	0x3cd7dc96	0.0263503
19	0xbca54a79	-0.020177113
20	0x3c35f61b	0.011106039
21	0x3cad76b1	0.02117476
22	0xb9a96f73	-0.00032317228
23	0x3cd0041d	0.025392586
24	0x3d04e79a	0.032447435
25	0x3d316d62	0.043317206
26	0x3c282ef1	0.010265098
27	0x3c888b9c	0.016668133
28	0xbc9f1f2b	-0.019424042
29	0x3a1417dd	0.0005649308
30	0xbc0dc4c5	-0.008652871
31	0x3d056eef	0.032576498
32	0x3d63e4b9	0.05563805
33	0xb84203a5	-4.62566e-05
34	0x3d1a2c19	0.03763971
35	0x3d24437e	0.040103428
36	0x3c5aee14	0.013362426
37	0x3c2428b1	0.010019467
38	0x3d42573a	0.047446467
39	0xbb74cd78	-0.0037353914
40	0xbc25c92c	-0.010118764
41	0x3c86bbce	0.016446974
42	0x3cdac37d	0.026704544
43	0x3bf66192	0.0075189555
44	0xbd5e90ea	-0.05433742
45	0x3b0e6bcc	0.0021731732
46	0xbcd1d3dc	-0.025613718
47	0x3c6a8b88	0.014315493
48	0x3c36c445	0.011155193
49	0x3ce3e18f	0.027817516
50	0x3d12e455	0.035862286
51	0x3ce66ff2	0.028129552
52	0x3cafe505	0.02147151
53	0x3d208617	0.039190378
54	0x3c095df9	0.008384221
55	0xbc425e16	-0.011863252
56	0x3cd0fa98	0.025510117
57	0x3c1a5727	0.009420193
58	0xbbfd0994	-0.007722089
59	0x3bf766c1	0.007550091
60	0x3d0915f2	0.033468194
61	0x3c59e937	0.013300232
62	0x3c7fa2fb	0.015602822
63	0xbb3d60f3	-0.0028896898

actor.6.weight f4 [2, 64]
0	0x3e0d7baa	0.13816705
1	0xbe03c243	-0.12867074
2	0xbd31a537	-0.04337045
3	0x3d6ba022	0.05752576
4	0xbe0b077b	-0.13577072
5	0x3c93ac78	0.018026575
6	0xbdaafa1c	-0.08348486
7	0x3db04161	0.0860622
8	0x3db54d1c	0.08852598
9	0xbd3cc3f2	-0.046085306
10	0x3e0773cf	0.13227771
11	0x3e23145c	0.15925735
12	0xbdcf2a41	-0.10115481
13	0x3db44f43	0.088041805
14	0xbb886820	-0.0041628033
15	0xbd4043b8	-0.04693958
16	0xbd113add	-0.035456527
17	0xbdb6131a	-0.08890362
18	0xbdf7d46b	-0.121010624
19	0x3e13c1cd	0.14429398
20	0x3e141c9c	0.14464039
21	0x3e0d8167	0.13818894
22	0xbddd570d	-0.10807619
23	0x3cfe5c93	0.031050002
24	0x3e13de7d	0.14440341
25	0xbda88cf8	-0.08230013
26	0xbd747c14	-0.059688643
27	0xbe0cb470	-0.13740706
28	0x3e1cb640	0.15303898
29	0xbb8143e3	-0.0039448603
30	0x3db83090	0.089936376
31	0xbda15a67	-0.07878571
32	0x3e1a524e	0.15070459
33	0x3d45d31b	0.04829703
34	0x3dd6ba2f	0.104847305
35	0xbdef3878	-0.116806924
36	0xbda52116	-0.08062951
37	0xbd0332c8	-0.03203085
38	0xbc368989	-0.011141189
39	0x3dc79f51	0.09747184
40	0x3cdba48f	0.026811866
41	0xbe0f3516	-0.13985094
42	0xbdd32d1e	-0.1031134
43	0x3df56c90	0.11983597
44	0x3d3f2395	0.046664793
45	0x3b6e7a34	0.0036388757
46	0x3d3829b7	0.044961657
47	0x3d054da1	0.032544736
48	0x3bb56e71	0.0055368473
49	0xbd80f1a7	-0.062960915
50	0xbdcdfda4	-0.10058144
51	0xbe02ff02	-0.1279259
52	0xbdcc901e	-0.09988426
53	0x3e2b8c58	0.16752756
54	0xbdd0faef	-0.10204112
55	0x3db0dd56	0.086359665
56	0xbdfbc324	-0.122930795
57	0xbcd2f791	-0.025752814
58	0x3de99e93	0.11407199
59	0xbca3a2a0	-0.019975007
60	0x3de518eb	0.11186393
61	0xbd4a1804	-0.04933931
62	0xbd409177	-0.047013726
63	0x3d9fea67	0.078083806
64	0x3b9ea376	0.0048412634
65	0xbe03325e	-0.12812182
66	0xbdac9818	-0.08427447
67	0x3e1af912	0.15134075
68	0xbd2e2dd5	-0.042524178
69	0x3cf36672	0.029711936
70	0x3c9c1e4c	0.019057415
71	0xbd30f386	-0.043200992
72	0x3de3d4a5	0.11124543
73	0xbdea7108	-0.1144734
74	0xbdde28d1	-0.10847629
75	0x3d834c6e	0.06411062
76	0xbdedd805	-0.11613468
77	0xbd8bf62a	-0.068340614
78	0x3de2f668	0.110821545
79	0x3d961395	0.07327954
80	0x3d472249	0.04861668
81	0x3dac21a9	0.08404858
82	0x3d8b8ff8	0.06814569
83	0xbd65841b	-0.05603419
84	0x3e082a49	0.1329738
85	0x3d0cbe44	0.03436114
86	0x3da93b0b	0.08263215
87	0x3d9aa70c	0.07551393
88	0x3dc29c9c	0.09502527
89	0xbe36fdcd	-0.17870255
90	0xbdd2a8b0	-0.10286081
91	0xbdf2570a	-0.11833008
92	0x3c063d25	0.008193289
93	0xbd3faea9	-0.04679743
94	0xbdc70f53	-0.0971972
95	0xbd26217c	-0.040559277
96	0x3e2055e7	0.15657769
97	0x3d21daff	0.03951549
98	0x3e016ee1	0.12639953
99	0x3ca67e64	0.02032394
100	0x3dadab59	0.084799476
101	0xbde49c4b	-0.11162623
102	0x3d607242	0.054796465
103	0xbc82a920	-0.015949786
104	0x3dc18580	0.09449291
105	0xbdbc9a61	-0.09209133
106	0xbd954182	-0.07287885
107	0x3dd15d1c	0.10222837
108	0xbcde6d51	-0.027151735
109	0x3d8bd551	0.06827796
110	0xbc9d9e6a	-0.019240577
111	0x3df1e120	0.11810517
112	0xbe05b611	-0.13057734
113	0x3d2df135	0.04246636
114	0xbd2cc0b8	-0.04217598
115	0xbd2e830e	-0.042605452
116	0xbe0cd139	-0.13751687
117	0x3bf7cbb1	0.0075621237
118	0x3df4bc42	0.1194997
119	0xbdc6b776	-0.09702961
120	0xbcbbc9af	-0.022923319
121	0x3d8938c4	0.0670028
122	0xbdd9d83a	-0.10636945
123	0x3d9dbbcb	0.07701834
124	0x3d8e11a8	0.069369614
125	0x3de86a5e	0.11348413
126	0xbe20d5cf	-0.15706562
127	0xbdbb3c3c	-0.09142348

actor.6.bias f4 [2]
0	0x3d73ecab	0.059551876
1	0xbd18bda7	-0.03729024

critic.0.weight f4 [64, 26]
0	0x3d8cfe4b	0.0688444
1	0x3deb198b	0.11479481
2	0x3d8584c9	0.065194674
3	0x3d5ae56b	0.053441446
4	0x3c7e412d	0.015518469
5	0x3e2757a9	0.16342033
6	0x3d3ed729	0.04659191
7	0xbe4ea83f	-0.20181368
8	0x3d94214a	0.07232912
9	0x3dba348f	0.09092056
10	0x3daf2adb	0.08553096
11	0x3d3b92a4	0.045794144
12	0xbd222569	-0.03958646
13	0x3dc74513	0.09729972
14	0x3dc7bd73	0.097529314
15	0xbdb31a4a	-0.087452486
16	0x3e588554	0.2114461
17	0xbe12462c	-0.14284581
18	0x3d854b7d	0.06508539
19	0x3d9c26ba	0.07624574
20	0x3e18195c	0.14853424
21	0x3e0be03e	0.1365976
22	0x3cb0975e	0.021556552
23	0x3e5440b2	0.20727804
24	0xbce4ef4e	-0.02794614
25	0xbe8f05a1	-0.27933982
26	0x3debad58	0.11507672
27	0xbe0e4a2c	-0.13895482
28	0xbc84ff9f	-0.01623517
29	0xbe3965fc	-0.1810531
30	0xbd1cddc8	-0.038297445
31	0x3e13274e	0.14370462
32	0x3c6a5d94	0.014304537
33	0xbd0396df	-0.032126304
34	0xbdb05af7	-0.086111
35	0xbcb83c9c	-0.022489838
36	0x3d139a73	0.036035966
37	0xbdef02d8	-0.11670464
38	0xbd5d75dd	-0.05406748
39	0x3e19c7c9	0.15017618
40	0x3d7cb907	0.061699893
41	0xbc39b2a8	-0.011334099
42	0x3e01073b	0.12600414
43	0x3e16e2db	0.14734976
44	0xbcff54e0	-0.031168401
45	0x3d9b6e25	0.07589368
46	0x3e158093	0.14599828
47	0xbd8af727	-0.06785422
48	0x3e0fe870	0.14053512
49	0xbd450c92	-0.04810769
50	0x3b58ceba	0.0033082203
51	0xbdfd119a	-0.12356873
52	0xbe2e31b4	-0.17011148
53	0xbd3c746b	-0.046009462
54	0x3e449987	0.19199191
55	0xbd18fc40	-0.03734994
56	0x3df8a37e	0.12140559
57	0x3d40cdc9	0.047071252
58	0xbdc4d8c4	-0.09611657
59	0xbcd6e50a	-0.026232261
60	0xbcf78a7c	-0.030217402
61	0xbe46cdcd	-0.19414444
62	0xbdafb3c0	-0.085792065
63	0x3d5a4444	0.05328776
64	0xbdf668e5	-0.12031726
65	0x3d589347	0.05287483
66	0xbe475e71	-0.1946962
67	0xbd294220	-0.041322827
68	0x3d46b378	0.048511
69	0x3dc3e43e	0.09565018
70	0x3db51d4a	0.08843477
71	0xbe07996d	-0.13242121
72	0x3da9266d	0.08259282
73	0x3d7f5f89	0.06234697
74	0xbcaca359	-0.021073984
75	0x3d6517c6	0.055930875
76	0xbd5c2ea0	-0.053755403
77	0x3bfc3417	0.0076966393
78	0x3cc32103	0.023819452
79	0xbe0c3774	-0.13693029
80	0x3e34cb0b	0.1765558
81	0x3e331071	0.1748674
82	0x3dd36a1e	0.103229746
83	0x3e0c7a6b	0.13718574
84	0x3e0800ac	0.13281506
85	0xbc0519bf	-0.008123814
86	0xbda10b1c	-0.07863447
87	0xbd07d081	-0.03315783
88	0xbe4df1ea	-0.20111814
89	0x3d053fc6	0.032531522
90	0xbdada401	-0.08478547
91	0xbdd45e4a	-0.10369547
92	0xbd109b85	-0.035304565
93	0x3dab23cb	0.08356436
94	0xbe005739	-0.12533273
95	0x3d5df607	0.054189708
96	0x3db173c8	0.08664662
97	0x3d814063	0.06311109
98	0xbd5d1a44	-0.053980127
99	0xbb8f1346	-0.0043663112
100	0x3d0d679d	0.03452264
101	0xbdb786bb	-0.08961245
102	0xbe3814eb	-0.1797673
103	0x3c720e9b	0.01477399
104	0xbe0f6abc	-0.1400556
105	0x3cd45490	0.025919229
106	0x3d8b5cdb	0.0680482
107	0xbdcdc329	-0.100469895
108	0x3d8e62ac	0.06952414
109	0xbdd448a6	-0.10365419
110	0x3db517b6	0.08842413
111	0x3cb29535	0.021799663
112	0xbd9becbd	-0.076135136
113	0xbd7e188e	-0.062035136
114	0xbdd8ab74	-0.10579577
115	0xbd9fd267	-0.07803803
116	0x3cee28c5	0.029072175
117	0xbc6776e1	-0.014127464
118	0x3cf2dc97	0.029646201
119	0xbb2258b1	-0.0024772102
120	0xbe10478f	-0.14089797
121	0xbd6ecc46	-0.05830028
122	0x3e2cfbc8	0.16892922
123	0xbdb7af77	-0.08969014
124	0xbe5b079e	-0.21389624
125	0xbca9fd2b	-0.020750603
126	0xbae309b6	-0.001732162
127	0x3d89e8b0	0.06733835
128	0xbe1deb5f	-0.15421818
129	0xbddd89d1	-0.10817302
130	0x3e4f6362	0.20252755
131	0xbe3e84a9	-0.18605293
132	0xbe0c38b6	-0.13693509
133	0xbdd1baab	-0.10240682
134	0x3d2741d6	0.04083427
135	0xbdb9ac4f	-0.090660684
136	0x3e26d711	0.16292979
137	0x3d3180db	0.043335777
138	0x3d0d9215	0.034563143
139	0xbd3bd7f5	-0.04586025
140	0xbcadae9c	-0.021201424
141	0x3a652fbf	0.00087427715
142	0xbe338254	-0.17530185
143	0x3dbb0efe	0.09133719
144	0xbcbc3936	-0.022976499
145	0xbc0e8946	-0.008699721
146	0xbe008796	-0.12551722
147	0x3e28e56e	0.1649377
148	0x3e7c5102	0.24640277
149	0x3df41100	0.11917305
150	0xbe02e6c7	-0.12783347
151	0x3de16a8f	0.110066526
152	0xbce9b4e1	-0.028528633
153	0xbe13c6eb	-0.1443135
154	0xbe4372d9	-0.1908678
155	0xbd23b825	-0.039970536
156	0xbdd5b17d	-0.10434244
157	0xbd62b799	-0.055350874
158	0x3e07f549	0.13277163
159	0x3e1dd46b	0.15413062
160	0x3dca075c	0.09864685
161	0x3e3f5b7a	0.1868724
162	0xbc121581	-0.00891626
163	0x3e56bbe2	0.20970109
164	0xbd8bc593	-0.06824794
165	0x3c295891	0.010336057
166	0xbce3dd88	-0.027815595
167	0xbd812a8e	-0.06306945
168	0x3c0931df	0.008373707
169	0xbc74f81f	-0.014951735
170	0xbd89d3dc	-0.06729862
171	0x3ca0dd45	0.01963676
172	0x3e2202d4	0.15821391
173	0x3d7390ee	0.059464388
174	0x3d846253	0.06464066
175	0xbd546851	-0.051857296
176	0xbe15e691	-0.14638735
177	0xbe333777	-0.17501627
178	0xbe3017c0	-0.1719656
179	0x3e31d0b4	0.1736477
180	0x3df873e8	0.12131482
181	0xbd71394f	-0.058892544
182	0xbce49a81	-0.027905704
183	0x3d2a4dfa	0.04157827
184	0x3c68e9ba	0.014215881
185	0x3daade07	0.083431296
186	0x3c36950e	0.011143936
187	0x3e0b0e24	0.13579613
188	0xbda9811b	-0.08276578
189	0x3dbce715	0.09223763
190	0xbbdcd891	-0.006739684
191	0x3baaf8ca	0.0052176462
192	0x3d5817e8	0.052757174
193	0xbcb8d351	-0.022561701
194	0x3c9c09d7	0.01904766
195	0x3c7bde24	0.015372787
196	0xbd5bebf0	-0.053691804
197	0x3c93380b	0.01797106
198	0xbe033e2d	-0.12816687
199	0x3e270cbf	0.16313456
200	0xbe3481b8	-0.17627609
201	0xbdf51235	-0.11966363
202	0xbd9f40db	-0.07776042
203	0xbc3d5f53	-0.011558372
204	0xbd9a667a	-0.07539077
205	0xbd33191d	-0.04372512
206	0xbd0f2f52	-0.034957238
207	0x3e03eb29	0.12882675
208	0xbe5e75b7	-0.21724592
209	0xbad04c1e	-0.0015891825
210	0xbe4b2714	-0.19839126
211	0xbd4e585d	-0.05037724
212	0xbd1269bf	-0.03574538
213	0xbe12820d	-0.14307423
214	0x3cc1a9e4	0.02364058
215	0x3d79d4dd	0.060994018
216	0x3e0a848b	0.13527124
217	0xbd064494	-0.032780245
218	0x3d111bb4	0.03542681
219	0x3dbfeb86	0.093710944
220	0xbd57605d	-0.052582134
221	0xbd979282	-0.07400991
222	0xbe24015b	-0.16016142
223	0x3d2f02fc	0.042727455
224	0x3d5193e5	0.051166434
225	0x3e2da2b4	0.16956598
226	0xbbb46a2c	-0.0055058207
227	0xbe1f0e1f	-0.1553273
228	0x3c733c76	0.014845958
229	0xbdd8b455	-0.105812706
230	0x3e082bb9	0.13297929
231	0x3e093416	0.13398775
232	0xbd66f3b7	-0.05638477
233	0xbdda2871	-0.10652245
234	0x3dabaa1f	0.083820574
235	0xbd2ae110	-0.041718543
236	0x3e624782	0.2209759
237	0xbd1d927c	-0.038469777
238	0xbdd6ccd0	-0.10488284
239	0xbe254400	-0.16139221
240	0x3dc1c5ba	0.094615415
241	0xbd3cf5f7	-0.046133008
242	0x3dc637ea	0.096786335
243	0xbc83cb47	-0.016088141
244	0xbde8fa77	-0.113758974
245	0x3d1c5b0a	0.03817276
246	0xbdcbb484	-0.0994654
247	0xbdf3c9de	-0.119037375
248	0xbdeb527e	-0.114903435
249	0x3d917dd5	0.07104079
250	0xbbc3ac21	-0.005971447
251	0xbdf8da40	-0.12151003
252	0x3e3b2c9d	0.18278737
253	0x3d169272	0.036760755
254	0xbe283512	-0.16426495
255	0xbdc8b63b	-0.09800383

critic.0.bias f4 [64]
0	0xbd26f01c	-0.04075633
1	0x3d00dd2e	0.031460933
2	0x3e1740af	0.14770769
3	0xbe121138	-0.14264381
4	0xbcf36799	-0.029712485
5	0x3d413358	0.047168106
6	0x3e7d6fd6	0.24749693
7	0xbe392c4e	-0.18083307
8	0xbe5ea860	-0.21743917
9	0xbd53ab1e	-0.051676862
10	0x3e7f5781	0.24935724
11	0x3c2b29bd	0.010446963
12	0x3e1db52f	0.15401147
13	0xbd03fe5c	-0.032224998
14	0x3e87a128	0.2649014
15	0x3da2e688	0.079541266
16	0x3e50f6f6	0.20406708
17	0x3e187c07	0.14891063
18	0xbcb55741	-0.022136332
19	0xbd51d036	-0.051223956
20	0xbe6ea2c2	-0.23304275
21	0x3e0cf1f6	0.13764176
22	0x3dc93639	0.09824795
23	0xbe22999d	-0.15878911
24	0x3e2f633a	0.17127696
25	0x3ce12cff	0.027487276
26	0x3dc72ce4	0.09725359
27	0xbcd4d715	-0.025981465
28	0xbe48beb3	-0.19603996
29	0xbcac7c36	-0.021055322
30	0xbe42f9ac	-0.19040555
31	0xbde18feb	-0.11013778
32	0xbbd8460f	-0.0066001485
33	0x3dff16b0	0.12455499
34	0x3d884675	0.066540636
35	0xbd648f2a	-0.055800594
36	0xbc94cf89	-0.018165367
37	0x3e572cd7	0.21013199
38	0xbe66651d	-0.22499509
39	0xbda51a2c	-0.080616325
40	0x3deab20c	0.11459741
41	0x3c1d49e4	0.009600136
42	0xbda84c08	-0.08217627
43	0x3e255798	0.16146696
44	0xbd504bf8	-0.0508537
45	0xbe09f2e3	-0.1347156
46	0xbe09ba1a	-0.13449898
47	0xbe3759f1	-0.17905404
48	0x3e827652	0.25480896
49	0xbe85abdc	-0.2610768
50	0x3d5a3cb3	0.053280544
51	0x3d2e7314	0.042590216
52	0xbd4cd2e3	-0.050005805
53	0xbcf7a73c	-0.03023111
54	0x3ddccfa7	0.10781794
55	0xbe106567	-0.14101182
56	0xbcd885b6	-0.026430946
57	0xbe1b9bfc	-0.15196222
58	0xbe36419c	-0.17798465
59	0x3e07a0d7	0.1324495
60	0x3e0d2ca7	0.13786565
61	0xbe80d527	-0.25162622
62	0x3e1c7a3f	0.15281008
63	0xbda65505	-0.08121685

critic.1.weight f4 [64]
0	0x3f77b388	0.9675832
1	0x3f6cdfcd	0.9252899
2	0x3f82da41	1.0222856
3	0x3f832034	1.0244203
4	0x3f74e569	0.9566255
5	0x3f846968	1.0344667
6	0x3f829785	1.020249
7	0x3f72d33e	0.9485358
8	0x3f7cd092	0.98755753
9	0x3f7c2610	0.9849558
10	0x3f87dcc6	1.061425
11	0x3f81e53e	1.0148084
12	0x3f787d8c	0.9706657
13	0x3f8265fa	1.0187371
14	0x3f7ca0b6	0.98682725
15	0x3f7d562b	0.98959607
16	0x3f84ecf1	1.0384809
17	0x3f896baa	1.0735981
18	0x3f75e3e1	0.9605084
19	0x3f863cce	1.0487306
20	0x3f72005d	0.94531804
21	0x3f80fb22	1.007664
22	0x3f833277	1.0249776
23	0x3f781c79	0.96918446
24	0x3f83983a	1.0280831
25	0x3f73e7b7	0.95275444
26	0x3f75bb67	0.9598908
27	0x3f70c5a5	0.9405158
28	0x3f70dd61	0.940878
29	0x3f759384	0.95928216
30	0x3f708952	0.93959534
31	0x3f7b36d5	0.9813054
32	0x3f84938e	1.035753
33	0x3f6f6aa9	0.93522125
34	0x3f7c8552	0.9864093
35	0x3f71512a	0.9426447
36	0x3f6e8a53	0.93179816
37	0x3f82f833	1.0231994
38	0x3f801842	1.0007403
39	0x3f79c53c	0.9756658
40	0x3f7f9a21	0.9984456
41	0x3f775b2d	0.966235
42	0x3f7675c0	0.9627342
43	0x3f7b06ad	0.9805706
44	0x3f7370e1	0.95094115
45	0x3f72729b	0.94706124
46	0x3f7eebd4	0.99578595
47	0x3f7bcbbd	0.98357755
48	0x3f88fcfb	1.0702204
49	0x3f7ebff9	0.9951168
50	0x3f8193fd	1.0123287
51	0x3f84dd10	1.0379963
52	0x3f8840fa	1.0644829
53	0x3f77557e	0.96614826
54	0x3f7d3ae3	0.9891798
55	0x3f8400dc	1.0312762
56	0x3f7849a0	0.9698734
57	0x3f80f369	1.0074283
58	0x3f86b9e3	1.0525478
59	0x3f808307	1.0039986
60	0x3f77024e	0.9648789
61	0x3f6802f7	0.90629524
62	0x3f87629f	1.0576972
63	0x3f7bca0c	0.98355174

critic.1.bias f4 [64]
0	0xbb0f7ba7	-0.002189377
1	0x3add1ce7	0.0016869575
2	0x3d1fadda	0.038984157
3	0x3c45ce68	0.012073137
4	0x3d12e29d	0.035860647
5	0x3c19ae0c	0.009379875
6	0x3d3383a4	0.043826714
7	0xbcb910b4	-0.022590972
8	0xbbbbd210	-0.0057318285
9	0x3d242ce3	0.04008187
10	0x3d8a6381	0.0675726
11	0x3c05f5e5	0.008176302
12	0x3c901f81	0.017593147
13	0x3d01e1f8	0.03170964
14	0x3ce5c25f	0.028046785
15	0x3cad3df2	0.021147702
16	0x3ce16e08	0.027518287
17	0x3c2a2194	0.010383982
18	0x3c6d86de	0.014497487
19	0x3d53c63d	0.051702727
20	0xbc7f6b22	-0.015589507
21	0x3d49bc28	0.049251705
22	0x3c6213b6	0.013798645
23	0xbc91239e	-0.017717179
24	0x3da6b004	0.08139041
25	0xbc5c8212	-0.013458746
26	0x3ce677a1	0.028133215
27	0xbcb5adc6	-0.022177588
28	0xbca3be9e	-0.019988354
29	0xbcb739cc	-0.022366427
30	0xbd6912f3	-0.056902837
31	0xbbe8f0e8	-0.0071087964
32	0x3d794d2e	0.06086462
33	0xbc8542e9	-0.016267257
34	0x3cfba6f7	0.030719263
35	0x3c8a85c7	0.016909493
36	0xbc80078b	-0.015628597
37	0x3d9284d6	0.07154243
38	0x3cadf423	0.021234578
39	0x3c3614bf	0.011113345
40	0x3d3a7ee0	0.045531154
41	0x3c8f26cf	0.01747456
42	0x3d393acc	0.04522209
43	0xbc20e72a	-0.009820739
44	0xbd901f64	-0.07037237
45	0xbcce5069	-0.025184827
46	0x3bb09597	0.0053889262
47	0xbd310f51	-0.043227497
48	0x3d8eb420	0.0696795
49	0xbc713618	-0.01472237
50	0xbbd54f66	-0.006509709
51	0x3d62e685	0.05539562
52	0x3d661f78	0.056182355
53	0xbafb97aa	-0.001919498
54	0x3d29ac9f	0.04142439
55	0xbc973763	-0.018459028
56	0x3d2cd2e5	0.042193312
57	0x3cba0356	0.022706669
58	0x3bd5b917	0.0065223086
59	0x3ce0d06a	0.02744313
60	0xbc8ab21d	-0.016930634
61	0xbd482a7f	-0.048868652
62	0x3d9c4322	0.07629992
63	0xbc5aeed1	-0.013362602

critic.3.weight f4 [64, 64]
0	0x3d49e680	0.049292088
1	0xbe135404	-0.14387518
2	0x3d8c90f5	0.06863586
3	0xbd98aa49	-0.07454354
4	0x3d69963f	0.05702805
5	0xbe487904	-0.19577414
6	0xbd7d5244	-0.061846033
7	0xbdb348ca	-0.08754118
8	0xbd45e53c	-0.048314318
9	0xbc235724	-0.009969506
10	0x3d9e8b92	0.07741465
11	0x3d8be7d9	0.06831331
12	0xbd9cb426	-0.07651548
13	0xbd8353da	-0.06412478
14	0x3d27f80a	0.041008033
15	0xbe11cf40	-0.14239216
16	0x3dfeb614	0.124370724
17	0xbda85083	-0.082184814
18	0xbd89a9f6	-0.067218706
19	0xbda7b5a8	-0.08188945
20	0xbd5a7c9d	-0.053341497
21	0xba0994ae	-0.000524829
22	0xbcb93044	-0.022606023
23	0xbd1eba10	-0.03875166
24	0xbd8ba24b	-0.06818064
25	0x3c4e8bef	0.012606605
26	0xbd83d830	-0.06437719
27	0xbdbb38ba	-0.09141679
28	0xbcae9c26	-0.021314692
29	0x3d98b822	0.074569955
30	0x3b817584	0.0039507765
31	0x3d04105f	0.032242175
32	0xbcf25701	-0.029582502
33	0xbd9951a7	-0.07486277
34	0xbd86e681	-0.06586934
35	0xbc9a0aeb	-0.018804034
36	0xbdb8b783	-0.09019377
37	0xbcaa4b5b	-0.020787885
38	0x3dbf3552	0.09336342
39	0xbd8dabcd	-0.06917534
40	0xbda04e1b	-0.078273974
41	0x3dc4ac14	0.09603134
42	0x3bc66e7d	0.0060556517
43	0x3d70b529	0.058766518
44	0xbdc70978	-0.09718603
45	0x3d6f6ddb	0.058454376
46	0x3bb66318	0.005566012
47	0x3ce3b848	0.027797833
48	0x3cc5c6f4	0.02414272
49	0x3dc69134	0.09695664
50	0xbbdf12ef	-0.006807677
51	0x3c87b1a0	0.01656419
52	0x3c48fc73	0.01226722
53	0xbc651faf	-0.013984605
54	0xbd7a5d8f	-0.06112438
55	0x3d3329ec	0.04374115
56	0xbd915a01	-0.07097245
57	0xbcfaa8c2	-0.030598048
58	0x3d41be6e	0.04730075
59	0x3d16efb3	0.03684969
60	0xbd89cbaa	-0.06728299
61	0x3e067177	0.13129221
62	0x3cc8a941	0.024494769
63	0x3d2bb20e	0.041917853
64	0xbe0fabe8	-0.14030421
65	0xbd61a527	-0.055089142
66	0x3d8b3edb	0.06799098
67	0x3dfd228d	0.12360106
68	0xbc996a6e	-0.018727507
69	0x3ddf45b9	0.109019704
70	0xbcda5a72	-0.026654456
71	0x3c48cb07	0.012255437
72	0xbd9dc108	-0.077028334
73	0x3e0bcc1c	0.1365208
74	0xbdee9be8	-0.116508305
75	0xbdd65bfe	-0.10466765
76	0xbc908326	-0.017640661
77	0x3d08ef84	0.033431545
78	0xbb9163b6	-0.0044369353
79	0xbcfef5d8	-0.031123087
80	0xbe52384d	-0.2052929
81	0xbe4a3dfa	-0.19750205
82	0xbcbd91a6	-0.02314074
83	0x3d9cd032	0.076568976
84	0x3d24d39a	0.04024086
85	0xbda03b07	-0.078237586
86	0x3e09b47e	0.13447759
87	0xbe25eeaf	-0.16204332
88	0xbad25c8b	-0.0016049308
89	0xbdec32fd	-0.11533163
90	0x3e11026e	0.14161083
91	0xbd0ff276	-0.03514334
92	0x3d9e494a	0.077288225
93	0xbda4119f	-0.080111735
94	0xbd7ba390	-0.061435282
95	0x3aded24e	0.0016999932
96	0x3cde655b	0.02714794
97	0x3dca1d86	0.098689124
98	0xbe2405d2	-0.16017845
99	0xbd5118a0	-0.051048875
100	0x3cb1a62c	0.021685682
101	0x3deb4e08	0.11489493
102	0x3bc09c39	0.005877998
103	0xbc974ce5	-0.018469283
104	0x3e0ee04a	0.13952747
105	0xbd4b83c2	-0.0496862
106	0xbdf9d3c3	-0.121985935
107	0xbda5575c	-0.08073303
108	0xbda05a87	-0.07829767
109	0xbd423fb4	-0.047424033
110	0x3c4e42dd	0.012589184
111	0xbdf4f6af	-0.11961114
112	0xbbd81e4f	-0.00659541
113	0xbe05fb24	-0.13084084
114	0x3d24bfa3	0.04022182
115	0x3c32c943	0.010912242
116	0x3e054521	0.13014652
117	0xbd72dede	-0.059294574
118	0xbd2adb50	-0.04171306
119	0x3c08a1f5	0.008339395
120	0x3e010f17	0.12603413
121	0xbca5096d	-0.020146096
122	0xbe1154e5	-0.14192541
123	0xbe018679	-0.12648953
124	0x3cb5ee6c	0.022208415
125	0xbd3ae749	-0.045630727
126	0x3c6094be	0.013707338
127	0x3cc43a85	0.023953686
128	0x3dd45f5e	0.10369752
129	0x3d357f9b	0.044311147
130	0x3d97ca7c	0.07411668
131	0x3d94df30	0.07269132
132	0x3d55fa3c	0.052240595
133	0x3d90d21c	0.07071325
134	0xbd9c5844	-0.07634023
135	0x3d2f9676	0.0428681
136	0x3dd3fcde	0.10350965
137	0xbdfbebcc	-0.12300834
138	0x3cb7cbc4	0.02243603
139	0xbc6484ae	-0.013947649
140	0xbd0b2313	-0.033968996
141	0x3d98dd16	0.07464044
142	0xbd48e0af	-0.0490424
143	0x3d28bd4f	0.041196164
144	0x3dfe6a97	0.12422674
145	0xbd601be2	-0.05471409
146	0xbca9108f	-0.020637779
147	0xbd2d21a8	-0.042268425
148	0x3c8bf820	0.017086089
149	0xbc8fcbb8	-0.017553195
150	0x3da1722a	0.07883103
151	0x3d22ed2e	0.039776973
152	0xbc11b181	-0.008892418
153	0xbc160424	-0.009156261
154	0x3deae238	0.11468929
155	0xbd39a4ba	-0.04532311
156	0xbd82a82f	-0.06379735
157	0xbd3143aa	-0.04327742
158	0x3da3d56b	0.079996906
159	0x3ce439b5	0.027859548
160	0xbd760ff1	-0.060073797
161	0xbd034d47	-0.03205612
162	0x3dd54502	0.10413553
163	0xbd758391	-0.059939925
164	0xbd43da96	-0.04781588
165	0xbd58b16a	-0.05290357
166	0xbe225876	-0.15854058
167	0xba7382f0	-0.00092892256
168	0xbcbe687b	-0.02324318
169	0x3dad1dc6	0.084529445
170	0x3d589fb7	0.05288669
171	0xbcec586c	-0.028850757
172	0x3da62a26	0.08113508
173	0xbdb8f39b	-0.09030839
174	0xbd21d09d	-0.03950559
175	0x3d59469f	0.053045865
176	0x3d694d15	0.056958277
177	0x3d02b479	0.031910393
178	0x3d013a8c	0.031549975
179	0xbc46ee06	-0.01214171
180	0x3d4c0b7b	0.049815636
181	0x3d17dfb3	0.03707857
182	0xbaf9b4c8	-0.0019051069
183	0xbcb41bf8	-0.021985993
184	0x3c81a7d3	0.015827095
185	0x3dcc6a0e	0.09981166
186	0xbded7a24	-0.11595562
187	0xbddaadc4	-0.106776744
188	0x3a77593d	0.00094356
189	0x3bbb6699	0.0057190177
190	0x3d59d5e7	0.05318251
191	0x3cc9a586	0.02461506
192	0x3bc6a8c1	0.0060625975
193	0x3d8b72b4	0.06808987
194	0xbc832c93	-0.016012466
195	0xbd816b61	-0.06319309
196	0xbbe508e4	-0.0069895852
197	0xbd1c90eb	-0.038224142
198	0xbd86239d	-0.065497614
199	0xbc2d7454	-0.010586817
200	0x3c502e91	0.012706415
201	0xbcd9b609	-0.026576059
202	0x3c9cb59c	0.019129567
203	0x3d9df1ac	0.07712111
204	0xbc59b575	-0.013287892
205	0xbdc8d35a	-0.09805937
206	0xbdceb1a9	-0.1009248
207	0xbccc21e5	-0.024918506
208	0xbdd7b281	-0.10532094
209	0xbd60e05c	-0.054901466
210	0xbd14d799	-0.036338422
211	0x3dfa37c1	0.122176655
212	0x3de788ed	0.113054134
213	0x3d501b20	0.05080712
214	0x3d1d8f79	0.038466904
215	0xbc608cc9	-0.013705441
216	0x3d63f973	0.055657815
217	0x3d108d0b	0.03529076
218	0xbdd58cbd	-0.10427234
219	0x3cc5b97b	0.024136296
220	0xbddad014	-0.10684219
221	0xbd1640ff	-0.03668308
222	0x3d980004	0.07421878
223	0x3dd52fc3	0.104095004
224	0xbca056c9	-0.019572632
225	0xbd6a7d22	-0.057248242
226	0xbdd6411b	-0.10461637
227	0xbd9fcb5b	-0.07802459
228	0x3d8588f3	0.065202616
229	0x3d426fc9	0.047469888
230	0xbc12f828	-0.008970298
231	0xbbe10256	-0.0068667335
232	0x3d50bbcb	0.050960343
233	0x3d4f7fca	0.05065898
234	0x3b59e659	0.003324887
235	0x3db578ef	0.08860957
236	0x3d2e274b	0.04251794
237	0xbddba1f6	-0.10724251
238	0x3ce26b81	0.027639152
239	0xbd1c2348	-0.038119584
240	0x3c912074	0.01771567
241	0x3d6be2eb	0.057589453
242	0xbd44dc62	-0.048061736
243	0x3daa0420	0.08301568
244	0xbd839651	-0.06425155
245	0x3d574301	0.052554134
246	0xbdfa3037	-0.122162275
247	0xbd0dcb0f	-0.03461748
248	0x3d62b954	0.055352524
249	0xbe02f08c	-0.12787074
250	0xbd25bf27	-0.0404655
251	0xbe103ce2	-0.14085725
252	0x3d302953	0.04300816
253	0x3c820401	0.01587105
254	0x3ced178b	0.02894189
255	0xbd9368ef	-0.07197749

critic.3.bias f4 [64]
0	0x3d1a818f	0.037721213
1	0x3dc9c58d	0.09852133
2	0x3d45b04e	0.04826384
3	0xbdafab35	-0.08577577
4	0xbb131aad	-0.002244632
5	0xbd00f240	-0.031481028
6	0xbdb22cc5	-0.08699945
7	0xbd5880b6	-0.052857123
8	0x3d0279ce	0.031854443
9	0x3d6ab82e	0.057304554
10	0xbc99c15c	-0.018768959
11	0xbe2c84b9	-0.16847505
12	0x3ca15ac6	0.019696604
13	0xbda1ee2b	-0.07906755
14	0x3ccb1ae7	0.024793101
15	0xbd1db0d4	-0.038498715
16	0xbdd87462	-0.10569073
17	0xbe03f7f2	-0.12887552
18	0x3c51c803	0.012804034
19	0xbe183ab2	-0.1486614
20	0xbd7a1123	-0.0610515
21	0xbd0053b8	-0.03132984
22	0x3dcc9b65	0.09990577
23	0x3d0feae1	0.035136107
24	0xbd7ce20a	-0.061739005
25	0xbc636585	-0.013879185
26	0x3dcb34a3	0.09922149
27	0xbd9ffd4a	-0.07811983
28	0xbd46aab0	-0.048502624
29	0xbd4b7527	-0.049672272
30	0xbde09752	-0.10966362
31	0xbd77177d	-0.060325135
32	0x3d78070f	0.060553607
33	0x3ddb6c62	0.10714032
34	0x3d891cab	0.06694921
35	0x3d067243	0.032823812
36	0x3d259d48	0.0404332
37	0x3d65c43c	0.056095347
38	0x3a85658c	0.0010177358
39	0x3caee22b	0.02134808
40	0xbe03108d	-0.12799282
41	0x3d39cd7c	0.04536198
42	0x3d450d05	0.04810812
43	0xbd8343e9	-0.06409437
44	0xbd7b15ae	-0.061299972
45	0x3d464d26	0.04841342
46	0xbdb135e6	-0.086528584
47	0x3cc2d15b	0.02378147
48	0x3d54261a	0.05179415
49	0xbd832c13	-0.06404891
50	0x3d595ca5	0.05306687
51	0x3c9de01c	0.019271903
52	0x3dba55c4	0.0909839
53	0xbdc17fb4	-0.094481856
54	0x3dc90c52	0.09816803
55	0xbe092682	-0.13393596
56	0x3db5da43	0.08879521
57	0x3d9e4641	0.077282436
58	0x3e0221de	0.12708232
59	0xbd7e58be	-0.06209635
60	0xbdf13eb7	-0.1177954
61	0xbcea9e6e	-0.028639998
62	0xbd2f0f7e	-0.042739384
63	0xbdc76c6e	-0.09737478

critic.4.weight f4 [64]
0	0x3f7d73ad	0.9900463
1	0x3f8574f4	1.0426316
2	0x3f8cff39	1.1015388
3	0x3f81f32b	1.0152334
4	0x3f80f361	1.0074273
5	0x3f812a69	1.0091068
6	0x3f844aea	1.0335362
7	0x3f84ed09	1.0384837
8	0x3f8f0ae2	1.1175196
9	0x3f7fd1c7	0.9992947
10	0x3f8d5973	1.1042923
11	0x3f7d4542	0.98933804
12	0x3f90dff3	1.1318344
13	0x3f893833	1.0720276
14	0x3f9057aa	1.1276753
15	0x3f8bd864	1.0925412
16	0x3f856a1e	1.0423009
17	0x3f82d448	1.0221033
18	0x3f7e900f	0.99438566
19	0x3f811690	1.008501
20	0x3f89b680	1.075882
21	0x3f80c34e	1.0059602
22	0x3f851857	1.0398053
23	0x3f8d25d5	1.102717
24	0x3f818b38	1.0120611
25	0x3f83d613	1.0299705
26	0x3f816e0d	1.011171
27	0x3f8dbbf0	1.1072979
28	0x3f80dc19	1.0067168
29	0x3f8238c3	1.0173572
30	0x3f84e1a1	1.0381356
31	0x3f8adbe1	1.0848352
32	0x3f8f049d	1.1173283
33	0x3f97b7bc	1.1852946
34	0x3f8345eb	1.0255712
35	0x3f8a1100	1.0786438
36	0x3f8a5943	1.080849
37	0x3f8f1285	1.1177527
38	0x3f8d2492	1.1026785
39	0x3f81a9cb	1.0129942
40	0x3f85b501	1.0445863
41	0x3f87d272	1.0611098
42	0x3f7a7a2d	0.97842675
43	0x3f882268	1.06355
44	0x3f8234d5	1.0172373
45	0x3f837d8f	1.0272692
46	0x3f901b91	1.1258413
47	0x3f943af7	1.1580495
48	0x3f865e53	1.0497535
49	0x3f81f0f6	1.015166
50	0x3f7f0fc9	0.9963346
51	0x3f8b4485	1.0880286
52	0x3f8ec787	1.1154641
53	0x3f8e33af	1.1109523
54	0x3f8cbe16	1.099551
55	0x3f856a11	1.0422994
56	0x3f83ba29	1.0291187
57	0x3f8759d6	1.0574291
58	0x3f8ae5d0	1.0851383
59	0x3f811028	1.0083055
60	0x3f86e01a	1.053714
61	0x3f84a25b	1.0362047
62	0x3f916d00	1.1361389
63	0x3f85b8be	1.0447004

critic.4.bias f4 [64]
0	0xbd168f51	-0.03675777
1	0x3c5bd0ba	0.0134164635
2	0x3d497323	0.04918207
3	0x3b0c5ac9	0.0021416417
4	0xbb299976	-0.0025878823
5	0xbcb87557	-0.02251689
6	0xbc4fd98c	-0.012686145
7	0x3b79d441	0.0038120898
8	0x3db5fd69	0.08886225
9	0x39ac6ff9	0.00032889823
10	0x3dc4734f	0.09592306
11	0xbca54c03	-0.020177847
12	0x3dd9fcd3	0.106439255
13	0xbc5847aa	-0.01320068
14	0x3de29fff	0.11065673
15	0x3dbc144e	0.0918356
16	0xbbad22a4	-0.0052836705
17	0xba97696b	-0.0011551803
18	0xbcc8cb1d	-0.024510914
19	0x3c2535cd	0.010083628
20	0x3d79a47d	0.060947884
21	0x39b53e89	0.00034569603
22	0x3c5d7d0b	0.013518582
23	0x3de07fbe	0.10961865
24	0x3c95f82a	0.01830681
25	0x3d14cdb4	0.036328986
26	0x3d02393c	0.031792864
27	0x3db8a785	0.09016327
28	0xbba9ec7c	-0.005185662
29	0xbb0987cb	-0.002098548
30	0x3c7f42bf	0.015579878
31	0x3d3e5e2e	0.046476535
32	0x3db163cc	0.08661613
33	0x3df82455	0.12116305
34	0xbc229e85	-0.009925489
35	0x3daaed44	0.08346036
36	0x3d6663a7	0.05624738
37	0x3daafdbe	0.08349179
38	0x3d9549dc	0.07289478
39	0x3bb77d88	0.0055996813
40	0x3d18848f	0.037235793
41	0x3d7264bf	0.05917811
42	0xbc8a0eee	-0.016852822
43	0x3bc744c0	0.0060811937
44	0x3c715665	0.014730071
45	0x3bce55da	0.0062968554
46	0x3db9da32	0.090748206
47	0x3defadb3	0.11703052
48	0x3badb957	0.0053016352
49	0x3b6166af	0.003439348
50	0xbca4a60e	-0.020098712
51	0x3d9d9792	0.07694925
52	0x3db020f1	0.08600033
53	0x3dab786f	0.0837258
54	0x3d9d7d97	0.0768997
55	0xbcb00bf5	-0.021490077
56	0xbbe6bedf	-0.0070417966
57	0x3d8a730b	0.06760224
58	0x3da59c1e	0.080864176
59	0xbbebed15	-0.0071998932
60	0x3d063133	0.032761764
61	0xbc7f2d04	-0.015574697
62	0x3de39837	0.11113017
63	0x3c21aa2d	0.009867233
