src/taser/locomotion/models/track_velocity.onnx (onnx, 29371 bytes, 11 tensors)

model.log_std f4 [2]
00000000: 136b c3bf b729 c6bf
-1.5267051 -1.548148

model.actor.0.weight f4 [64, 29]
00000000: d2b9 0b3e 1bf9 f4ba 3ec4 4aba ed78 58bd
00000010: ce48 183d 9646 fc3c a322 25be 6001 c43d
00000020: 0feb 7bbd 6525 3d3d 4c24 febc 50d6 7b3d
00000030: cf8f 253e 8210 1d3d 6d5a 2c3d 191a a7bd
00000040: db8e 07bd bda7 02bd 2a92 56bd be13 af3c
00000050: 40e6 87bc 154c 123e 0539 ed3d c02d 80bc
00000060: cc71 ec3d e676 223e 9440 1abe a406 953c
00000070: 72e0 00be 838f c8bd 1e56 9b3d 130b 613d
00000080: bec8 8e3d f06a 053d 88d2 e6bb 3e7a 5c3d
00000090: 504a f9bd 0e22 d3bd 7c81 043d 437c 1bbd
000000a0: fb79 0b3e f78d a8bd 2cf6 823c 567c f63a
000000b0: 9568 c03d 8b07 01be 3bcf ad3d ed92 6dbd
000000c0: 983c a73d c902 fdbd ed07 303d 14db 99bc
000000d0: 06db e5bd 09dd f7bc 326e 07bc ec5f 263e
000000e0: e503 da3c 5991 163e 45d0 203c 932d 833d
000000f0: 7bdf c7bc 871e 08bd 035c b73d 7c00 febd
00000100: 15ed 2cbe 0657 fd3d b2ff 923d dc3d 8f3d
00000110: aef3 02be b0f5 bb3d 76fc 563d 80df efbd
00000120: a9ad 893d c975 41bd 406a 3cbe 3863 d63d
00000130: 221b 94bd a847 453e 12f3 6ebe 65f7 093e
00000140: 04a0 6cb6 4624 9f3d 419f 94bd 16e4 873d
00000150: 8b0c ea3d 0197 d83c 572e 643d 3851 433d
00000160: 0b87 d5bc 005e d9bb 4de1 b5bb cce2 4b3d
00000170: 6416 a43d 69f4 35bc f0e3 95bd 8616 083e
00000180: 98f6 693d ea97 1abe ef40 f93c 54d1 d1bd
00000190: ab0c 77bd 3864 f33c 85da c6bd 953d 8a3e
000001a0: 299c acbd 3118 d33d f827 ceba 884d 723d
000001b0: fea4 81be 896b 4a3d ea45 81bc 48aa fbbb
000001c0: 4d9f 893d a18e f3bd 6f30 e1bd d172 b3bd
000001d0: 36c9 8b3d d74c 0bbd f235 a63d dd96 80bd
000001e0: 7a49 bf3d 30f2 d53c a56f c0bd 93bf ed3d
000001f0: 062b 41bd 7d16 843d 21a3 6fbc 01f5 a63d
00000200: 5b45 dd3c 7367 47bd 2445 ebbc dc9e 48bd
00000210: 7310 aeba a619 cd3c 2949 213d 42d5 eebb
00000220: c0ca 7b3e ad08 5c3e 35be 38be 9d14 87bc
00000230: a866 38be eb5e 963d 14f1 a2bc b785 92bc
00000240: 9abc c2bd caf4 46be b679 51bd 6061 b0bd
00000250: 1bde 643d cdfd 903d 1881 fbbd 10b6 c13c
00000260: 6019 473d 2394 ffbc a491 2dbe 41b8 f9bd
00000270: 3771 e43c fef0 853d 0881 34bd 3519 343c
00000280: 008c 9abd 0103 4c3e 1c54 3d3d 1195 8cbd
00000290: 0bc4 8d3d 82da a13d 2062 fdbd 0e9a 193e
000002a0: 4ee9 a7bc 731e d2bc f33b b03c 22bc 2c3c
000002b0: 062e 88bd 424b d93d 6a45 3a3d 6c6e 9abb
000002c0: 2635 05bd 1745 e1bd 8cc8 253d f99a 9d3d
000002d0: c65b e53a e2b5 ae3d 656d a23d 3518 b7bc
000002e0: 655b 1a3d f4ea f43b 875b 263d 6633 963c
000002f0: 0979 de3d 8ddc 05bd c9e3 9a3c 4c76 8bbd
00000300: 9e21 0fbd e091 39bd 5e5c 86bc b79b 9bbd
00000310: eb34 413e 48d5 01be 1e80 933d 460e 363e
00000320: 55ee 40be c150 1bbe b2ae 513e d6c5 9abb
00000330: dcce 413c dadb 45bd 86e8 58bd ac5c 263d
00000340: 74e5 693d 8ad1 cdbd eeb3 80bd ca01 ca3d
00000350: 0443 b439 de1b a23d ac1d bebd 0d49 27bd
00000360: b67c 84bd 852b acbd c948 a7bd 6ee2 b2bb
00000370: 4ba3 283d d0ae 813c f5df f6bd f85a 6abd
00000380: 91ed 373d f693 7fbd 04cc a0bc bb62 82bd
00000390: 4de6 8c3d f2e9 4ebe 39d4 f03d 932d 6c3e
000003a0: 0e3d 4dbd 74a7 aabb db8f 08bd 986f 393d
000003b0: 94ca ab3d 3ab4 ecbd 813e 133e 334f 023e
000003c0: e189 5a3d 8fec 243d 759c bfbc 5f78 383d
000003d0: db57 303d 92d7 c8bd ead8 10bd 201e 3dbd
000003e0: 6df0 9d3d 0b05 3e3d a6e3 c3bd 5d98 9c3c
000003f0: b7ca 5f3c 8792 81be 0207 7d3c aa6b 5c3d
0.13645104 -0.0018689962 -0.0007734931 -0.0528497 0.037178807 0.030795377 -0.16126494 0.09570575
-0.061503466 0.04617824 -0.031023167 0.06148368 0.1616814 0.03834582 0.042078424 -0.081592746
-0.033095222 -0.03189825 -0.052385487 0.021371718 -0.016589284 0.14286835 0.11583141 -0.015646815
0.115451425 0.15865669 -0.15063697 0.018191643 -0.12585619 -0.09792998 0.07584785 0.0549422
0.06971882 0.032572687 -0.0070441402 0.053827517 -0.12172377 -0.1030923 0.03235005 -0.037960302
0.1362075 -0.08230203 0.015986525 0.0018805366 0.093949474 -0.12600534 0.08486792 -0.058001447
0.08165854 -0.12354047 0.04297631 -0.018781222 -0.11223416 -0.030256765 -0.008266019 0.16247529
0.026613185 0.14703883 0.00981528 0.06405177 -0.024398556 -0.03323224 0.08953097 -0.12402436
-0.16887315 0.12370114 0.07177676 0.069942206 -0.12788269 0.091777205 0.05248686 -0.11712551
0.06722576 -0.04723147 -0.18399906 0.10468143 -0.07231738 0.19265616 -0.23334911 0.1347328
-3.5259882e-06 0.077705905 -0.07256938 0.06635301 0.11428174 0.026439192 0.055708256 0.047684878
-0.02606537 -0.00663352 -0.0055505396 0.049776837 0.08012083 -0.011105635 -0.07318866 0.13289842
0.057119936 -0.15097013 0.03042647 -0.10245004 -0.060314815 0.029710874 -0.09709648 0.27000108
-0.08428223 0.103073485 -0.0015728464 0.05915597 -0.25321192 0.04941896 -0.015780408 -0.007680211
0.06719837 -0.11892439 -0.10995566 -0.08762134 0.06825487 -0.034008827 0.08115758 -0.06278775
0.093401864 0.02611646 -0.093962945 0.116088055 -0.04716017 0.06449602 -0.014626295 0.081521995
0.02701061 -0.04868264 -0.028719492 -0.048979625 -0.0013280049 0.025036644 0.03937641 -0.007288606
0.24589062 0.21487685 -0.18041308 -0.016489321 -0.1800791 0.07342323 -0.019890346 -0.017886026
-0.09508629 -0.19429317 -0.051141463 -0.08612323 0.05587588 0.07079659 -0.12280482 0.023646384
0.048608184 -0.031198567 -0.16950089 -0.12193347 0.027886016 0.06540106 -0.044068366 0.010992338
-0.07546234 0.19923021 0.04622279 -0.0686437 0.06922158 0.07903005 -0.123722315 0.15000173
-0.02049699 -0.025649285 0.021512961 0.010542901 -0.06649403 0.106100574 0.045476355 -0.0047128703
-0.03252139 -0.10999506 0.04047446 0.07695574 0.0017498664 0.08530785 0.079310216 -0.02235041
0.037684817 0.0074742977 0.04061463 0.018335056 0.108629294 -0.032681037 0.018907445 -0.06809673
-0.03494417 -0.045305133 -0.016401466 -0.075980596 0.18867843 -0.12679017 0.07202171 0.17778882
-0.18840916 -0.15167524 0.20476797 -0.004723291 0.011829104 -0.04830537 -0.052956127 0.040615723
0.05710359 -0.10049732 -0.06284319 0.098636225 0.00034382206 0.079154715 -0.09283003 -0.04084115
-0.06469099 -0.08406738 -0.081681795 -0.0054591214 0.041171353 0.015830427 -0.12054435 -0.05721566
0.044904295 -0.062396966 -0.019628532 -0.063664876 0.06879864 -0.2020643 0.11759228 0.2306426
-0.050107054 -0.0052079502 -0.033340316 0.04527244 0.08388248 -0.11557813 0.14379312 0.12725525
0.053354148 0.040264662 -0.023390034 0.04503667 0.043052536 -0.09806742 -0.035363115 -0.046171308
0.07711873 0.046391528 -0.09564905 0.019115621 0.013659171 -0.25307104 0.015443565 0.053813614

model.actor.0.bias f4 [64]
00000000: f2e8 78bd 85bb 273e 1cf0 1c3e c3f8 cabd
00000010: 79b1 c4bd 857c f73d ea17 d1bd 51cc 483d
00000020: 30ff 4a3c 2c64 573c 2d39 db3d f789 8a3d
00000030: 8335 a9bd 48c1 8fbd fbf7 e9bd 66f4 0d3e
00000040: 1a33 8fbc c5dc 2e3b cfc0 0e3e 7d19 94bd
00000050: 1077 39bd fdc2 34be c1ae 3ebd b531 93bd
00000060: 24bb 2d3e 6cd8 99bd 0916 393e c2a4 cfbd
00000070: 5f58 c5bd 6030 1cbc 9fdb c0bb 6fe1 3bbe
00000080: 4d53 47be 5d3e a8bd 13e2 b43c ec02 8a3d
00000090: e6c9 16be 57e3 0e3d 0bc1 1fbd fae6 f73d
000000a0: 2f0f a33b 40e1 ea3d 99af 1b3e e629 12be
000000b0: cc89 92bc df8f 7a3d 9688 153c 3e60 daba
000000c0: a381 73be f3cf 8abd d100 8fbe 73eb 25bd
000000d0: f1f6 3abe 28e9 ba3d 4daa 2c3c 1d20 c73d
000000e0: 4eaf 053e 0445 f43d 9fcc 183e 1a06 36bd
000000f0: 468c 293d f9c6 8e3d 5224 133e adda f93d
-0.06076903 0.16380127 0.1532597 -0.09910729 -0.09604163 0.12084297 -0.10209639 0.049022976
0.012389943 0.013146441 0.10704265 0.06764596 -0.0826216 -0.07019287 -0.11424252 0.13862762
-0.017480422 0.0026681882 0.13940738 -0.07231424 -0.045279562 -0.17652507 -0.046553377 -0.07187215
0.1696592 -0.07511982 0.18074812 -0.10138847 -0.09635996 -0.009533018 -0.005885556 -0.18347715
-0.1946537 -0.0821502 0.022080457 0.067388386 -0.14725456 0.034884777 -0.03900246 0.12104602
0.0049761753 0.11468744 0.15203704 -0.14273795 -0.017887972 0.061172362 0.009126803 -0.0016660762
-0.23779921 -0.067779444 -0.2793031 -0.040507745 -0.18258263 0.09126502 0.01053865 0.09722922
0.13055155 0.11927226 0.14921807 -0.044439413 0.04139354 0.06971545 0.14369324 0.12199912

model.actor.1.weight f4 [64]
00000000: 6db2 743f 29ef 7e3f 0d16 813f 0b75 803f
00000010: 2a93 823f 66d5 7f3f 3f4f 813f e081 7e3f
00000020: 81bf 873f 9f7a 803f 3225 7e3f ace9 773f
00000030: e963 7e3f a281 7f3f 273c 7e3f 5280 723f
00000040: 1b4e 813f 8334 823f d71f 843f 52c7 803f
00000050: 580a 713f d4cd 953f 9e62 7d3f ac9b 7f3f
00000060: afe2 883f 78af 803f ddb1 853f 2607 6e3f
00000070: 8cfb 7f3f 9b7c 6f3f 0170 7b3f f7c9 813f
00000080: ba47 6c3f 06f3 783f 6ded 6d3f 8b04 833f
00000090: 2dd0 813f b5df 813f 872d 903f b6dd 6d3f
000000a0: a6cc 773f 472a 823f abd1 7f3f 7e2f 833f
000000b0: f944 783f cf93 7f3f 0138 793f 21fa 713f
000000c0: 3914 8f3f e592 783f cfca 763f 6f5a 833f
000000d0: 0307 7e3f 16e6 813f ae12 823f f87e 7d3f
000000e0: 2a05 7a3f dc8d 823f 7563 773f 1e2a 7d3f
000000f0: a4c0 853f 3e59 7c3f b270 793f bcf0 813f
0.95584756 0.9958368 1.0084854 1.0035719 1.0201161 0.99934995 1.0102309 0.99416924
1.0605317 1.0037421 0.99275506 0.9684093 0.993712 0.9980718 0.99310535 0.9472705
1.0101961 1.0172275 1.0322217 1.0060828 0.9415641 1.1703439 0.989786 0.9984691
1.0694178 1.0053549 1.0444905 0.9297966 0.99993205 0.9354951 0.9821778 1.013976
0.92296946 0.97245824 0.9294041 1.0235761 1.0141655 1.0146395 1.1263894 0.9291643
0.96796644 1.0169152 0.999293 1.0248868 0.96980244 0.99834913 0.9735108 0.9452229
1.1178046 0.97099143 0.9640321 1.0261973 0.9922945 1.0148342 1.016195 0.99021864
0.9766413 1.0199542 0.96636134 0.9889239 1.0449414 0.9857367 0.97437584 1.0151591

model.actor.1.bias f4 [64]
00000000: 00e1 22bc 7425 cbbb 1b95 44bb fa6b 4cba
00000010: 394c 7a3d 8e91 7a3c 7b50 4e3d f039 233c
00000020: 3e2f f23d eb41 453d cd8d 1dbb 87b5 133c
00000030: d448 3f3d cd7a 193c 398d 3b3d 4694 3d3b
00000040: 26be 513d 6504 1b3d b57a 063d a200 cc3c
00000050: e43c 6339 95ee 0b3e 7944 3f3d 3eb2 f23c
00000060: 5127 be3d 2ff7 753c b0b7 9c3c d36c 31bd
00000070: 12c6 3a3d 48c8 9ebc b509 353b d521 8a3c
00000080: d97b e1bc 89f9 42bc b5d2 28bd 0c0a 193d
00000090: 92ae fa3c b191 843c 691a 003e ae76 9fbb
000000a0: 568e a53c 71dd 3a3d 25b8 493a 07ce 1ebc
000000b0: 193f b93c 2af3 9c3c c8c7 753c 90eb 52bd
000000c0: 3707 083d e866 2e3d 4e92 773c f43a b13d
000000d0: c799 ce3c cec5 d1bb 8148 aa3b 8299 c7bb
000000e0: 5bd8 1cbc 9333 a13c dd08 90bc 9d74 423d
000000f0: 81f2 963d e30f 063c 5301 5dbc 850b 2cba
-0.0099413395 -0.006199533 -0.00299961 -0.0007798072 0.061107848 0.015293492 0.05036972 0.009962544
0.11825417 0.048158567 -0.0024040819 0.009015447 0.046700314 0.009367657 0.045788977 0.002892749
0.05120673 0.037845988 0.032831866 0.024902645 0.0002167109 0.1366523 0.04669616 0.029626008
0.09284843 0.015012546 0.019130558 -0.043316673 0.04559905 -0.01938261 0.0027624194 0.016861835
-0.027524875 -0.011900314 -0.04121657 0.037363097 0.03060082 0.016182752 0.12510075 -0.0048664426
0.020209473 0.04562134 0.0007694981 -0.009692675 0.022613095 0.019158918 0.015001245 -0.05149418
0.033210006 0.042578608 0.015110565 0.086538225 0.025219811 -0.006401754 0.0051966314 -0.0060912976
-0.009573068 0.019677913 -0.017582351 0.047474492 0.07370473 0.008182499 -0.013489085 -0.0006562996

model.actor.3.weight f4 [64, 64]
00000000: 44f7 5c3d 9c28 01be 528c 25bc c4d3 fb3d
00000010: e481 843d afa9 9d3d ff6c bdbd c469 56bc
00000020: 0d65 1abd 41c7 50bd 61f6 c4bd 8538 f1bd
00000030: 7cba 8a3d 4791 7b3d f660 9fbd aab7 0fbd
00000040: cb36 b53d 1081 c2bd c9fc 493d 825b c4bd
00000050: 4246 823d 199f c83d aacb bf3d 4813 fbbd
00000060: 2999 bebd ea8b 313d d61a f73d 5a95 b0bd
00000070: df64 2bbd 4804 0b3d 33f6 013d 7dbb b4bd
00000080: 7da9 ed3d 8119 6d3c ee58 44bd cfda bb3c
00000090: 2d9e 393d 57d3 603c 8f84 5f3d c917 0bbd
000000a0: f7f4 f7bc 46c4 233e 93ea fdbc 0e8e 16bd
000000b0: 1a72 9cbb 9780 a23d 05f1 ba3d 087d 5cbd
000000c0: 0dbc c63d d21a 0d3e 9a29 b5bd 4d32 2abc
000000d0: c421 133d 48b5 39bd 073e 073d 9143 31bd
000000e0: 5b94 7fbd 37b7 f73d 25de cd3d 9929 813c
000000f0: bd4a 893d 36e2 913d 09e4 c73c 847e 283d
00000100: 678e ae3d 3b41 2d3d f70b a839 a908 493d
00000110: 4a5e 9cbd 41a5 9c3c 8c9d a43d 0342 3e3d
00000120: ad56 3cbd a531 5e3d 3cbd 9a3d 57f8 103d
00000130: 2601 c53d 3e69 0d3d 91cd e83b 9130 3dbd
00000140: 69c8 a9bd fdf1 ca3d 72d0 3bbd 538d 9cbd
00000150: eed4 403d a8e3 b43d 1fd2 d73c d7c5 b03c
00000160: 8c90 c63c ef03 9bbb ed47 91bc f18b 44bd
00000170: d2d6 d23d cf49 a1bd 1bd4 20bd 1513 dd3d
00000180: 0b5d 13bd 66bf e7bd ed73 92bd 4c6c c83d
00000190: 8018 bd3b c84b 8dbd 3e20 0e3d ebdb 36bd
000001a0: cd66 efbd ab3a 8fbb 991e 183d 0132 a13d
000001b0: 5a13 57bd 8b07 873c 03c5 133c 99b6 023d
000001c0: defa 3a3b 25c0 3abc 72b6 853d 1d03 943c
000001d0: a590 cfbc 4bd2 763d a31b ac3c bae3 333d
000001e0: 7fea 7e3d fc41 0e3d 040f 683a 9dbf 543b
000001f0: f8e6 ce3b 0130 36bd ead8 133c 397e d4bd
00000200: fd3c 1fbc d8f1 b6bc 547b 143d 03b6 d1bd
00000210: 09ad 1abd 2970 4e3d 76d4 e5bd 6a58 8a3d
00000220: 1355 07be 9f0f 023d e8ac 8f3d 2c61 0a3e
00000230: e00b 0fbd d154 edbc 9b54 5d3d db0c 8bbb
00000240: 8472 b8bb 213f 0d3e c674 1f3e a862 abbc
00000250: 8726 a13d e172 37bc bfac b5bd 4fc0 153d
00000260: c46a 3b3d 46eb d53d eb59 a63d 1707 033d
00000270: 0f19 21bd d331 f33d 38e6 92bd 49e9 03bd
00000280: 7c34 f8bd a139 ac3d 0e90 d03d 7f27 97bd
00000290: 5cd4 91bd 4694 b2bc 4492 f6bd 71da 133e
000002a0: 6374 bdbd 6a4d 64bd 3f1f b6bd a751 11bd
000002b0: 3903 923d 765b 993d cc4d d1bd 75d5 a2bd
000002c0: b208 ae3d 15fd 72bc c757 d0bc cc78 f73d
000002d0: c691 ef3d 9313 cfbd 9dd3 38bd 17ad fa3d
000002e0: f0b3 15be bfb1 743d 9cd3 3ebd f9e2 94bd
000002f0: 9191 37bb 44b1 e73c 1131 5d3c f03b 99bd
00000300: e991 8b3d ba96 823d 798f 41bd 8f07 873c
00000310: fb9b 20bd 9936 e63c d44b cabd 13bc fb3d
00000320: 1bcb 24be dceb e73d cae1 673d 105c 7e3c
00000330: 212a 0d3d 2396 333d 81aa 0cbd 3f75 57bd
00000340: 2dad 243b 6f2c ce3d c10e ed3b 0742 acbd
00000350: 28ac e4bd 3686 6f3d bbe0 aebd 84d1 de3d
00000360: 6574 383c d248 34bd 7933 903d 756b 00bd
00000370: a5c8 a8bc 7265 6dbd b2f4 833a 11cc 1cba
00000380: 6d8b e3bc 7387 1f3d a76b cfbd 9e6c f0bc
00000390: ab47 8bbd ab65 26bd 772b bc3a 4a9c 6d3b
000003a0: a80d 953d 998f 7cbd 98bb bf3d e7a3 9f3d
000003b0: e8d3 183d 86c5 a43d 08b7 e1bd c082 af3d
000003c0: 7e53 dabd a9b4 e13c dd90 b33d 86fb bb3d
000003d0: a726 1abd fe1d d83d 2df7 b2bd 1e4d a83d
000003e0: 3af1 39bb d3a8 463d b011 a93d 6e15 bebd
000003f0: e2bc de3d 07cf f13d 7442 d3bb ce55 0dbe
0.05394675 -0.12613147 -0.010104256 0.122962505 0.06470087 0.0769838 -0.09249305 -0.01308674
-0.037694026 -0.050971273 -0.096173055 -0.11778358 0.0677385 0.061417844 -0.07782166 -0.035087265
0.088483416 -0.09497273 0.04931334 -0.09587766 0.06361057 0.097959705 0.09365018 -0.12259537
-0.09306557 0.043346323 0.120656654 -0.086222365 -0.041844245 0.03393963 0.031728934 -0.08824823
0.11604593 0.014471413 -0.047936372 0.022931485 0.045316864 0.013722262 0.054569777 -0.03395823
-0.030268176 0.15992841 -0.030995643 -0.036756568 -0.004774344 0.07934683 0.09128002 -0.053830177
0.097038366 0.13779762 -0.088458255 -0.010387969 0.035920873 -0.0453389 0.03301814 -0.043277327
-0.062397342 0.12095492 0.10052136 0.015766906 0.06703708 0.071232244 0.024400728 0.04113628
0.08523255 0.042298537 0.00032052372 0.049080525 -0.07635172 0.019121768 0.08037862 0.046449672
-0.045981098 0.054246563 0.07555625 0.035393085 0.0961936 0.034524195 0.0071045836 -0.046188895
-0.08290178 0.09909437 -0.045853086 -0.07644143 0.047078066 0.088324845 0.02634531 0.021578712
0.024238847 -0.0047306935 -0.017734492 -0.04798502 0.1029488 -0.07875406 -0.03926478 0.10794655
-0.035977405 -0.11315803 -0.07151017 0.09786281 0.005770743 -0.0689922 0.034698717 -0.044643324
-0.116895296 -0.0043710074 0.037138555 0.078708656 -0.05250869 0.016483089 0.009019139 0.03191242
0.0028530876 -0.01139835 0.06528939 0.01806789 -0.025337527 0.060259145 0.021009272 0.04391835
0.06223535 0.034730896 0.0008852335 0.0032462843 0.0063141547 -0.044479374 0.009023884 -0.103756376
-0.009719131 -0.022332117 0.036250427 -0.10239794 -0.037762675 0.050399933 -0.11222164 0.06755145
-0.13216047 0.03175318 0.07015401 0.1351363 -0.034923434 -0.028971108 0.054035764 -0.004243476
-0.0056288857 0.13793613 0.1557189 -0.020921066 0.07868677 -0.011196823 -0.08870839 0.036560353
0.045756117 0.104452655 0.08122619 0.031989183 -0.03933054 0.118747376 -0.07172817 -0.0322049
-0.121193856 0.08409429 0.10183726 -0.0738058 -0.071205825 -0.021799218 -0.12039617 0.14438798
-0.09250715 -0.05573789 -0.088926785 -0.03547826 0.07129521 0.07488148 -0.10219917 -0.0795087
0.08497752 -0.014830847 -0.02543248 0.12083587 0.11697726 -0.10111155 -0.045123685 0.122400455
-0.14619422 0.059739824 -0.046588525 -0.07269854 -0.0028010348 0.028282769 0.013500468 -0.07482135
0.068149395 0.06376405 -0.047255967 0.016483096 -0.039211255 0.028102206 -0.09877744 0.12291732
-0.16093104 0.113242835 0.056611814 0.015524879 0.034464005 0.043844353 -0.034342293 -0.05260205
0.0025127635 0.10067069 0.007234425 -0.08411031 -0.11165649 0.058477603 -0.08538958 0.10879806
0.011258219 -0.04401476 0.07041068 -0.03135248 -0.020603487 -0.057958074 0.0010067432 -0.0005981336
-0.027776444 0.038947534 -0.10127955 -0.029348668 -0.06800779 -0.040624302 0.0014356215 0.0036256486
0.07277995 -0.061660383 0.093619525 0.07794934 0.037311465 0.08045487 -0.110212386 0.085698605
-0.10660456 0.027551966 0.08767865 0.09178834 -0.037634518 0.105525956 -0.08738551 0.08217834
-0.0028372542 0.048500847 0.08255327 -0.09281431 0.1087587 0.118070655 -0.006447131 -0.13802263

model.actor.3.bias f4 [64]
00000000: b0b7 0ebc 9a2d 90bc 5358 b33d 22b0 0d3d
00000010: 6775 bbbc 01d8 123d dbab 6abd 4a0b dfbc
00000020: 504d 06bc ed8c b63b 3f29 d93d 87ce df3d
00000030: 546c 3cbd 17a8 8d3d e646 90bd 1bd3 09bc
00000040: a44d a93d 1fdd 82bd f46b 85bc b7a0 9e3d
00000050: 1b4f 38bd c43d e8bd 074f c5bd d85a 3c3d
00000060: 3712 3abc f0ec d7bd e941 e83d 470e 3c3d
00000070: b6de 133c 9f7a 003e 8538 973d 3f9d a2bd
00000080: 38ef 9a3d 6d8f d9bc d7a8 51bd 1c08 c73b
00000090: fb9b d2bd de14 933d 2d1f 07bd 9c2e bb3d
000000a0: df17 d13c c2a0 c73b 7479 973d 07f1 8abd
000000b0: 945d 913b 97cf 8dbd bfbf d6bd 253a 33bd
000000c0: 3411 16bd 238a 05bc 11b8 40bc 2bfb 31bd
000000d0: 2d1a 913d eb4c 9b3d 0d09 09bd bb2e dc3d
000000e0: 16c7 a5bd ffc4 793d 0b2c 1abd 601b 8e3d
000000f0: d2df 323c 9666 bd3c b4e9 7f3d 3cf0 63bd
-0.008710787 -0.01759987 0.08757081 0.0345918 -0.02288313 0.03585053 -0.0572928 -0.027227063
-0.008197144 0.005570999 0.1060357 0.10928064 -0.046001747 0.06916826 -0.07044773 -0.008412148
0.08266762 -0.06389832 -0.016286828 0.07745498 -0.044997316 -0.11339906 -0.09634214 0.045985073
-0.011356882 -0.10543239 0.11340696 0.045912053 0.009025266 0.12546776 0.07383827 -0.079401486
0.075651586 -0.026557649 -0.05118641 0.0060739648 -0.10283657 0.071817145 -0.032988716 0.091397494
0.025524078 0.006092162 0.07396212 -0.067842536 0.004436204 -0.0692436 -0.104857914 -0.043756623
-0.0366375 -0.00815061 -0.011762635 -0.043452423 0.07085071 0.0758303 -0.033455897 0.10751101
-0.08094613 0.060978886 -0.03763966 0.06938815 0.010917621 0.023120206 0.062478736 -0.055649027

model.actor.4.weight f4 [64]
00000000: 11ae 8b3f 7e8e 843f 2e31 8b3f 8432 8a3f
00000010: 2cae 823f c716 8f3f 65f4 883f 223f 803f
00000020: f092 a43f 95da 983f 241d 853f 52b2 973f
00000030: 81bc 8d3f 4c4f 963f dae3 913f 22b1 923f
00000040: 27c8 923f a8bc 8c3f 41f2 8d3f 07dc 7e3f
00000050: 4d8f 8c3f e277 833f 8f6a 873f db94 833f
00000060: d1f7 893f aa45 933f 37f5 8e3f 51c3 9a3f
00000070: 4e41 803f b787 863f e348 893f 6a33 843f
00000080: e887 833f a92c 8c3f 88d2 983f 0b69 963f
00000090: 34af 8c3f 17cb 833f de68 953f 15a0 a63f
000000a0: 5160 833f a027 9b3f 4752 863f 2a1d 8d3f
000000b0: 7480 913f 124c 903f 2160 8e3f bed1 873f
000000c0: 82e2 8b3f aa8d 913f b68a 893f 1fbb 923f
000000d0: 3faf 9b3f aa8e a13f c0f3 803f b629 883f
000000e0: 6f83 903f da55 9a3f 124c a03f 3811 963f
000000f0: bac4 823f a7bb 7e3f 076d 823f f129 833f
1.0912496 1.0355985 1.0874383 1.0796666 1.0209403 1.1178826 1.0699583 1.0019267
1.2857342 1.1941706 1.0399518 1.1851294 1.1073152 1.174295 1.139766 1.1460307
1.1467332 1.0995073 1.1089555 0.99554485 1.0981232 1.027096 1.0579394 1.0279802
1.0778753 1.1505635 1.1168584 1.2090856 1.001993 1.0510167 1.0725368 1.032819
1.027585 1.0951129 1.1939249 1.1750807 1.0990968 1.0296353 1.1672628 1.3017603
1.0263768 1.2121468 1.0493859 1.1024525 1.1367326 1.1273215 1.1123086 1.0610883
1.09285 1.1371357 1.0745456 1.1463355 1.2162856 1.2621663 1.0074387 1.0637729
1.129011 1.205745 1.2523215 1.1724005 1.0216286 0.99505085 1.0189523 1.0247175

model.actor.4.bias f4 [64]
00000000: 021c 2f3d 1090 2a3c d59e 183d 1d17 153d
00000010: 22ee 1cbc 5802 513d 8189 5f3c 6165 52bc
00000020: fc76 383d dcfd d23b 0e33 a63c c17e a23c
00000030: bb5e 6a3d 3d17 f73c c86d 2e3d 4c55 3f3d
00000040: 720c 153d 7149 353d 0f0c 8e3d d9fc 24bc
00000050: b98a 123d f280 a73b 40a1 ef3c 12c4 92bc
00000060: bbea 2d3d ee04 5d3d a183 2e3d 490e 283d
00000070: c6ab 4dbb d065 4d3c d553 703c c775 603c
00000080: 6c37 0a3d 3d58 8e3d a82d 983d cc19 253d
00000090: ec55 0e3d 7b44 d13c 68b1 973d cd8c fb3d
000000a0: 82a4 efb9 35aa 993d 3bfc 033d 23a0 373d
000000b0: 29b7 a63d 163e dd3c 6db5 853d 07fb f73c
000000c0: e98e 58bc 8072 733d 2592 363d 4518 413d
000000d0: 1439 633d a986 423d c199 723c 013e 053d
000000e0: 4d41 303d 872f d53c 1582 853d 2ab3 d53d
000000f0: 6b11 963b fa87 193a a9fe 2b3c 0d4e 7bbc
0.04275132 0.010410324 0.03726085 0.036398996 -0.00957826 0.051027626 0.013643623 -0.012841553
0.045035347 0.006438954 0.020288017 0.019835832 0.05721925 0.030162448 0.042585164 0.046712205
0.036388822 0.044259492 0.06935894 -0.010070049 0.035776827 0.005111807 0.029251695 -0.01791576
0.042460185 0.05395978 0.042606 0.04102925 -0.0031382903 0.012536481 0.014668425 0.013699955
0.03374426 0.06950424 0.07430583 0.040307805 0.03474991 0.02554535 0.074068844 0.12282715
-0.000457082 0.075031675 0.032222968 0.044830453 0.08140404 0.027007144 0.06528745 0.030271066
-0.013217666 0.059435368 0.044572968 0.047142286 0.055474356 0.047491703 0.014807166 0.032529835
0.043031026 0.02602364 0.06518952 0.104345635 0.004579713 0.0005856749 0.010497727 -0.015338433

model.actor.6.weight f4 [2, 64]
00000000: ec71 993d 8d51 5ebd e744 b53d 2c41 103e
00000010: 0ef1 3b3c 5e19 d13d 9b31 763b fa29 bcbc
00000020: 6d65 2f3e b2cf 1a3e e1c0 dc3d 0372 93be
00000030: 1a08 70be 51c6 83be 8250 3d3e 924c a7bd
00000040: bedd 31be c1e3 8e3d 9444 4d3e ff5b 8ebb
00000050: 018f 7dbd 579c 55bd 9c4c d7bd c489 bbbd
00000060: 796d 87bd 1c6d 593e 2c9f 273e 9d6e 75be
00000070: 80ac 75bd 2826 3abd 63b4 d1bd 9de2 04be
00000080: c263 373d 8043 01be 2253 203e 8c47 6c3e
00000090: 9b0d 2f3e 358b 133e b55c 08be 319b 23bd
000000a0: e5d0 6c3d 2992 3f3e b7d8 c3bd 17ff 36bd
000000b0: b0dc c3bd 8a7a 3fbe cbf8 333e 570c f73d
000000c0: 3960 3ebe 27ad 053e b863 81bd 2073 183e
000000d0: 37ca 53bd 92e6 8e3e 6365 ed3d 7f3b cabd
000000e0: cf13 ebbd 60ee e53d 5a47 33be 875d f63b
000000f0: 5e25 da3d 210f 86bd 4221 f2bd 29fc c9bd
00000100: 79fc 433e b676 213e 17ee 33be 2302 f63c
00000110: ba4a 58bd 13af 093e 0a6c fe3d d613 6f3d
00000120: d546 6a3e 5f55 793e fed7 35bd a2a1 38be
00000130: 53f7 f2bc af6d 2bbe 4b3b a23d 3100 26be
00000140: 558c f4bd 18bb d0bd 653f bd3c 5237 b63d
00000150: 0442 24be cbd6 f53d a130 0cbe 5382 4bbd
00000160: 3475 46be 4a87 043e aa8f 423e faab 22be
00000170: 6a84 313d 5d09 213d 1e80 ab3d ca1d 013d
00000180: c4f0 7e3d a1e9 353e fc7e e83d 616d 703e
00000190: d5eb d53d 47d6 413d 509b 653d 0145 7abe
000001a0: f502 84bd ce0b 713e 94a0 d1bd e6db 473e
000001b0: 8889 58be e88c 6cbd 0a00 9d3c b5ee e0bc
000001c0: 5850 d8bd bff0 0bbd 5172 adbb 5983 2ebd
000001d0: 52a0 5dbe 9fd9 8c3e e6e7 f9bd 79e9 f63d
000001e0: c619 ebbd 4341 b33d a105 7dbe b4a3 0a3e
000001f0: 233a 83bd 6bda ad3d c407 443d 2a3d 6e3d
0.07492432 -0.05427699 0.08851033 0.14087361 0.011471046 0.102099165 0.0037566188 -0.022969235
0.17128535 0.15118292 0.10778976 -0.28797922 -0.2344059 -0.2573724 0.18487743 -0.081689015
-0.17369744 0.06977034 0.20045692 -0.004344463 -0.061903957 -0.05215105 -0.10512659 -0.09157136
-0.06612677 0.21233028 0.16369313 -0.23967977 -0.059978962 -0.045446545 -0.10239484 -0.12977071
0.04477287 -0.12623405 0.15656713 0.23074168 0.17095034 0.14408572 -0.13316615 -0.039942924
0.057816405 0.187081 -0.095628195 -0.044676866 -0.09563577 -0.18699089 0.17575376 0.120629005
-0.18591394 0.13054334 -0.06317848 0.14887667 -0.05170652 0.27910286 0.115916036 -0.09874629
-0.114783876 0.11227107 -0.17507687 0.0075184735 0.106516585 -0.06545854 -0.1182275 -0.09862549
0.1913928 0.15767941 -0.17571293 0.030030316 -0.05280564 0.13445692 0.124229506 0.058368526
0.22878583 0.24348973 -0.04439544 -0.18030408 -0.029658949 -0.1674106 0.079214655 -0.1621101
-0.11940829 -0.10191935 0.023101518 0.0889727 -0.16040808 0.12003859 -0.13690425 -0.049684834
-0.19380647 0.12942234 0.19000116 -0.15885916 0.04333917 0.03931557 0.08374046 0.03152255
0.06224133 0.17764904 0.11352345 0.23479225 0.10445372 0.04732349 0.05605632 -0.24440385
-0.064458765 0.2353966 -0.10235706 0.19517478 -0.21146214 -0.057751566 0.019165058 -0.027457574
-0.10562199 -0.03416514 -0.0052931686 -0.04260573 -0.21643189 0.27509782 -0.12202434 0.1205625
-0.11479525 0.08752682 -0.24709179 0.1353901 -0.06407573 0.084889255 0.04785897 0.0581638

model.actor.6.bias f4 [2]
00000000: 3904 c0bd 7f3f be3b
-0.093758054 0.005805909
