src/taser/locomotion/models/track_velocity.pth (torch, 59817 bytes, 22 tensors)

log_std f4 [2]
-1.2468332 -1.2013718
00000000: 3b98 9fbf 8dc6 99bf

actor.0.weight f4 [64, 29]
-0.027442753 0.1299595 0.038015883 -0.05909593 -0.019195182 0.001393718 -0.06052184 -0.07809496
0.025746504 -0.09184973 0.029202335 0.1664831 0.043510523 0.07102641 -0.057510328 -0.028950987
0.09701365 -0.02012246 -0.04833825 0.04956694 0.12144129 -0.07080788 0.060688913 0.05189104
0.04972225 -0.094833545 -0.09851955 0.066477984 -0.18799777 -0.049135655 -0.026999593 -0.025339441
-0.071210675 0.044647407 0.025220515 -0.028542828 -0.04979207 -0.034521807 0.10289717 0.09199615
0.047938682 -0.013084531 0.078341976 -0.032069657 -0.081826344 -0.011949799 -0.06121475 -0.16312395
0.09619371 -0.05778378 -0.1578114 0.0005463689 0.10584478 0.02307894 0.09292592 0.10440197
-0.039066996 0.16160338 -0.07937063 -0.008756377 0.07352912 0.039116304 0.11247172 -0.012131755
0.025156658 -6.636523e-05 -0.08859625 0.2055328 0.062420543 -0.21577044 0.026014205 -0.07575673
0.0792427 0.09760019 -0.019824656 -0.021962274 -0.0041059945 -0.034214817 0.15694161 0.02112458
0.12510681 -0.07941199 0.0889705 0.19807091 0.07219391 0.042723477 0.09275309 -0.038998324
0.030527407 -0.056244835 0.076613516 0.0020959228 0.03836282 0.04527324 -0.010248341 0.0034126407
0.088472866 -0.06356889 0.00020548371 0.002672628 -0.00079156185 0.03585955 0.004457911 0.025667239
0.05180101 -0.1331924 0.11263316 -0.0664905 0.29638192 0.00483994 0.0013281073 -0.15400049
-0.0028759 -0.041006856 0.004465618 -0.28606555 -0.019892812 -0.0141152125 0.012777057 0.03638519
0.013654785 -0.011490594 0.024548741 -0.028869588 -0.007606143 0.0013982338 0.008830959 0.02307696
0.0019148913 -0.015976297 -0.01517051 0.0319619 -0.2503301 -0.015263304 0.01839834 -0.034738574
-0.04125041 -0.15111195 0.052570514 0.099549405 -0.23269598 0.028951965 0.09411636 0.0070779594
0.14410508 -0.07077174 0.06808871 -0.017604738 0.036498442 -0.011668345 -0.015204471 -0.056970764
-0.07694266 -0.07656969 -0.18952169 0.028446475 -0.15578535 -0.0009594665 -0.006478339 -0.09777274
-0.030113738 0.00084062066 0.012505612 -0.057315715 -0.09691712 -0.1287372 -0.21731274 0.21443689
0.05740432 -0.2714327 0.07520498 -0.03502943 0.14039674 0.005801905 -0.011701086 -0.051622428
0.010965592 -0.11162334 0.031829957 0.035016328 0.053850826 0.0010762854 -0.08144811 0.055618327
0.046620004 0.026256911 -0.0070467438 -0.057883058 0.11147207 0.04602201 -0.13674489 0.1144282
-0.08499547 -0.011487727 -0.198618 -0.24744253 -0.10288047 0.09250172 0.024756977 0.06401107
-0.087412894 -0.062082652 -0.07144668 0.015768316 0.017048335 0.037335742 -0.03964785 0.03322526
-0.0394478 0.054367654 -0.061544694 -0.017237544 0.084897 -0.0074290554 0.06314968 -0.030230891
-0.058725134 0.084892645 -0.058986083 0.09376349 0.047407735 0.0013573298 0.033112638 0.049730085
-0.20043917 -0.06749519 0.08289287 -0.25710455 -0.09144161 -0.15824616 -0.1195053 0.20790127
0.085254245 0.06824388 -0.004172333 0.053739127 0.046820782 0.03881032 0.012381349 0.032587804
-0.009567234 0.0041298065 -0.03778056 0.195009 -0.006870504 -0.1195246 -0.007099695 0.051578492
-0.024728427 -0.01794257 0.013900399 -0.1533206 0.15649682 0.21275006 0.07645111 0.20730062
00000000: a0cf e0bc 1a14 053e 8bb6 1b3d 930e 72bd
00000010: 373f 9dbc 6aad b63a c0e5 77bd 40f0 9fbd
00000020: 55ea d23c b61b bcbd bc39 ef3c 8c7a 2a3e
00000030: 1738 323d 4b76 913d f38f 6bbd 9f2a edbc
00000040: 18af c63d dbd7 a4bc 54fe 45bd b406 4b3d
00000050: 36b6 f83d b903 91bd f094 783d b38b 543d
00000060: 8fa9 4b3d 1738 c2bd 9ec4 c9bd 9c25 883d
00000070: 7d82 40be 7842 49bd 402e ddbc a994 cfbc
00000080: e7d6 91bd 33e0 363d 419b ce3c a6d2 e9bc
00000090: c5f2 4bbd bd66 0dbd c0bb d23d 7a68 bc3d
000000a0: 5a5b 443d 8060 56bc c271 a03d 795b 03bd
000000b0: 9294 a7bd 17c9 43bc 51bc 7abd f709 27be
000000c0: 3501 c53d afae 6cbd 5099 21be 323a 0f3a
000000d0: 26c5 d83d 0c10 bd3c f24f be3d b3d0 d53d
000000e0: b704 20bd 5b7b 253e 128d a2bd e876 0fbc
000000f0: 6f96 963d 6b38 203d 9357 e63d 45c4 46bc
00000100: 5615 ce3c 902d 8bb8 f371 b5bd 3177 523e
00000110: afac 7f3d edf2 5cbe be1b d53c 5826 9bbd
00000120: ff49 a23d 9ce2 c73d 5167 a2bc 3aea b3bc
00000130: 948b 86bb d624 0cbd 4db5 203e 750d ad3c
00000140: 001c 003e c1a2 a2bd 2a36 b63d 1ad3 4a3e
00000150: 67da 933d d0fe 2e3d 55f5 bd3d b5bc 1fbd
00000160: 9d14 fa3c fc60 66bd 8ce7 9c3d c05b 093b
00000170: 5522 1d3d 6f70 393d a8e8 27bc 9ca6 5f3b
00000180: 4331 b53d 6830 82bd 1d77 5739 4227 2f3b
00000190: d180 4fba 77e1 123d ab13 923b 1a44 d23c
000001a0: 4c2d 543d 9763 08be 37ac e63d 2c2c 88bd
000001b0: 5fbf 973e 5c98 9e3b e313 ae3a 4eb2 1dbe
000001c0: 9879 3cbb cef6 27bd 5254 923b 2f77 92be
000001d0: 40f6 a2bc 7e43 67bc dc56 513c a308 153d
000001e0: 52b8 5f3c 0b43 3cbc 711a c93c ea7f ecbc
000001f0: f43c f9bb f144 b73a baaf 103c e50b bd3c
00000200: 17fd fa3a b9e0 82bc bb8d 78bc 7bea 023d
00000210: 442b 80be f012 7abc 1eb8 963c 094a 0ebd
00000220: 31f6 28bd 17bd 1abe 2e54 573d 8fe0 cb3d
00000230: db47 6ebe ac2c ed3c 14c0 c03d 3aee e73b
00000240: 4890 133e c6f0 90bd 1872 8b3d d037 90bc
00000250: 647f 153d 962c 3fbc 2c1c 79bc 2d5a 69bd
00000260: 1d94 9dbd 92d0 9cbd f911 42be 9508 e93c
00000270: 3286 1fbe b584 7bba 3f48 d4bb 133d c8bd
00000280: 16b1 f6bc 195d 5c3a 57e4 4c3c e2c3 6abd
00000290: 7c7c c6bd afd3 03be 3b87 5ebe 5895 5b3e
000002a0: cb20 6b3d 3af9 8abe 1205 9a3d 057b 0fbd
000002b0: 2ac4 0f3e e81d be3b e9b5 3fbc 0a72 53bd
000002c0: 07a9 333c c79a e4bd 2160 023d 486d 0f3d
000002d0: af92 5c3d 2512 8d3a 44ce a6bd 0bd0 633d
000002e0: 9ef4 3e3d bc18 d73c 5fe8 e6bb c916 6dbd
000002f0: 784b e43d 9381 3c3d da06 0cbe 5559 ea3d
00000300: 1b12 aebd 0537 3cbc 8462 4bbe 9361 7dbe
00000310: ffb2 d2bd 8b71 bd3d 25cf ca3c 3c18 833d
00000320: 8805 b3bd 614a 7ebd a352 92bd 8e2c 813c
00000330: f3a8 8b3c 5ded 183d c965 22bd 3617 083d
00000340: 0494 21bd 9eb0 5e3d 4a16 7cbd c035 8dbc
00000350: 7ade ad3d 6f6f f3bb 9f54 813d c6a6 f7bc
00000360: c489 70bd 32dc ad3d 649b 71bd 1307 c03d
00000370: 9d2e 423d 6ee8 b13a 1ea1 073d c6b1 4b3d
00000380: ed3f 4dbe eb3a 8abd bdc3 a93d 35a3 83be
00000390: bd45 bbbd 480b 22be 32bf f4bd 12e4 543e
000003a0: c799 ae3d 73c3 8b3d 11b8 88bb 8f1d 5c3d
000003b0: 26c7 3f3d 92f7 1e3d 24db 4a3c ca7a 053d
000003c0: e3bf 1cbc 5453 873b cabf 1abd 70b0 473e
000003d0: f721 e1bb 50c9 f4bd 8fa4 e8bb f843 533d
000003e0: 4593 cabc 4cfc 92bc 80be 633c 1300 1dbe
000003f0: b440 203e 27db 593e 6692 9c3d 9d46 543e

actor.0.bias f4 [64]
-0.008729489 0.15275039 0.0038859965 0.23075803 -0.026820708 -0.05937213 -0.15360895 0.06765582
-0.023895558 -0.17884456 -0.039379057 -0.18616687 0.06966557 0.07694635 -0.016041359 -0.027786756
0.14002043 0.01870287 -0.22114806 0.012582888 0.11654935 -0.18287821 -0.11309649 0.19438553
-0.13696603 -0.1255428 0.017720245 0.09235326 -0.07328701 0.021890368 -0.25838724 -0.24666287
0.00022493878 -0.02816687 -0.14068161 0.22235812 -0.008330044 -0.14246175 0.021465994 -0.103988364
0.01671108 0.057770193 0.20341066 0.17645991 -0.17819065 -0.11700779 -0.31378198 -0.076105565
0.2352856 0.079652674 0.039409842 -0.16098727 -0.050773732 0.0763728 0.05886197 0.0623219
-0.11708759 0.0027266867 -0.06866257 -0.23442546 0.08979502 0.13530429 -0.26451954 -0.11655726
00000000: 2106 0fbc 996a 1c3e 34ac 7e3b d54b 6c3e
00000010: 1ab7 dbbc 3130 73bd aa4b 1dbe 228f 8a3d
00000020: 9ec0 c3bc 0723 37be ef4b 21bd 87a2 3ebe
00000030: d3ac 8e3d 0c96 9d3d 2b69 83bc 0da1 e3bc
00000040: 8461 0f3e c336 993c a374 62be 7528 4e3c
00000050: 6db1 ee3d 6d44 3bbe 229f e7bd 000d 473e
00000060: d340 0cbe 4b8e 00be 0c2a 913c b523 bd3d
00000070: 8017 96bd 6e53 b33c 554b 84be 3195 7cbe
00000080: 8bdd 6b39 35be e6bc d70e 10be d9b1 633e
00000090: bd7a 08bc 7ee1 11be 74d9 af3c daf7 d4bd
000000a0: ade5 883c 70a0 6c3d e24a 503e e8b1 343e
000000b0: 9c77 36be c8a1 efbd 08a8 a0be 3cdd 9bbd
000000c0: b5ee 703e f120 a33d 376c 213d d9d9 24be
000000d0: 1ef8 4fbd 5869 9c3d 4019 713d 4045 7f3d
000000e0: 9ecb efbd 36b2 323b f69e 8cbd 3a0d 70be
000000f0: 74e6 b73d 358d 0a3e 1b6f 87be 93b5 eebd

actor.1.weight f4 [64]
0.93091327 1.0363338 0.9482468 1.1231512 1.0644652 0.99337375 0.9409449 1.0063105
0.9507484 0.99727285 0.97692055 0.9205883 0.958563 1.0033283 0.9821326 0.98889995
0.9963815 0.97637683 0.9374996 0.9710038 1.086715 0.944705 0.957558 1.038328
0.9940594 0.9707823 0.9462532 1.0441686 0.96481526 0.9744466 1.0150723 0.97825253
0.9467883 0.9605542 0.9449071 0.95789826 0.9227133 0.92513704 0.9214411 0.97888446
0.97146726 1.0340569 1.0626099 1.0073397 0.90463614 1.0912498 1.1129094 1.0253057
1.0603763 0.9116304 1.01547 0.9574092 0.98725384 0.91216546 1.0587084 1.0060978
0.9783695 0.99124926 0.9925767 0.95391506 1.0436664 0.95846933 0.9857911 1.0032977
00000000: 5550 6e3f 96a6 843f 4dc0 723f 6bc3 8f3f
00000010: 6540 883f be4d 7e3f c4e1 703f c8ce 803f
00000020: 3f64 733f 464d 7f3f 7717 7a3f adab 6b3f
00000030: 6364 753f 106d 803f 0b6d 7b3f 8c28 7d3f
00000040: dc12 7f3f d5f3 793f f9ff 6f3f b493 783f
00000050: 7a19 8b3f 30d8 713f 8522 753f efe7 843f
00000060: ad7a 7e3f 3085 783f a63d 723f 51a7 853f
00000070: 22fe 763f 5575 793f e4ed 813f c26e 7a3f
00000080: b860 723f e1e6 753f 6fe5 713f d238 753f
00000090: f036 6c3f c8d5 6c3f 90e3 6b3f 2c98 7a3f
000000a0: 14b2 783f fa5b 843f 9a03 883f 82f0 803f
000000b0: 3c96 673f 13ae 8b3f d173 8e3f 383d 833f
000000c0: 69ba 873f 9c60 693f ecfa 813f c518 753f
000000d0: abbc 7c3f ad83 693f c283 873f d0c7 803f
000000e0: 6c76 7a3f 83c2 7d3f 8219 7e3f c733 743f
000000f0: dc96 853f 3f5e 753f ce5c 7c3f 0f6c 803f

actor.1.bias f4 [64]
-0.013238257 0.045600563 -0.018210338 0.08454274 0.05890241 0.030121721 -0.03404701 0.07478887
-0.026287904 0.030582562 0.013574944 -0.019831907 -0.003471862 0.014373406 -0.0030669214 0.02950399
0.018067801 -0.020374728 -0.010941298 0.033153836 0.054863613 -0.012788478 0.030263249 0.029679017
-0.024082141 0.045391627 -0.001840411 0.05633675 0.049269684 -0.013302134 0.011843062 0.010220677
-0.010727995 -0.019896336 -0.0058016335 -0.018548155 -0.041824102 0.05853182 -0.04198983 -0.008718424
0.012761362 0.06653628 0.056161664 0.025262905 -0.011438185 -0.03000369 0.015740154 0.0072664125
0.0606902 -0.017704584 0.093796305 0.0065659517 0.06751222 -0.04933758 0.084738575 0.035826836
0.043589376 0.009411314 0.004149389 0.01170946 0.039180968 -0.00010939522 0.02524431 0.08238265
00000000: 46e5 58bc a8c7 3a3d d92d 95bc be24 ad3d
00000010: a743 713d d4c1 f63c e174 0bbd e82a 993d
00000020: bb59 d7bc 4888 fa3c 7169 5e3c 8676 a2bc
00000030: 2e88 63bb 6f7e 6b3c 67fe 48bb 5ab2 f13c
00000040: ed02 943c e7e8 a6bc 2143 33bc 51cc 073d
00000050: abb8 603d c486 51bc a2ea f73c 6921 f33c
00000060: e947 c5bc 92ec 393d f239 f1ba 5dc1 663d
00000070: 02cf 493d 32f1 59bc 6709 423c a074 273c
00000080: 79c4 2fbc a4fd a2bc a11b bebb 4df2 97bc
00000090: c04f 2bbd 10bf 6f3d 87fd 2bbd b8d7 0ebc
000000a0: 0815 513c 2c44 883d c609 663d 27f4 ce3c
000000b0: 3a67 3bbc 4cca f5bc 7ff1 803c 161b ee3b
000000c0: 4a96 783d 3409 91bc 4718 c03d 3227 d73b
000000d0: d943 8a3d 3416 4abd 6b8b ad3d 29bf 123d
000000e0: c68a 323d e931 1a3c 99f7 873b 09d9 3f3c
000000f0: 397c 203d 1d6b e5b8 28cd ce3c 3cb8 a83d

actor.3.weight f4 [64, 64]
-0.1201658 -0.10931981 -0.11726733 -0.035975933 0.0027741063 0.034598418 -0.026100801 0.06727971
-0.033961944 0.17361282 0.055154763 0.076017596 0.030287554 0.110061355 -0.0054499763 -0.07552452
-0.06904994 0.011395838 0.10277034 -0.015443972 0.12250784 0.1551628 -0.00037148327 -0.09261296
-0.013126423 0.05562119 0.09050425 -0.07189568 -0.090511754 -0.115920365 0.0024706216 0.11152126
0.048472326 0.026889782 0.027341742 -0.07704659 -0.11359574 0.07536108 -0.047151487 0.14283295
-0.037410706 0.07577805 -0.13889664 0.016414583 -0.03447901 0.15175408 0.12058162 0.1500105
-0.058689106 -0.007107395 0.03447674 0.1271925 -0.03274847 -0.004818674 -0.10412874 0.059666973
-0.06389239 -0.10722725 0.06265741 0.041873634 0.109830886 -0.051448997 0.004630654 0.08145352
0.08479704 -0.09773373 -0.10593923 -0.03826871 0.07640136 0.04888477 0.1092815 -0.091028236
0.06420274 -0.044459958 0.033171274 0.031255674 0.013017036 -0.040714912 -0.034611247 -0.025170427
-0.027579118 -0.069008835 -0.04251459 0.09498856 -0.096844904 -0.032678895 0.007178126 0.019804846
0.047875363 0.002399 -0.07302773 0.0027063142 0.059929516 0.0932146 -0.026349667 0.08520391
0.07680668 -0.09353404 -0.070402816 0.08385524 0.049702402 0.04296992 0.09836347 -0.045975875
0.035148103 0.060275815 0.04841598 0.043449122 -0.026804486 -0.06906112 -0.19035235 0.12538572
0.041941766 -0.104631014 0.040694647 0.060861338 -0.07562337 0.014761408 -0.016839448 -0.104878075
-0.02076115 -0.10549191 0.13278975 -0.004136126 0.012290392 0.07269678 0.033923034 0.027947892
-0.038514074 0.08536719 -0.022941705 -0.017791819 -0.031746037 0.038931537 0.028714495 -0.033710398
0.152846 -0.03983027 -0.051746897 -0.08016311 0.043061543 0.07049737 0.05519594 0.048576172
-0.0020712425 -0.036554303 -0.00907305 -0.07567927 -0.06311605 0.021427236 0.026221406 -0.09904873
-0.0060159364 -0.029492455 -0.037172038 -0.08309858 0.010571604 -0.070966996 -0.079323664 0.050772198
0.11579201 0.05050479 0.06300142 -0.034938976 -0.06889957 0.02071182 -0.06086321 -0.0681746
-0.029316068 -0.096904516 0.08619399 0.0044368617 -0.014348991 0.08814794 0.15065868 -0.028570108
-0.019620443 0.03839086 0.037752423 0.09543619 0.026744807 0.08246286 -0.10008993 -0.062272213
0.0437182 0.011889071 -0.096900105 -0.07367139 -0.06010318 0.07663923 -0.08128803 -0.009357625
0.024325505 0.013308953 0.007690408 0.15537666 -0.094654225 0.06861231 -0.06923841 -0.0028493078
0.10836408 0.05468013 0.08537874 0.01528881 -0.05625032 0.103754304 -0.029870113 0.061448034
0.09465577 0.06438917 0.046595614 -0.05236243 0.12607807 -0.05795343 0.09988537 -0.10761828
0.046456452 -0.017036727 0.045165155 -0.10711037 0.15280634 0.04213374 -0.04402659 -0.06623971
0.023097051 0.093879014 -0.019271879 -0.05769714 0.11877381 -0.0032995036 -0.11499715 0.016234701
-0.07723583 -0.109346665 -0.029791024 0.060438912 -0.089039914 -0.19751962 -0.106404945 0.06649961
-0.17329125 0.0109931445 0.06439597 -0.1141965 -0.046909377 0.03931294 -0.041298497 -0.060840838
0.104152165 0.098535694 0.06324093 -0.010822079 0.1304646 0.105011724 -0.03788493 0.081599526
00000000: 7d19 f6bd 11e3 dfbd db29 f0bd 805b 13bd
00000010: c8cd 353b 12b7 0d3d 59d1 d5bc f2c9 893d
00000020: ae1b 0bbd 8fc7 313e f6e9 613d 1daf 9b3d
00000030: 9b1d f83c d967 e13d b795 b2bb 99ac 9abd
00000040: 0e6a 8dbd 9cb5 3a3c 4279 d23d b708 7dbc
00000050: 64e5 fa3d ffe2 1e3e a4c3 c2b9 ddab bdbd
00000060: 3510 57bc 0cd3 633d 4b5a b93d 0b3e 93bd
00000070: 3a5e b9bd a867 edbd 27ea 213b 4265 e43d
00000080: eb8a 463d f647 dc3c cafb df3c 9aca 9dbd
00000090: e2a4 e8bd e956 9a3d eb21 41bd cd42 123e
000000a0: f83b 19bd 8631 9b3d ec3a 0ebe e077 863c
000000b0: dd39 0dbd 6c65 1b3e 7ff3 f63d 5a9c 193e
000000c0: fd63 70bd 27e5 e8bb 7b37 0d3d c03e 023e
000000d0: 4223 06bd f8e5 9dbb 7341 d5bd 5b65 743d
000000e0: 03da 82bd f699 dbbd 8752 803d b083 2b3d
000000f0: 04ef e03d 2fbc 52bd bebc 973b 1ad1 a63d
00000100: 12aa ad3d 9f28 c8bd abf6 d8bd a7bf 1cbd
00000110: 5178 9c3d 663b 483d fbce df3d 036d babd
00000120: ba7c 833d a51b 36bd 9ade 073d f305 003d
00000130: 6845 553c aec4 26bd 86c4 0dbd 3632 cebc
00000140: 9aed e1bc 8154 8dbd c723 2ebd 5d89 c23d
00000150: 9f56 c6bd 4eda 05bd 7c36 eb3b c63d a23c
00000160: f518 443d 8b38 1d3b 908f 95bd 6b5c 313b
00000170: a778 753d 4ce7 be3d 42db d7bc 637f ae3d
00000180: d24c 9d3d c68e bfbd 5a2f 90bd 4cbc ab3d
00000190: bf94 4b3d 3a01 303d c972 c93d 3351 3cbd
000001a0: 75f7 0f3d c6e3 763d d64f 463d b5f7 313d
000001b0: 1595 dbbc eb6f 8dbd baeb 42be 1d65 003e
000001c0: 21cb 2b3d c948 d6bd 6eaf 263d bd49 793d
000001d0: 6de0 9abd d5d9 713c e2f2 89bc 51ca d6bd
000001e0: 4a13 aabc 240c d8bd 09fa 073e 5788 87bb
000001f0: a45d 493c 0de2 943d e1f2 0a3d faf2 e43c
00000200: efc0 1dbd fed4 ae3d 3ef0 bbbc 26c0 91bc
00000210: 2208 02bd ad76 1f3d a93a eb3c ea13 0abd
00000220: a983 1c3e 1125 23bd 8ef4 53bd 8e2c a4bd
00000230: 4d61 303d ed60 903d 2315 623d cff7 463d
00000240: afbd 07bb f7b9 15bd 21a7 14bc bcfd 9abd
00000250: fd42 81bd 2c88 af3c 46ce d63c 10da cabd
00000260: 5521 c5bb 299a f1bc b541 18bd 972f aabd
00000270: 8534 2d3c 2557 91bd 7274 a2bd 82f6 4f3d
00000280: 5d24 ed3d 1cde 4e3d e306 813d 2c1c 0fbd
00000290: 381b 8dbd d6ab a93c b44b 79bd 209f 8bbd
000002a0: 4028 f0bc e075 c6bd 7a86 b03d 1863 913b
000002b0: 0818 6bbc e886 b43d 4546 1a3e dc0b eabc
000002c0: 0dbb a0bc bc3f 1d3d 49a2 1a3d 0d74 c33d
000002d0: ed17 db3c 4ae2 a83d f3fb ccbd 2611 7fbd
000002e0: db11 333d 61ca 423c 9073 c6bd 07e1 96bd
000002f0: c12e 76bd 07f5 9c3d 577a a6bd b950 19bc
00000300: 4846 c73c cb0d 5a3c d1ff fb3b 0f1b 1f3e
00000310: 13da c1bd 9c84 8c3d decc 8dbd 74bb 3abb
00000320: fded dd3d 46f8 5f3d 0ddb ae3d eb7d 7a3c
00000330: bc66 66bd 237d d43d 2bb2 f4bc efb0 7b3d
00000340: e2da c13d 78de 833d 0bdb 3e3d fd79 56bd
00000350: 9c1a 013e 9360 6dbd b390 cc3d f966 dcbd
00000360: 1f49 3e3d 9b90 8bbc 19ff 383d af5c dbbd
00000370: 4479 1c3e 6e94 2c3d 3a55 34bd afa8 87bd
00000380: 0736 bd3c a443 c03d 0fe0 9dbc d653 6cbd
00000390: af3f f33d 7c3c 58bb a083 ebbd a3fe 843c
000003a0: d22d 9ebd 25f1 dfbd 4e0c f4bc cb8e 773d
000003b0: 8f5a b6bd 9542 4abe d6ea d9bd f330 883d
000003c0: 4373 31be 971c 343c 09e2 833d dbdf e9bd
000003d0: 0c24 40bd 9b06 213d 9d28 29bd 3e34 79bd
000003e0: bb4d d53d 15cd c93d 7684 813d 174f 31bc
000003f0: 8398 053e 6310 d73d 3a2d 1bbd a71d a73d

actor.3.bias f4 [64]
-0.10463927 0.02468882 0.09015789 -0.093931496 -0.016568054 0.0070017087 -0.055808593 -0.07511524
-0.070076056 0.09978866 0.060571883 0.03596284 -0.03858434 -0.06928219 0.048605494 -0.062339466
0.10081244 -0.012567407 -0.08155247 -0.027936608 -0.058491264 -0.08665454 0.058378797 0.019272191
-0.07352199 -0.100059085 0.08336035 -0.037632648 -0.115521505 0.108031526 0.086054735 0.06808802
0.083248526 0.04823713 -0.03964201 -0.061778083 -0.051865447 -0.07197527 -0.02424252 -0.055198517
-0.05320276 0.1266647 -0.0067615076 -0.060829893 0.03312201 -0.010686439 0.08637906 0.093217924
0.010034737 -0.07730775 -0.09288925 0.1216967 0.03080541 -0.009743875 0.100486666 -0.069761164
-0.09555837 0.016452735 0.042709637 -0.08474874 0.09553861 -0.06257936 0.05198451 -0.08450281
00000000: 1d4d d6bd 3540 ca3c b3a4 b83d 285f c0bd
00000010: bab9 87bc 976e e53b 8d97 64bd 05d6 99bd
00000020: 0984 8fbd ff5d cc3d 391a 783d c54d 133d
00000030: 9d0a 1ebd d2e3 8dbd 8e16 473d ab57 7fbd
00000040: c176 ce3d 87e7 4dbc fb04 a7bd 50db e4bc
00000050: 8994 6fbd ef77 b1bd 9b1e 6f3d b7e0 9d3c
00000060: b292 96bd c7eb ccbd d5b8 aa3d b124 1abd
00000070: 8a96 ecbd a23f dd3d 773d b03d bb71 8b3d
00000080: 347e aa3d 4c94 453d a95f 22bd 040b 7dbd
00000090: dd70 54bd c567 93bd 4098 c6bc d717 62bd
000000a0: 23eb 59bd 64b4 013e a38f ddbb c428 79bd
000000b0: f2aa 073d 2d16 2fbc 81e7 b03d 0ae9 be3d
000000c0: bd68 243c 8753 9ebd b83c bebd 1f3c f93d
000000d0: a15b fc3c c6a4 1fbc f4cb cd3d f1de 8ebd
000000e0: 1bb4 c3bd e3c7 863c 4df0 2e3d bf90 adbd
000000f0: bfa9 c33d 9c29 80bd b6ed 543d cf0f adbd

actor.4.weight f4 [64]
1.2108601 1.0491648 1.100435 1.1908997 1.1354189 1.0783695 1.129624 0.9844229
1.0278616 1.1080216 1.0685542 1.0449476 1.0309004 1.231476 1.0385277 1.1102154
0.9989904 1.0374086 1.0822693 1.1011432 1.2482331 1.0157183 1.1968381 1.0678436
1.0490505 1.1909343 1.0821699 1.0075313 1.0864283 1.0325496 1.1318504 1.1002333
1.0897356 1.0752275 1.0774993 1.0791178 1.2271211 1.2600515 0.9764296 1.0511895
1.0619751 1.1484782 1.126849 1.0039456 1.0318679 1.0933363 1.094041 0.9840314
1.1005545 1.2272848 1.0585253 1.246726 1.071284 1.1357088 1.1162689 1.0248392
1.0565348 1.0296547 1.0327727 1.1592162 1.0167485 1.3022093 1.0511882 1.1433973
00000000: 77fd 9a3f 084b 863f 0edb 8c3f 676f 983f
00000010: 6855 913f 0308 8a3f 8597 903f 2403 7c3f
00000020: f890 833f a7d3 8d3f 62c6 883f d8c0 853f
00000030: 8bf4 833f 01a1 9d3f 7aee 843f 8a1b 8e3f
00000040: d6bd 7f3f cec9 843f cd87 8a3f 43f2 8c3f
00000050: 1ac6 9f3f 0f03 823f fe31 993f 19af 883f
00000060: 4947 863f 8970 983f 8b84 8a3f c9f6 803f
00000070: 1510 8b3f 962a 843f 79e0 903f 72d4 8c3f
00000080: 757c 8b3f 0ea1 893f 7feb 893f 8820 8a3f
00000090: 4e12 9d3f 5e49 a13f 4af7 793f 618d 863f
000000a0: cdee 873f 5501 933f 973c 903f 4a81 803f
000000b0: 3f14 843f 72f2 8b3f 8909 8c3f 7be9 7b3f
000000c0: f8de 8c3f ab17 9d3f c27d 873f b894 9f3f
000000d0: d61f 893f e85e 913f e6e1 8e3f ee2d 833f
000000e0: 883c 873f bacb 833f e531 843f 3261 943f
000000f0: d124 823f cbae a63f 568d 863f d85a 923f

actor.4.bias f4 [64]
0.025186272 0.032429207 0.017931232 0.07523382 0.024750954 0.045365974 0.053952787 -0.005813655
0.008026031 0.026881158 0.05726985 0.026787292 0.0024272753 0.08340104 0.042129204 0.017067272
-8.18733e-05 0.029210258 0.04404191 0.031695817 0.07985183 0.01960825 0.11558185 0.036609277
0.03946899 0.065985195 0.044148006 -0.002800496 0.047678664 0.02579701 0.06286282 0.058247395
0.044807024 -0.0088071795 0.05380326 0.034826647 0.058987953 0.09289055 -0.031441152 0.023280885
0.028644165 0.021114161 0.03571785 0.0049812477 0.015111823 0.04987629 0.032573447 0.012596763
0.031502146 0.06672428 0.047292154 0.039840247 0.041054565 0.022203654 0.047229275 0.01972865
0.038873553 0.020211024 0.032601107 0.067457974 0.00996565 0.06233607 0.04102689 0.06522836
00000000: 7153 ce3c 7dd4 043d 85e4 923c 3014 9a3d
00000010: 83c2 ca3c acd1 393d 99fd 5c3d 7980 bebb
00000020: 9d7f 033c e035 dc3c ca93 6a3d 0671 db3c
00000030: ec12 1f3b 2ace aa3d ac8f 2c3d aad0 8b3c
00000040: 65b3 abb8 5a4a ef3c 4a65 343d 79d3 013d
00000050: 5b89 a33d 7ba1 a03c 2db6 ec3d 9cf3 153d
00000060: 3caa 213d 3f23 873d 8ad4 343d 8788 37bb
00000070: b44a 433d 4054 d33c 39be 803d d294 6e3d
00000080: 9287 373d fd4b 10bc cf60 5c3d 63a6 0e3d
00000090: 5a9d 713d 673d be3d 70c8 00bd 8eb7 be3c
000000a0: 2ba7 ea3c 9bf7 ac3c e14c 123d bc39 a33b
000000b0: 9497 773c 154b 4c3d bc6b 053d a762 4e3c
000000c0: 6508 013d bda6 883d 6bb5 413d 872f 233d
000000d0: d528 283d 70e4 b53c 7c73 413d fa9d a13c
000000e0: e039 1f3d 9791 a53c bd88 053d 6827 8a3d
000000f0: f746 233c 1b54 7f3d d00b 283d 7296 853d

actor.6.weight f4 [2, 64]
-0.15687339 -0.15302724 0.004462264 0.2117487 -0.17089008 0.18064053 -0.13968441 0.024084289
0.01042416 0.109879136 0.106198214 0.08890664 -0.08326338 0.19086164 0.10095659 0.0042211604
-0.024192775 0.1353827 -0.15117253 0.09259403 0.17120849 -0.12569967 -0.10838653 -0.023781624
-0.073106244 0.15883642 0.09905324 -0.07189655 -0.14251378 -0.12413202 0.1521667 -0.17583944
-0.16985285 0.022665827 -0.19675957 0.1789316 -0.18736233 -0.10899413 -0.0496669 -0.14151056
0.19546285 -0.14737281 -0.1531716 0.075080395 -0.15138783 -0.099058874 -0.19212084 0.10245987
-0.059601437 -0.34813645 -0.17271033 0.19542177 0.043016102 -0.12696993 0.20823413 -0.1054556
0.17760704 -0.072965145 0.13826819 0.09322156 -0.09405088 0.19169028 0.10401805 -0.06579373
-0.1987126 -0.08290029 0.21241933 0.10608015 -0.1924697 -0.07384739 -0.12313206 -0.11445178
-0.096761174 0.06917732 -0.144291 -0.15475285 -0.057721097 0.14635573 0.07924931 0.1831466
-0.0008141432 -0.13289024 0.09311171 0.16877072 0.2271099 0.06825836 -0.17819114 0.16572225
0.13598794 0.102775075 -0.16592237 0.054080993 -0.1516414 0.029735 0.087319925 0.10901874
-0.123335175 -0.16813262 0.10691469 0.03798955 -0.3329271 -0.2745724 0.10778454 0.106352516
-0.030295605 -0.14593793 -0.18151465 -0.1080479 0.084188364 -0.1286636 -0.15166554 -0.037627738
0.14070171 -0.042896174 0.11396666 0.2563786 -0.18948978 -0.20166916 0.08232431 -0.10635926
0.011855866 0.0666323 -0.03377631 0.2343664 0.04156967 0.24359 -0.09071384 -0.23469651
00000000: 6ba3 20be 2cb3 1cbe 2f38 923b a7d4 583e
00000010: cffd 2ebe d5f9 383e 6e09 0fbe 6a4c c53c
00000020: 19ca 2a3c 5008 e13d 737e d93d af14 b63d
00000030: fe85 aabd 3c71 433e 54c2 ce3d a951 8a3b
00000040: ed2f c6bc c3a1 0a3e f9cc 1abe f0a1 bd3d
00000050: 4751 2f3e 6ab7 00be c2f9 ddbd aed1 c2bc
00000060: bab8 95bd 04a6 223e 6ddc ca3d 803e 93bd
00000070: 22ef 11be ee38 febd 96d1 1b3e 410f 34be
00000080: e8ed 2dbe afad b93c 577b 49be d839 373e
00000090: e9db 3fbe 5038 dfbd 856f 4bbd 25e8 10be
000000a0: 6a27 483e e6e8 16be 04d9 1cbe c0c3 993d
000000b0: 6905 1bbe 61df cabd 53bb 44be 7bd6 d13d
000000c0: a320 74bd f13e b2be fada 30be a51c 483e
000000d0: a731 303d 6804 02be 543b 553e 1bf9 d7bd
000000e0: 9fde 353e c06e 95bd 2d96 0d3e f2ea be3d
000000f0: bf9d c0bd 754a 443e 6a07 d53d ddbe 86bd
00000100: 517b 4bbe a1c7 a9bd 7484 593e 8d40 d93d
00000110: c716 45be 4d3d 97bd a92c fcbd b265 eabd
00000120: b92a c6bd d7ac 8d3d 05c1 13be 8877 1ebe
00000130: f56c 6cbd 47de 153e 764d a23d c88a 3b3e
00000140: 3a6c 55ba 6114 08be 5ab1 be3d 3bd2 2c3e
00000150: 7f8f 683e 0acb 8b3d bd77 36be 18b3 293e
00000160: 6c40 0b3e bd7b d23d 8ee7 29be 0884 5d3d
00000170: e247 1bbe d196 f33c cad4 b23d 3845 df3d
00000180: 2797 fcbd f52a 2cbe 17f6 da3d ee9a 1b3d
00000190: 6c75 aabe c194 8cbe 24be dc3d 59cf d93d
000001a0: 7d2e f8bc c170 15be fade 39be 3848 ddbd
000001b0: f36a ac3d 64c0 03be 364e 1bbe 8b1f 1abd
000001c0: 1c14 103e e6b3 2fbd 5a67 e93d 0e44 833e
000001d0: 9c09 42be 5c82 4ebe a699 a83d e2d2 d9bd
000001e0: 1b3f 423c 8476 883d 0759 0abd bffd 6f3e
000001f0: f544 2a3d a86f 793e 2ec8 b9bd 4854 70be

actor.6.bias f4 [2]
-0.03265732 0.10259012
00000000: afc3 05bd c51a d23d

critic.0.weight f4 [64, 29]
-0.011203784 -0.010929525 -0.002649108 0.009875101 -0.01862885 -0.012226662 0.003498633 -0.0023594592
0.0029834902 -0.011908999 0.0019615835 0.00012566382 -0.018348822 0.008852713 0.006198123 0.029461803
0.18471573 -0.0015611079 -0.0011533066 -0.042721376 -0.03983253 -0.012279501 -0.027348395 -0.21406491
-0.12696362 -0.0160032 -0.2367545 -0.16030934 0.012310184 -0.03371064 -0.013464385 -0.04896298
0.013991422 -0.0127874 0.0052963407 0.010333583 0.0015925735 0.015889425 -0.0105034 0.0036202453
0.0075224354 -0.02376874 0.022031233 0.0078015435 0.029184166 -0.14173913 -0.08797132 -0.038272213
-0.03840056 0.060139123 -0.041923657 0.15374462 -0.22652224 -0.05032987 0.20496993 0.008822473
-0.13258168 0.015362746 -0.015328043 -0.00713523 -0.023239674 0.015812013 -0.019534258 -0.0037861448
0.0064020557 -0.002174027 0.0013091561 0.0005521078 -0.0013151873 0.0068027037 -0.026546368 0.010553543
0.0067258547 0.0275469 -0.22495106 -0.008743118 -0.044914283 -0.04527188 -0.015337018 0.027670398
-0.039045185 -0.026424717 0.041803803 -0.0149280485 0.21979013 -0.14388563 -0.033518575 -0.02174535
-0.011118257 -0.016167382 0.011484261 -0.032888334 -0.009406127 -0.0018011677 -0.0030589404 0.0025294544
-0.0023340385 0.005969394 0.0061080274 -0.022108583 0.008824671 0.006024792 0.024039846 -0.021747774
-0.006006033 0.013306085 -0.056908563 0.019471537 0.014928355 0.17292513 -0.068652555 0.074391685
0.15779452 -0.0041385572 0.12101301 -0.0050217095 -0.016345164 -0.00094904687 -0.0079821665 0.017963985
-0.032826982 0.013432372 0.016639905 -0.0046066064 0.0052634464 0.0024245132 0.00044688885 0.00732995
-0.023475772 0.0057829996 0.0069066705 0.027192397 -0.1351298 0.02021037 -0.118688434 -0.07672747
-0.020282475 0.017018007 0.12451771 -0.19291545 -0.2308357 -0.33690244 0.09116476 -0.03531692
-0.01569028 -0.021102471 -0.009662322 -0.011689568 0.011564116 -0.014348001 -0.019273402 0.0020345242
-0.0013381429 0.001636368 -0.0073162066 -0.0027937933 0.003524635 -0.020221135 0.009092651 0.0047742366
0.025865825 -0.31354383 -0.009774118 0.10993914 -0.056566868 -0.04483226 -0.024647357 -0.004910613
-0.31295818 -0.32576025 -0.03343745 -0.0057718074 -0.13051063 0.025497004 -0.1025983 -0.005195572
-0.041614003 0.013614999 -0.023366768 0.09757546 0.015920516 -0.010050569 0.011903594 0.00052115484
0.0039575235 0.005513252 -0.018899862 0.01320313 0.0051853815 0.025458122 0.07932282 -0.0038707338
-0.017811758 -0.06070185 0.027128726 0.012124662 -0.115663946 0.07138913 0.080753826 0.03713582
-0.10334576 0.1626599 -0.020186137 0.014594477 -0.008184983 -0.017409435 0.010054009 -0.020214712
0.0033597678 0.011218885 0.00033392874 0.019143002 0.017840516 0.026300995 0.028611368 -0.030674484
0.0065881894 0.0050073843 0.028912596 0.29653218 0.009980796 0.16127212 0.10506873 0.124191225
-0.10790193 -0.032267667 -0.08237935 0.04360114 0.0071245986 -0.04661287 0.07164976 0.038655937
-0.007919955 -0.012054379 -0.051842693 0.018512076 -0.03742912 -0.025342433 0.010320353 0.0003908058
0.013670545 0.005807822 0.009186865 0.014797918 -0.02431009 0.010504606 0.005984695 0.023228398
-0.01753185 -0.0047957064 -0.09214023 -0.03414802 0.059722688 -6.2382285e-05 0.09190176 0.16618757
00000000: 1390 37bc c011 33bc a89c 2dbb 2dcb 213c
00000010: 889b 98bc 5652 48bc 5249 653b 28a1 1abb
00000020: a986 433b f61d 43bc e98d 003b a0c4 0339
00000030: 4550 96bc f80a 113c a019 cb3b e159 f13c
00000040: 1f26 3d3e 179e ccba 8c2a 97ba 9cfc 2ebd
00000050: 6f27 23bd f62f 49bc be09 e0bc d533 5bbe
00000060: c002 02be 2519 83bc c66f 72be 2228 24be
00000070: a7b0 493c 2b14 0abd b999 5cbc 688d 48bd
00000080: 473c 653c 3e82 51bc ed8c ad3b 304e 293c
00000090: e6bd d03a 8a2a 823c 7416 2cbc a341 6d3b
000000a0: c37e f63b a9b6 c2bc d87a b43c 17a4 ff3b
000000b0: a213 ef3c 1024 11be 4f2a b4bd 53c3 1cbd
000000c0: e849 1dbd 7154 763d 24b8 2bbd 3b6f 1d3e
000000d0: 72f5 67be b226 4ebd a3e3 513e 228c 103c
000000e0: 7ec3 07be 07b4 7b3c 7922 7bbc a6ce e9bb
000000f0: 2161 bebc 3288 813c 4f06 a0bc f820 78bb
00000100: 56c8 d13b 1f7a 0ebb fd97 ab3a 54bb 103a
00000110: 5d62 acba 37e9 de3b c577 d9bc c5e8 2c3c
00000120: 8f64 dc3b 09aa e13c 9259 66be 4b3f 0fbc
00000130: 0af8 37bd 026f 39bd 1e48 7bbc 08ad e23c
00000140: d8ed 1fbd a678 d8bc 773a 2b3d c694 74bc
00000150: aa10 613e c156 13be c64a 09bd 4e23 b2bc
00000160: 5a29 36bc 7571 84bc 7b28 3c3c ebb5 06bd
00000170: 281c 1abc 2915 ecba 8178 48bb 34c5 253b
00000180: abf6 18bb e89a c33b d925 c83b 0f1d b5bc
00000190: 5a95 103c 9e6b c53b 36ef c43c 6328 b2bc
000001a0: 42ce c4bb c401 5a3c f418 69bd c682 9f3c
000001b0: 0f96 743c 4913 313e b699 8cbd ab5a 983d
000001c0: e394 213e bc9c 87bb abd5 f73d 278d a4bb
000001d0: 4be6 85bc 75c9 78ba a2c7 02bc 3529 933c
000001e0: 9675 06bd 7413 5c3c 6950 883c 04f3 96bb
000001f0: fd78 ac3b 95e4 1e3b 684c ea39 1430 f03b
00000200: 4350 c0bc 517f bd3b 5a51 e23b 97c2 de3c
00000210: 775f 0abe 3890 a53c ec12 f3bd 4b23 9dbd
00000220: 6f27 a6bc 5969 8b3c 2403 ff3d a18b 45be
00000230: 3260 6cbe 7a7e acbe 97b4 ba3d 7aa8 10bd
00000240: e788 80bc 17df acbc b74e 1ebc 9a85 3fbc
00000250: 6b77 3d3c e113 6bbc 41e3 9dbc a755 053b
00000260: a064 afba 667b d63a cabc efbb 1318 37bb
00000270: 90fd 663b cba6 a5bc 58f9 143c 3371 9c3b
00000280: 91e4 d33c d188 a0be 9f23 20bc c627 e13d
00000290: a9b2 67bd 08a2 37bd 41e9 c9bc 35e9 a0bb
000002a0: 0e3c a0be 0cca a6be b5f5 08bd 6e21 bdbb
000002b0: 94a4 05be 18df d03c 0f1f d2bd 9e3f aabb
000002c0: 7273 2abd 7211 5f3c aa6b bfbc a5d5 c73d
000002d0: be6b 823c 24ab 24bc 4b07 433c 1c9e 083a
000002e0: 1dae 813b 83a8 b43b e2d3 9abc f151 583c
000002f0: 22ea a93b 8d8d d03c 0174 a23d 23ac 7dbb
00000300: f7e9 91bc 81a2 78bd 103d de3c 85a6 463c
00000310: 38e1 ecbd 7734 923d 4362 a53d bb1b 183d
00000320: f1a6 d3bd 5190 263e 665d a5bc ac1d 6f3c
00000330: 4f1a 06bc 3b9e 8ebc 92b9 243c 5399 a5bc
00000340: 8d2f 5c3b 6acf 373c 2813 af39 c9d1 9c3c
00000350: 4626 923c 2f75 d73c 6362 ea3c 0e49 fbbc
00000360: bde1 d73b fc14 a43b 1cda ec3c 11d3 973e
00000370: 7e86 233c 8524 253e 462e d73d f857 fe3d
00000380: b0fb dcbd 1a2b 04bd 81b6 a8bd 1c97 323d
00000390: 7775 e93b 23ed 3ebd 1cbd 923d b055 1e3d
000003a0: b3c2 01bc bb7f 45bc 0159 54bd a3a6 973c
000003b0: 474f 19bd ef9a cfbc b316 293c 11e5 cc39
000003c0: 6cfa 5f3c 8b4f be3b 8184 163c f772 723c
000003d0: f425 c7bc 831b 2c3c 431b c43b 7b49 be3c
000003e0: f49e 8fbc 4d25 9dbb 04b4 bcbd cbde 0bbd
000003f0: c79f 743d 3cd3 82b8 fd36 bc3d 132d 2a3e

critic.0.bias f4 [64]
0.16547233 -0.011616253 0.14137663 0.15279666 -0.043780487 -0.49748692 0.35645327 -0.50712615
0.03717814 -0.6060202 0.1872275 0.28585035 0.20163192 0.14025526 0.5145498 -0.038392417
0.16069198 0.2137464 0.100283496 0.23578945 0.17916805 -0.17235015 0.38016167 0.04165367
-0.09056913 0.062055323 0.07064262 0.034538552 0.09610883 0.16000031 -7.2466384e-05 -0.14683358
0.401725 0.1736098 0.17517903 -0.4464193 0.024649577 0.23988089 -0.52788997 0.20025086
-0.0044328608 -0.37526157 0.007276626 0.04969092 0.18908963 -0.1686493 0.36082345 0.1572257
0.16526957 0.1490825 0.3056559 0.39375085 0.40477297 0.33727702 0.35432923 0.1548279
-0.3003854 -0.12096574 0.27832717 0.1888988 -0.29133797 -0.46874112 -0.6283697 0.22448592
00000000: 9471 293e 1952 3ebc 09c5 103e ba76 1c3e
00000010: 2b53 33bd 9bb6 febe 0b81 b63e 05d3 01bf
00000020: 1b48 183d 2424 1bbf 91b8 3f3e fa5a 923e
00000030: 9978 4e3e 139f 0f3e 89b9 033f 5e41 1dbd
00000040: 708c 243e 56e0 5a3e 6f61 cd3d ca72 713e
00000050: d477 373e 8f7c 30be 8da4 c23e 0a9d 2a3d
00000060: 4f7c b9bd b92d 7e3d 14ad 903d 4c78 0d3d
00000070: b5d4 c43d 1fd7 233e 18f9 97b8 8b5b 16be
00000080: e6ae cd3e c4c6 313e 2262 333e 1291 e4be
00000090: e9ed c93c 56a3 753e cc23 07bf 900e 4d3e
000000a0: 8841 91bb 4922 c0be c370 ee3b b588 4b3d
000000b0: b6a0 413e 67b2 2cbe dabd b83e c6ff 203e
000000c0: 6d3c 293e 15a9 183e ee7e 9c3e b699 c93e
000000d0: 673e cf3e 93af ac3e a46a b53e 348b 1e3e
000000e0: 1dcc 99be e3bc f7bd e680 8e3e b06e 413e
000000f0: 402a 95be d6fe efbe d6dc 20bf a3df 653e

critic.1.weight f4 [64]
0.99471426 0.8651101 1.0486639 0.9083324 0.79411626 1.2125875 0.90478534 1.1439127
0.93513876 1.2385014 0.9488826 1.0135738 0.88741344 0.8681826 1.012322 0.8673384
0.8703973 0.96141315 0.69878656 0.9059625 1.1080981 0.86388123 0.8160396 0.75822526
0.8538777 0.92019403 0.9016724 0.97545695 0.87197095 0.9891294 0.95776165 1.0007026
1.0130118 1.0370388 0.86771804 1.3881471 0.9031051 0.92318994 1.367033 1.1291922
0.9174779 1.152575 0.8614032 0.9203959 0.9240252 0.9101163 0.9200055 0.7965313
1.2139821 0.8502687 0.9306875 0.94318676 0.9839241 0.9004527 0.8813795 0.94770026
1.1222192 1.0513511 0.95590395 0.824807 1.0540142 1.1836662 1.2704257 1.0601085
00000000: 98a5 7e3f db77 5d3f 9e3a 863f 7988 683f
00000010: 344b 4b3f 1136 9b3f 03a0 673f bb6b 923f
00000020: 4165 6f3f 3787 9e3f f8e9 723f c9bc 813f
00000030: 872d 633f 3741 5e3f c493 813f e409 5e3f
00000040: 5cd2 5e3f 2c1f 763f ade3 323f 29ed 673f
00000050: 29d6 8d3f 5227 5d3f f9e7 503f 0d1b 423f
00000060: bb97 5a3f d691 6b3f 01d4 663f 8cb7 793f
00000070: 7d39 5f3f 9637 7d3f de2f 753f 0617 803f
00000080: 5faa 813f b0bd 843f c522 5e3f ceae b13f
00000090: e531 673f 2d56 6c3f f0fa ae3f 5f89 903f
000000a0: d5df 6a3f 9487 933f ec84 5c3f 119f 6b3f
000000b0: ea8c 6c3f 62fd 683f 7b85 6b3f 7ae9 4b3f
000000c0: c463 9b3f 36ab 593f 8941 6e3f b074 713f
000000d0: 73e2 7b3f 1184 663f 16a2 613f 7c9c 723f
000000e0: e1a4 8f3f ac92 863f 1fb6 743f 8d26 533f
000000f0: f0e9 863f 6082 973f 4f9d a23f a3b1 873f

critic.1.bias f4 [64]
-0.013980006 -0.07312622 0.0045880126 -0.17184547 -0.120359346 -0.070960455 -0.02571823 -0.16639604
-0.12828836 0.1978593 -0.046205115 -0.09911564 -0.060416937 -0.14499818 -0.017624581 -0.07153399
-0.13391095 -0.053177353 -0.16644877 -0.06327954 -0.158203 -0.22866912 0.10496303 -0.019112984
-0.055001188 -0.05806376 -0.0020197995 0.018850483 -0.10971898 0.049919583 -0.105652146 -0.07533996
-0.086476006 -0.17755008 -0.117977746 -0.37904355 -0.07206143 -0.0689722 -0.27427444 -0.13659942
-0.17001295 -0.010065824 -0.08873183 -0.028108025 -0.11118143 -0.264112 -0.06993418 -0.20277776
-0.038400635 0.05676336 -0.07622112 -0.07698817 -0.023302838 -0.11494674 0.0021108687 -0.11352747
-0.03450277 -0.109214984 -0.025704652 -0.050715253 0.3558053 -0.15581879 -0.16656724 0.08676007
00000000: 650c 65bc 33c3 95bd 0a57 963b 42f8 2fbe
00000010: f67e f6bd b753 91bd 0aaf d2bc b963 2abe
00000020: 065e 03be a19b 4a3e 9341 3dbd 24fd cabd
00000030: c077 77bd 677a 14be 6d61 90bc 6a80 92bd
00000040: f41f 09be 7fd0 59bd 8c71 2abe b498 81bd
00000050: f8ff 21be 3d28 6abe dbf6 d63d d592 9cbc
00000060: ed48 61bd 44d4 6dbd 9d5e 04bb 546c 9a3c
00000070: 58b4 e0bd 7a78 4c3d 2760 d8bd d64b 9abd
00000080: 551a b1bd b0cf 35be 519e f1bd ff11 c2be
00000090: f194 93bd 4c41 8dbd b36d 8cbe b8e0 0bbe
000000a0: e017 2ebe 20eb 24bc 09b9 b5bd cd42 e6bc
000000b0: 17b3 e3bd b039 87be a739 8fbd f9a4 4fbe
000000c0: fc49 1dbd b280 683d d219 9cbd f9ab 9dbd
000000d0: 98e5 bebc 3269 ebbd 8056 0a3b 1781 e8bd
000000e0: c752 0dbd 1bac dfbd 9092 d2bc ccba 4fbd
000000f0: 1d2c b63e f68e 1fbe 9a90 2abe 43af b13d

critic.3.weight f4 [64, 64]
-0.00277091 -0.0032246641 0.007815338 0.06355459 -0.019995905 0.029245395 -0.030638786 -0.011260886
-0.028394748 0.078278325 0.0053688055 -0.072330065 0.006594895 0.038857985 -0.14899863 0.05223407
0.01499606 -0.02464064 0.015972797 0.031581163 0.07310159 -0.027160874 0.020364556 0.020552566
-0.0049942215 -0.0042798854 0.022984687 0.07107022 -0.020620465 0.03338233 0.06934125 0.13301797
0.0074293492 0.058868166 -0.007845275 0.10296209 -0.06288993 -0.01585947 0.052301023 -0.049074065
-0.018494919 0.011296687 0.028472617 -0.020250745 -0.055504825 -0.062488053 -0.09722968 -0.008749763
-0.07794902 -0.013601862 -0.04492094 -0.018857725 -0.07183651 -0.0070962296 0.04457034 -0.061887506
-0.035017505 0.09646366 -0.072985336 0.0070125307 0.08341902 -0.0038530468 0.060912024 0.06556432
-0.15672456 -0.01043782 0.24318454 -0.16162512 0.09613316 0.2742766 -0.104784414 -0.037813596
0.12828782 0.1291647 -0.119613156 0.013440487 0.01892248 0.12401656 0.03566188 0.13340363
0.088219434 -0.046362687 -0.15832475 -0.036970273 -0.38388556 -0.05534303 0.1263422 0.04962579
-0.13974766 0.1876177 0.09259245 0.09154275 0.09694678 0.1995427 0.118790194 -0.020937663
0.043744452 -0.21842566 0.15847325 -0.049126662 0.15945108 -0.09478001 -0.19844459 -0.4342665
-0.14022861 -0.16363762 0.075292796 0.16264084 0.0062040053 0.108715475 -0.07828024 0.028028572
0.2089472 0.1255492 -0.121851206 0.13156436 -0.21140796 0.0044447947 -0.106738545 0.015374584
-0.03939356 0.28756467 -0.042469587 -0.0038300522 -0.0029552926 0.21001534 0.20599638 -0.09944991
-0.040491406 -0.0163171 -0.08264352 0.094634175 0.030479373 0.03857617 -0.04799891 -0.0942464
0.1290343 -0.061997067 0.055580378 0.12754348 0.020457825 0.097950414 -0.033262037 -0.03871435
0.023186112 0.0456224 0.030471165 0.07761605 0.18360487 0.042857293 -0.08563111 0.004352092
0.011326365 -0.013681037 -0.006272053 -0.011627793 0.026760263 -0.014717343 0.0007888702 0.08780251
0.014236778 0.0029941488 0.10134372 0.12719408 0.03643822 0.054238487 0.08946103 0.09515136
-0.026363652 -0.092447415 0.040627405 -0.038018964 0.041975044 0.040759627 -0.012472307 0.0011023895
0.00980127 0.111713566 0.09171491 0.018395955 0.020260686 0.05362591 0.08276952 0.062128365
0.046203814 -0.12201467 0.04416645 -0.00796575 -0.11847991 -0.16201265 -0.22669983 0.10055099
0.08426419 -0.003304515 -0.04272159 0.13484074 0.014562825 -0.018847117 0.06280249 -0.089401625
-0.032316826 0.022388063 0.07202955 0.11695598 0.075382024 0.03587203 0.0726318 -0.08927376
0.08510957 0.08289238 0.084715046 0.12761861 0.00955234 0.06598176 -0.004795808 -0.0053267702
0.058486816 0.0043433197 -0.032070212 -0.39455572 0.027871285 -0.07222992 -0.06928632 -0.09858139
0.061447732 0.14760175 -0.048122805 -0.10953174 -0.02715316 0.078476 0.07163933 0.089425944
0.006154789 0.008932317 -0.016121553 -0.12902924 0.021479456 -0.026691593 0.057972744 -0.004436115
-0.09878645 -0.10917486 0.07451084 -0.021800863 0.005765027 0.07654478 -0.04359149 0.044077564
0.024358546 -0.2169162 0.08207969 0.056622334 -0.116601996 -0.19565071 -0.15482605 -0.068260506
00000000: 2898 35bb e354 53bb e70b 003c e928 823d
00000010: 74ce a3bc 0a94 ef3c 31fe fabc 947f 38bc
00000020: 1a9c e8bc 6350 a03d ceec af3b c921 94bd
00000030: fd19 d83b 8d29 1f3d 1993 18be 64f3 553d
00000040: 09b2 753c 2bdb c9bc 62d9 823c 405b 013d
00000050: 49b6 953d 7b80 debc 92d3 a63c db5d a83c
00000060: 91a6 a3bb 483e 8cbb 624a bc3c 438d 913d
00000070: 40ec a8bc e9bb 083d c902 8e3d dd35 083e
00000080: e671 f33b bf1f 713d 7889 00bc cadd d23d
00000090: 70cc 80bd b8eb 81bc 9939 563d e301 49bd
000000a0: a882 97bc bd15 393c 683f e93c e4e4 a5bc
000000b0: 0759 63bd 79f3 7fbd 5b20 c7bd 2a5b 0fbc
000000c0: bca3 9fbd 58da 5ebc 05ff 37bd 847b 9abc
000000d0: 051f 93bd 7d87 e8bb 648f 363d c17d 7dbd
000000e0: 846e 0fbd bd8e c53d 5679 95bd 5fc9 e53b
000000f0: 97d7 aa3d 6683 7cbb e37e 793d 9646 863d
00000100: 677c 20be 6403 2bbc 5e05 793e 0e81 25be
00000110: 76e1 c43d fc6d 8c3e 3699 d6bd 6ee2 1abd
00000120: e25d 033e c043 043e bef7 f4bd 7d35 5c3c
00000130: 5103 9b3c 65fc fd3d 3112 123d f69a 083e
00000140: 64ac b43d cde6 3dbd e21f 22be 246e 17bd
00000150: a68c c4be 5faf 62bd da5f 013e 6a44 4b3d
00000160: 031a 0fbe db1e 403e 1ca1 bd3d c47a bb3d
00000170: 098c c63d ec54 4c3e 4648 f33d 7685 abbc
00000180: 622d 333d faaa 5fbe d046 223e 0a39 49bd
00000190: 2547 233e 061c c2bd 0f35 4bbe 2e58 debe
000001a0: 1798 0fbe 9f90 27be 1c33 9a3d 528b 263e
000001b0: f84a cb3b 38a6 de3d 6451 a0bd 2d9c e53c
000001c0: 41f6 553e f88f 003e 208d f9bd cfb8 063e
000001d0: 547b 58be a4a5 913b bd99 dabd aee5 7b3c
000001e0: 245b 21bd ad3b 933e 97f4 2dbd 9d01 7bbb
000001f0: 95ad 41bb 430e 573e b7f0 523e 65ac cbbd
00000200: 51da 25bd 70ab 85bc 0141 a9bd 90cf c13d
00000210: e1af f93c 0c02 1e3d 819a 44bd 4204 c1bd
00000220: 9121 043e a3f0 7dbd 40a8 633d c29a 023e
00000230: 2b97 a73c 3a9a c83d c63d 08bd f092 1ebd
00000240: cdf0 bd3c 8ede 3a3d aa9e f93c 2af5 9e3d
00000250: ea02 3c3e 218b 2f3d 5d5f afbd fe9b 8e3b
00000260: 3892 393c 6e26 60bc cb85 cdbb 8082 3ebc
00000270: 5738 db3c 0321 71bc 2fcc 4e3a cdd1 b33d
00000280: 6041 693c 7b39 443b 4c8d cf3d 2a3f 023e
00000290: 3e40 153d 2d29 5e3d 5837 b73d b7de c23d
000002a0: 96f8 d7bc 1255 bdbd ec68 263d c6b9 1bbd
000002b0: 06ee 2b3d 91f3 263d a658 4cbc 0e7e 903a
000002c0: 8295 203c 15ca e43d 07d5 bb3d 1db3 963c
000002d0: bdf9 a53c d8a6 5b3d 1183 a93d 507a 7e3d
000002e0: 3640 3d3d d4e2 f9bd e1e7 343d c782 02bc
000002f0: 98a5 f2bd a5e6 25be 0024 68be aded cd3d
00000300: b492 ac3d 9090 58bb d5fc 2ebd b113 0a3e
00000310: ea98 6e3c 4565 9abc 989e 803d 3318 b7bd
00000320: a65e 04bd 2c67 b73c 3b84 933d 9e86 ef3d
00000330: e461 9a3d 8dee 123d fbbf 943d 29d5 b6bd
00000340: ed4d ae3d 7bc3 a93d 157f ad3d 74ae 023e
00000350: 6b81 1c3c 7221 873d 2726 9dbb 308c aebb
00000360: df8f 6f3d 6852 8e3b 0e5c 03bd 3503 cabe
00000370: 5252 e43c 48ed 93bd fce5 8dbd 0ae5 c9bd
00000380: 9eb0 7b3d ea24 173e 6b1c 45bd 2d52 e0bd
00000390: 4e70 debc 06b8 a03d a4b7 923d f324 b73d
000003a0: 1dae c93b da58 123c 5911 84bc 3e20 04be
000003b0: aff5 af3c 54a8 dabc d474 6d3d d45c 91bb
000003c0: 8d50 cabd 1297 dfbd 2499 983d b997 b2bc
000003d0: 8de8 bc3b 82c3 9c3d fd8c 32bd ad8a 343d
000003e0: 938b c73c 481f 5ebe 6619 a83d d2ec 673d
000003f0: 07cd eebd a958 48be b88a 1ebe 2acc 8bbd

critic.3.bias f4 [64]
0.096342355 -0.021929756 -0.112097204 -0.043852296 -0.02906243 0.001864711 0.13262807 0.010020349
0.0077728126 -0.012585077 0.1411032 -0.0053915908 -0.0033733617 0.022185978 0.18440467 -0.029734673
0.11662503 -0.14775723 0.051321357 0.2627592 0.08301959 0.040355213 0.06029993 -0.007465456
0.026500493 0.05570539 -0.07267295 0.08219397 -0.014901045 0.005800305 -0.040515132 -0.043471914
-0.08107952 0.07146539 0.016633956 -0.07571133 -0.0031635494 0.15240572 0.14706509 0.059912164
0.087821275 0.030461112 0.064520165 0.035669617 0.15212765 -0.038262215 0.0003895675 -0.18921177
-0.039496392 0.09051667 0.022806495 0.050339006 0.07880888 0.0604643 -0.06285511 0.050341476
-0.1426031 0.114430316 0.12526192 -0.034538988 0.013949753 0.118596956 0.19025089 0.05116487
00000000: 244f c53d 08a6 b3bc 3893 e5bd 779e 33bd
00000010: 5514 eebc 5269 f43a a7cf 073e 642c 243c
00000020: 14b3 fe3b a431 4ebc 5b7d 103e f1ab b0bb
00000030: 9e13 5dbb 5ebf b53c 94d4 3c3e 2196 f3bc
00000040: 1bd9 ee3d ac4d 17be 5836 523d 6088 863e
00000050: 2d06 aa3d 824b 253d 0ffd 763d c9a0 f4bb
00000060: 9017 d93c 562b 643d 8ed5 94bd 5055 a83d
00000070: 8323 74bc 7c10 be3b 32f3 25bd 9b0f 32bd
00000080: 050d a6bd 725c 923d ef43 883c 8b0e 9bbd
00000090: 8d53 4fbb 3f10 1c3e 3b98 163e 7566 753d
000000a0: a4db b33d 9589 f93c 2623 843d 4e1a 123d
000000b0: 5ac7 1b3e d7b8 1cbd dd3e cc39 bbc0 41be
000000c0: f8c6 21bd ce60 b93d b0d4 ba3c 4630 4e3d
000000d0: 8d66 a13d 6aa9 773d 2eba 80bd dd32 4e3d
000000e0: 8c06 12be 715a ea3d a944 003e c178 0dbd
000000f0: 818d 643c f6e2 f23d 21d1 423e 4192 513d

critic.4.weight f4 [64]
0.9828736 1.5831535 1.7448432 1.7548174 1.7412474 1.8388339 0.98969907 1.7165242
1.0921763 0.99662703 0.9949337 1.8210319 1.0699975 1.2247194 1.9966829 1.0216737
0.9872059 1.7448322 0.984791 1.5401132 0.9871026 0.9939706 0.9832871 1.694202
1.0356867 1.5215399 1.7355093 0.99823004 1.1421604 1.6475236 1.1023128 1.7408528
1.7830695 0.9935608 1.0081168 0.9811947 1.7175434 0.9898125 1.1010473 0.99316055
0.98787767 0.98470026 1.0425197 1.7633485 1.1780399 0.98298943 1.751305 1.8699578
1.7703313 1.049884 1.0732052 1.7219741 1.2184777 1.0028905 1.7446891 1.538835
1.8014094 0.987224 1.0376211 1.0233669 1.7164481 1.0068282 1.331599 0.9799074
00000000: 9b9d 7b3f c6a4 ca3f 0657 df3f db9d e03f
00000010: 32e1 de3f e95e eb3f eb5c 7d3f 11b7 db3f
00000020: 6fcc 8b3f f322 7f3f fab3 7e3f 9317 e93f
00000030: aef5 883f 9bc3 9c3f 4e93 ff3f 34c6 823f
00000040: 87b9 7c3f a956 df3f 431b 7c3f 6e22 c53f
00000050: c2b2 7c3f db74 7e3f b4b8 7b3f 9cdb d83f
00000060: 6291 843f d2c1 c23f 2b25 de3f 018c 7f3f
00000070: 5032 923f 0ee2 d23f 9618 8d3f 44d4 de3f
00000080: 9f3b e43f 005a 7e3f f909 813f 932f 7b3f
00000090: 76d8 db3f 5a64 7d3f 1eef 8c3f c53f 7e3f
000000a0: 8de5 7c3f 5115 7c3f 4971 853f 67b5 e13f
000000b0: 03ca 963f 32a5 7b3f c32a e03f c75a ef3f
000000c0: 379a e23f 9962 863f ca5e 893f a669 dc3f
000000d0: 14f7 9b3f b75e 803f f951 df3f 8cf8 c43f
000000e0: 9594 e63f b6ba 7c3f c5d0 843f b0fd 823f
000000f0: 92b4 db3f bfdf 803f d671 aa3f 36db 7a3f

critic.4.bias f4 [64]
-0.027296387 0.15047474 0.7309667 0.7396839 0.7323806 0.77807677 -0.015742835 0.716522
0.07653124 0.020827077 0.007774046 0.7690312 0.012527148 0.08244498 0.2623621 0.028817056
-0.012623816 0.7359132 -0.025120933 0.10602745 -0.015046712 -0.014724834 -0.026407957 0.7111648
0.03875956 0.2517426 0.7285199 -0.0005746366 0.16572818 0.33270463 0.09162691 0.73846924
0.7566901 -0.01611179 0.011244695 -0.025504334 0.71862197 -0.017210048 0.01883455 0.0024543703
-0.01283802 -0.02431383 -0.0098824045 0.7436722 0.10019557 -0.02553488 0.7362764 0.8045263
0.7449856 0.08848921 0.07627311 0.7271597 0.23089787 -0.037445333 0.73154795 0.24921186
0.76552373 -0.01981806 0.02643087 0.023902258 0.72019845 -0.019044789 0.18396422 -0.03023343
00000000: ac9c dfbc 0d16 1a3e a220 3b3f ed5b 3d3f
00000010: 4c7d 3b3f 0a30 473f 1ef7 80bc fc6d 373f
00000020: 69bc 9c3d 8c9d aa3c 6dbd fe3b 3bdf 443f
00000030: ab3e 4d3c ead8 a83d 5354 863e bf11 ec3c
00000040: 1fd4 4ebc cf64 3c3f 6aca cdbc eb24 d93d
00000050: 7c86 76bc 6e40 71bc 8055 d8bc e50e 363f
00000060: 58c2 1e3d 68e4 803e 4880 3a3f 36a3 16ba
00000070: a6b4 293e 4358 aa3e e4a6 bb3d 520c 3d3f
00000080: 71b6 413f dffc 83bc ab3b 383c 77ee d0bc
00000090: 9cf7 373f 16fc 8cbc ea4a 9a3c 80d9 203b
000000a0: 8f56 52bc cc2d c7bc cfe9 21bc 4d61 3e3f
000000b0: 5633 cd3d 862e d1bc 9c7c 3c3f 70f5 4d3f
000000c0: 60b7 3e3f d539 b53d 1435 9c3d 2327 3a3f
000000d0: 7e70 6c3e 4760 19bd ba46 3b3f 6531 7f3e
000000e0: 5df9 433f 7c59 a2bc 8d85 d83c abce c33c
000000f0: ed5e 383f d103 9cbc 1e61 3c3e 19ac f7bc

critic.6.weight f4 [1, 64]
-0.05691777 -0.44772545 0.7542882 0.74779963 0.748141 0.74658585 -0.107554376 0.74044895
0.10544493 -0.06692729 0.010995301 0.75588065 -0.11507354 -0.21838386 -0.6351017 -0.097209774
-0.0125334095 0.75351024 -0.02578713 -0.40006527 -0.038408734 0.011490331 -0.024371088 0.71536356
0.047321297 -0.29259637 0.7512283 -0.0054247547 -0.075100854 -0.55194473 -0.12099689 0.7649551
0.7450567 -0.048407935 -0.021743806 -0.044969253 0.75519365 -0.019580286 -0.08743808 -0.050106324
-0.031080976 -0.03502406 -0.14548077 0.7452638 -0.05422154 -0.033460762 0.7444444 0.7734634
0.7224088 0.08561098 0.09376961 0.7098526 -0.30550823 -0.10659378 0.75122726 -0.3912574
0.75541514 -0.03974228 0.019798193 0.037842903 0.7377388 0.025729539 -0.09364238 -0.031106098
00000000: 9c22 69bd 453c e5be 0819 413f cc6f 3f3f
00000010: 2b86 3f3f 4020 3f3f 7845 dcbd 108e 3d3f
00000020: 83f3 d73d 2d11 89bd a325 343c 6581 413f
00000030: adab ebbd 05a0 5fbe 0696 22bf eb15 c7bd
00000040: ee58 4dbc 0ce6 403f 883f d3bc 5bd5 ccbe
00000050: 7a52 1dbd f141 3c3c e0a5 c7bc 1122 373f
00000060: fad3 413d 31cf 95be 7f50 403f 24c2 b1bb
00000070: 7ace 99bd 404c 0dbf 38cd f7bd 19d4 433f
00000080: 09bc 3e3f 6647 46bd 1120 b2bc ae31 38bd
00000090: 5f54 413f d666 a0bc bc12 b3bd 4a3c 4dbd
000000a0: 889d febc 6475 0fbd e9f8 14be 9cc9 3e3f
000000b0: 6817 5ebd 270e 09bd e893 3e3f b301 463f
000000c0: c8ef 383f cf54 af3d 480a c03d e6b8 353f
000000d0: 936b 9cbe d74d dabd 6e50 403f e452 c8be
000000e0: e362 413f cdc8 22bd d22f a23c 2901 1b3d
000000f0: 73dc 3c3f c1c6 d23c 93c7 bfbd 37d2 febc

obs_mean f4 [29]
-0.002708956 -0.067149065 -0.0034120216 -0.0672033 0.0034368073 -0.0017636677 -0.001166441 0.0035891288
-0.00010531714 -0.80346894 -0.0008689045 -0.78467095 0.0002801644 0.00033009792 -0.0010651109 -0.0012302514
-0.077206604 -0.00085428933 0.0391162 0.0021588886 0.032821108 0.0017891461 0.1712212 0.00043525748
0.004631009 -0.0053201267 0.0070855953 0.0 0.0036478247
00000000: bd88 31bb 7385 89bd 399c 5fbb e2a1 89bd
00000010: 0f3c 613b de2a e7ba 44e3 98ba 9737 6b3b
00000020: b6dd dcb8 24b0 4dbf 32c7 63ba 32e0 48bf
00000030: 07e3 9239 fe10 ad39 319b 8bba 6340 a1ba
00000040: 7f1e 9ebd 63f2 5fba 4f38 203d 247c 0d3b
00000050: 6d6f 063d c881 ea3a 9c54 2f3e 4533 e439
00000060: b8bf 973b 7554 aebb 482e e83b 0000 0000
00000070: 5810 6f3b

obs_var f4 [29]
5.190698 12.022577 5.158858 12.272951 5.006339 5.0031347 1.9040151 1.897113
3.8721325 262.69678 3.8671277 266.33157 4.1371303 4.0455904 3.88834 3.8085363
0.97165966 0.0090537965 0.050649565 0.03115711 0.4438695 1.1882308 0.46143436 0.008106434
0.007933987 0.4924173 1.8249793 2.3829896e-14 1.1006866
00000000: 331a a640 7a5c 4041 5d15 a540 025e 4441
00000010: ee33 a040 ae19 a040 c4b6 f33f 99d4 f23f
00000020: 05d1 7740 3059 8343 057f 7740 712a 8543
00000030: 5f63 8440 7a75 8140 90da 7840 0fbf 7340
00000040: b0be 783f 6056 143c eb75 4f3d 323d ff3c
00000050: dd42 e33e f217 983f 2041 ec3e d9d0 043c
00000060: 8efd 013c 1f1e fc3e ec98 e93f 00a4 d628
00000070: 4ce3 8c3f
