src/taser/locomotion/models/track_velocity.onnx (onnx, 29371 bytes, 11 tensors)

model.log_std f4 [2]
-1.397224 -1.4021825
00000000: 3cd8 b2bf b77a b3bf

model.actor.0.weight f4 [64, 29]
0.016115606 0.0066207205 -0.008590107 0.05093082 -0.08759925 0.13610515 0.14901038 0.010865737
-0.09477907 0.1723412 -0.11471936 -0.1091213 0.110831894 0.0169329 -0.024664499 -0.12670463
0.2948944 -0.017578658 -0.06341762 -0.19099234 -0.07837465 0.029011356 0.074140206 0.029931048
0.20589569 -0.030892134 -0.21730983 0.12571141 -0.14427713 -0.06486759 -0.062339254 -0.04705839
0.08270309 0.1294565 -0.13485357 0.17524333 0.024442421 -0.031987518 -0.03602325 0.07434474
-0.06674322 0.047728624 -0.035161115 0.05982834 -0.050392207 0.12664424 -0.18013336 -0.070879474
0.008901393 -0.018169606 -0.20105813 -0.050512835 -0.025657918 -0.056000482 -0.05456012 -0.16123384
-0.12823243 -0.075908944 0.056659795 0.08952046 0.17862211 0.012311821 -0.08347184 0.023945387
-0.025108967 -0.06807856 -0.023434041 -0.0073527223 -0.07667831 -0.033723243 0.06327209 0.026252415
-0.054700587 -0.039428174 0.09612195 0.04317236 -0.100837566 0.06684878 -0.11576021 0.15812568
-0.030724453 0.025432887 0.017816573 0.045537367 0.035969596 -0.09868022 -0.2598304 0.13448882
0.06854162 0.12728769 0.06041991 0.05162698 -0.010231734 0.13255711 0.056512963 -0.09535203
0.0523607 -0.08060464 0.07701061 0.09475448 -0.0098421415 -0.017399296 -0.052028257 -0.0041637495
-0.008765898 -0.21862008 0.07452391 -0.03945585 -0.25125203 -0.0038974392 0.14068368 0.06299539
0.07321934 -0.019554771 -0.16943972 0.26895577 0.037325215 0.059604302 0.02196312 -0.056702457
-0.12884896 0.1695886 0.03830637 -0.05652704 -0.058712546 0.063099265 0.05645995 0.035920117
-0.017041868 0.050240584 -0.0767049 -0.02385837 0.10215736 0.044038787 0.041790765 0.075180665
0.034553107 0.24524368 -0.13825366 -0.015424565 -0.06424495 -0.022316 -0.008252473 -0.16788855
-0.2102549 0.017457794 0.14194587 0.092150934 -0.00030716718 0.0874934 -0.0140669895 -0.14684258
-0.062797375 0.17072098 -0.020076837 0.16528507 -0.1546451 -0.13863645 -0.00079482794 0.06969854
0.008580055 -0.145379 0.07980555 0.103288695 0.14353786 -0.1029416 -0.0010770231 -0.082939275
2.186194e-05 0.0041398755 0.058114585 -0.0024146854 -0.03583596 0.18880945 -0.12644202 -0.09360785
0.019615944 0.06503668 0.032513704 -0.11863391 0.015564498 0.023946427 0.090069935 0.116251014
0.029901521 0.055240154 0.04274818 0.12181713 0.04036439 -0.053908795 -0.0490439 0.003203716
-0.26630956 -0.07298739 -0.044870984 0.05441999 -0.09780643 0.19988744 -0.14270201 -0.085651726
0.06420106 -0.1445002 -0.2849004 0.05905242 -0.10867706 0.037951693 0.021419877 0.15733048
-0.15262623 -0.17515521 -0.008826295 -0.07166041 0.086527206 0.015636794 -0.06997602 -0.0071046227
0.061775297 -0.016428756 0.09283128 -0.14275676 -0.14834112 -0.061409436 -0.045827422 0.07658316
-0.049351025 -0.05917428 0.21606791 0.05372373 0.1662354 0.040092718 0.114261895 -0.23114194
-0.14530382 0.09631945 0.049573954 -0.090268746 -0.026527654 -0.05759094 -0.017666874 0.19384134
-0.02170832 0.08948238 -0.027845768 0.043313805 -0.022316365 -0.072897844 -0.041601103 -0.049922306
-0.15557049 -0.05814071 -0.08585059 0.014033033 -0.15822026 0.11772483 0.02113919 -0.069300465
00000000: e004 843c a1f2 d83b 85bd 0cbc d69c 503d
00000010: 3c67 b3bd 265f 0b3e 2d96 183e 3406 323c
00000020: 871b c2bd 367a 303e fcf1 eabd fd7a dfbd
00000030: d5fb e23d ddb6 8a3c 340d cabc dcbe 01be
00000040: 66fc 963e 1e01 90bc 19e1 81bd 7f93 43be
00000050: e382 a0bd 39a9 ed3c d2d6 973d f531 f53c
00000060: 52d6 523e 8011 fdbc 7886 5ebe 7eba 003e
00000070: 62bd 13be 4dd9 84bd 7257 7fbd 4cc0 40bd
00000080: 3d60 a93d 3f90 043e 0e17 0abe fd72 333e
00000090: 793b c83c 5805 03bd 1e8d 13bd 0e42 983d
000000a0: abb0 88bd 177f 433d 1a05 10bd 900e 753d
000000b0: 0f68 4ebd 07af 013e e174 38be 4229 91bd
000000c0: 26d7 113c 6dd8 94bc 2fe2 4dbe 8ce6 4ebd
000000d0: 8e30 d2bc c360 65bd 6f7a 5fbd 7c1a 25be
000000e0: 5d4f 03be 2676 9bbd 1a14 683d 8156 b73d
000000f0: b7e8 363e 85b7 493c 49f3 aabd 1e29 c43c
00000100: 52b1 cdbc c66c 8bbd bff8 bfbc 1bef f0bb
00000110: 8509 9dbd 6221 0abd cc94 813d 4e0f d73c
00000120: b90d 60bd 707f 21bd 96db c43d 80d5 303d
00000130: ed83 cebd 03e8 883d b013 edbd b3eb 213e
00000140: d9b1 fbbc a158 d03c 10f4 913c 6485 3a3d
00000150: db54 133d db18 cabd 7d08 85be 70b7 093e
00000160: 8d5f 8c3d b457 023e de7a 773d d076 533d
00000170: 01a3 27bc 0dbd 073e 237a 673d ed47 c3bd
00000180: 2c78 563d 0c14 a5bd bdb7 9d3d a30e c23d
00000190: ef40 21bc f888 8ebc 951b 55bd 1070 88bb
000001a0: d79e 0fbc f1dd 5fbe fe9f 983d 759c 21bd
000001b0: 1ba4 80be 2e6c 7fbb 620f 103e ba03 813d
000001c0: 05f4 953d 5431 a0bc 9b81 2dbe 92b4 893e
000001d0: 53e2 183d a423 743d 00ec b33c d640 68bd
000001e0: fbf0 03be a2a8 2d3e 24e7 1c3d e688 67bd
000001f0: 917c 70bd 303a 813d 8c42 673d f920 133d
00000200: 639b 8bbc 12c9 4d3d 7517 9dbd a172 c3bc
00000210: e137 d13d 0462 343d cb2c 2b3d 52f8 993d
00000220: 8f87 0d3d 2921 7b3e 5e92 0dbe 51b7 7cbc
00000230: db92 83bd 0bd0 b6bc 6135 07bc faea 2bbe
00000240: 0f4d 57be a603 8f3c 425a 113e a1b9 bc3d
00000250: 480b a1b9 bd2f b33d 3b79 66bc e75d 16be
00000260: e99b 80bd 7bd1 2e3e 2e78 a4bc 7d40 293e
00000270: 495b 1ebe b7f6 0dbe 005c 50ba 1cbe 8e3d
00000280: 5c93 0c3c 3cde 14be 1871 a33d 0689 d33d
00000290: 97fb 123e 0cd3 d2bd e62a 8dba 11dc a9bd
000002a0: 2964 b737 cba7 873b 8f09 6e3d b33f 1ebb
000002b0: bac8 12bd 4457 413e 047a 01be 79b5 bfbd
000002c0: 9eb1 a03c f331 853d 172d 053d 56f6 f2bd
000002d0: 3c02 7f3c 4c2b c43c 9676 b83d 0315 ee3d
000002e0: 09f4 f43c 8043 623d b718 2f3d 427b f93d
000002f0: 2155 253d 78cf 5cbd 42e2 48bd 6ff5 513b
00000300: ba59 88be 6a7a 95bd a3ca 37bd 7fe7 5e3d
00000310: bd4e c8bd 4baf 4c3e 7a20 12be 2c6a afbd
00000320: d87b 833d dcf7 13be 77de 91be f3e0 713d
00000330: 1492 debd 3c73 1b3d bd78 af3c 3e1b 213e
00000340: 0d4a 1cbe e35b 33be 2a9c 10bc b1c2 92bd
00000350: 2d35 b13d bc18 803c 964f 8fbd e5cd e8bb
00000360: 1808 7d3d 9995 86bc 531e be3d d42e 12be
00000370: bce6 17be 7688 7bbd 89b5 3bbd a2d7 9c3d
00000380: 4d24 4abd bb60 72bd e840 5d3e 6a0d 5c3d
00000390: 9d39 2a3e 4338 243d 2402 ea3d 79b0 6cbe
000003a0: 86ca 14be 2243 c53d 0f0e 4b3d d2de b8bd
000003b0: 8650 d9bc 7ae4 6bbd 1fba 90bc 587e 463e
000003c0: a6d5 b1bc 8a42 b73d cf1c e4bc d169 313d
000003d0: cfd0 b6bc 774b 95bd eb65 2abd 557b 4cbd
000003e0: df4d 1fbe f424 6ebd 6fd2 afbd ceea 653c
000003f0: 7e04 22be b719 f13d 182c ad3c 67ed 8dbd

model.actor.0.bias f4 [64]
-0.08059131 0.1506205 0.09795539 -0.04828382 0.13838871 -0.10837909 -0.18672653 0.07588404
-0.12942603 0.052860193 0.18351275 -0.09841313 0.13015051 0.012500578 0.18504313 0.019701637
-0.06681523 0.03005447 0.13750786 0.1470253 -0.15462704 0.0860759 -0.19834594 -0.07872376
-0.12647527 0.14486462 0.025067678 -0.0031532221 -0.23703645 0.22073793 0.17054835 -0.0111534335
0.0042070854 0.060335394 -0.07924337 0.06273482 0.0067676953 0.19050582 0.113007724 0.01356355
0.02791719 -0.19971985 -0.085110456 -0.025641043 -0.21738316 -0.08332531 -0.18206091 -0.09313138
-0.012651029 -0.07764053 -0.090952665 0.17588587 0.0874092 -0.14756685 0.06182281 0.12880659
0.019850906 -0.120443225 0.15704407 -0.042171538 -0.2475891 0.027737467 -0.007586518 0.16535631
00000000: 0f0d a5bd 433c 1a3e d69c c83d 41c5 45bd
00000010: c5b5 0d3e dbf5 ddbd 3d35 3fbe 1769 9b3d
00000020: 4288 04be ee83 583d c4ea 3b3e d38c c9bd
00000030: 2d46 053e 39cf 4c3c f27b 3d3e 5465 a13c
00000040: 6cd6 88bd cb34 f63c dcce 0c3e cd8d 163e
00000050: 8d56 1ebe 9048 b03d 331b 4bbe ec39 a1bd
00000060: bc82 01be 6457 143e bb5a cd3c 4aa6 4ebb
00000070: afb9 72be 2009 623e 3aa4 2e3e e4bc 36bc
00000080: 97db 893b 3f22 773d 594a a2bd 1d7b 803d
00000090: 8bc3 dd3b f513 433e 9870 e73d a739 5e3c
000000a0: 97b2 e43c 5c83 4cbe 644e aebd 2a0d d2bc
000000b0: b199 5ebe 76a6 aabd 2d6e 3abe aabb bebd
000000c0: 4346 4fbc 0002 9fbd 6445 babd 6d1b 343e
000000d0: 9803 b33d c41b 17be ea39 7d3d e0e5 033e
000000e0: 5e9e a23c f0aa f6bd 29d0 203e 10bc 2cbd
000000f0: ff87 7dbe af39 e33c 5398 f8bb 2a53 293e

model.actor.1.weight f4 [64]
1.0113528 1.0136979 1.0247911 1.0012358 1.0109892 0.9842556 0.98123974 0.97744465
0.97050583 0.990002 1.0147587 1.0230968 0.99671584 0.9660522 0.97252977 1.0079659
1.0015633 0.9937358 0.9958061 1.0211592 1.0121902 0.9905931 1.0781343 0.95209044
1.0062834 1.0036721 0.96858484 0.9523777 1.0654508 1.0809268 0.97753656 1.0371791
0.98684776 0.99248606 0.9476173 0.96269023 1.0013567 1.0355457 1.0263371 0.9580455
0.97859854 1.0166056 0.9546601 1.0350987 1.015997 1.0342573 1.0545169 0.99529874
1.0099782 0.9662122 0.9415227 1.0218868 0.96713275 1.0368667 0.9945342 0.99269944
0.9429675 0.96291214 0.96596444 1.0018455 1.0014855 0.9957816 1.010332 0.9782965
00000000: 0274 813f dac0 813f 5b2c 833f 7f28 803f
00000010: 1868 813f 2df8 7b3f 8732 7b3f d039 7a3f
00000020: 1273 783f c570 7d3f 9de3 813f d6f4 823f
00000030: c528 7f3f 324f 773f b6f7 783f 0705 813f
00000040: 3a33 803f 7865 7e3f 26ed 7e3f 58b5 823f
00000050: 738f 813f 8297 7d3f 4e00 8a3f 33bc 733f
00000060: e5cd 803f 5478 803f 2df5 773f 06cf 733f
00000070: b160 883f cf5b 8a3f d63f 7a3f 49c2 843f
00000080: 0ea2 7c3f 9113 7e3f 0c97 723f de72 763f
00000090: 752c 803f c38c 843f 045f 833f 7842 753f
000000a0: 6f85 7a3f 2220 823f 9b64 743f 1d7e 843f
000000b0: 310c 823f 8b62 843f 69fa 863f e6cb 7e3f
000000c0: f746 813f af59 773f a207 713f 30cd 823f
000000d0: 0396 773f 0cb8 843f cb99 7e3f 8d21 7e3f
000000e0: 5166 713f 6981 763f 7249 773f 793c 803f
000000f0: ad30 803f 8beb 7e3f 8f52 813f a471 7a3f

model.actor.1.bias f4 [64]
0.012523533 0.0043895026 0.023434931 0.069367744 0.051389724 0.018776935 0.024840048 0.013989945
-0.0031275915 -0.004260882 0.015851665 0.025476016 0.018025717 -0.02473809 0.0018679553 -0.034112174
0.028687462 -0.041999947 0.015344179 0.04160625 0.047380023 0.009413719 0.04917168 -0.023652125
0.018632265 0.0082819825 0.007234835 -0.014783101 0.0053625647 0.05006096 -0.012662067 0.04777508
0.018631998 0.021974945 -0.0039488473 0.003934863 0.0148426965 0.08109251 0.019134372 -0.017672213
0.0050793914 0.021796389 -0.024124108 0.050737217 0.014057108 0.047933225 0.009392193 0.045381576
0.005939087 0.0035077168 -0.003984454 0.011542424 -0.0076204743 0.022378255 0.0072960486 -0.0031170228
0.027021822 0.027509429 0.012435791 0.016363686 0.0046071094 0.03828724 0.0076425998 -0.009007353
00000000: 812f 4d3c d1d5 8f3b 9dfa bf3c ad10 8e3d
00000010: 087e 523d 16d2 993c 5b7d cb3c 1536 653c
00000020: 47f8 4cbb de9e 8bbb 5adb 813c 14b3 d03c
00000030: abaa 933c 89a7 cabc 2ed6 f43a 35b9 0bbd
00000040: f801 eb3c 2308 2cbd 2766 7b3c 516b 2a3d
00000050: 8e11 423d 003c 1a3c 3e68 493d 1ac2 c1bc
00000060: b1a2 983c 27b1 073c 3212 ed3b d234 72bc
00000070: 74b8 af3b b90c 4d3d 8f74 4fbc cdaf 433d
00000080: 22a2 983c cd04 b43c 5565 81bb 06f0 803b
00000090: c82e 733c d413 a63d b0bf 9c3c 51c5 90bc
000000a0: 0671 a63b 578e b23c ec9f c5bc d4d1 4f3d
000000b0: c94f 663c a155 443d b6e1 193c 08e2 393d
000000c0: ac9c c23b b9e1 653b 0690 82bb 6f1c 3d3c
000000d0: 2cb5 f9bb 9a52 b73c b113 ef3b f746 4cbb
000000e0: de5c dd3c 745b e13c 7dbf 4b3c 230d 863c
000000f0: 3cf7 963b 15d3 1c3d c66e fa3b 9493 13bc

model.actor.3.weight f4 [64, 64]
0.0638305 -0.11050592 -0.07508459 -0.058124557 -0.08149605 0.073443174 0.05549926 -0.030109195
0.07025596 -0.05527548 0.065838434 0.027032359 0.054163672 -0.040838465 0.05635453 0.10758966
0.024954056 -0.069912314 -0.011067222 -0.028391868 -0.06648222 0.050693005 -0.03343516 0.050467864
0.06668386 0.0809178 0.06390186 -0.020946402 0.014004592 0.046763137 -0.08617682 0.0139556695
0.037360664 0.044506017 0.07659494 0.12247469 0.019295057 0.068020046 -0.034003444 -0.010152273
0.04909925 0.09253108 -0.100828715 -0.04856123 -0.048379455 -0.03050811 0.07989767 0.033343032
0.003964114 -0.035169866 -0.04527817 0.042786606 0.044061936 0.0021562525 0.050447803 0.046010334
0.023190182 0.06016966 -0.09152566 0.048308637 -0.005137377 -0.0443118 -0.10520735 -0.07188733
-0.011323039 -0.083543 -0.095330834 0.08838649 -0.0258188 -0.036603577 -0.049986746 0.054765973
0.09428976 0.060608637 -0.045273267 -0.005296574 0.088449925 0.05636977 -0.03692206 -0.041155126
-0.016475637 0.09450899 -0.07743646 0.07844064 0.07508711 -0.03085919 0.099101976 0.1381319
0.034432188 -0.035233747 0.03881079 -0.054228596 0.059367485 0.053708434 0.04281017 -0.0703152
-0.022936918 0.13902509 -0.012606331 0.00019389862 0.048881754 -0.03292937 0.011793695 -0.05311755
-0.081633076 -0.049870014 -0.044392187 0.010601131 0.14150475 -0.04809804 -0.123685405 0.12294705
0.0874927 0.061215315 0.023122141 -0.062284563 -0.100692555 -0.026597895 -0.03566709 -0.022297837
0.038096476 -0.005482781 0.10046311 0.07926087 -0.048787575 0.10493788 0.0012500194 -0.12287295
0.045578152 -0.037144843 0.08806747 -0.083637774 -0.06896896 -0.043789994 0.008652673 -0.09260364
0.017149732 0.03659743 0.12619579 0.049141165 0.010451811 -0.091697745 -0.019870218 0.11717666
0.06728712 -0.009803697 -0.022553932 0.0947734 -0.054623436 -0.02032438 0.14417137 -0.08629273
0.00939453 -0.07972762 0.055960618 0.019558806 0.2104036 -0.027178617 0.04947581 0.00014679885
-0.010017249 -0.053141285 -0.043536603 0.067510396 0.03158458 -0.045477506 0.012807792 0.0065539894
-0.0840069 -0.049360488 -0.02477712 -0.004370853 0.049144685 -0.017824007 -0.015906315 -0.028904641
0.13182114 -0.031061392 0.047417164 -0.0024616919 -0.009755999 0.084587514 0.07064352 0.06740173
-0.068207696 0.023825642 -0.1107707 0.015338454 0.12204206 0.092607826 0.030222807 0.0622036
0.040634498 -0.013846021 -0.074210666 -0.07348031 -0.0629605 -0.09580721 0.03661273 0.01497631
0.057776473 0.12240557 -0.14490531 0.09221601 0.12384621 0.12115822 0.0050182315 0.08755163
0.052479208 0.13581166 -0.017706081 0.02241515 -0.06206183 0.057690587 0.004651612 0.03972757
0.090368964 0.064760275 0.106521316 -0.068243064 0.038310573 -0.063082755 -0.079887055 0.008021358
0.013593335 -0.009976432 0.04995411 -0.04148247 0.06107187 0.09416224 0.031422373 -0.06746464
0.049229525 -0.074444465 -0.022635065 0.053192977 0.012974885 -0.14360231 -0.13096936 -0.12423921
0.026937483 0.022397254 -0.008686103 0.014706866 -0.06652955 -0.0811794 0.08857933 -0.031562284
-0.020781837 0.0659488 0.09357848 -0.029918967 -0.12611754 0.12205784 0.05459627 0.058685694
00000000: 91b9 823d ee50 e2bd f3c5 99bd 0414 6ebd
00000010: 67e7 a6bd 6069 963d 3153 633d 8fa7 f6bc
00000020: 5be2 8f3d 8b68 62bd 4dd6 863d f772 dd3c
00000030: bada 5d3d 3c46 27bd 02d4 663d f857 dc3d
00000040: 736c cc3c 302e 8fbd 4b53 35bc 1096 e8bc
00000050: d527 88bd 78a3 4f3d 4ef3 08bd 64b7 4e3d
00000060: 8c91 883d 3bb8 a53d fade 823d ca97 abbc
00000070: 8473 653c b48a 3f3d 797d b0bd 52a6 643c
00000080: 7f07 193d f14b 363d cfdd 9c3d 03d4 fa3d
00000090: ab10 9e3c 184e 8b3d 3247 0bbd b855 26bc
000000a0: 4c1c 493d ef80 bd3d 497f cebd 24e8 46bd
000000b0: 8929 46bd 25ec f9bc 64a1 a33d b492 083d
000000c0: 66e5 813b 470e 10bd 9a75 39bd 0241 2f3d
000000d0: 4a7a 343d ea4f 0d3b 5ba2 4e3d 5575 3c3d
000000e0: 56f9 bd3c 7674 763d ce71 bbbd 47df 453d
000000f0: 7157 a8bb 4a80 35bd f376 d7bd aa39 93bd
00000100: 4584 39bc 9818 abbd d03c c3bd fa03 b53d
00000110: f381 d3bc a2ed 15bd e7be 4cbd 4952 603d
00000120: fd1a c13d c340 783d 7670 39bd e28e adbb
00000130: 3c25 b53d fde3 663d 963b 17bd 4792 28bd
00000140: eaf7 86bc ee8d c13d 0297 9ebd 7ca5 a03d
00000150: 45c7 993d 69cc fcbc faf5 ca3d 7372 0d3e
00000160: c408 0d3d 4351 10bd 10f8 1e3d ce1e 5ebd
00000170: 522b 733d 60fd 5b3d b859 2f3d 6a01 90bd
00000180: 34e6 bbbc 985c 0e3e c98a 4ebc 4451 4b39
00000190: 3c38 483d f2e0 06bd 583a 413c ca91 59bd
000001a0: 3e2f a7bd 8044 4cbd 95d4 35bd 5eb0 2d3c
000001b0: 9fe6 103e 7302 45bd c64e fdbd aacb fb3d
000001c0: 5f2f b33d e9bc 7a3d a56a bd3c 191e 7fbd
000001d0: e637 cebd d4e3 d9bc a817 12bd f4a9 b6bc
000001e0: 0d0b 1c3d e7a8 b3bb 9abf cd3d 8653 a23d
000001f0: 7bd5 47bd ace9 d63d b1d7 a33a d0a4 fbbd
00000200: 28b0 3a3d 3125 18bd b85c b43d 484a abbd
00000210: 993f 8dbd 235d 33bd f1c3 0d3c faa6 bdbd
00000220: 987d 8c3c 30e7 153d 7839 013e 3f48 493d
00000230: 133e 2b3c 07cc bbbd dec6 a2bc 51fa ef3d
00000240: d4cd 893d af9f 20bc 06c3 b8bc 8e18 c23d
00000250: d3bc 5fbd 507f a6bc a9a1 133e 3eba b0bd
00000260: 84eb 193c 3c48 a3bd f636 653d ca39 a03c
00000270: 0b74 573e b1a5 debc 26a7 4a3d 04ee 1939
00000280: 631f 24bc adaa 59bd 7053 32bd e442 8a3d
00000290: d55e 013d 9f46 3abd c6d7 513c d9c2 d63b
000002a0: cf0b acbd 392e 4abd 63f9 cabc 5f39 8fbb
000002b0: f04b 493d a703 92bc f64d 82bc 6dc9 ecbc
000002c0: 1ffc 063e 7674 febc 8038 423d 5654 21bb
000002d0: a0d7 1fbc 383c ad3d 8dad 903d eb09 8a3d
000002e0: 7ab0 8bbd fe2d c33c c0db e2bd 244e 7b3c
000002f0: 30f1 f93d 2ca9 bd3d d295 f73c 34c9 7e3d
00000300: 5c70 263d 6cda 62bc c3fb 97bd d87c 96bd
00000310: 6ff1 80bd 9236 c4bd 3bf7 153d 325f 753c
00000320: 06a7 6c3d c5af fa3d 0f62 14be bfdb bc3d
00000330: 15a3 fd3d cd21 f83d fa6f a43b 454e b33d
00000340: 70f4 563d 3612 0b3e 580c 91bc fa9f b73c
00000350: 8c34 7ebd f74c 6c3d 8d6c 983b 60b9 223d
00000360: 5d13 b93d 09a1 843d d927 da3d 05c3 8bbd
00000370: 8ceb 1c3d 8831 81bd d39b a3bd 046c 033c
00000380: 94b6 5e3c 3074 23bc ae9c 4c3d 86e9 29bd
00000390: 7f26 7a3d 22d8 c03d bfb4 003d e72a 8abd
000003a0: e6a4 493d 5776 98bd 2c6d b9bc e1e0 593d
000003b0: 9d94 543c 7c0c 13be d51c 06be 2071 febd
000003c0: ffab dc3c 727a b73c 2850 0ebc 11f5 703c
000003d0: a540 88bd 6341 a6bd 1469 b53d 7447 01bd
000003e0: ac3e aabc 2a10 873d 13a6 bf3d 9f18 f5bc
000003f0: f524 01be 76f9 f93d 57a0 5f3d 6960 703d

model.actor.3.bias f4 [64]
-0.11227234 -0.01309388 -0.0054596737 -0.0090515055 0.00833897 0.051642038 0.0534524 -0.04170277
0.042342093 0.06983262 0.06517964 0.09178786 -0.11373779 -0.013561216 -0.055933923 0.06914672
0.10582392 0.05006049 0.04576212 0.10770693 0.10487026 -0.0025352235 -0.07801558 0.032554664
-0.053258043 -0.11368624 -0.08945622 0.04036949 -0.11251567 -0.10033471 0.0909049 0.03984714
0.10727553 0.046889126 -0.10841089 0.0029612805 -0.08227416 -0.0368589 0.06972802 0.054867644
-0.10419157 -0.0801176 0.031719554 0.018200161 -0.060760178 0.074304 0.0025545985 0.030680412
-0.10512642 0.011515575 -0.10746362 -0.0074426006 0.11624424 -0.030220974 -0.11525878 -0.040365096
0.067862645 -0.06155867 -0.07715646 0.05975689 0.038306847 -0.10435545 -0.07165575 0.15018146
00000000: 0aef e5bd b787 56bc 10e7 b2bb c44c 14bc
00000010: 2da0 083c 9a86 533d e7f0 5a3d 86d0 2abd
00000020: e76e 2d3d 6804 8f3d e77c 853d 46fb bb3d
00000030: 5cef e8bd dd2f 5ebc f81a 65bd cc9c 8d3d
00000040: 36ba d83d 3a0c 4d3d 1071 3b3d 7395 dc3d
00000050: 38c6 d63d fe25 26bb a2c6 9fbd 0a58 053d
00000060: 1b25 5abd 55d4 e8bd d334 b7bd 7a5a 253d
00000070: 9e6e e6bd 497c cdbd 592c ba3d c136 233d
00000080: 46b3 db3d d00e 403d 8706 debd 0b12 423b
00000090: 5b7f a8bd 5cf9 16bd 90cd 8e3d e5bc 603d
000000a0: 6462 d5bd b214 a4bd 5dec 013d 8118 953c
000000b0: aadf 78bd b22c 983d 0d6b 273b 7d55 fb3c
000000c0: 854c d7bd d3ab 3c3c e315 dcbd 0fe1 f3bb
000000d0: 7611 ee3d fa91 f7bc cc0c ecbd df55 25bd
000000e0: 92fb 8a3d f224 7cbd 3504 9ebd a4c3 743d
000000f0: a4e7 1c3d 4fb8 d5bd 40c0 92bd 2bc9 193e

model.actor.4.weight f4 [64]
1.0251406 1.084442 1.1961402 1.0242783 1.0629964 1.1778678 1.0308679 1.1750172
1.1175457 1.1234722 1.0371884 1.1638571 1.0930173 1.1034993 1.2221404 1.0581874
1.0584996 1.1781485 1.3876687 1.2215846 1.0793605 1.2890413 1.0570829 1.1456287
1.0602834 1.0012517 1.1192683 1.0709673 1.1176006 1.0353202 1.0289445 1.0594108
1.0071691 1.004453 1.1012951 1.1283807 1.455926 1.2207536 1.0474144 1.1414899
1.2380406 1.1472554 1.0231959 1.1225936 1.1081865 1.0555772 1.1099054 1.2678312
1.2074906 1.0047034 1.1743492 1.2073268 0.99929047 1.3535738 1.0523878 1.0695562
1.128963 1.0755026 1.2495314 1.1385834 1.173812 1.0393533 1.1285259 1.1340548
00000000: cf37 833f ffce 8a3f 1f1b 993f 8d1b 833f
00000010: 4410 883f 5fc4 963f 7bf3 833f f766 963f
00000020: bd0b 8f3f f0cd 8f3f 97c2 843f 45f9 943f
00000030: fee7 8b3f 773f 8d3f 196f 9c3f af72 873f
00000040: ea7c 873f 92cd 963f 219f b13f e25c 9c3f
00000050: 7c28 8a3f 4eff a43f 7e4e 873f f6a3 923f
00000060: 5eb7 873f 0429 803f 2f44 8f3f 7515 893f
00000070: 890d 8f3f 5f85 843f 74b4 833f c69a 873f
00000080: ebea 803f ea91 803f 3df7 8c3f c76e 903f
00000090: c85b ba3f a741 9c3f ad11 863f 571c 923f
000000a0: 1d78 9e3f 44d9 923f 15f8 823f 26b1 8f3f
000000b0: 0ed9 8d3f 271d 873f 6111 8e3f 4b48 a23f
000000c0: 0d8f 9a3f 1f9a 803f 1351 963f af89 9a3f
000000d0: 80d1 7f3f e841 ad3f a5b4 863f 38e7 883f
000000e0: dc81 903f 12aa 893f a5f0 9f3f 1abd 913f
000000f0: 793f 963f 8709 853f 8973 903f b528 913f

model.actor.4.bias f4 [64]
0.0062126108 0.0075453916 0.099958986 0.015592001 0.0065869535 0.09043388 -0.0096032 0.07956023
0.04358556 0.03636826 0.025772344 0.07509796 0.019652186 0.077745475 0.090163335 0.008909992
0.040281266 0.09326969 0.15288688 0.07622638 0.06336679 0.08835115 0.021505743 0.063811325
0.038826488 -0.0207234 0.03277141 0.032066263 0.08501668 0.043137558 -0.015688239 0.0090527935
-0.020251378 0.0054016984 0.046027407 0.035618767 -0.023867207 0.10832268 0.009991643 0.07341948
0.08541547 0.06810028 0.0002568372 0.08063655 -0.06600249 0.0071647707 0.021743773 0.11339277
0.11386017 -0.0053820275 0.093504235 0.14597243 -0.0085736215 0.14994243 0.004978828 0.038183145
0.042119205 0.046684008 0.12330205 0.03833807 0.08238832 0.0110419495 0.032289762 0.07483204
00000000: 2893 cb3b 553f f73b 4cb7 cc3d 9875 7f3c
00000010: 5fd7 d73b 6635 b93d bd56 1dbc 79f0 a23d
00000020: c686 323d e2f6 143d 8620 d33c f6cc 993d
00000030: 9ffd a03c 0539 9f3d 8ea7 b83d 37fb 113c
00000040: f8fd 243d 2e04 bf3d 618e 1c3e 941c 9c3d
00000050: 73c6 813d 73f1 b43d d02c b03c 83af 823d
00000060: 8608 1f3d 1fc4 a9bc 503b 063d ea57 033d
00000070: 3a1d ae3d 02b1 303d 9f84 80bc 2b52 143c
00000080: 38e6 a5bc bb00 b13b 3c87 3c3d fce4 113d
00000090: 2985 c3bc 48d8 dd3d fdb3 233c f45c 963d
000000a0: 4eee ae3d 2978 8b3d 1ba8 8639 c724 a53d
000000b0: 502c 87bd 74c6 ea3b ff1f b23c 783a e83d
000000c0: 852f e93d b85b b0bb 267f bf3d cc79 153e
000000d0: 6078 0cbc 828a 193e 7025 a33b ee65 1c3d
000000e0: 3085 2c3d bb37 3f3d c985 fc3d 6108 1d3d
000000f0: 35bb a83d 4be9 343c 4542 043d 8a41 993d

model.actor.6.weight f4 [2, 64]
-0.09039297 -0.015506355 0.11595424 0.14652164 0.024302129 -0.14597636 0.12850522 0.22184953
0.20020236 -0.26232073 0.16500509 -0.13103206 0.07146308 -0.087127134 -0.001308743 0.13333945
0.15406887 -0.15445916 -0.23589955 0.298596 0.17813753 0.31629497 0.09309074 0.06401085
0.14634095 -0.06101563 0.089490235 0.0760334 -0.17088048 -0.17796868 -0.094257034 -0.12445751
-0.13821901 0.032493245 0.10038234 0.03203764 -0.38886616 -0.213268 -0.035136472 -0.19214906
0.23755117 0.21074712 -0.06846488 0.100837074 -0.16060421 -0.0096437475 -0.012504504 -0.21471587
-0.11743101 -0.07871087 -0.16140635 -0.14362614 -0.09386769 0.14918455 0.1547212 -0.16259313
-0.19449624 0.054916315 -0.18367465 -0.03933147 -0.1616359 -0.15783401 -0.011838299 0.15845148
-0.04597416 0.14604157 0.22072795 -0.05655933 0.14968885 -0.21146967 -0.085491665 0.21780829
0.08301182 0.045227062 -0.07783964 -0.21024698 -0.069740325 -0.19300468 -0.22592084 -0.1039345
0.033821665 -0.2070104 -0.25641415 0.16598508 0.11834121 0.16549443 -0.059018955 0.090625435
0.0040526926 0.075829 0.2098141 -0.102853246 -0.07521187 0.008672061 0.034081127 0.18289478
0.045308147 -0.110849015 -0.1545059 0.23408015 -0.4459794 -0.22345218 0.1614026 -0.17306341
0.21630788 0.1276574 0.10843216 0.15222602 -0.15413548 0.18326224 -0.16589412 -0.26525965
-0.23833531 0.13665447 -0.24292329 -0.14147209 0.053764604 0.22374956 -0.118469596 0.012301232
0.012227272 0.10725749 -0.15910672 0.27148196 -0.23089488 0.0694745 -0.17759222 -0.07196497
00000000: f31f b9bd 5e0e 7ebc 6b79 ed3d c509 163e
00000010: 4215 c73c d47a 15be df96 033e 862c 633e
00000020: d901 4d3e e74e 86be 18f7 283e 452d 06be
00000030: 3c5b 923d b66f b2bd 218a abba 238a 083e
00000040: 3bc4 1d3e 8b2a 1ebe a78f 71be 93e1 983e
00000050: af69 363e 6af1 a13e 5ca6 be3d 1f18 833d
00000060: 67da 153e 86eb 79bd a846 b73d 66b7 9b3d
00000070: 4bfb 2ebe 6c3d 36be d509 c1bd 94e3 febd
00000080: 4989 0dbe a317 053d 4295 cd3d e739 033d
00000090: 7719 c7be ed62 5abe 43eb 0fbd b9c2 44be
000000a0: 9d40 733e 18ce 573e 5137 8cbd ab83 ce3d
000000b0: 6e75 24be cf00 1ebc b1df 4cbc 7ade 5bbe
000000c0: ab7f f0bd 2a33 a1bd b547 25be bb12 13be
000000d0: b43d c0bd d6c3 183e 3c6f 1e3e d07e 26be
000000e0: 062a 47be eeef 603d 3515 3cbe 091a 21bd
000000f0: e283 25be 3d9f 21be 6df5 41bc 1b41 223e
00000100: 674f 3cbd ec8b 153e 8206 623e c2aa 67bd
00000110: 0948 193e 818b 58be 4116 afbd 2309 5f3e
00000120: 1a02 aa3d 0340 393d 646a 9fbd fc4a 57be
00000130: 04d4 8ebd 05a3 45be cb57 67be 9cdb d4bd
00000140: 9688 0a3d 89fa 53be b748 83be fef7 293e
00000150: e05c f23d 5f77 293e dcbd 71bd d499 b93d
00000160: 73cc 843b 3c4c 9b3d 82d9 563e b9a4 d2bd
00000170: ae08 9abd 4315 0e3c a798 0b3d c548 3b3e
00000180: 0995 393d cf04 e3bd cb36 1ebe b5b2 6f3e
00000190: 6957 e4be a6d0 64be b946 253e 8937 31be
000001a0: d07f 5d3e 9fb8 023e ae11 de3d 23e1 1b3e
000001b0: b1d5 1dbe 19a9 3b3e 26e0 29be 1dd0 87be
000001c0: 2c0e 74be 26ef 0b3e e2c0 78be 0fde 10be
000001d0: 4638 5c3d 9b1e 653e 30a0 f2bd 1b8b 493c
000001e0: e554 483c d1a9 db3d dfec 22be afff 8a3e
000001f0: b56f 6cbe a648 8e3d bcda 35be 5f62 93bd

model.actor.6.bias f4 [2]
-0.05453986 0.088968605
00000000: 3065 5fbd 2c35 b63d
