src/taser/locomotion/models/track_velocity.onnx (onnx, 29371 bytes, 11 tensors)

model.log_std f4 [2]
0	0xbfbc0610	-1.468935
1	0xbfbb5ecc	-1.4638305

model.actor.0.weight f4 [64, 29]
0	0xbd04c623	-0.03241552
1	0xbd3a60ff	-0.04550266
2	0xbd1468ed	-0.036232878
3	0x3d502778	0.05081889
4	0xbcabf0b2	-0.020988796
5	0x3db51355	0.08841578
6	0x3c01cda0	0.00792256
7	0xbcce977e	-0.025218721
8	0xbd4bb115	-0.049729425
9	0xbe3a8501	-0.182148
10	0x3d603c1e	0.054744832
11	0x3dcb072a	0.09913476
12	0x3d0f9508	0.035054237
13	0x3d640363	0.055667292
14	0x3b33b273	0.0027419596
15	0x3d5f37a1	0.05449641
16	0xbe1df898	-0.15426862
17	0xbb9c2db4	-0.0047661904
18	0xbcc337e5	-0.023830364
19	0xbe0f11d6	-0.13971648
20	0xbda6dfd5	-0.08148161
21	0xbe873fe2	-0.26415926
22	0xbe0f70d7	-0.14007889
23	0x3c38f4a5	0.011288797
24	0xbd536b86	-0.051616214
25	0xbdb3e17b	-0.08783241
26	0xbd6e3322	-0.058154233
27	0xbe175050	-0.1477673
28	0x3ce37ebb	0.02777039
29	0x3d483108	0.048874885
30	0x3b9eb5e6	0.0048434613
31	0x3c998961	0.018742265
32	0x3ce7f493	0.028314864
33	0xbd3e093d	-0.04639553
34	0xbcb7ca21	-0.02243525
35	0xbbf7a130	-0.007557057
36	0x3b0ab66e	0.0021165865
37	0xbe72fd7d	-0.2372951
38	0x3daa027a	0.083012536
39	0xbd82824f	-0.06372511
40	0xbe394b0c	-0.18095034
41	0x3e21a5be	0.15785882
42	0xbe0227fb	-0.12710564
43	0xbd86417c	-0.06555459
44	0x3d683789	0.056693587
45	0xbe014cb6	-0.12626919
46	0xbc6dbad2	-0.014509873
47	0x3d238730	0.039923847
48	0x3de2dd3f	0.110773556
49	0xbdba0831	-0.09083594
50	0xbe497e92	-0.19677189
51	0x3e2731bd	0.16327567
52	0x3d961aac	0.07329306
53	0xbe16ba12	-0.14719418
54	0x3c70337c	0.014660712
55	0x3e422321	0.18958713
56	0x3d24baa5	0.04021706
57	0xb97f6f8c	-0.0002436025
58	0x3ca20dc2	0.01978195
59	0xbd630abd	-0.055430163
60	0xbd8f16d0	-0.06986773
61	0xbd9341d6	-0.071902916
62	0x3dce0884	0.10060218
63	0x3d40c70e	0.047064833
64	0xbd9f0b8d	-0.07765875
65	0xbda4602d	-0.080261566
66	0xbdde3040	-0.10849047
67	0x3e09f221	0.13471271
68	0xbd6b8602	-0.057500847
69	0xbdd330d6	-0.10312049
70	0xbc747206	-0.014919763
71	0xbd2041fa	-0.03912542
72	0xbccf4d53	-0.025305426
73	0xbc70cd80	-0.0146974325
74	0xbc63bf15	-0.013900538
75	0xbd9af8ca	-0.07566984
76	0x3dab9c01	0.08379365
77	0xbe134e12	-0.1438525
78	0x3e1c1aaf	0.15244554
79	0x3d1c184d	0.038109113
80	0x3b3bb178	0.0028639715
81	0xbe26f284	-0.1630345
82	0x3a857171	0.0010180903
83	0x3e1ce769	0.15322651
84	0x3cb2294f	0.021748213
85	0x3dbb704d	0.09152279
86	0xbdbab5a7	-0.09116679
87	0xbdb0a7eb	-0.08625778
88	0xbd320de4	-0.04347028
89	0xbd78790d	-0.060662318
90	0xbca52267	-0.020158006
91	0x3b68395b	0.0035434577
92	0x3ccdd5fe	0.025126453
93	0xbdaf13bc	-0.08548686
94	0x39d60355	0.00040819743
95	0xbd5a3815	-0.05327614
96	0xbcc803ca	-0.02441587
97	0xbd77bbab	-0.06048171
98	0x3d380db1	0.044934932
99	0x3df9f457	0.12204807
100	0xbd84b3d8	-0.06479615
101	0xbdad5310	-0.084631085
102	0xbbbe597e	-0.005809008
103	0x3e75364f	0.23946498
104	0x3c88bdc0	0.016692042
105	0x3d948f2c	0.0725387
106	0xbd94663b	-0.072460614
107	0x3e4a3edf	0.19750546
108	0x3e8f3e07	0.2797701
109	0xbd4485ec	-0.04797928
110	0x3cd925a4	0.026507206
111	0xbd9dffec	-0.07714829
112	0xbcfad814	-0.030620612
113	0xbc41e2ac	-0.011833828
114	0x3d15697b	0.036477547
115	0xbc073f81	-0.008254887
116	0xbaa69087	-0.0012707867
117	0x3b58f83a	0.003310694
118	0xbb0156d9	-0.0019735603
119	0x3d6d52d9	0.057940338
120	0xbdbd2e6d	-0.09237371
121	0xbb4a5079	-0.003087072
122	0x3cd11553	0.025522863
123	0xbbce4070	-0.0062943026
124	0x3d880d8d	0.066432096
125	0xbe0aea42	-0.13565925
126	0xbe2c201f	-0.16809128
127	0x3dabe61a	0.08393498
128	0xbdb7f3a0	-0.08982015
129	0x3d817cd4	0.06322637
130	0xbe31fe2c	-0.17382115
131	0x3db27788	0.08714205
132	0x3e188b79	0.14896955
133	0x3e19101c	0.14947551
134	0xbe095df6	-0.1341475
135	0x3b35ae7c	0.002772241
136	0x3e273769	0.16329731
137	0x3d1e133e	0.03859257
138	0x3b152052	0.002275486
139	0xbac194ea	-0.0014769111
140	0x3e6197a7	0.22030507
141	0xbdabb359	-0.08383817
142	0x3e0a694d	0.13516732
143	0x3e392479	0.1808032
144	0xbd33cfaa	-0.043899216
145	0x3acfac0a	0.0015844118
146	0xbcd45fb2	-0.025924537
147	0x3b50a149	0.0031834415
148	0x3c7c507e	0.01540005
149	0xbcfa88ee	-0.030582871
150	0xbbe7d743	-0.0070752217
151	0xbce54880	-0.027988672
152	0xbd196679	-0.03745124
153	0xbd7a5622	-0.0611173
154	0xbcf9f9f4	-0.030514695
155	0x3d9081dc	0.07056019
156	0xbb88a0a3	-0.00416954
157	0xbc551110	-0.013004556
158	0x3d28303d	0.04106163
159	0xbd1116a6	-0.03542199
160	0x3c6ed422	0.014576944
161	0xbd630bce	-0.05543118
162	0xbcf9a9cb	-0.030476471
163	0x3df317b7	0.118697576
164	0x3e09e21f	0.13465165
165	0x3e2be9bf	0.16788386
166	0x3d73fe4f	0.0595687
167	0xbd56c7ca	-0.052436627
168	0x3d88175e	0.06645082
169	0x3ca3b03c	0.019981496
170	0x3dcba3c3	0.099433444
171	0x3e1bcb07	0.15214168
172	0xbcaae4fc	-0.020861141
173	0x3e3e0528	0.18556654
174	0xbd298a89	-0.041391883
175	0x3afe4582	0.0019399377
176	0x3cce7677	0.025202973
177	0xbccacf09	-0.024756925
178	0x3c306ae7	0.010767675
179	0x3bbf3cce	0.005836106
180	0xbb2984b6	-0.0025866455
181	0xbd35616d	-0.044282366
182	0xbc97af68	-0.018516257
183	0xbdbee67d	-0.09321306
184	0xbd78f7cd	-0.060783196
185	0x3d693e33	0.056944083
186	0xbd33a7fe	-0.04386138
187	0xbdc43b09	-0.095815726
188	0x3c618f50	0.0137670785
189	0x3dc0fbb8	0.094230115
190	0x3c6985d2	0.014253097
191	0xbbf07b4b	-0.0073389164
192	0xbe0e08ef	-0.13870595
193	0x39c3f74c	0.0003737755
194	0x3db1c79f	0.08680653
195	0xbe7a5ec2	-0.2445021
196	0xbd215fcb	-0.039397996
197	0xbe4f71b5	-0.2025822
198	0x3d981467	0.074257664
199	0x3d8bdd71	0.06829346
200	0xbe55ed58	-0.2089132
201	0x3e1ffc61	0.15623619
202	0x3e55e3df	0.20887707
203	0x3d3b8622	0.045782216
204	0xbcec4b52	-0.02884451
205	0x3d3c6e36	0.046003543
206	0xbc3f4bb4	-0.011675764
207	0xbc0a86f3	-0.008455026
208	0x3cef4d58	0.029211685
209	0xbd0a15eb	-0.03371231
210	0x3c2ec6df	0.010667532
211	0xba3eea4b	-0.0007282837
212	0xbd7e1b46	-0.06203773
213	0x3ab6a079	0.0013933323
214	0x3aafc3a1	0.0013409742
215	0x3d142d26	0.03617587
216	0xbe1e3bae	-0.15452453
217	0x3d80b9be	0.062854275
218	0xbda4f750	-0.080549836
219	0xbd966eb1	-0.073453315
220	0xbca0e10b	-0.019638559
221	0x3cb9d8ea	0.02268644
222	0xbe26933b	-0.16267101
223	0xbe74e93b	-0.23917095
224	0x3e245e9f	0.1605172
225	0x3bbca79c	0.0057572853
226	0xbdccc107	-0.099977545
227	0xbce52599	-0.02797203
228	0x3d010606	0.031499885
229	0xbe1b4ed6	-0.15166792
230	0xbce8fea4	-0.028441735
231	0xbdf44067	-0.11926346
232	0x3d5add7a	0.053433873
233	0xbce4e5e6	-0.027941655
234	0x3d808d32	0.06276931
235	0xbc61e7b1	-0.01378815
236	0x3c7647e3	0.015031788
237	0x3cf23625	0.029566834
238	0x3a9432ed	0.0011306681
239	0xbcc97654	-0.024592556
240	0xbd6c6bf1	-0.05772013
241	0xbbb48ad4	-0.0055097137
242	0x3cfa7d16	0.030577224
243	0xbd05d0cd	-0.03266983
244	0xbe0bf6c0	-0.13668346
245	0xbda2096e	-0.07911955
246	0x3cd7908f	0.026314048
247	0xbda811d6	-0.08206527
248	0xbe32c763	-0.17458872
249	0x3e22cc2f	0.15898202
250	0x3dcfc570	0.1014508
251	0xbdecbe97	-0.1155979
252	0x3b371990	0.002793882
253	0x3cd82984	0.026386984
254	0xbc9b5685	-0.018962154
255	0x3e3eaf03	0.18621449

model.actor.0.bias f4 [64]
0	0x3e429647	0.19002639
1	0xbcf48a85	-0.029851208
2	0x3dec5c23	0.11541011
3	0xbd9d28d8	-0.07673806
4	0xbdc4674b	-0.09590014
5	0xbe1c40b2	-0.15259054
6	0xbd04af8a	-0.03239397
7	0xbe6d3d89	-0.23168005
8	0x3c0a1d75	0.008429875
9	0x3db2dd7c	0.08733651
10	0x3e2f1769	0.17098774
11	0x3ca3ac5d	0.01997965
12	0x3dddbb5d	0.10826752
13	0x3b7bd90c	0.003842893
14	0xbd7107e4	-0.058845416
15	0xbdbdd81a	-0.09269734
16	0xbdd45372	-0.103674784
17	0x3da9ef1c	0.082975596
18	0x3dba444a	0.09095056
19	0x3db6514c	0.08902225
20	0xbd64352e	-0.05571478
21	0xbdd1f93a	-0.10252614
22	0x3d8b1f02	0.06793024
23	0xbdab213a	-0.08355947
24	0xbe1f70d5	-0.15570386
25	0x3d8b48bc	0.06800982
26	0x3c1e92db	0.009678568
27	0xbeb0f2dc	-0.34560287
28	0xbdee04d2	-0.11622013
29	0xbe317187	-0.17328463
30	0xbdc33fae	-0.0953363
31	0xbd8be51b	-0.06830808
32	0x3d51bf87	0.051208045
33	0xbd0b8e88	-0.034071475
34	0xbaae6f30	-0.0013308283
35	0xbdc52628	-0.09626418
36	0x3e059596	0.13045344
37	0x3de0644e	0.109566316
38	0xbda0d87f	-0.07853793
39	0xbd1635b3	-0.036672305
40	0x3e2613b9	0.16218461
41	0x3dc88df3	0.097927
42	0xbc3e88dc	-0.0116293095
43	0x3b4c944d	0.0031216324
44	0x3bc30813	0.0059518903
45	0x3d01ac79	0.031658623
46	0x3cc92ac8	0.024556533
47	0x3d270767	0.040778544
48	0x3d6dcf75	0.058059175
49	0xbdabf9c3	-0.08397248
50	0x3e3f2e8a	0.18670097
51	0xbaa0a116	-0.0012255039
52	0xbda601f4	-0.08105841
53	0x3d2292ea	0.03969089
54	0xbd5ae822	-0.053444035
55	0x3de4e592	0.111765996
56	0x3e385e32	0.18004683
57	0xba4d64f2	-0.00078351714
58	0xbb957786	-0.0045613674
59	0x3e0bb5c0	0.13643551
60	0xbd9db234	-0.07700005
61	0x3dcd11dc	0.10013172
62	0x3df22d57	0.11825054
63	0x3e162900	0.14664078

model.actor.1.weight f4 [64]
0	0x3f80fa21	1.0076333
1	0x3f7cc244	0.98733926
2	0x3f73f3b2	0.95293725
3	0x3f81a934	1.0129762
4	0x3f7a80a9	0.9785257
5	0x3f7f7a71	0.99796206
6	0x3f84df76	1.0380695
7	0x3f837bf3	1.0272201
8	0x3f712abf	0.9420585
9	0x3f86fc4c	1.0545745
10	0x3f7a1bce	0.97698677
11	0x3f806fb3	1.0034088
12	0x3f87db63	1.0613827
13	0x3f7d7620	0.9900837
14	0x3f889591	1.0670644
15	0x3f83582a	1.026128
16	0x3f6ed676	0.9329599
17	0x3f658c1d	0.8966692
18	0x3f80b843	1.0056232
19	0x3f7f98f5	0.9984277
20	0x3f7688a9	0.96302277
21	0x3f853755	1.0407511
22	0x3f7efb1e	0.99601924
23	0x3f82bdfe	1.0214231
24	0x3f6f9caa	0.93598425
25	0x3f82274e	1.0168245
26	0x3f7c9582	0.9866563
27	0x3f8230cd	1.0171143
28	0x3f750acc	0.957196
29	0x3f7a40c5	0.9775508
30	0x3f82b39f	1.0211066
31	0x3f7fc70d	0.999131
32	0x3f752e34	0.95773625
33	0x3f763ca6	0.9618629
34	0x3f812ee8	1.009244
35	0x3f820ef3	1.0160812
36	0x3f7d41c5	0.9892848
37	0x3f8078b9	1.0036842
38	0x3f73108d	0.9494713
39	0x3f84b056	1.0366313
40	0x3f7ec303	0.99516314
41	0x3f8ad2ab	1.0845541
42	0x3f7a4864	0.9776671
43	0x3f7b317b	0.98122376
44	0x3f803de5	1.0018889
45	0x3f7f9697	0.99839157
46	0x3f84d825	1.0378462
47	0x3f79a92a	0.9752375
48	0x3f70c554	0.940511
49	0x3f79ba64	0.97550035
50	0x3f80bff0	1.0058575
51	0x3f7b0a79	0.98062855
52	0x3f685cc4	0.9076655
53	0x3f8485ca	1.0353329
54	0x3f87415c	1.0566821
55	0x3f7e83a3	0.9941961
56	0x3f86af65	1.0522276
57	0x3f8153e7	1.010373
58	0x3f7a08e4	0.97669816
59	0x3f824b06	1.0179145
60	0x3f670540	0.90242386
61	0x3f85306d	1.0405403
62	0x3f79c350	0.9756365
63	0x3f7dbf57	0.99120086

model.actor.1.bias f4 [64]
0	0x3c200af5	0.009768237
1	0xbbf8f246	-0.0075972406
2	0x3c0c21ce	0.008552982
3	0x3d163c6f	0.036678728
4	0xbb11664d	-0.002218622
5	0x3a1fae77	0.0006091366
6	0x3d165256	0.036699615
7	0x3cb2d488	0.021829858
8	0xbcf14617	-0.029452367
9	0x3d68bcaa	0.05682055
10	0xbbf2bd89	-0.0074078483
11	0x3bc9a3f1	0.0061535765
12	0x3d637bc6	0.05553796
13	0x3d78109f	0.060562726
14	0x3d556559	0.052098606
15	0x3cb34d7a	0.02188753
16	0x394c085f	0.00019458075
17	0xbd17d7c0	-0.03707099
18	0x3c43482f	0.011919065
19	0x3bd36b0d	0.0064519704
20	0xbd47241a	-0.048618414
21	0x3d58af7a	0.052901722
22	0x3d098d58	0.03358206
23	0x3da64189	0.081179686
24	0xbcfd929e	-0.030953702
25	0x3d1bca2c	0.038034603
26	0xbc0fd815	-0.008779545
27	0xbac02269	-0.0014658693
28	0xbcc49d76	-0.024000864
29	0xbb9ea117	-0.0048409807
30	0x3caa1906	0.020763885
31	0x3d709e22	0.058744557
32	0xbb45d48d	-0.0030186505
33	0xbc964124	-0.018341608
34	0x3d391c6e	0.04519313
35	0x3d99ad24	0.07503727
36	0xbbf72377	-0.0075420695
37	0x3bfeefcd	0.0077800513
38	0x3cff4b91	0.031163963
39	0x3c8fcd4d	0.01755395
40	0x3c1aa4df	0.009438722
41	0x3da8aa37	0.08235591
42	0x3bbaaa31	0.005696558
43	0xbd69a653	-0.057043385
44	0x3d9489f2	0.072528735
45	0x3d02c365	0.031924624
46	0x3cda764c	0.026667736
47	0xbb1134c1	-0.0022156688
48	0xbd180c3f	-0.037121054
49	0xbc8c25b7	-0.017107828
50	0x3d075ce0	0.033047557
51	0x3c278999	0.010225677
52	0xbb70bd5a	-0.0036733956
53	0x3d04d7cf	0.032432374
54	0x3d671815	0.05641945
55	0xbc2e013c	-0.0106204115
56	0x3d2409ac	0.040048286
57	0x3d0f3c39	0.034969542
58	0x3adec34c	0.0016995459
59	0x3d18fd78	0.0373511
60	0xbd897a28	-0.067127526
61	0x3cf1bd60	0.029509246
62	0x3baf1a9a	0.0053437473
63	0x3cdb0f8b	0.02674081

model.actor.3.weight f4 [64, 64]
0	0x3d66357b	0.056203347
1	0xbd4ad66e	-0.049520902
2	0xbd6101d9	-0.054933403
3	0xbde753bf	-0.1129527
4	0x3cd56965	0.026051233
5	0xbd289666	-0.041159056
6	0x3e0c37d2	0.13693169
7	0xbc5407df	-0.01294133
8	0x3d5e0cb9	0.054211352
9	0xbd950fd6	-0.07278411
10	0xbbf6d4d3	-0.007532695
11	0x3dcca414	0.09992233
12	0x3e0a1104	0.13483053
13	0x3da1fb51	0.07909263
14	0xb9d0d73c	-0.00039833214
15	0xbbb628f2	-0.0055590803
16	0x3cf9bd56	0.03048579
17	0xbbaac211	-0.005211123
18	0x3d4d308e	0.050095133
19	0x3bf1589a	0.0073652985
20	0xbb5a4e20	-0.0033310726
21	0x3b5dfa32	0.0033871052
22	0x3d4a2149	0.04934815
23	0xbd9a0686	-0.075207755
24	0x3d0475c8	0.032338887
25	0xbd1eacf5	-0.038739163
26	0xbc67de90	-0.014152184
27	0x3d682d1a	0.056683637
28	0xbd474111	-0.048646037
29	0x3d63e426	0.0556375
30	0xbc8c4ce7	-0.017126514
31	0x3d8eaf2a	0.06967004
32	0xbb8aec0f	-0.004239566
33	0xbd4bcca5	-0.04975571
34	0xbccdab65	-0.025106141
35	0x3cf80537	0.030275924
36	0xbca5a970	-0.020222396
37	0xbd6905d5	-0.056890327
38	0x3d002f8b	0.03129534
39	0x3d063c11	0.032772128
40	0xbd4908db	-0.04908071
41	0x3d4219dc	0.047387943
42	0xbb9ea8a9	-0.004841883
43	0x3d50a06b	0.050934236
44	0x3e1207a0	0.14260721
45	0x3e130929	0.14358963
46	0x3cee98fe	0.029125687
47	0x3d7de65e	0.061987273
48	0x3d08c2cd	0.0333889
49	0x3c6c32b9	0.01441639
50	0xb91dc30d	-0.00015045349
51	0x3d690960	0.056893706
52	0xbc8c8781	-0.017154457
53	0xbcec9c6b	-0.02888318
54	0x3d01d01f	0.03169262
55	0xbd901582	-0.07035352
56	0x3cf0f75f	0.02941483
57	0xbd91ddd1	-0.07122386
58	0x3c7f1576	0.0155690815
59	0xbdcd8a8a	-0.1003619
60	0xbbcb801e	-0.006210341
61	0xbdee9f1b	-0.11651441
62	0x3bf92ae8	0.007603992
63	0xbd39fbc3	-0.045406114
64	0x3c6083c4	0.01370329
65	0xbbc046aa	-0.005867799
66	0x3d2702b0	0.040774047
67	0x3dac8139	0.08423085
68	0x3b9c2d59	0.004766148
69	0x3c34b105	0.011028533
70	0x3dc61e7f	0.096737854
71	0xbd7988eb	-0.06092159
72	0xbd346054	-0.04403718
73	0x3d9950ca	0.074861124
74	0xbe0d960d	-0.13826771
75	0x3d3aca88	0.045603305
76	0x3bef5ba5	0.007304626
77	0xbc23526f	-0.009968384
78	0x3c854720	0.016269267
79	0xbe1b0f7f	-0.1514263
80	0xbdddfe5b	-0.1083953
81	0x3cdd69ff	0.027028082
82	0xbcc82f21	-0.024436535
83	0xbd0bf250	-0.034166634
84	0x3d9829ed	0.07429872
85	0x3d61dd64	0.055142775
86	0xbafbe16f	-0.0019216965
87	0xbd213178	-0.039353818
88	0xbcba5752	-0.022746716
89	0xbcb99a21	-0.022656502
90	0xbd47e4a9	-0.04880205
91	0x3d90bbbd	0.07067058
92	0x3bff366b	0.0077884695
93	0x3e105485	0.14094742
94	0x3ceb2446	0.02870382
95	0xbd917c57	-0.07103794
96	0xbe19803f	-0.14990328
97	0x3c1eec71	0.009699927
98	0x3e125ff6	0.14294419
99	0x3c8646df	0.016391216
100	0xbc540bb7	-0.012942246
101	0x3c059c9a	0.0081550125
102	0x3c8aaf04	0.016929157
103	0x3d0f25a4	0.034948006
104	0x3dc32ce3	0.09530046
105	0xbd1c8cd4	-0.03822024
106	0x3de6a3dc	0.112617224
107	0x3c57704e	0.013149334
108	0x3d05e659	0.03269038
109	0x3daff715	0.08592049
110	0xbdb80a56	-0.089863464
111	0xbd54a8a4	-0.05191864
112	0x3c0ebbc1	0.008711756
113	0xbdeb70de	-0.11496137
114	0xbc1b3136	-0.009472182
115	0xbcafb925	-0.021450588
116	0x3dfd28df	0.12361311
117	0xbd15b2cc	-0.036547467
118	0xbc18db02	-0.009329559
119	0x3a5c35be	0.0008400342
120	0x3d491fde	0.049102657
121	0xbd1b64e0	-0.037938
122	0xbc1b7b2a	-0.009489814
123	0x3b8b81dd	0.0042574243
124	0x3dfbeba1	0.12300802
125	0x3ce11b90	0.027478963
126	0x3d6c502a	0.057693638
127	0xbdcd4a57	-0.10023945
128	0x3d117e1b	0.035520654
129	0xbd38a3e3	-0.04507817
130	0xbd66b42f	-0.05632418
131	0x3d517f3d	0.051146735
132	0xbca17e14	-0.019713439
133	0x3cf0c7f9	0.02939223
134	0x3dd236f6	0.10264389
135	0xbd831370	-0.06400192
136	0xbc4b44d2	-0.012406545
137	0x3d928f6d	0.071562625
138	0xbd8df66a	-0.069317654
139	0xbcc88ecd	-0.024482155
140	0x3d8bc2f1	0.068242915
141	0x3e02ec00	0.1278534
142	0xbd99757f	-0.07493114
143	0xbbd736c3	-0.0065678074
144	0xbd9a7992	-0.07542719
145	0x3c821a32	0.015881632
146	0xbd36f19f	-0.04466402
147	0x3c90ea51	0.017689856
148	0x3dc6a53f	0.09699487
149	0x3d765ae9	0.060145292
150	0x3cb40638	0.021975622
151	0x3c9099c2	0.017651442
152	0xbdb1e0da	-0.08685465
153	0x3d30c1fd	0.04315375
154	0x3d76487c	0.06012772
155	0xbcd8f4d1	-0.026483925
156	0xbd4541ed	-0.048158575
157	0xbdebae9c	-0.115079135
158	0xbd166ca9	-0.03672472
159	0xbd96f4fd	-0.073709466
160	0x3da71f0d	0.08160219
161	0x3bddcf56	0.006769101
162	0x3d34266a	0.043981947
163	0x3cdc6855	0.026905218
164	0x3e02f9f5	0.12790664
165	0x3ce5f9de	0.028073248
166	0xba18eff1	-0.0005834094
167	0xbd084c2b	-0.033275764
168	0x3dd64516	0.10462396
169	0xbd42c6cd	-0.047552872
170	0xbc8eed49	-0.01744713
171	0x3d19fbd1	0.037593666
172	0x3cb16dcf	0.021658806
173	0xbd1343d0	-0.035953343
174	0x3d6121f6	0.05496403
175	0x3c01ae4e	0.007915093
176	0xbdc6b3d7	-0.097022705
177	0x3c2e1f4d	0.01062758
178	0x3cda982f	0.026683895
179	0x3d19f41b	0.037586313
180	0x3cc19ae8	0.023633435
181	0x3ca7ebde	0.020498212
182	0xbc30406f	-0.01075755
183	0x3d793172	0.06083817
184	0xbcc7ac03	-0.024374014
185	0x3b950215	0.0045473673
186	0x3d7fa543	0.062413465
187	0xbd0ce51d	-0.034398187
188	0x3de43e7d	0.11144731
189	0x3d317cdd	0.04333197
190	0xbdf3de02	-0.11907579
191	0xbe0bf1a7	-0.13666402
192	0xbcfc796e	-0.030819621
193	0x3de7b976	0.11314671
194	0x3aee738e	0.0018192397
195	0xbc91a1d1	-0.017777355
196	0x3d9155d2	0.07096447
197	0x3d3c4dfb	0.045972805
198	0x3cf14f16	0.029456656
199	0x3d6eafa5	0.058272976
200	0xbb9ef42b	-0.0048508844
201	0x3c822a99	0.015889453
202	0x3d3d13af	0.04616135
203	0xbc375a38	-0.011190943
204	0xbc696ad6	-0.014246663
205	0x3dc80348	0.09766251
206	0xbd27f1a3	-0.041001927
207	0xbc8e377e	-0.017360445
208	0xbcce5171	-0.025185319
209	0xbd3fef57	-0.04685911
210	0xbd934fed	-0.07192979
211	0xbdcc4add	-0.099752165
212	0x3d68f057	0.05686983
213	0xbb7348af	-0.003712218
214	0x3e000c29	0.12504639
215	0xbcde82cd	-0.02716198
216	0xbd062059	-0.032745693
217	0xbce7a336	-0.028276067
218	0x3d8f9e3a	0.07012601
219	0x3d1624ff	0.036656376
220	0x3d84e1d0	0.06488383
221	0x3d988c6d	0.07448659
222	0xbdc6b4b4	-0.09702435
223	0xb9bce802	-0.00036031014
224	0x3d7eedbd	0.062238444
225	0xbd849b2f	-0.064749114
226	0xbd5a2d59	-0.053265903
227	0xbd98928f	-0.07449829
228	0x3da16a60	0.078816175
229	0x3ca010d4	0.019539274
230	0x3de8c3fb	0.11365505
231	0xbca32411	-0.019914659
232	0xbc17e70a	-0.009271393
233	0x3c267abf	0.010161101
234	0xbca00aa7	-0.01953633
235	0xbc5fded6	-0.013663968
236	0xbd3eb820	-0.046562314
237	0xbd083ded	-0.033262182
238	0xbc78d912	-0.015188472
239	0x3c73e92f	0.014887138
240	0xbc4d45c1	-0.012528838
241	0xbd1fb88d	-0.03899436
242	0xbcd6f83a	-0.02624141
243	0x3ae8f830	0.0017774161
244	0xbc3af506	-0.011410957
245	0xbc647e5a	-0.01394614
246	0x3d10d9bd	0.0353639
247	0x3ca28809	0.019840257
248	0x3df85a35	0.121265806
249	0x3d3a846f	0.045536455
250	0x3d97f343	0.07419445
251	0x3d6f8e96	0.05848559
252	0x3ca2f8d2	0.019894037
253	0x3c901340	0.017587304
254	0x3d80997e	0.06279276
255	0xbd8d2829	-0.068924256

model.actor.3.bias f4 [64]
0	0xbcdec286	-0.027192365
1	0x3d9f0257	0.07764118
2	0x3dd48fe3	0.10379007
3	0x3d9b062f	0.07569539
4	0x3dfe46c4	0.12415841
5	0x3dd2a819	0.10285968
6	0xbc1c97f6	-0.009557715
7	0x3c6c0d4a	0.014407465
8	0xbd8bd642	-0.06827976
9	0xbd855a6f	-0.065113895
10	0xbdf930c8	-0.121675074
11	0xbce6c7d4	-0.028171457
12	0xbd8da5dc	-0.06916401
13	0xbd882184	-0.066470176
14	0xbdc611b2	-0.09671344
15	0x3dd46357	0.1037051
16	0x3d92bb69	0.07164652
17	0x3d8f4a10	0.06996548
18	0xbddf8915	-0.10914818
19	0x3ca862db	0.02055495
20	0x3dc8f2b3	0.09811916
21	0xbd1494a7	-0.03627458
22	0xbdaebb9d	-0.08531878
23	0x3cb3a191	0.021927627
24	0xbd2cff42	-0.04223562
25	0xbde06c50	-0.10958159
26	0xbd9c67e5	-0.07637004
27	0x3d021631	0.031759445
28	0x3c216e76	0.009852996
29	0x3dac62c5	0.08417276
30	0x3d3fa690	0.046789706
31	0xbcb4ccec	-0.02207037
32	0x3d3577c8	0.044303685
33	0xbda078f7	-0.07835572
34	0x3d455f7e	0.04818677
35	0x3da98e38	0.08279079
36	0xbdc59fe4	-0.09649637
37	0xbdb21dc6	-0.08697085
38	0xbd00b55b	-0.031422954
39	0xbd74ac1b	-0.059734445
40	0xbd640153	-0.055665325
41	0x3df72b1c	0.12068769
42	0xbd249483	-0.040180694
43	0x3cf09fd6	0.02937309
44	0xbd93a262	-0.072087064
45	0x3d3f7763	0.046744715
46	0xbdcc1b58	-0.09966153
47	0x3dacec26	0.08443479
48	0x3e02f1ef	0.12787603
49	0x3d4a28fb	0.04935549
50	0xbccb8b51	-0.024846705
51	0x3d91f42f	0.071266524
52	0xbb3af09b	-0.002852476
53	0x3d91c814	0.0711824
54	0x3c69e9e2	0.014276953
55	0xb92870ef	-0.000160638
56	0x3da91b6c	0.082571834
57	0x3dda68bd	0.106645085
58	0x3db12315	0.086492695
59	0x3c25c08d	0.010116708
60	0x3deb7a52	0.1149794
61	0x3dd75a33	0.10515251
62	0xbb37b3d9	-0.0028030782
63	0xbda301a0	-0.07959294

model.actor.4.weight f4 [64]
0	0x3f9176a7	1.1364335
1	0x3f87e2e7	1.061612
2	0x3f80a55c	1.0050464
3	0x3f836a49	1.0266811
4	0x3f8dec9f	1.1087836
5	0x3f854748	1.0412378
6	0x3f8bfb2b	1.0936025
7	0x3f912729	1.1340076
8	0x3f85f5a3	1.0465587
9	0x3f84feb4	1.0390229
10	0x3f9241c0	1.1426315
11	0x3f8ed40f	1.1158465
12	0x3f88a2a9	1.067464
13	0x3fa8bccf	1.318262
14	0x3f7f65f2	0.9976493
15	0x3f877415	1.05823
16	0x3f90d66e	1.1315439
17	0x3f9342e8	1.1504793
18	0x3fa5d478	1.2955465
19	0x3f8c3e70	1.0956554
20	0x3f8442da	1.0332901
21	0x3f892890	1.0715504
22	0x3f97cc1b	1.1859163
23	0x3f841794	1.0319695
24	0x3f820d9a	1.0160401
25	0x3f889770	1.0671215
26	0x3f8415a8	1.0319109
27	0x3f85572e	1.041723
28	0x3f82f8e6	1.0232208
29	0x3f96bf06	1.1777046
30	0x3f9271d6	1.144099
31	0x3f966b64	1.1751523
32	0x3f7d4166	0.98927915
33	0x3f946fcd	1.1596619
34	0x3f832868	1.0246706
35	0x3f849544	1.0358052
36	0x3f87a7fe	1.0598142
37	0x3fa234e4	1.2672391
38	0x3f9a7025	1.2065474
39	0x3f7ea182	0.9946519
40	0x3fab3292	1.3374808
41	0x3f8506c9	1.0392696
42	0x3f8b5b8f	1.0887316
43	0x3f99fc4a	1.2030118
44	0x3f7e9422	0.9944478
45	0x3f830b6a	1.0237858
46	0x3f9c24ef	1.2198771
47	0x3f857a97	1.0428036
48	0x3f9c9a62	1.2234614
49	0x3f8bb1ac	1.0913596
50	0x3f90f156	1.132365
51	0x3f81854b	1.0118803
52	0x3f885e39	1.0653754
53	0x3f8d56a6	1.1042068
54	0x3f89e656	1.0773418
55	0x3f8b412d	1.0879265
56	0x3f829a74	1.0203385
57	0x3f884a9e	1.0647771
58	0x3f8c5645	1.0963827
59	0x3f81f779	1.0153648
60	0x3f8f8c32	1.1214659
61	0x3f958fdd	1.1684529
62	0x3fa0c794	1.2560906
63	0x3f931167	1.1489686

model.actor.4.bias f4 [64]
0	0x3d85f66b	0.06541141
1	0x3c7f2234	0.0155721195
2	0x3be15a4b	0.006877219
3	0xbbfb8013	-0.0076751797
4	0x3d33a6d5	0.043860275
5	0xbc7d1663	-0.015447232
6	0x3d33b763	0.043876063
7	0x3d107d28	0.03527561
8	0x3cfc33eb	0.030786475
9	0x3d02d9ac	0.03194587
10	0x3d4b0aad	0.049570728
11	0x3d48a85b	0.04898868
12	0xbce304ae	-0.027712192
13	0x3dc69c6d	0.096978046
14	0x3abb7e8b	0.001430468
15	0x3d66cd0d	0.056347895
16	0x3d5e8faf	0.054336246
17	0x3daaee71	0.0834626
18	0x3d8c8e39	0.06863064
19	0x3ce32676	0.0277283
20	0xbc09ba97	-0.008406303
21	0x3d31ea7b	0.04343651
22	0x3d5e072d	0.054206062
23	0x3b0e89e1	0.0021749663
24	0xbbaa4d2a	-0.005197187
25	0x3daaac9f	0.08333706
26	0x3b7e3660	0.0038789734
27	0xbb14e835	-0.0022721414
28	0x3ce7cc38	0.028295621
29	0x3ce4ac93	0.027914321
30	0x3c7df04a	0.015499184
31	0x3d2e28c0	0.04251933
32	0xbc941bf2	-0.018079732
33	0x3d43890f	0.04773813
34	0x3bd2516e	0.0064183986
35	0x3d038752	0.032111473
36	0x3d0d1746	0.034446023
37	0x3da1cde0	0.07900596
38	0x3d9c6c4a	0.07637842
39	0xbc72ac93	-0.014811653
40	0x3d7b73b4	0.06138964
41	0x3cc3a3ca	0.023881812
42	0x3cb8bd32	0.022551153
43	0x3d5e4282	0.054262646
44	0x3c7d512f	0.01546125
45	0x3c884204	0.016633041
46	0x3d7348c3	0.059395563
47	0x3c80fb2a	0.015744764
48	0x3da1fa73	0.079090975
49	0x3cf64f6a	0.030067164
50	0x3da4fcd3	0.08056035
51	0x3c2a5002	0.010395052
52	0x3b71638a	0.0036833012
53	0x3d86c1b8	0.06579918
54	0x3c318262	0.010834308
55	0x3d26d094	0.04072626
56	0x3c9db2f4	0.01925037
57	0x3c437195	0.011928936
58	0x3d8679b8	0.06566185
59	0x3c8d81fa	0.017273892
60	0x3d6fcd2e	0.058545284
61	0x3d954bc2	0.0728984
62	0x3da49451	0.080361016
63	0x3d7d8a2e	0.061899357

model.actor.6.weight f4 [2, 64]
0	0xbe0d3c43	-0.1379252
1	0x3dc5d54c	0.09659824
2	0xbc71a0ac	-0.01474778
3	0x3cf71aee	0.030164208
4	0xbd9d6a3b	-0.076862775
5	0x3dbf1457	0.093300514
6	0x3d459c44	0.04824473
7	0x3e5bd078	0.21466243
8	0xbe09d689	-0.13460745
9	0x3e3b512f	0.18292688
10	0x3dc0e5c6	0.09418826
11	0xbe56aad2	-0.209636
12	0xbe0280f0	-0.12744498
13	0x3e4f3890	0.2023642
14	0x3d8f6e5e	0.07003473
15	0x3e2bfcab	0.16795604
16	0x3dabacc6	0.08382563
17	0xbe5e6122	-0.2171674
18	0x3e51ea8f	0.20499633
19	0x3d27e5ed	0.04099076
20	0xbcaa7148	-0.02080597
21	0x3e420ef9	0.18951024
22	0xbdad7317	-0.08469217
23	0x3d933a79	0.07188887
24	0x3dbc97de	0.09208654
25	0xbcd77089	-0.026298778
26	0x3e165551	0.14680983
27	0x3d854246	0.06506781
28	0xbdaeabf4	-0.08528891
29	0x3e47f300	0.19526291
30	0x3c934c8f	0.017980842
31	0xbe250b1c	-0.16117519
32	0x3c40949c	0.011754181
33	0x3e668773	0.22512607
34	0xbd4d235d	-0.050082553
35	0xbd922918	-0.07136744
36	0xbde552bd	-0.11197422
37	0x3e3a371b	0.18185084
38	0xbe0506fe	-0.12990949
39	0xba6b8e58	-0.00089857494
40	0xbe6655b6	-0.22493634
41	0x3e205e2a	0.1566092
42	0xbe1a8207	-0.15088664
43	0xbe69b840	-0.22824192
44	0x3dd5f8c1	0.10447837
45	0x3d2110ba	0.039322592
46	0xbe561b98	-0.20908964
47	0x3e05efec	0.13079804
48	0xbe4273a5	-0.18989427
49	0xbd8eb597	-0.06968229
50	0x3e7442d0	0.23853612
51	0xbd393cb7	-0.045223918
52	0xbc02ce71	-0.00798379
53	0x3da03d40	0.078241825
54	0x3c10c649	0.008836337
55	0xbe3ead38	-0.18620765
56	0x3e117e8f	0.14208435
57	0xbe3ec5eb	-0.18630187
58	0xbde73f48	-0.11291367
59	0xbd9477dd	-0.072494246
60	0x3da63b87	0.08116823
61	0x3df4cdef	0.11953341
62	0x3de44f1f	0.11147904
63	0x3e0ea240	0.13929081
64	0x3db4fd6b	0.08837398
65	0x3da94c3e	0.08266495
66	0x3d13ff7a	0.036132313
67	0x3ca07d33	0.01959095
68	0xbe4d6bcb	-0.20060651
69	0x3cb19a9a	0.021680165
70	0x3e0714f0	0.13191581
71	0x3e02184c	0.12704581
72	0x3dffea4e	0.12495862
73	0xbdabaacf	-0.083821885
74	0x3e50d380	0.20393181
75	0xbe106b18	-0.14103353
76	0xbe0cfbfc	-0.13768
77	0x3e541fdb	0.20715277
78	0xbd5e25d0	-0.05423528
79	0xbd1e31e1	-0.038621787
80	0x3df51516	0.119669124
81	0x3b16fecb	0.0023040052
82	0x3e583089	0.21112265
83	0x3db8cd91	0.09023584
84	0xbe10c29d	-0.14136739
85	0xbc029654	-0.007970411
86	0xbe7bf3ad	-0.24604674
87	0x3d68cada	0.05683408
88	0xbdb19a57	-0.08672016
89	0x3e1f3db2	0.15550879
90	0x3c69e33a	0.014275366
91	0x3d1b00a8	0.037842423
92	0x3de938b9	0.11387772
93	0x3e3e3d0e	0.18577978
94	0x3e2159f9	0.15756978
95	0xbe3cee68	-0.1845032
96	0xbd4ab157	-0.04948553
97	0x3dd4c3d3	0.10388913
98	0xbd1939de	-0.037408702
99	0x3d804b85	0.06264404
100	0xbc879d45	-0.016554484
101	0x3e476b3b	0.19474499
102	0xbe85328c	-0.26015127
103	0x3dbcb112	0.09213461
104	0xbeaa37bd	-0.3324565
105	0xbd0741b8	-0.03302166
106	0xbdc9e283	-0.09857657
107	0xbd9f4589	-0.07776935
108	0xbd2e4833	-0.042549323
109	0x3df121a0	0.117739916
110	0xbe2a2127	-0.16614209
111	0xbd8ded77	-0.069300584
112	0xbdf7abd2	-0.12093319
113	0xbe3ca708	-0.18423092
114	0xbe34f545	-0.17671688
115	0x3d23bec2	0.039976843
116	0xbdfa6537	-0.122263364
117	0x3dd8f038	0.10592693
118	0x3e4947d7	0.19656311
119	0xbd97f39d	-0.074195124
120	0xbd91eaf5	-0.071248926
121	0xbc98086f	-0.018558709
122	0x3e153459	0.1457075
123	0x3dbab0a9	0.091157265
124	0x3e5d3f6e	0.21606228
125	0x3e6df63f	0.23238467
126	0x3e2ba689	0.16762747
127	0x3e3df1b7	0.18549238

model.actor.6.bias f4 [2]
0	0x3d408e4b	0.0470107
1	0x3d08b5de	0.033376567
