src/taser/locomotion/models/track_velocity.pth (torch, 59817 bytes, 22 tensors)

log_std f4 [2]
0	0xbf908996	-1.1291988
1	0xbf914ecc	-1.1352172

actor.0.weight f4 [64, 29]
0	0x3e2a840a	0.16651931
1	0x3c25e6af	0.0101258
2	0xbe4099c3	-0.18808655
3	0x3e0c0f41	0.13677694
4	0x3daf45c3	0.08558228
5	0xbd6309a3	-0.055429112
6	0xbdb635ce	-0.08896981
7	0x3dca94ef	0.09891688
8	0xbe05ecee	-0.13078663
9	0xbe30f580	-0.17281151
10	0xbcd1acf6	-0.02559517
11	0x3da54a21	0.080707796
12	0x3da56476	0.08075802
13	0x3d059224	0.032610074
14	0xbd97dbb0	-0.07414949
15	0xbd66654d	-0.05624895
16	0x3da8aa15	0.082355656
17	0xbe06fb39	-0.13181771
18	0xbe027858	-0.1274122
19	0xbdaee616	-0.08539979
20	0xbc894d54	-0.016760506
21	0x3d22231c	0.039584264
22	0x3e176c89	0.14787497
23	0x3e284a1d	0.16434522
24	0x3ac9709a	0.0015368641
25	0x3d07e6db	0.033179145
26	0x3c3a48f6	0.011369934
27	0x3d57f6dd	0.05272566
28	0xbd06ebcf	-0.03293973
29	0x3bde4caa	0.0067840414
30	0x3dbb3a2f	0.09141957
31	0x3cbf755d	0.023371393
32	0x3d451781	0.04811812
33	0xbde0e978	-0.10982031
34	0x3d9322e1	0.07184387
35	0xbcc1784a	-0.023616929
36	0x3d208404	0.0391884
37	0x3d530712	0.051520415
38	0x3ce38100	0.027771473
39	0xbd4ba10d	-0.049714137
40	0xbde79323	-0.11307361
41	0xbb6fa7ed	-0.0036568597
42	0xbd31ec47	-0.043438222
43	0x3d508a1e	0.05091297
44	0x3d8c4254	0.068485886
45	0xbe46ff50	-0.19433331
46	0x3e075ecf	0.1321976
47	0xbddf6cbe	-0.10909413
48	0x3d66f81e	0.056388967
49	0xbdb7d1aa	-0.08975537
50	0xbd762db5	-0.060102183
51	0xbe06e99a	-0.1317505
52	0xbe759718	-0.23983419
53	0xbcc18058	-0.02362077
54	0xbe125524	-0.14290291
55	0x3e5c4f5f	0.21514653
56	0x3e30f24a	0.17279926
57	0x3e2b595a	0.16733304
58	0xbde85146	-0.11343627
59	0xbb9a7e85	-0.0047147893
60	0x3da695b4	0.08134022
61	0x3d778bb0	0.06043595
62	0x3d21e2ed	0.039523054
63	0x3d1bc8b5	0.038033206
64	0xbd9f03eb	-0.07764419
65	0xbd2c70a9	-0.04209963
66	0xbdbc3995	-0.091906704
67	0x3dc6ebbf	0.09712934
68	0xbe0aafaf	-0.1354358
69	0xbd212fe8	-0.039352328
70	0xbd2e7877	-0.042595353
71	0xbdd8c0f0	-0.10583675
72	0x3e07ffa0	0.13281107
73	0x3cacb9a4	0.021084614
74	0xbc624dbd	-0.01381248
75	0xbd57b77c	-0.05266522
76	0xbe8425bf	-0.25810048
77	0xbe13bc16	-0.14427218
78	0x3e5fb618	0.21846807
79	0x3d539788	0.051658183
80	0x3d5e6511	0.054295603
81	0x3dc118f8	0.094285905
82	0x3e2b4744	0.16726404
83	0xbcabca99	-0.02097063
84	0x3e265f71	0.16247346
85	0xbe036695	-0.128321
86	0xbdbb3e20	-0.09142709
87	0x3dfeec46	0.12447409
88	0x3c03c449	0.0080424035
89	0x3d7a9da0	0.06118548
90	0x3d11922a	0.035539784
91	0xbc8b230c	-0.016984485
92	0x3d5c24a3	0.053745877
93	0xbd902935	-0.070391096
94	0x3d951ed6	0.07281272
95	0x3d681cb1	0.056667987
96	0x3baf5aa2	0.0053513804
97	0x3d857e43	0.06518223
98	0xbe2acea4	-0.1668039
99	0xbd9189ed	-0.071063854
100	0x3d30d1e8	0.043168932
101	0xbd8eba76	-0.06969158
102	0x3d06a2a9	0.03286997
103	0xbe49a893	-0.19693212
104	0xbd1dbbaa	-0.03850905
105	0x3e8ffe79	0.28123835
106	0x3d58e34e	0.05295115
107	0xbd96788d	-0.07347212
108	0x3d6cdd57	0.057828274
109	0xbd100975	-0.03516527
110	0x3e41aa31	0.18912579
111	0x3c6c6ebb	0.014430697
112	0x3db160db	0.08661052
113	0xbd96c459	-0.07361669
114	0xbe0451d1	-0.12921835
115	0xbdb43928	-0.08799964
116	0x3d209ef1	0.03921408
117	0x3c08eafa	0.008356804
118	0xbd923044	-0.07138112
119	0x3b8dc28a	0.0043261694
120	0x3da4b13e	0.08041619
121	0xbe2888d8	-0.16458452
122	0xbda77aa4	-0.08177689
123	0x3dc26c17	0.09493273
124	0xbdca0cc9	-0.0986572
125	0x3e0eff96	0.13964686
126	0xbd4caf29	-0.049971733
127	0x3cb98c13	0.0226498
128	0x3d8f8f8b	0.070098005
129	0x3d4fe612	0.05075652
130	0x3c920550	0.017824799
131	0x3d6b46b6	0.057440482
132	0xbdc31485	-0.09525398
133	0x3df18a4f	0.117939584
134	0x3d43ce4a	0.047804154
135	0x3df91b5a	0.1216342
136	0xbc003adb	-0.007826532
137	0xbe1a957c	-0.15096086
138	0x3e351732	0.1768463
139	0xbe2ed8ff	-0.17074965
140	0xbe2c7913	-0.16843061
141	0xbdb3c3b3	-0.08777561
142	0xbdbf1459	-0.09330053
143	0x3dc48722	0.09596087
144	0xbd88b929	-0.066759415
145	0xbd74fb47	-0.05980995
146	0x3b6536e4	0.0034975344
147	0xbdc1deca	-0.09466322
148	0x3d7a91bd	0.061174143
149	0xbdf9a969	-0.121905155
150	0x3db14d89	0.08657367
151	0xbde3dbb8	-0.111258924
152	0xbe0cfdb1	-0.1376865
153	0xbdf3404c	-0.11877498
154	0xbcfd1c16	-0.030897181
155	0xbdbe7bb1	-0.09300936
156	0xbd15caa9	-0.036570225
157	0x3de9b4d3	0.114114426
158	0xbd6cb9fa	-0.05779455
159	0x3df95880	0.12175083
160	0x3dc74952	0.097307816
161	0x3dfb525f	0.122715704
162	0xbd89eee5	-0.06735019
163	0xbe28857c	-0.1645717
164	0x3de04eec	0.10952553
165	0x3d67a24c	0.056551263
166	0xbe1b14c3	-0.15144639
167	0xbdb1cfa6	-0.08682184
168	0x3d80dbec	0.06291947
169	0xbe26de39	-0.16295709
170	0xbd8008fa	-0.06251712
171	0xbe6cdc3f	-0.23130892
172	0x3d153e2a	0.036436237
173	0xbe29b807	-0.16574107
174	0x3dc5223e	0.09625672
175	0xbc94d62c	-0.018168531
176	0xbde0a1d9	-0.1096837
177	0x3c50cb8f	0.012743845
178	0xbc582701	-0.013192893
179	0x3d6f5f7c	0.05844067
180	0xbdc41207	-0.09573751
181	0xbdc227bb	-0.09480234
182	0xbda153bc	-0.07877299
183	0x3c888a44	0.016667493
184	0x3b0e64fa	0.0021727667
185	0xbd9325c3	-0.07184937
186	0xbe165310	-0.14680123
187	0x3e183559	0.148641
188	0xbda7de22	-0.08196665
189	0xbd666ebd	-0.056257952
190	0xbdf1996a	-0.117968395
191	0x3db276c7	0.08714061
192	0xbb0155b7	-0.0019734928
193	0x3d7eeb80	0.06223631
194	0xbda66ebb	-0.08126589
195	0xbe37cc8c	-0.17949122
196	0x3d314cbb	0.043286067
197	0x3e0321ca	0.12805858
198	0xbde482b0	-0.11157739
199	0x3d3370fc	0.043808922
200	0x3e0a387d	0.13498111
201	0xbd9db2fd	-0.07700155
202	0x3e6f2780	0.23354912
203	0xbd3e9168	-0.04652539
204	0xbdc1c258	-0.09460896
205	0x3d43dc5c	0.047817573
206	0x3debe3ce	0.1151806
207	0x3cfc1316	0.03077082
208	0xbd645196	-0.05574187
209	0xbd96451d	-0.07337401
210	0x3dda6f82	0.106658
211	0xbd1c1709	-0.038107906
212	0x3e193164	0.14960247
213	0xbd61eb24	-0.05515589
214	0xbd9c1cf5	-0.076227106
215	0x3da9ce65	0.0829132
216	0xbdadbc60	-0.08483195
217	0x3d845ae9	0.06462652
218	0x3d8ebc7c	0.06969544
219	0x3e555c36	0.20835957
220	0xbd3f1fe7	-0.046661284
221	0x3e00c807	0.12576304
222	0x3bee57bb	0.007273642
223	0x3d725ce2	0.05917061
224	0xbb3a6649	-0.0028442314
225	0x3dc186f0	0.094495654
226	0x3e1c24d2	0.15248421
227	0x3d83e97b	0.06441017
228	0xbe134907	-0.14383326
229	0x3c5e8688	0.013581879
230	0x3d2fbb4b	0.042903226
231	0x3d4be31b	0.04977713
232	0xbe1254cb	-0.14290158
233	0xbd84c725	-0.06483296
234	0x3d01aca9	0.031658802
235	0x3ca01992	0.019543443
236	0xbd727ee1	-0.059203032
237	0xbd48a22c	-0.048982784
238	0x3d5db1fc	0.054124817
239	0xbe16115c	-0.1465506
240	0x3da3ec65	0.08004073
241	0x3dd3ddaa	0.103450134
242	0xbd235823	-0.039878976
243	0xbdbb0184	-0.091311485
244	0x3d53105b	0.05152927
245	0xbd19b405	-0.037525196
246	0x3bb3f5f5	0.005491967
247	0x3d25f151	0.04051334
248	0xbd33e97e	-0.043923847
249	0x3c3698c0	0.011144817
250	0xbe4b7dd0	-0.19872212
251	0x3e358825	0.17727716
252	0x3d8a0b36	0.067404196
253	0xbe37e22c	-0.17957371
254	0x3d333201	0.04374886
255	0xbe4400e7	-0.19140969

actor.0.bias f4 [64]
0	0xbdaec4c6	-0.08533625
1	0xbd503d8b	-0.050839942
2	0xbe0543d7	-0.1301416
3	0xbe8456f8	-0.25847602
4	0x3dac9592	0.08426966
5	0xbcd9081d	-0.026493127
6	0xbcc43940	-0.02395308
7	0x3bc1888a	0.0059061693
8	0xbd6a99bf	-0.05727553
9	0x3e12380f	0.14279197
10	0x3db1bee2	0.08678986
11	0x3e635e91	0.22204043
12	0xbe05f4af	-0.1308162
13	0xbe7a5293	-0.24445562
14	0x3dd90301	0.10596276
15	0x3d28b5b3	0.041188907
16	0xbe68da99	-0.22739638
17	0x3e542f74	0.20721227
18	0xbdbfb410	-0.09360516
19	0x3e024a20	0.12723589
20	0xbe9716f4	-0.295097
21	0xbbe6f99b	-0.0070487983
22	0xbe5cd058	-0.21563852
23	0x3d882d0f	0.06649219
24	0xbd80f4fa	-0.062967256
25	0xbe859530	-0.26090384
26	0x3e04e78f	0.12978958
27	0x3e08a5ef	0.13344549
28	0xbe39b7c7	-0.18136512
29	0xbe0a2c0d	-0.13493367
30	0x3d8fe3be	0.0702586
31	0x3e7f9049	0.24957384
32	0xbe0df73c	-0.13863844
33	0x3cd81c9f	0.026380835
34	0xbe36730a	-0.17817321
35	0x3d72188b	0.059105437
36	0x3e1fa496	0.15590128
37	0xbe40cdb0	-0.18828464
38	0xbe75bde0	-0.23998213
39	0xbe2b801e	-0.16748092
40	0xbd515a0f	-0.051111277
41	0xbcfc1bcb	-0.030774971
42	0x3e0a6435	0.13514788
43	0x3d8e8ab6	0.06960051
44	0x3d557a01	0.052118305
45	0xbe091fda	-0.13391057
46	0x3e28fe54	0.16503268
47	0x3e01a8e4	0.12662083
48	0xbe447afd	-0.19187541
49	0x3de20da4	0.11037758
50	0xbe2b31c5	-0.16718204
51	0xbc393283	-0.011303547
52	0x3e1e7b17	0.15476643
53	0x3dbe3f06	0.092893645
54	0x3e356c01	0.17716981
55	0x3b9367f5	0.0044984766
56	0xbdc30d6d	-0.09524045
57	0x3d4aee8b	0.0495439
58	0x3e61e491	0.22059847
59	0x3dc9f896	0.09861867
60	0x3dfcff93	0.123534344
61	0x3cd2acf5	0.025717238
62	0x3c8a5421	0.016885819
63	0xbd88b405	-0.06674961

actor.1.weight f4 [64]
0	0x3f77e51b	0.9683396
1	0x3f7ede06	0.9955753
2	0x3f74f2aa	0.95682776
3	0x3f89c593	1.076342
4	0x3f7adc96	0.9799284
5	0x3f80ecec	1.0072303
6	0x3f89ce35	1.0766054
7	0x3f731427	0.94952625
8	0x3f787ca8	0.9706521
9	0x3f85fed1	1.0468389
10	0x3f816083	1.0107578
11	0x3f80b575	1.0055376
12	0x3f7b6dda	0.98214495
13	0x3f80cbb3	1.0062164
14	0x3f7defd5	0.9919408
15	0x3f6f2bb8	0.93426085
16	0x3f8daecb	1.1068968
17	0x3f8624e1	1.0480005
18	0x3f84231d	1.0323216
19	0x3f7dec28	0.9918847
20	0x3f6f1888	0.93396807
21	0x3f7d8318	0.9902816
22	0x3f826ae3	1.0188869
23	0x3f7babc8	0.9830899
24	0x3f813fb1	1.0097562
25	0x3f76ddaa	0.9643198
26	0x3f7a2554	0.9771321
27	0x3f840919	1.0315276
28	0x3f760aef	0.96110433
29	0x3f81bbbc	1.0135417
30	0x3f6e4e68	0.9308839
31	0x3f850e79	1.0395042
32	0x3f6df239	0.9294773
33	0x3f798b36	0.97478044
34	0x3f80b150	1.0054111
35	0x3f766285	0.9624408
36	0x3f7d75c1	0.99007803
37	0x3f81abb3	1.0130523
38	0x3f7f5f4f	0.99754804
39	0x3f7dd036	0.9914583
40	0x3f6659f7	0.89981025
41	0x3f6c58fb	0.92323273
42	0x3f788eaa	0.9709269
43	0x3f7a2177	0.97707313
44	0x3f83c2a2	1.0293772
45	0x3f85f75a	1.0466111
46	0x3f87b0c3	1.0600818
47	0x3f77aab3	0.9674484
48	0x3f7fdc1d	0.9994524
49	0x3f7cdcf6	0.9877466
50	0x3f8182f6	1.0118091
51	0x3f820c04	1.0159917
52	0x3f788bc5	0.9708827
53	0x3f815f7c	1.0107265
54	0x3f8a2902	1.0793765
55	0x3f8133c9	1.0093929
56	0x3f82afbc	1.020988
57	0x3f860864	1.0471311
58	0x3f84af0c	1.036592
59	0x3f79605f	0.97412676
60	0x3f78f65b	0.9725091
61	0x3f7905c7	0.9727444
62	0x3f7ff7db	0.9998757
63	0x3f83121c	1.0239902

actor.1.bias f4 [64]
0	0xbcb646f4	-0.02225063
1	0x3ce4764a	0.027888436
2	0xbd2e2367	-0.04251423
3	0x3bad8d29	0.0052963686
4	0xbb0fad94	-0.002192353
5	0x3cbbfbf2	0.022947285
6	0x3dca07dd	0.09864781
7	0xbc8fa458	-0.01753442
8	0x3d1c29f0	0.038125932
9	0x3ca7d142	0.020485524
10	0x3d366ec4	0.044539228
11	0x3b34dcc8	0.0027597416
12	0x3c9159de	0.017743047
13	0x3c14f76c	0.009092193
14	0xbbcba0ce	-0.006214238
15	0xbd07854d	-0.03308611
16	0x3d3a9cb6	0.045559607
17	0x3d3a36e8	0.04546252
18	0x3c86a1fc	0.016434662
19	0x3be46b3a	0.00697079
20	0xbc92b03a	-0.017906297
21	0xbd3caece	-0.046065144
22	0xbc465459	-0.012105071
23	0x3c21ec89	0.0098830545
24	0x3c344d41	0.011004747
25	0xbd0ffbc7	-0.035152223
26	0xbcda8eab	-0.026679358
27	0x3cf9f985	0.030514488
28	0xbbe391b0	-0.0069448575
29	0x3b53e02c	0.0032329662
30	0xb8ebc388	-0.00011242094
31	0x3d607951	0.054803196
32	0xbd514f78	-0.051101178
33	0x3bc6b81e	0.006064429
34	0xbb962932	-0.0045825476
35	0xba08cf13	-0.0005218845
36	0xbc25d14d	-0.010120702
37	0xbc3ea7bf	-0.0116366735
38	0xbb84606d	-0.004039815
39	0x3c007301	0.007839919
40	0xbcca2581	-0.024676086
41	0xbd5c7f24	-0.05383219
42	0x3a6eabc2	0.00091045734
43	0x3bcd9a39	0.0062744883
44	0x3ce7fada	0.028317858
45	0x3cbc877b	0.02301382
46	0x3d76dba5	0.060268063
47	0xbbf19fdc	-0.007373793
48	0x3bde5dfe	0.006786107
49	0x3c16430a	0.009171257
50	0xbb85631c	-0.0040706526
51	0x3cec8da5	0.028876135
52	0xbc4d7a5e	-0.012541382
53	0x3cb6112c	0.022224985
54	0x3d8502ba	0.06494661
55	0x3be7840b	0.0070653013
56	0x3be59954	0.0070068035
57	0x3d23b8a5	0.039971013
58	0x3cf6839e	0.030092057
59	0x3b4adcd0	0.0030954368
60	0x3c199f42	0.009376349
61	0xbc4b46f6	-0.012407055
62	0xbc7a7d21	-0.015288622
63	0x3c10046d	0.008790118

actor.3.weight f4 [64, 64]
0	0xbdf0a06e	-0.117493495
1	0x3d27dba6	0.040980957
2	0xbc5c21d3	-0.013435799
3	0x3e6209b8	0.2207402
4	0x3dde1931	0.10844649
5	0x3d741ab9	0.059595797
6	0x3db9580b	0.09049996
7	0xbd1e00a0	-0.038574815
8	0x3ce33854	0.02773682
9	0x3dff41ee	0.12463747
10	0xbd6b8e64	-0.05750884
11	0x3c8c4116	0.01712088
12	0x3b293329	0.0025817847
13	0x3d98e06c	0.0746468
14	0xbe0fa728	-0.14028609
15	0xbb146856	-0.0022645197
16	0x3e0a9d23	0.13536505
17	0x3cad291d	0.021137768
18	0x3c8099a2	0.015698258
19	0x3db61d75	0.08892337
20	0x3d0cde38	0.03439161
21	0x3cd25b28	0.025678232
22	0xbcac7311	-0.021050962
23	0x3d0035be	0.031301253
24	0xbdacd75c	-0.08439514
25	0x3db36e43	0.08761265
26	0xbd5cffcd	-0.053954888
27	0xbd189a38	-0.03725645
28	0x3de18441	0.110115536
29	0x3db8cc6d	0.09023366
30	0x3dc5de2d	0.09661517
31	0xbc6b1d57	-0.014350257
32	0x3d4ddec6	0.05026128
33	0xbbeb1b52	-0.0071748877
34	0xbd947652	-0.0724913
35	0x3d46efae	0.04856842
36	0xbdf692c0	-0.12039709
37	0xbdb860c4	-0.090028316
38	0x3d075a41	0.033045057
39	0xbde660df	-0.112489454
40	0x3d468c49	0.04847363
41	0x3dac8237	0.08423274
42	0x3d87659c	0.06611177
43	0xbd758a29	-0.059946213
44	0x3bd3ebe2	0.0064673284
45	0xbd0db7a9	-0.03459898
46	0x3cadae84	0.02120138
47	0xbdc38e74	-0.09548655
48	0x3de8ca77	0.11366742
49	0xbd3bdb6d	-0.045863558
50	0x3cb5c4cd	0.022188568
51	0x3d3bcdf0	0.045850694
52	0xbe02ca5a	-0.12772503
53	0xbd923bb8	-0.07140297
54	0xbda808cc	-0.08204803
55	0xb8d8504e	-0.000103146405
56	0x3dbd5828	0.0924533
57	0x3a84e63d	0.0010139417
58	0x3c18d6b2	0.009328531
59	0xbda4faa9	-0.08055622
60	0xbdcc902b	-0.09988435
61	0x3e082fbd	0.1329946
62	0x3b488d11	0.003060166
63	0xbdace5ac	-0.08442244
64	0x3d8e1924	0.06938389
65	0xbdb06f94	-0.08615032
66	0x3dab8bb4	0.08376256
67	0x3b92fd62	0.004485772
68	0xbc3b9470	-0.0114489645
69	0x3dc6d5ef	0.09708773
70	0x3de99c36	0.11406748
71	0x3da44cd0	0.08022463
72	0x3e0430c4	0.12909228
73	0xbd9be572	-0.076121226
74	0xbb0cf61f	-0.0021509004
75	0xbca33393	-0.019922053
76	0x3b0db722	0.0021624048
77	0x3cc97156	0.024590176
78	0xbdc94b54	-0.09828821
79	0x3dd4ce97	0.103909664
80	0x3ae108d9	0.0017168775
81	0x3d8e59e1	0.06950737
82	0xbcbc2c82	-0.022970442
83	0x3c81c8c8	0.01584281
84	0x3c3e7a51	0.011625842
85	0xbd1d1cc2	-0.038357504
86	0x3dc0e3c7	0.09418445
87	0x3cc0828f	0.023499755
88	0x3dfa3c33	0.12218513
89	0x3da3cb8d	0.079978086
90	0x3ba3c8fe	0.0049983254
91	0xbdf71faf	-0.1206659
92	0x3d626a55	0.055277187
93	0xbce15f46	-0.02751125
94	0x3d8b497e	0.06801127
95	0xbdaaca4a	-0.08339365
96	0x3cf41e58	0.029799625
97	0xbd050771	-0.0324778
98	0x3d6f1fe8	0.058380038
99	0x3df99ee6	0.121885106
100	0xbcb4c0f6	-0.022064667
101	0x3cbf057f	0.02331805
102	0xbcd87bc8	-0.026426211
103	0xbd23da0f	-0.04000288
104	0x3d06ba9f	0.03289282
105	0xbd221278	-0.039568394
106	0x3d04a8e4	0.03238763
107	0xbb9b2580	-0.004734695
108	0x3bf34984	0.007424535
109	0xbd2dcd1c	-0.042431936
110	0xbd15950d	-0.0365191
111	0x3c91f04a	0.017814774
112	0xbdd363f6	-0.103218004
113	0xbcfdb49f	-0.030969916
114	0x3d9243e5	0.07141856
115	0x3c9f50fd	0.019447798
116	0xbdd51d97	-0.104060344
117	0x3da6f87a	0.08152862
118	0xbd67960d	-0.056539584
119	0x3e1df5e3	0.1542583
120	0x3b63bda1	0.0034750479
121	0x3cd3deb6	0.025863033
122	0x3bd460bd	0.0064812587
123	0x3c2ae09c	0.010429528
124	0xbdb07847	-0.08616691
125	0x3d2b01d7	0.0417498
126	0xbda4a9bb	-0.08040186
127	0x3d2b8e8c	0.04188399
128	0x3d3c839a	0.046023943
129	0x3dbac773	0.09120073
130	0xbb3385ab	-0.0027392905
131	0x3e025103	0.12726216
132	0xbd31e314	-0.04342945
133	0x3d3367d4	0.04380019
134	0x3e054406	0.1301423
135	0xbdd0307f	-0.101655
136	0xbc843e3c	-0.016142957
137	0x3dc530b4	0.0962843
138	0xbd7473a9	-0.059680615
139	0x3d6fbc4a	0.058529176
140	0xbdb7e8e2	-0.08979966
141	0xbdb51fa1	-0.08843923
142	0x3d081144	0.03321959
143	0xbd49c908	-0.049263984
144	0x3e1d2771	0.15347077
145	0x3d980426	0.07422666
146	0xbcfe0729	-0.031009274
147	0xbc3f3c1e	-0.011672048
148	0x3defce91	0.11709321
149	0x3daa14d6	0.083047554
150	0x3cf4d6c0	0.029887557
151	0x3d3e72b3	0.046496104
152	0x3ce79d24	0.028273173
153	0x3d637f06	0.05554106
154	0xbaa2f349	-0.0012432124
155	0xbe0abf28	-0.13549483
156	0x3cab461d	0.020907456
157	0x3d1b644f	0.03793746
158	0x3db5d559	0.088785835
159	0x3d0757aa	0.033042587
160	0x3e0dff38	0.1386689
161	0xbb6cb323	-0.0036117516
162	0xbd0c3bdd	-0.034236778
163	0xbd7ca4ab	-0.061680477
164	0xbd1ba222	-0.03799642
165	0x3c880096	0.016601842
166	0xbd1dc4cf	-0.03851777
167	0x3d9d3ad2	0.07677235
168	0x3b9f8c5e	0.004869028
169	0x3d9c0d09	0.07619674
170	0xbd35b0d5	-0.044358093
171	0x3d922f02	0.07137872
172	0x3cdc3474	0.02688048
173	0x3d43ebff	0.047832485
174	0x3cf52f54	0.029929794
175	0x3dad7522	0.08469607
176	0x3ce3a67e	0.02778935
177	0xbd920467	-0.07129746
178	0x3bb0b071	0.005392127
179	0xbc539fb7	-0.012916497
180	0x3d822118	0.063539684
181	0xbd6fa1b2	-0.058503814
182	0xbd060077	-0.032715287
183	0x3db67d28	0.089105904
184	0xbd0fdd9d	-0.035123456
185	0xbcc7bdfd	-0.024382586
186	0xbcaf3fd1	-0.021392735
187	0xbdef7c1c	-0.11693594
188	0x3d8c9424	0.06864193
189	0x3dea6eee	0.114469394
190	0xbd727cb5	-0.05920096
191	0xbdc1c23d	-0.09460876
192	0xbd50815f	-0.050904628
193	0xbd0db3aa	-0.03459517
194	0x3d32595e	0.04354226
195	0x3e025f1d	0.12731595
196	0x3dd16e96	0.10226171
197	0xbd331eff	-0.043730732
198	0x3dd8fcf5	0.10595123
199	0xbdc675d1	-0.096904404
200	0xbd14f41a	-0.036365606
201	0x3ca11b05	0.019666204
202	0xbc9466b5	-0.01811538
203	0x3c8f2a0e	0.017476108
204	0x3af7e418	0.0018912582
205	0xbd8366eb	-0.064161144
206	0x3d58e962	0.052956946
207	0x3d35154b	0.04420976
208	0x3e532e18	0.20623052
209	0x3deb2517	0.11481684
210	0xbdafcbb1	-0.08583773
211	0x3da2c4e8	0.07947713
212	0x3de10b9d	0.10988543
213	0xbd8424fc	-0.06452367
214	0x3d6f0d29	0.05836216
215	0xbb612a1a	-0.003435737
216	0x3cd091b0	0.025460094
217	0xbda839d9	-0.082141586
218	0xbd7ed4c8	-0.062214643
219	0xbd8435f6	-0.06455605
220	0x3c55b424	0.013043437
221	0x3cbc06c6	0.022952449
222	0x3d97a3e2	0.07404305
223	0xbd89181b	-0.06694051
224	0xbd147d39	-0.036252234
225	0x3ca50d62	0.020147983
226	0x3c993c49	0.018705504
227	0x3d4610ea	0.048355974
228	0xbb6573bd	-0.0035011612
229	0xbc77ca40	-0.015123904
230	0xbd8df526	-0.06931524
231	0xbd33a538	-0.043858737
232	0x3d0f83ab	0.035037678
233	0x3da66bc0	0.081260204
234	0x3d75be73	0.05999608
235	0xbd08f352	-0.033435173
236	0xbc893c8f	-0.01675251
237	0x3daf0cbb	0.0854735
238	0xbda2863b	-0.07935759
239	0xbdfcab71	-0.12337387
240	0x3df8f40c	0.12155923
241	0xbc970ecb	-0.018439671
242	0x3cadf995	0.021237174
243	0x3dd9d366	0.10636024
244	0xbe0c2912	-0.13687542
245	0xbd3b22e7	-0.045687582
246	0x3d070231	0.032961074
247	0x3d8c595b	0.06852981
248	0x3ce9b7a5	0.028529951
249	0xbd8b82b9	-0.06812043
250	0x3d6e9999	0.05825195
251	0x3d370333	0.044680785
252	0x3b06a16c	0.0020542992
253	0x3d7fcde6	0.06245222
254	0xbd09aff2	-0.03361506
255	0xbdd42516	-0.10358636

actor.3.bias f4 [64]
0	0x3dad1630	0.084514976
1	0xbd0aa9ad	-0.03385322
2	0xbddaff3c	-0.10693213
3	0x3ace5c62	0.0015744085
4	0xbca1038f	-0.019655017
5	0x3d9f789e	0.07786678
6	0xbd251aa4	-0.04030861
7	0xbd9e2d2b	-0.07723459
8	0x3d9f82a9	0.07788593
9	0x3d162896	0.0366598
10	0x3c4896b5	0.012242963
11	0x3da2ccc0	0.07949209
12	0x3d9490fb	0.07254215
13	0x3da982ba	0.08276887
14	0x3d170486	0.03686955
15	0xbda72c7a	-0.0816278
16	0xbc35df3b	-0.011100586
17	0x3db0576d	0.08610425
18	0x3cfe61c4	0.031052478
19	0xbdf09c9e	-0.11748622
20	0x3da74bcb	0.08168753
21	0xbd94f8cd	-0.072740175
22	0xbd3a0195	-0.045411665
23	0xbdfb2894	-0.12263599
24	0x3dd730e6	0.105073735
25	0x3d7e9abb	0.06215928
26	0xbdb223a6	-0.08698206
27	0xbd820247	-0.063480906
28	0xbc8ef6fe	-0.01745176
29	0xbcdd756d	-0.027033532
30	0xbdb4444c	-0.08802089
31	0xbca5bb07	-0.020230783
32	0x3d6d92e6	0.05800142
33	0x3cb4fbfd	0.022092814
34	0x3ba35514	0.0049845073
35	0x3d7fe005	0.0624695
36	0xbc0e73a1	-0.00869456
37	0x3cfd76be	0.03094041
38	0x3d51dc20	0.05123532
39	0x3deea517	0.11652582
40	0xbc09afe1	-0.008403749
41	0xbd38f3f8	-0.04515454
42	0xbdcc8b46	-0.09987502
43	0x3dc693ed	0.09696183
44	0xbdb1589a	-0.086594775
45	0x3c7cfd6c	0.01544128
46	0x3c08ed76	0.008357396
47	0xbd8beb8d	-0.06832037
48	0xbdd91bd1	-0.10601009
49	0x3d6f57fa	0.05843351
50	0xbd257525	-0.04039492
51	0xbd351693	-0.04421098
52	0x3d3f3466	0.04668083
53	0x3d26f705	0.04076292
54	0x3de7e558	0.11323041
55	0xbcd005c7	-0.02539338
56	0xbcceee0a	-0.02525999
57	0x3d95a319	0.07306499
58	0xbc9bddb5	-0.019026617
59	0x3dc2b321	0.095068224
60	0x3dad515d	0.084627844
61	0x3daa8d7d	0.08327768
62	0x3dcd88ec	0.100358814
63	0xbde815f0	-0.11332309

actor.4.weight f4 [64]
0	0x3f91a95b	1.1379808
1	0x3f8cb9c9	1.0994197
2	0x3f8b7688	1.0895548
3	0x3f8f6c63	1.1204952
4	0x3f915dc9	1.1356746
5	0x3f83629f	1.0264472
6	0x3f99116a	1.1958439
7	0x3f926c37	1.1439275
8	0x3f8c453d	1.095863
9	0x3f80c7d3	1.0060982
10	0x3f91c07d	1.1386868
11	0x3f89f5b5	1.0778109
12	0x3f931b1f	1.1492652
13	0x3f807d73	1.0038284
14	0x3f85f712	1.0466025
15	0x3f9b1e0f	1.2118548
16	0x3f92272b	1.1418203
17	0x3f996927	1.1985215
18	0x3f8b2a3d	1.0872265
19	0x3fa2f66d	1.2731453
20	0x3f8a1068	1.0786257
21	0x3f8b434f	1.0879916
22	0x3f99ee72	1.2025893
23	0x3f859615	1.0436426
24	0x3f960a56	1.1721904
25	0x3f8ebe89	1.1151897
26	0x3f86b707	1.0524606
27	0x3f8bbe6f	1.0917491
28	0x3f91e213	1.1397117
29	0x3faecf6b	1.3657049
30	0x3f8f74bd	1.1207501
31	0x3f86a4bd	1.0519024
32	0x3f88e367	1.0694398
33	0x3f90b32b	1.1304678
34	0x3f95796e	1.1677682
35	0x3f885b5f	1.0652884
36	0x3f8a52ef	1.0806559
37	0x3f93186a	1.1491826
38	0x3f8b900f	1.0903338
39	0x3f92c7d9	1.1467239
40	0x3fa9dbd5	1.3270212
41	0x3f84174a	1.0319607
42	0x3f9f988e	1.2468431
43	0x3f8681b4	1.0508332
44	0x3f89dd70	1.0770702
45	0x3fa1cc14	1.2640405
46	0x3f9463ef	1.1592997
47	0x3f88149d	1.0631291
48	0x3f8b6301	1.0889589
49	0x3f8e1bce	1.1102235
50	0x3f91f041	1.1401445
51	0x3fa0f88d	1.2575852
52	0x3f9918a0	1.196064
53	0x3f8ce402	1.1007082
54	0x3f87ff72	1.0624831
55	0x3f95f156	1.1714275
56	0x3f8c9f5d	1.0986134
57	0x3fa4324b	1.2827848
58	0x3f8ac604	1.084168
59	0x3f8b3f81	1.0878755
60	0x3f883423	1.0640911
61	0x3f8e8a75	1.1136004
62	0x3f86fb1c	1.0545382
63	0x3f8d08ce	1.1018312

actor.4.bias f4 [64]
0	0x3d7a49dd	0.061105598
1	0x3d3c2d89	0.045941863
2	0x3cf555d0	0.029948145
3	0x3d45ad73	0.048261117
4	0x3dba9bd4	0.09111753
5	0xba6e16cd	-0.0009082377
6	0x3dd29d3e	0.10283898
7	0x3d9a9059	0.075470634
8	0x3d6860b7	0.05673286
9	0x3ca239da	0.019802976
10	0x3d95bdcd	0.07311592
11	0x3c8e0649	0.017336981
12	0x3d7f5878	0.06234023
13	0xbc9f32cd	-0.019433403
14	0xbb4fd756	-0.0031714044
15	0x3db85fef	0.09002673
16	0x3d8c13b6	0.06839697
17	0x3d7496a9	0.059713993
18	0x3d5bd634	0.053671077
19	0x3c9db62e	0.01925191
20	0x3cfb11bb	0.030648103
21	0x3d45bd8a	0.04827646
22	0x3db5bd01	0.0887394
23	0x3d098669	0.03357545
24	0x3dbdd6c4	0.09269479
25	0x3c3e6c91	0.011622564
26	0x3c980fab	0.018562159
27	0x3c819f17	0.01582293
28	0x3d114de2	0.035474665
29	0x3da2bf1b	0.07946607
30	0x3d6dc74e	0.0580514
31	0x3d0d3f66	0.03448429
32	0x3d094b99	0.03351936
33	0x3d5dd902	0.054162033
34	0x3d131ff9	0.035919163
35	0x3d11319f	0.035447713
36	0x3cf722de	0.030167993
37	0x3cb57b38	0.022153482
38	0x3d308155	0.04309209
39	0x3d62167f	0.055197235
40	0x3de6b38d	0.11264715
41	0xbc2c77fc	-0.010526653
42	0x3decff8c	0.11572179
43	0x3c52d7a2	0.012868794
44	0x3d2d1945	0.042260427
45	0x3e13539d	0.14387365
46	0x3d1051ca	0.03523425
47	0xbc9febc7	-0.019521607
48	0x3d04686a	0.03232614
49	0x3cf1647a	0.029466856
50	0x3d92e134	0.0717186
51	0x3de7dc9c	0.11321375
52	0x3da33887	0.07969766
53	0x3d35fb6a	0.04442922
54	0x3d11e148	0.035615236
55	0x3db38dfa	0.08767314
56	0x3cbe9e02	0.023268703
57	0x3d964cd6	0.07338874
58	0x3cd7177a	0.026256312
59	0x3c27071c	0.010194566
60	0x3c9e9aea	0.019360978
61	0x3d3aa631	0.04556865
62	0x3c15639d	0.009117988
63	0x3d8ad70e	0.067793

actor.6.weight f4 [2, 64]
0	0xbe541f24	-0.20715004
1	0x3d4fe389	0.050754104
2	0xbda0869f	-0.07838177
3	0xbdd69eca	-0.10479505
4	0x3e333095	0.17499001
5	0xbdb908a6	-0.09034853
6	0x3e5446e7	0.20730172
7	0xbe6ecb95	-0.23319848
8	0x3e278b88	0.1636182
9	0x3dbc4afa	0.09193988
10	0x3e4289cf	0.18997882
11	0xbc2a26fe	-0.010385273
12	0x3e0354b2	0.12825277
13	0xbdf117f7	-0.11772149
14	0xbdca5102	-0.09878732
15	0xbe47c827	-0.19509946
16	0xbe3dbc04	-0.18528754
17	0xbe78afad	-0.24285765
18	0x3e494790	0.19656205
19	0x3eaae720	0.3337946
20	0x3d8063cb	0.06269034
21	0xbe2449c7	-0.16043769
22	0xbd64c3c5	-0.055850763
23	0xbcba22bc	-0.02272164
24	0x3e6428df	0.22281216
25	0x3e02f5a3	0.12789015
26	0x3c2fa138	0.01071959
27	0x3e1dbecd	0.15404816
28	0xbe798e2e	-0.24370643
29	0xbeaba10e	-0.33521312
30	0x3dc30885	0.09523109
31	0x3cd66fe8	0.026176408
32	0x3dfbe3e1	0.12299324
33	0xbe2bc9b1	-0.16776158
34	0xbe5ba0bd	-0.21448036
35	0xbe1ca373	-0.15296726
36	0xbe186dc3	-0.14885621
37	0x3e631c30	0.22178721
38	0xbe0caa10	-0.13736749
39	0x3d0e0cff	0.034680363
40	0x3e1c32e8	0.15253794
41	0xbddc6198	-0.10760802
42	0x3e3393c2	0.17536834
43	0x3de5ffd6	0.112304375
44	0xbdc26d1b	-0.094934665
45	0x3ddd3446	0.10800986
46	0x3e6f2b82	0.2335644
47	0xbd9ee4ea	-0.07758506
48	0x3ccdec04	0.025136955
49	0xbdefe9a8	-0.11714488
50	0x3e0dccdb	0.13847677
51	0x3e5997ba	0.21249285
52	0xbe85431b	-0.2602776
53	0xbdcd1861	-0.100144155
54	0xbe155c99	-0.14586104
55	0x3e808711	0.25103047
56	0xbe07574c	-0.13216895
57	0xbe7ae7c0	-0.24502468
58	0x3df5e3be	0.12006329
59	0xbce30f5a	-0.027717281
60	0x3d1fa147	0.038972165
61	0xbe46a4ac	-0.19398755
62	0xbdbfd9a4	-0.093676835
63	0x3e41930e	0.18903753
64	0xbdb26593	-0.0871078
65	0x3e4557ad	0.19271727
66	0xbe3117c7	-0.17294227
67	0xbe0dedbf	-0.13860224
68	0x3d3d3b59	0.046199176
69	0x3d082cea	0.03324596
70	0x3e1c802b	0.15283267
71	0xbe19046d	-0.14943095
72	0x3e43d2d8	0.191234
73	0xbd813c28	-0.06310302
74	0x3db1237f	0.086493485
75	0xbe1cd45d	-0.15315385
76	0x3e44c025	0.19213922
77	0x3d38e5ba	0.04514096
78	0x3d6842ba	0.05670426
79	0x3dfe3b64	0.124136716
80	0xbe2154eb	-0.1575505
81	0xbde5adad	-0.11214767
82	0x3ca5b09a	0.020225812
83	0x3e97621d	0.29567042
84	0x3e269ddd	0.16271158
85	0xbe139428	-0.14411986
86	0xbe8f5766	-0.27996367
87	0x3d8b6227	0.068058304
88	0x3de05ddd	0.10955403
89	0xbddebc65	-0.10875777
90	0x3dde399a	0.108508304
91	0xbdda83cf	-0.10669672
92	0xbe1c6245	-0.15271862
93	0xbed2fde3	-0.41209325
94	0x3e29ea6b	0.1659333
95	0x3e31e938	0.17374122
96	0x3dd59ac4	0.1042991
97	0xbe5bc4fc	-0.21461862
98	0x3e3293a4	0.17439133
99	0xbe1079d6	-0.14108977
100	0xbd6ec3e8	-0.0582923
101	0xbe0403eb	-0.1289212
102	0xbe34ff9c	-0.17675632
103	0x3e670285	0.22559555
104	0x3e9316b3	0.28728256
105	0x3c31e4dd	0.010857788
106	0x3e6465b7	0.22304426
107	0xbe17ed0b	-0.14836518
108	0xbd8c4127	-0.06848364
109	0x3e2ea7f2	0.17056254
110	0xbde4f303	-0.11179163
111	0xbda53592	-0.08066858
112	0xbe3e8b07	-0.18607722
113	0x3dd75b5a	0.10515471
114	0x3e191cf9	0.14952458
115	0x3e70ea3f	0.23526858
116	0xbe5210f2	-0.20514277
117	0xbe055cc7	-0.13023673
118	0xbe17e3f3	-0.1483305
119	0x3dcdf199	0.10055847
120	0xbe5be484	-0.2147389
121	0xbe5d6ad4	-0.21622783
122	0xbe259a1a	-0.16172066
123	0x3e64ae54	0.22332126
124	0xbdbf39d5	-0.093372025
125	0xbd71b6c5	-0.059012193
126	0x3c82a2e1	0.015946807
127	0x3d7e60b5	0.062103946

actor.6.bias f4 [2]
0	0xbd34e745	-0.04416587
1	0xbc0d7ad9	-0.008635246

critic.0.weight f4 [64, 29]
0	0xbd928d3d	-0.07155845
1	0x3c53b283	0.0129209785
2	0xbd7330a7	-0.05937257
3	0xbbcd0eb2	-0.0062578553
4	0x3d677be4	0.056514636
5	0xbd1a7b5b	-0.037715297
6	0xbd05b1a8	-0.03264013
7	0x3b867062	0.0041027525
8	0x3c0f0ffa	0.008731836
9	0x3cf6908f	0.030098228
10	0x3b9cdc2a	0.004786988
11	0x3bf9740b	0.0076127104
12	0xbd2ebef5	-0.04266258
13	0xbbacba80	-0.005271256
14	0x3b572c10	0.003283266
15	0xb94f0357	-0.00019742303
16	0x3e1c2f4a	0.15252414
17	0xbc39ec01	-0.011347772
18	0xbd48a324	-0.048983708
19	0xbd4b0e9f	-0.04957449
20	0x3b634ff7	0.0034685114
21	0xbc81a114	-0.015823878
22	0xbbf19f15	-0.0073737004
23	0x3e3c0420	0.18360949
24	0x3dff66a7	0.12470751
25	0x3d08ff4a	0.033446588
26	0xbea3076b	-0.31841597
27	0xbd8a23fb	-0.06745144
28	0xbde13573	-0.10996523
29	0xbe229436	-0.1587685
30	0x3c6df8b3	0.014524627
31	0x3ce908cc	0.028446577
32	0xbb11be31	-0.0022238607
33	0x3cad5fb6	0.021163803
34	0xba803e47	-0.0009784185
35	0x3e2a473a	0.16628733
36	0xbca6d48c	-0.020365022
37	0x3d1134b4	0.035450652
38	0x3ab16234	0.0013533295
39	0x3d203b47	0.03911903
40	0x3d10e679	0.035376046
41	0xbde4a3d5	-0.11164061
42	0x3d90658f	0.07050621
43	0xbcdf0cb0	-0.02722773
44	0xbd15b525	-0.036549706
45	0xbe023058	-0.12713754
46	0x3bb439a0	0.0055000335
47	0xbd232e0a	-0.03983883
48	0xbcfbe6ee	-0.030749764
49	0xbc040eff	-0.008060216
50	0xbd6daff8	-0.058029145
51	0x3e9bd3f8	0.30435157
52	0xbe0b6c8f	-0.1361563
53	0xbe2c8ef8	-0.16851413
54	0xbe902aba	-0.28157598
55	0x3e1fc7d7	0.15603577
56	0xbe150d0d	-0.1455576
57	0x3cf17406	0.02947427
58	0x3e192323	0.1495481
59	0x3c5f9a08	0.013647564
60	0x3bad48e8	0.005288232
61	0xbb4c05aa	-0.0031131306
62	0xbd530a8e	-0.051523738
63	0x3dc62341	0.09674693
64	0x3ddb011e	0.106935725
65	0x3d095d26	0.0335361
66	0xbca69f0d	-0.020339513
67	0xbc955880	-0.018230677
68	0xba898448	-0.0010491693
69	0xbcde83b7	-0.027162416
70	0xbc449b9b	-0.01199999
71	0x3c12fb5d	0.0089710625
72	0x3c4bef41	0.012447179
73	0xbbfc66f7	-0.007702704
74	0xbe7ff5e0	-0.24996138
75	0xbc88d36a	-0.016702373
76	0x3e55d154	0.20880634
77	0xbd8f733a	-0.070043996
78	0xbcdc4c25	-0.026891777
79	0x3e10eda5	0.14153154
80	0xbbe6d9b9	-0.0070449975
81	0xbcf9fde3	-0.03051657
82	0xbce7de78	-0.028304324
83	0x3c164d1f	0.009173661
84	0x3c97990c	0.018505596
85	0x3d28f9c0	0.041253805
86	0xbceb7da6	-0.028746437
87	0x3c5cd9ef	0.013479694
88	0x3c52d3ce	0.012867881
89	0x3de5d46e	0.11222158
90	0xbaf5cf76	-0.0018753845
91	0xbd1d0df0	-0.03834337
92	0x3dd8a7ff	0.10578918
93	0x3c749c68	0.014929868
94	0x3c3d0fce	0.011539413
95	0x3c9e3cbd	0.019316072
96	0x3cc4c716	0.024020713
97	0x3c23d5b5	0.009999682
98	0xbc03e84a	-0.0080509875
99	0xbd5fd926	-0.05465045
100	0x3bb628f8	0.005559083
101	0xbb85755e	-0.004072829
102	0xbba32637	-0.004978921
103	0x3d2a5df6	0.041593514
104	0xba8684dc	-0.0010262984
105	0x3d84d37d	0.06485651
106	0xbce2a15d	-0.027664835
107	0x3db8af98	0.09017867
108	0xbd4579d7	-0.0482119
109	0xbe0141fd	-0.12622829
110	0x3e4fdb01	0.20298387
111	0xbcbb8271	-0.022889348
112	0xbe9b21a2	-0.30299097
113	0xbe56cdd4	-0.20976955
114	0x3d14b14b	0.036301892
115	0xbc51bdb1	-0.012801574
116	0x3d8436c3	0.064557575
117	0x3c5ae25a	0.0133596305
118	0xbb8d03de	-0.0043034395
119	0xbb8b4369	-0.0042499793
120	0x3dde8626	0.108654305
121	0x3c268d09	0.010165461
122	0xbd7d56a7	-0.061850216
123	0xbe082a15	-0.13297303
124	0x3cf6485c	0.0300638
125	0x3cc7f7a7	0.024410082
126	0x3c5f9a76	0.013647666
127	0x3c29c922	0.010362895
128	0xbdb0ff19	-0.08642406
129	0x3c7def45	0.015498941
130	0xbcb1305e	-0.021629509
131	0xbc36f252	-0.011166172
132	0x3d6b757d	0.057485092
133	0xbc25fc41	-0.010130943
134	0xbc552025	-0.013008152
135	0xbd1cb281	-0.038256172
136	0xbd34470f	-0.04401308
137	0x3d09b723	0.03362192
138	0x3dc3aa17	0.095539264
139	0xbd848d55	-0.064722694
140	0x3d14ed8f	0.036359366
141	0x3e593b0d	0.21213932
142	0x3c45d50d	0.012074721
143	0xbe1d2cfd	-0.15349193
144	0x3b71ec58	0.0036914553
145	0xbd6f9f54	-0.058501557
146	0x3c8eaf5f	0.017417608
147	0x3d697c90	0.057003558
148	0xba6be668	-0.0008998872
149	0x3b0e4e97	0.0021714324
150	0x3d38b578	0.045094937
151	0x3dbce0c2	0.09222557
152	0x3b25b384	0.0025284002
153	0xbc255716	-0.010091564
154	0x3c02e13e	0.007988272
155	0xbb8ed2ee	-0.004358641
156	0xbcb0b0b7	-0.02156864
157	0xbc1170d8	-0.008877002
158	0xbc899417	-0.016794248
159	0x3c669742	0.014074149
160	0x3b4c572b	0.0031179886
161	0x3d96bdcf	0.07360422
162	0x3b3ffe3a	0.0029295818
163	0x3d91c2af	0.07117211
164	0xbd080166	-0.03320446
165	0x3c8c24c9	0.017107384
166	0xbc84b9d8	-0.016201898
167	0xbe4d3bb0	-0.200423
168	0xbd99ace5	-0.0750368
169	0xbe9d403e	-0.30713075
170	0x3e0107a5	0.12600572
171	0xbe5c871c	-0.21535915
172	0xbde461e9	-0.111514874
173	0xbcac0686	-0.020999204
174	0x3d831081	0.06399632
175	0x3c1adab8	0.009451561
176	0xbd0d9364	-0.03456439
177	0xbaad9df6	-0.0013245929
178	0xbbc81240	-0.006105691
179	0xbd03c109	-0.032166515
180	0x3d292012	0.04129035
181	0x3db3a9aa	0.08772595
182	0x3cbafca1	0.022825541
183	0xbcc220ef	-0.023697345
184	0x3c48ad66	0.012248373
185	0xbce4f163	-0.027947133
186	0xbd81d3f6	-0.063392565
187	0x3c2ecb96	0.010668656
188	0xbbedd44d	-0.0072579742
189	0xbc0814ab	-0.008305709
190	0xbe5fa405	-0.21839912
191	0x3c1cf54b	0.009579967
192	0x3d161165	0.036637682
193	0xbd39469a	-0.045233347
194	0x3b9255fe	0.0044658175
195	0x3d67ecd4	0.05662234
196	0x3e23a150	0.15979505
197	0xbe0e7335	-0.13911135
198	0xbdda47bd	-0.10658214
199	0xbe84f99f	-0.25971696
200	0x3de9a5ba	0.11408563
201	0xbe2f15ce	-0.17098162
202	0xbdcdfa19	-0.10057468
203	0x3dd8a114	0.10577598
204	0x3c3b0bca	0.011416385
205	0x3e17f583	0.14839749
206	0xbb595507	-0.0033162253
207	0xbd1170cd	-0.035507966
208	0x3e030ca9	0.12797798
209	0xbdfa2efc	-0.12215993
210	0xbce31ad6	-0.027722757
211	0x3c5752f6	0.013142338
212	0x3c143dc0	0.0090479255
213	0x3c878239	0.016541587
214	0x39c1cbad	0.0003696358
215	0xbd77af80	-0.060470104
216	0x3c83b1e3	0.016076034
217	0xbb9e880b	-0.004837995
218	0xbbf7a39e	-0.0075573465
219	0xbd883df2	-0.0665244
220	0x3b021125	0.0019846645
221	0xbdaf29b6	-0.085528776
222	0xbccb93a6	-0.024850678
223	0x3d09291f	0.03348648
224	0xbde722fa	-0.11285968
225	0x3b8fe364	0.0043911207
226	0xbb4be409	-0.0031111261
227	0x3d209f5a	0.03921447
228	0x3d097cb2	0.033566184
229	0xbe88aa3b	-0.26692376
230	0xbe37dfac	-0.17956418
231	0xbc9390d5	-0.018013397
232	0x3e3e0c0c	0.18559283
233	0x3ce06606	0.027392399
234	0xbdd03576	-0.10166447
235	0xbbe4c5c6	-0.0069815842
236	0x3dbf4762	0.09339787
237	0xbd608689	-0.054815803
238	0xbdcc793c	-0.09984061
239	0x3e107645	0.14107616
240	0xbcc42701	-0.02394438
241	0xbc8f88a7	-0.017521216
242	0x3c6a3f93	0.014297384
243	0x3da481a0	0.080325365
244	0xb9be4da0	-0.0003629746
245	0x3c810a89	0.015752094
246	0x3ca73d8d	0.020415092
247	0xbc1a75e1	-0.009427519
248	0x3db74ea3	0.08950546
249	0xbc49e99f	-0.012323766
250	0x3dae7cdf	0.08519911
251	0xbd1df7a0	-0.03856623
252	0x3ca21026	0.01978309
253	0xbd042d94	-0.03227003
254	0x3e0af3e9	0.13569607
255	0xbe1bfcfb	-0.15233223

critic.0.bias f4 [64]
0	0xbe3c4342	-0.18385032
1	0xbda42e84	-0.08016685
2	0xbf049247	-0.517857
3	0x3dbf9281	0.09354115
4	0x3e5ddf9f	0.21667336
5	0x3cc48f1c	0.023994021
6	0xbe09a039	-0.13440026
7	0xbe7ba2fe	-0.24573895
8	0xbdf434b4	-0.11924115
9	0x3e18c1ea	0.14917722
10	0xbdad3b34	-0.08458558
11	0x3cebf452	0.028803024
12	0xbe86e4b9	-0.26346377
13	0x3cb4a0b8	0.022049293
14	0xbe149bd1	-0.14512564
15	0x3eb5f217	0.35536262
16	0xbed7f1d7	-0.42176697
17	0xbdcd2102	-0.10016061
18	0x3e696e86	0.22796068
19	0x3e1a78cb	0.15085141
20	0xbbfa02da	-0.0076297345
21	0x3ef3d82f	0.47625872
22	0x3e433cf6	0.19066224
23	0x3d92bab3	0.07164516
24	0x3de75ac8	0.11296612
25	0xbdcda0b1	-0.10040415
26	0x3d90992c	0.07060465
27	0xbd439af8	-0.04775521
28	0xbebb97d2	-0.36639267
29	0x3d19b718	0.037528127
30	0x3db8b60b	0.09019097
31	0x3e8ccbaa	0.27499133
32	0xbdc785c4	-0.09742311
33	0x3e514e6c	0.20440072
34	0xbefc6619	-0.49296644
35	0x3e25626c	0.16150826
36	0x3e83c794	0.25738204
37	0xbdec342d	-0.11533389
38	0xbe0249e6	-0.12723503
39	0x3df39bb7	0.118949346
40	0x3ea1fbed	0.31637517
41	0x3d3899a6	0.045068406
42	0x3e9db291	0.30800298
43	0x3d5a370e	0.05327516
44	0x3e082c7f	0.13298224
45	0x3c61663a	0.013757283
46	0xbe356d21	-0.1771741
47	0x3e513db1	0.2043369
48	0xbdf8877a	-0.12135215
49	0x3d8e19b7	0.069384985
50	0x3cb4e6f6	0.022082787
51	0x3dc21968	0.09477502
52	0xbed4b693	-0.41545543
53	0x3d30781d	0.0430833
54	0xbebd6aed	-0.3699564
55	0xbce20720	-0.027591288
56	0xbeb549d0	-0.35407877
57	0xbea32399	-0.31863096
58	0x3ca5a7fe	0.020221706
59	0x3da24600	0.07923508
60	0x3ec38a4a	0.38191444
61	0x3e10e88c	0.1415121
62	0x3eae44d9	0.34036902
63	0x3ea718bb	0.32636055

critic.1.weight f4 [64]
0	0x3f801ecc	1.0009398
1	0x3f769af0	0.96330166
2	0x3f91e0ff	1.1396788
3	0x3f800e25	1.0004317
4	0x3f83a9d5	1.0286204
5	0x3f768f3e	0.9631232
6	0x3f6009ad	0.87514764
7	0x3f86ed92	1.0541251
8	0x3f553778	0.83287764
9	0x3f79bb71	0.9755164
10	0x3f7f4b08	0.99723864
11	0x3f73301d	0.9499529
12	0x3f78c177	0.97170204
13	0x3f70f26f	0.94119924
14	0x3f89c745	1.0763937
15	0x3f84f438	1.038703
16	0x3f8c3115	1.0952479
17	0x3f75eb12	0.96061814
18	0x3f863151	1.04838
19	0x3f7d68ac	0.9898784
20	0x3f84dc92	1.0379813
21	0x3f99a14a	1.2002347
22	0x3f6117ff	0.8792724
23	0x3f7bb79f	0.9832706
24	0x3f8a0737	1.0783452
25	0x3f5f7f20	0.8730335
26	0x3f6851bd	0.9074972
27	0x3f72e154	0.94875073
28	0x3f911cfe	1.1336973
29	0x3f6b6ac9	0.91959816
30	0x3f5cb5e8	0.86215067
31	0x3f82e072	1.0224745
32	0x3f7a9ad7	0.97892517
33	0x3f761bc1	0.961361
34	0x3f9055f2	1.1276228
35	0x3f6a277b	0.9146649
36	0x3f7f3a4e	0.9969834
37	0x3f648d01	0.89277655
38	0x3f8b3beb	1.087766
39	0x3f7745b3	0.9659073
40	0x3f8244b6	1.0177219
41	0x3f674822	0.9034444
42	0x3f79d0eb	0.9758441
43	0x3f59727d	0.8494032
44	0x3f721a90	0.9457178
45	0x3f5a0ec4	0.8517878
46	0x3f42a803	0.76037616
47	0x3f750c6c	0.9572208
48	0x3f7d2f17	0.9889998
49	0x3f615949	0.88026863
50	0x3f6a0013	0.91406363
51	0x3f7820d2	0.9692508
52	0x3f895848	1.0730066
53	0x3f697a8d	0.9120262
54	0x3f8ee875	1.116469
55	0x3f7e0883	0.9923174
56	0x3f8fdf44	1.124001
57	0x3f858e21	1.0433999
58	0x3f7f4321	0.99711806
59	0x3f7a8a9f	0.9786777
60	0x3f9371d2	1.151911
61	0x3f764572	0.96199715
62	0x3f81b654	1.0133767
63	0x3f8aa18d	1.0830551

critic.1.bias f4 [64]
0	0x3d1a7eac	0.03771846
1	0x3d3afa53	0.045648884
2	0xbd8c308d	-0.06845198
3	0x3c720d80	0.014773726
4	0x3cdb2322	0.026750151
5	0x3dac4b10	0.084127545
6	0xbc328191	-0.010895149
7	0xbe10a2a3	-0.14124541
8	0x3dc6682d	0.09687839
9	0x3ce309d7	0.027714653
10	0x3c13628d	0.008995664
11	0xbd100684	-0.035162464
12	0x3c1941cf	0.009354069
13	0x3d26a483	0.040684234
14	0x3ce34d9a	0.027746964
15	0x3d4820cf	0.048859414
16	0x3d4b17fd	0.049583424
17	0xbe10078e	-0.14065382
18	0x3e1337c5	0.14376743
19	0x3e88adde	0.2669515
20	0x3d252e0c	0.040327117
21	0x3e0ac599	0.1355194
22	0xbda6a061	-0.081360586
23	0xbd6139f8	-0.054986924
24	0x3c94e9a3	0.018177813
25	0x3d2aee74	0.041731313
26	0x3b4c701b	0.003119475
27	0x3c9d1371	0.01917431
28	0xbd9e453b	-0.077280484
29	0x3c4a5405	0.012349133
30	0x3cd078a4	0.025448151
31	0x3d063af2	0.03277106
32	0xbd570798	-0.052497476
33	0x3ca3f838	0.02001582
34	0xbd7ca693	-0.061682295
35	0xbc871f7d	-0.016494507
36	0xbc158143	-0.009125057
37	0xbda0bc6d	-0.07848439
38	0x3da45a6d	0.0802506
39	0xbd1e94d6	-0.03871616
40	0x3d64ba2b	0.055841606
41	0xbbfe3c08	-0.007758621
42	0x3d722263	0.059114825
43	0x3cbaa8ac	0.022785507
44	0x3d16d389	0.03682283
45	0xbc995ca5	-0.018720934
46	0x3bcc1a8e	0.0062287515
47	0xbc879663	-0.016551202
48	0x3daaa403	0.08332064
49	0xbd44c5de	-0.048040263
50	0xbd0d2c7c	-0.03446625
51	0x3d1a5fde	0.037689082
52	0xbc988ff1	-0.018623324
53	0xbd941cd9	-0.07232065
54	0xbdcf6ac1	-0.101277836
55	0x3d6a7a93	0.057245802
56	0xbc7569c1	-0.014978827
57	0x3db24bfa	0.08705898
58	0x3d98ba8c	0.07457456
59	0x3dc72936	0.09724657
60	0x3d85184e	0.064987764
61	0x3a009d96	0.00049062946
62	0x3ce8ba49	0.02840914
63	0x3cc578da	0.024105478

critic.3.weight f4 [64, 64]
0	0x3d359592	0.044332094
1	0x3cea7a56	0.028622787
2	0xbd08d91e	-0.033410184
3	0x3c8fed2e	0.01756915
4	0x3d077bdd	0.03307711
5	0x3c8ab213	0.016930616
6	0x3cb6fc71	0.02233717
7	0x3e44759b	0.19185488
8	0x3cd85f21	0.026412548
9	0x3d87c627	0.066295914
10	0x3db53b81	0.0884924
11	0x3bf5b785	0.007498684
12	0x3e2c9de6	0.16857108
13	0x3d2022ea	0.039095797
14	0x3d5633e2	0.052295573
15	0xbddb7e87	-0.107174926
16	0xbc9d4e68	-0.019202426
17	0xbd516c48	-0.051128656
18	0x3d375969	0.044763003
19	0x3d7abb73	0.06121392
20	0x3e253f60	0.16137457
21	0xbe388281	-0.18018533
22	0x3bc3d002	0.005975724
23	0x3dba7d46	0.09105925
24	0xbd4e18c8	-0.050316602
25	0xbc27cdf8	-0.010241978
26	0xbd543868	-0.051811606
27	0x3dae0b30	0.084982276
28	0x3e140610	0.14455438
29	0x3a097028	0.0005242848
30	0x3cda0cea	0.026617486
31	0xbe0b35b7	-0.1359471
32	0xbc99d2b0	-0.018777221
33	0xbd90ffc4	-0.070800334
34	0x3dff7949	0.12474305
35	0x3d1aac1d	0.037761796
36	0xbd337775	-0.043815095
37	0x3dac8f80	0.08425808
38	0x3dc6eb33	0.097128294
39	0x3d871623	0.06596019
40	0xbd3ecb74	-0.046580747
41	0x3d8c21af	0.06842362
42	0xbcd3ab3c	-0.025838487
43	0x3d6ab666	0.057302855
44	0x3cf97337	0.030450447
45	0xbdbea0a7	-0.09307986
46	0x3b92724d	0.004469192
47	0x3d685dcb	0.056730073
48	0xbb9bcf45	-0.004754933
49	0xbdcbd914	-0.09953514
50	0xbd9a3a6c	-0.07530674
51	0x3cc04558	0.023470566
52	0x3cc17aec	0.023618184
53	0xbc1a38b7	-0.009412936
54	0x3e52918d	0.20563336
55	0x3c72f4e7	0.014828897
56	0x3e14e9df	0.1454234
57	0x3d83e632	0.06440391
58	0x3d92a76a	0.07160838
59	0x3ba08e69	0.004899789
60	0xbcd4e41c	-0.025987677
61	0x3d6cf776	0.057853185
62	0x3d1ea504	0.03873159
63	0xbd4b130c	-0.04957871
64	0x3c0f01c4	0.008728448
65	0xbc639e4d	-0.013892722
66	0x3da43295	0.0801746
67	0xbc70460c	-0.014665138
68	0x3cc37303	0.023858553
69	0xbbe7f9fa	-0.00707936
70	0xbb896d2d	-0.004193923
71	0xbd6366a0	-0.055517793
72	0x3d34193c	0.043969378
73	0xbc738130	-0.014862344
74	0xbd804b85	-0.06264404
75	0x3cf6d743	0.030131942
76	0x3c8d0b57	0.017217321
77	0xbc1e3e7f	-0.009658455
78	0xbd5a91e8	-0.053361803
79	0x3cb7e3c9	0.022447484
80	0xbcce4783	-0.025180584
81	0x3d050b95	0.03248175
82	0x3cc7a4ea	0.02437063
83	0x3d4c6c9e	0.049908273
84	0xbd2b0e87	-0.0417619
85	0x3e092ee2	0.1339679
86	0x3dc4faa1	0.09618116
87	0x3c942772	0.018085215
88	0x3da90d66	0.08254509
89	0x3d957d3a	0.07299276
90	0x3b6794d6	0.0035336516
91	0xbd44c376	-0.04803797
92	0x3d8e22b3	0.06940212
93	0xbc74b0ee	-0.014934761
94	0xbd210155	-0.03930791
95	0x3d8666c0	0.06562567
96	0x3cd9461f	0.026522694
97	0xbb00f83f	-0.0019679216
98	0xbdb254e0	-0.08707595
99	0x3dec8b5b	0.115500174
100	0xbce78861	-0.028263273
101	0x3da45509	0.08024032
102	0xbd256f13	-0.04038913
103	0x3d859461	0.06522442
104	0x3d615163	0.055009257
105	0xbc7e971b	-0.015538956
106	0x3d550330	0.052004993
107	0xbce8a666	-0.028399657
108	0x3c847eb1	0.016173692
109	0x3d3c5903	0.045983326
110	0xbd1d1fd5	-0.038360436
111	0x3d9b394e	0.075792894
112	0x3b67217a	0.0035267756
113	0xbd08f53b	-0.033436995
114	0xbd9ad9ab	-0.07561048
115	0x3da60c9a	0.08107872
116	0xbd0aea9a	-0.03391514
117	0x3d8ae197	0.06781309
118	0x3dd79c99	0.105279155
119	0x3da5efdd	0.08102391
120	0x3de53117	0.11191004
121	0x3dac8a42	0.08424808
122	0xbcc83fa1	-0.024444403
123	0xbd4189de	-0.04725062
124	0xbcb1c1c9	-0.02169885
125	0x3d6b1b52	0.0573991
126	0xbc11ff4d	-0.008910966
127	0x3df151ba	0.11783166
128	0x3dbfb48c	0.093606085
129	0x3d15f897	0.036614027
130	0xbd2ee523	-0.04269899
131	0xbdbada3e	-0.09123658
132	0x3cfe788d	0.031063342
133	0x3c336426	0.01094917
134	0x3d2a1d09	0.041531596
135	0x3e2705ff	0.16310881
136	0xbc1389a3	-0.009004983
137	0x3cdfe287	0.027329696
138	0x3d125174	0.03572221
139	0xbcf9f3a0	-0.030511677
140	0x3d9505d6	0.07276504
141	0x3d074778	0.033027142
142	0x3e155c95	0.14586098
143	0xbe098cef	-0.13432668
144	0x3cbcf61d	0.023066575
145	0xbd251d59	-0.04031119
146	0x3dccaea7	0.0999425
147	0x3dacb25e	0.08432458
148	0x3debbcf9	0.11510653
149	0xbdfa6db3	-0.12227955
150	0xbd7378d4	-0.059441403
151	0x3d5f894d	0.0545743
152	0xbd15e051	-0.036590878
153	0x3c968f8c	0.018378995
154	0xbd421cbb	-0.04739068
155	0x3dac6209	0.08417136
156	0xbd737438	-0.059437007
157	0x3d63d57c	0.055623516
158	0x3d80b2e0	0.06284118
159	0x3db26393	0.087103985
160	0x3d917854	0.07103029
161	0x3ccebb0f	0.02523568
162	0x3d5a3143	0.053269636
163	0x3dfbb736	0.12290804
164	0xbde29376	-0.11063282
165	0x3dbdaf75	0.092619814
166	0x3d0b595c	0.034020767
167	0x3bad613c	0.0052911323
168	0xbd78dd82	-0.06075812
169	0x3dc9a749	0.0984636
170	0xbdd155c1	-0.102214344
171	0x3d283c2e	0.041073017
172	0x3c2435e1	0.010022611
173	0xbdcf08ec	-0.101091236
174	0x39fe96a1	0.00048558883
175	0x3dc8ab17	0.09798258
176	0xbd377d61	-0.044797305
177	0xbdf4d556	-0.11954753
178	0xbd4f2b76	-0.050578557
179	0xbb792c12	-0.0038020653
180	0x3d66077a	0.056159474
181	0x3cbd522f	0.023110477
182	0x3dae2130	0.08502424
183	0x3db7906c	0.08963093
184	0x3dee0cd5	0.11623541
185	0x3d7edb5b	0.062220912
186	0x3da0ddf1	0.07854832
187	0xbc49104c	-0.012271952
188	0xbdb3ef48	-0.08785874
189	0x3d7a22fb	0.061068516
190	0xbdaa5d98	-0.08318633
191	0xbc883aa0	-0.016629517
192	0xbd6b28bf	-0.057411905
193	0xbcf147e1	-0.02945322
194	0x3dbcc234	0.09216729
195	0xbd928fb1	-0.07156313
196	0xbd53ec4e	-0.05173903
197	0xba45749c	-0.000753233
198	0xbb574d3e	-0.0032852436
199	0xbe53c7b9	-0.20681657
200	0xbcb95e89	-0.022628086
201	0x3c2f9fb4	0.010719229
202	0xbca6d97d	-0.020367378
203	0x3d004bd6	0.031322323
204	0x3d755e76	0.059904538
205	0x3c8f9511	0.017527135
206	0xbdbd2cc0	-0.09237051
207	0x3e1c3976	0.15256295
208	0x3d4bcd23	0.04975618
209	0xbd39c40e	-0.045352988
210	0x3d713a99	0.058893774
211	0x3d962ab6	0.07332365
212	0xbe207404	-0.15669256
213	0x3d447d3e	0.047971003
214	0x3decd9cf	0.11564981
215	0x3deebe2a	0.11657365
216	0x39fca459	0.00048187634
217	0x3de5cecb	0.11221083
218	0xbd87c17a	-0.066286996
219	0xbc3ca761	-0.011514516
220	0x3dfb5201	0.122715004
221	0xbd287000	-0.041122437
222	0xbc80924e	-0.015694764
223	0xbdcf0f55	-0.10110346
224	0xbdda80a8	-0.106690705
225	0x3db5f101	0.088838585
226	0x3ddaef0d	0.106901266
227	0x3da2cbd5	0.07949034
228	0x3ddc9471	0.107705005
229	0xbc83f59e	-0.01610833
230	0xbc63d934	-0.013906766
231	0x3d419e09	0.047269855
232	0x3d52f380	0.05150175
233	0xbd0b84c1	-0.03406215
234	0xba9acf80	-0.0011811107
235	0xbc5601e8	-0.013061978
236	0x3d65459b	0.055974584
237	0xbd0ec890	-0.03485924
238	0xbd8a5c7f	-0.067559235
239	0x3d80158c	0.0625411
240	0xbca0259a	-0.01954918
241	0x3d4bdda7	0.04977193
242	0x3cc21ef4	0.0236964
243	0xbd348d6e	-0.04408019
244	0x3d344551	0.044011418
245	0x3db31362	0.08743931
246	0x3e16f57f	0.14742087
247	0x3c40864c	0.011750769
248	0x3da23136	0.079195425
249	0xbc0dde73	-0.008658993
250	0xbdff6981	-0.12471295
251	0xbcaaed5b	-0.020865133
252	0x3db5b649	0.08872659
253	0x3c302a82	0.010752322
254	0x3cd1cbd3	0.025609886
255	0x39d3db7b	0.00040408582

critic.3.bias f4 [64]
0	0xbd92b617	-0.07163637
1	0xbdac529e	-0.084141955
2	0x3caab1a6	0.020836663
3	0x3dd478e8	0.103746235
4	0xbbb48113	-0.005508551
5	0x3e0af7ea	0.13571134
6	0xbdd1e0ba	-0.10247941
7	0x3da2a786	0.07942109
8	0x3c356879	0.0110722715
9	0x3d23b366	0.03996601
10	0xbca70dca	-0.020392317
11	0xbb813a27	-0.0039437
12	0x3da27383	0.07932188
13	0x3d454666	0.04816284
14	0x3e136613	0.14394407
15	0xbc7ababa	-0.015303308
16	0x3d24b329	0.040209923
17	0x3da2396a	0.07921107
18	0x3d506cc2	0.05088497
19	0xbd7c3da7	-0.061582234
20	0x3d904121	0.07043672
21	0x3df577c9	0.11985738
22	0x3d61165b	0.05495296
23	0xbd9ee8b5	-0.07759229
24	0x3db3d92b	0.08781656
25	0xbd90831c	-0.07056257
26	0xbd94e013	-0.07269301
27	0xbda6b3a3	-0.08139732
28	0xbd840d15	-0.06447808
29	0x3d975797	0.07389753
30	0x3bd0b2af	0.006368957
31	0x3ab6c9e7	0.001394567
32	0xbd93f288	-0.072239935
33	0x3b94460c	0.004524952
34	0x3dca5bd0	0.09880793
35	0xbcc21931	-0.023693653
36	0xbd6700c7	-0.056397226
37	0x3d48ae4e	0.048994355
38	0xbd86fdb0	-0.06591356
39	0xbd7ec616	-0.06220063
40	0x3ca58652	0.02020565
41	0x3dfd64b2	0.12372722
42	0xbbf2a8bc	-0.0074053686
43	0xbdcbd8ce	-0.099534616
44	0x3d12b51f	0.03581726
45	0x3cdbf850	0.026851803
46	0xbd56ac9e	-0.052410714
47	0x3d2c21ce	0.042024426
48	0x3da9a333	0.08283081
49	0xbdc59f9c	-0.09649584
50	0xbd4c4331	-0.049868766
51	0x3d8c9a2c	0.068653435
52	0x3d60fac0	0.054926634
53	0x3d90393d	0.07042167
54	0x3d14db00	0.036341667
55	0xbc742daf	-0.01490347
56	0x3cce7741	0.02520335
57	0xbdd70b49	-0.10500199
58	0x3c8846d0	0.016635329
59	0xbd8de135	-0.069277205
60	0x3d0d1fc5	0.034454126
61	0x3cc1fee5	0.023681113
62	0xbdc4f599	-0.096171565
63	0xbd0efd5d	-0.034909595

critic.4.weight f4 [64]
0	0x3f83ff15	1.031222
1	0x3fc40bc1	1.5316087
2	0x3f84dcaf	1.0379847
3	0x3fd65605	1.6745001
4	0x3fbc137f	1.469345
5	0x3fcfef30	1.6244869
6	0x3f8bd9f7	1.0925893
7	0x3fc5fe1a	1.5468171
8	0x3f7cd27e	0.98758686
9	0x3fb6877e	1.4260099
10	0x3fbbc5a6	1.4669693
11	0x3fc54ad2	1.5413458
12	0x3f86073d	1.0470959
13	0x3f7c0b7e	0.98455036
14	0x3fa0f737	1.2575444
15	0x3f7d14fc	0.98860145
16	0x3f7cbc61	0.98724943
17	0x3f819737	1.0124272
18	0x3fb4f710	1.4137897
19	0x3fce81ae	1.6133325
20	0x3f7ea0ea	0.99464285
21	0x3fb6b20a	1.4273083
22	0x3f7d3f61	0.98924834
23	0x3f82ed14	1.02286
24	0x3fb7fd96	1.4374263
25	0x3fcde77a	1.6086266
26	0x3fd3a69b	1.6535219
27	0x3f96c372	1.1778395
28	0x3fc7f554	1.5621743
29	0x3f876f1b	1.0580782
30	0x3f8d81b7	1.1055211
31	0x3f85a6ee	1.0441568
32	0x3fc5565a	1.5416977
33	0x3f8bfec0	1.0937119
34	0x3fc3130c	1.5240188
35	0x3f8cee5c	1.1010242
36	0x3f7de5a8	0.9917855
37	0x3f7f015a	0.9961144
38	0x3f8b411d	1.0879246
39	0x3f9dc448	1.2325525
40	0x3f798fcd	0.9748505
41	0x3fc38686	1.5275428
42	0x3f885812	1.0651877
43	0x3f7b6329	0.9819818
44	0x3fc7c781	1.5607759
45	0x3f7c387e	0.985237
46	0x3f77ecda	0.9684578
47	0x3f87ae83	1.0600132
48	0x3f7ca2b2	0.98685753
49	0x3fcb8f15	1.590304
50	0x3f9a5239	1.2056342
51	0x3fd23ba1	1.6424447
52	0x3f80825c	1.0039783
53	0x3fcdcba6	1.6077774
54	0x3f7ba482	0.98297894
55	0x3f7c02ab	0.9844157
56	0x3f80d808	1.0065928
57	0x3f82c6d8	1.0216932
58	0x3fa56195	1.2920405
59	0x3fc6a384	1.5518651
60	0x3fc4398f	1.5330065
61	0x3fc3b6d0	1.5290165
62	0x3f7d4646	0.98935354
63	0x3f7eadf6	0.99484193

critic.4.bias f4 [64]
0	0x3d96269a	0.073315814
1	0x3f088bbc	0.5333822
2	0x3e1bb0b4	0.15204126
3	0x3f19c746	0.6006969
4	0x3e949739	0.29021624
5	0x3f18ab93	0.596368
6	0x3d048c10	0.032360137
7	0x3f09ae6d	0.5378178
8	0xbcc024a4	-0.023454972
9	0x3eb22af9	0.3479841
10	0x3ea22c63	0.3167449
11	0x3f0b1a52	0.54337037
12	0x3d81dfb3	0.06341495
13	0xbcaed84f	-0.021343378
14	0x3e31b6f2	0.17354944
15	0xbd9d01f0	-0.07666385
16	0xbcd3466d	-0.025790418
17	0xbc3a5ff2	-0.011375414
18	0x3e42de0d	0.19030018
19	0x3f1224ed	0.57087594
20	0x3ce711ca	0.028206725
21	0x3e974914	0.29547942
22	0xbc00b07a	-0.007854575
23	0x3d057b8c	0.032588527
24	0x3e5901b2	0.21192053
25	0x3f140822	0.5782491
26	0x3f1846e0	0.59483147
27	0x3d48bca3	0.049008023
28	0x3f0e3de1	0.5556317
29	0x3d33238a	0.043735065
30	0x3d1da418	0.03848657
31	0x3d56bedb	0.052428108
32	0x3f09c008	0.5380864
33	0x3d1c48f1	0.0381555
34	0x3f070041	0.5273476
35	0x3d84811c	0.06469938
36	0xbc527e36	-0.012847474
37	0x3c16cba1	0.009203822
38	0x3c20135f	0.009770243
39	0x3e91c2e7	0.2846901
40	0xbcf31b91	-0.02967623
41	0x3f091c67	0.53558964
42	0x3dd90532	0.10596694
43	0x3d7bd9d7	0.061487045
44	0x3f0b9f4a	0.5453993
45	0xbc6193fa	-0.0137681905
46	0xbcc77682	-0.024348501
47	0x3cb67544	0.022272713
48	0xbcb1e2a2	-0.021714512
49	0x3f1171c0	0.56814194
50	0x3e9c6faa	0.30553943
51	0x3f158faf	0.5842237
52	0x3a84be6d	0.0010127552
53	0x3f10d0d2	0.56568635
54	0xbc8d00b3	-0.017212247
55	0xbc443f68	-0.011978008
56	0xbd216584	-0.039403453
57	0xbb7e7557	-0.0038827264
58	0x3e99a21a	0.30006486
59	0x3f0b71ac	0.54470325
60	0x3f08d9e9	0.53457505
61	0x3f0960a0	0.53663063
62	0xbc85bacf	-0.016324429
63	0xbccf9fb3	-0.025344705
