src/taser/locomotion/models/track_velocity.pth (torch, 59817 bytes, 22 tensors)

log_std f4 [2]
00000000: 45b8 46bf 7f48 3cbf
-0.77624923 -0.7354812

actor.0.weight f4 [64, 29]
00000000: a153 dbbd 1506 9fbd 150e ddbb ae31 ad3d
00000010: a8f9 db3d 3fd0 0e3d 7fbe 3cbd 46b8 4abe
00000020: 1977 093e 0e9e 063c 9bb7 573d 8684 a23d
00000030: 9349 5abc ad5e 2abe 2f22 673d a8de 953c
00000040: 0299 853c 5ea8 fcbd 2103 aebd e8ee bdbd
00000050: 35c4 223e bdf0 a63d a7c5 29bd ecc3 153d
00000060: 16b8 203d 3537 d6bb 93bd babc 6d1b 233e
00000070: a9e4 7dbe d2e9 11be 5514 4b3d 4336 36be
00000080: 329f bb3c c2e8 4f3d cdb8 91b9 8e30 ba3c
00000090: 17f1 d83d 6d44 e4bd ef3a 233e e1db f8bd
000000a0: 4563 013e a541 e53d e173 ca3c a84e fb3d
000000b0: a7a5 1f3e 85d0 05bd 93b3 4fbc 26c1 fd3d
000000c0: e416 1dbd dc4d f9bd 7b84 8d38 ab28 d9bd
000000d0: 0344 cf3d ced8 11be ff4d 9f3d 6e45 2f3e
000000e0: 4d11 e03d 0680 8dbd fe2f 73be fa88 31be
000000f0: f8c5 473d 388d d63d 5618 10be 5b88 e83d
00000100: 5c03 37be 2bd9 19bc bf15 2d3d b67e 213e
00000110: 67a4 dd3d e703 1d3b a958 b6bd d3bf b03c
00000120: 57d1 c53d c057 fc3d 345a 82bd ccb1 1abd
00000130: 16e0 25be 5d2a 803d 336b 4f3e 1dcd 10bc
00000140: f8c0 f53c a7d5 f23d b8d3 2dbc a703 aabd
00000150: 2ba7 2f3e 1045 003e 449e 3bbe 5b2e 30be
00000160: 97e3 bf3d 7837 cabd 335b 413d 91c1 163c
00000170: 43f9 fbbd bdde 783d 16ff d63d c9a8 a8bb
00000180: a4fe 663d 515a c43a 92f7 4b3d 789f 0dbe
00000190: 4b54 cf3d 1c03 10bd 85fc 7dbc 0fc4 523d
000001a0: f3e3 673e 1959 ff3d 37f0 bb3c 27c4 5c3e
000001b0: 1de3 413d a98f 333e 1c54 99bc addc a83d
000001c0: c5e2 5fbe e7f7 163d 6c8e f03c bf16 c83d
000001d0: 5e18 13be daf4 a9bd 6250 26be 7324 e2bd
000001e0: 40d9 cebd 260c dfbd b7f6 b23d 6814 2fbd
000001f0: b509 7a3d c427 55bd a9e6 1c3e 7943 d7bd
00000200: 74fc bc3d c91d c8bd 415c 753d 6b37 f2bd
00000210: bf9f 8c3d f6e3 ec3d ca5e 8f3c 67db bc3d
00000220: 4853 3dbe 28ca 803c f547 053e e897 923d
00000230: 7cfc 003e 97fa 8ebd fea8 323e 086c d73c
00000240: c14f 1b3e 7f0e c33d fd73 04be a23f 21be
00000250: fafd 2b3e a609 c63d 6179 1f3e 9fd9 5d3d
00000260: 4dcb 11be 90d1 153d e826 cbbd 66ea 4fbd
00000270: b8b8 d53c 8027 0e3d 0cc3 1b3e b3a3 393e
00000280: d952 593c 02af 57bc 597a 523d f19d 57bd
00000290: e7ec ffbd 86e1 42bd ad31 ef3d 76f6 953d
000002a0: 7345 063e 2323 05bd 3014 e63d bbb3 cc3d
000002b0: 5687 58bd 08d8 513e 5bf7 153d dc8b dbbd
000002c0: 30b6 e63d 4f99 ca3d a22a 41bc 4059 853d
000002d0: 08fb 0ebe 2a07 debc 9176 f03d 92b3 1cbe
000002e0: f514 d43c 9e29 03be 435f 733b 6b28 ad3c
000002f0: 51f9 a83d 6469 2abd 8b34 bb3d 5663 b8bd
00000300: 0266 a7bc 70e6 c23c ccc6 54bd c57a a3bc
00000310: c180 4d3c f244 a73d b8f7 673e fce3 2b3e
00000320: 6b58 3cbd e106 253e 35a6 53be 0350 1abe
00000330: 02d0 2ebe f592 a7bd 8c4d 43bd 85f0 ecbc
00000340: cbd2 58bd e7f1 253e de04 f73d 2449 1dbd
00000350: 4a60 b33d 21ec 043d ae8b ed3d c803 2d3e
00000360: 807b d8bd c789 a53d 1ed3 4dbd c734 cdbc
00000370: cd9e c13c a28f 43bd 3cfa 98bb 59db 2a3e
00000380: 7f19 8c3d 9418 da3d e5f3 d53d 8e88 113c
00000390: 0b1b 2dbe 9597 69bd c83e ab3d c5a0 913e
000003a0: f8aa ec3c 0374 c33d 8978 b23d 1e2e 42bd
000003b0: e55b 203e d7e5 8abd c46e 9a3d a7cb a4bd
000003c0: 2c8f 163d f9be 4a3d 4f8a 27bd 2dcb 01be
000003d0: aaf7 bfbd d6b5 893b b0da 423b 01ff 5c3d
000003e0: d5e5 82bc 503e dabd 066f 023e d910 a83d
000003f0: 3b9c 2c3d 4563 0fbe 93d9 243e 7e7e 3f3e
-0.1070931 -0.07764832 -0.0067460635 0.08456741 0.107409775 0.034866568 -0.04608011 -0.19796857
0.13424338 0.008216394 0.052665334 0.07935433 -0.0133232055 -0.16637678 0.056429084 0.018294647
0.016308311 -0.12336801 -0.084966905 -0.092740834 0.1589516 0.08151386 -0.04144826 0.0365638
0.039238058 -0.006537343 -0.022795474 0.15928431 -0.24794258 -0.14249352 0.049579937 -0.17794137
0.022903059 0.050759085 -0.00027794242 0.02272823 0.10592859 -0.11145864 0.1594045 -0.121513136
0.12635525 0.11194161 0.024713458 0.12270862 0.15590535 -0.032669563 -0.012677091 0.12390356
-0.03835191 -0.121730536 6.74808e-05 -0.1060346 0.10120394 -0.1424286 0.077785484 0.17116329
0.109408 -0.06909184 -0.23748776 -0.17337409 0.048772782 0.10476154 -0.14071783 0.11354133
-0.17872375 -0.009390156 0.042257067 0.15770993 0.10822373 0.0023958625 -0.08903629 0.021575844
0.09659069 0.123214245 -0.06364861 -0.037767217 -0.16198763 0.0625808 0.20255737 -0.008837965
0.029999241 0.11857157 -0.01060956 -0.08301478 0.17153613 0.12526345 -0.18322092 -0.17205183
0.09369581 -0.09873861 0.047206115 0.009201423 -0.12303402 0.060759295 0.104978725 -0.005147074
0.056395188 0.001498053 0.04979665 -0.13830364 0.101234995 -0.035159215 -0.0155021 0.051456507
0.2264555 0.12468166 0.022941692 0.21559201 0.047335733 0.17535271 -0.018716864 0.082452156
-0.2186385 0.03685751 0.029364787 0.097699635 -0.14364764 -0.08298655 -0.16241601 -0.110421084
-0.10100031 -0.10890989 0.08738463 -0.04274407 0.061044414 -0.052039877 0.15322365 -0.10510916
0.09227839 -0.09771306 0.059902433 -0.118269764 0.06866407 0.115669176 0.017501254 0.09221535
-0.184888 0.015721396 0.1301573 0.0715788 0.12596315 -0.0698139 0.17447278 0.02629663
0.15167142 0.09524249 -0.12934871 -0.1574693 0.16796103 0.09669809 0.15573646 0.054162618
-0.1423771 0.036576807 -0.0991953 -0.05076065 0.026089057 0.03470564 0.15211123 0.18128853
0.013264381 -0.013164284 0.05138621 -0.05264086 -0.124963574 -0.047578357 0.11679397 0.07322399
0.1311243 -0.032504212 0.11234319 0.09995218 -0.05286344 0.20492566 0.03661285 -0.107200354
0.11265218 0.098925225 -0.01178995 0.06511164 -0.13962948 -0.027103025 0.11741365 -0.15302876
0.0258889 -0.12808844 0.0037135638 0.021137437 0.08250678 -0.041604415 0.09140881 -0.09003322
-0.020434383 0.023791522 -0.0519474 -0.019956002 0.012542904 0.08167447 0.22653091 0.16786188
-0.04598276 0.16115905 -0.20668872 -0.15069585 -0.17071536 -0.08182327 -0.047681376 -0.028923282
-0.052935403 0.1620556 0.12061475 -0.03839983 0.087586 0.032451753 0.115989074 0.16895974
-0.10570431 0.080829196 -0.050250165 -0.02504958 0.023635292 -0.0477444 -0.004668502 0.16685237
0.068408005 0.10649219 0.1044691 0.008882655 -0.16904847 -0.057029326 0.08361584 0.2844297
0.028890118 0.09543612 0.087143965 -0.047407262 0.15660055 -0.0678212 0.07540658 -0.08046656
0.036757633 0.049498532 -0.040903386 -0.12675162 -0.0937341 0.0042025847 0.0029732399 0.05395413
-0.015978733 -0.106564164 0.12737665 0.082063384 0.04214118 -0.14002712 0.16098623 0.18700597

actor.0.bias f4 [64]
00000000: 7dea 46be 2ef4 ca3d 861c f5bc 2764 7fbe
00000010: c297 9d3c 407f 3c3e 85f0 8a3d 6e8b b03d
00000020: 2c58 873d 83e5 abbd 201d 38be cfcc 0abc
00000030: bcfa e83d c16e 683c 46d2 03be 4d33 9a3c
00000040: 69bc 4fbd 9d67 1fbd 0082 08be 1f99 5a3e
00000050: 0d0b 3a3e a29b bd3b 582a c53d 0d63 a1bd
00000060: 6bb0 0f3e df2f 1fbe 6785 04be b17d 93bb
00000070: bd7e 12be 7bd3 32bd b9b5 b7bd b378 1a3e
00000080: e7d1 1e3e 0345 8d3d b703 6dbd 5577 8a3d
00000090: 54b1 5d3d 99d8 0ebd 8120 2cbd 9bc6 8abd
000000a0: 5395 27bd 8a3f e6bd 5f04 f8bd 1689 07be
000000b0: 233f b6bb e0dd 803c 997d b83d 9b75 24be
000000c0: d535 bfbc 9c58 2abe 6d69 f8bb 235e 2b3e
000000d0: 7ac3 93bd 9203 d1bd f4ed a33d a591 353d
000000e0: 3560 e8bd c8a1 953d d480 503e 20c5 80bd
000000f0: 0822 2b3e 30c9 ac3d ba39 8b3a 1b99 19be
-0.19425388 0.09909855 -0.029920828 -0.24940549 0.019237403 0.18407917 0.06784157 0.08620344
0.06608614 -0.08393385 -0.1797986 -0.008471682 0.11375949 0.014186562 -0.12873182 0.01882329
-0.05071679 -0.038917173 -0.13330841 0.21347474 0.18168278 0.005786375 0.09627217 -0.078802206
0.14032142 -0.15545605 -0.12941514 -0.0045010676 -0.1430616 -0.043658715 -0.08970208 0.15085106
0.15509759 0.068979286 -0.05786487 0.06761042 0.05412419 -0.034874532 -0.042023186 -0.06776162
-0.04091389 -0.11242588 -0.12110209 -0.13235888 -0.0055617257 0.015730798 0.09008331 -0.16060488
-0.023341099 -0.16635364 -0.007580927 0.16735129 -0.072150186 -0.10205759 0.0800437 0.04432835
-0.11346475 0.07306248 0.20361644 -0.062875986 0.167122 0.08436811 0.0010622062 -0.14999811

actor.1.weight f4 [64]
00000000: bbbb 863f bd44 813f bc73 803f 6d66 813f
00000010: 7437 823f f08a 7f3f 8264 813f 3559 893f
00000020: 3d6a 7a3f e50a 793f 0e67 7e3f 7db2 783f
00000030: 3a35 843f ca79 7c3f 7055 7c3f d89f 813f
00000040: b7a2 833f 8533 883f 16ef 7d3f 92cc 803f
00000050: 4183 7e3f 3e9d 783f 8946 853f dbae 853f
00000060: 83cc 7f3f 8e78 793f 5ba1 7e3f 998d 723f
00000070: 81f5 823f 50ad 793f 495d 813f 7a11 833f
00000080: bee0 803f af45 813f 759a 823f 9d74 7e3f
00000090: 2dd8 7f3f 4d04 743f 7cb8 7e3f b9e3 823f
000000a0: ee26 763f 76f8 813f 5dea 783f 1a1e 813f
000000b0: 9865 823f aaf8 813f 6da8 813f b878 7a3f
000000c0: 3813 733f f14b 763f 7981 7d3f 4e01 803f
000000d0: be33 893f bb19 7d3f becf 703f b000 813f
000000e0: 1dfa 753f 0e0d 823f 73b6 7f3f b6c1 823f
000000f0: a4e7 713f 18b7 6f3f 1f5a 813f 2c91 7e3f
1.0526041 1.0099102 1.0035319 1.0109383 1.0173173 0.99821377 1.0108798 1.0730349
0.97818357 0.9728225 0.99376 0.9714735 1.0328743 0.98623335 0.9856787 1.0126905
1.0284032 1.0640723 0.9919294 1.006243 0.9941903 0.9711493 1.0412151 1.0443987
0.99921435 0.97449577 0.9946496 0.9474731 1.0231172 0.9753008 1.0106593 1.0239708
1.0068586 1.0099391 1.0203387 0.9939669 0.99939233 0.9531906 0.9950025 1.0225745
0.9615315 1.0153949 0.9723261 1.0087311 1.0187254 1.0154011 1.0129524 0.9784045
0.949512 0.9620963 0.99025685 1.0000398 1.0718915 0.98867387 0.9406699 1.0078335
0.9608477 1.0160234 0.9988777 1.0215366 0.9449408 0.93638754 1.0105628 0.99440265

actor.1.bias f4 [64]
00000000: 3833 503d 9f59 703c 5266 033d 7573 8dbc
00000010: 7d4a 163c e4a9 923c 15b0 853c 8641 d13c
00000020: 81c1 23bc 9fca bcbc bcbf 0ebd 34f2 183c
00000030: 5674 0f3d 6f71 a03b 9d68 02bc 3567 893d
00000040: 9bb1 a23c a05a 8d3d f091 083d 141b 423a
00000050: 5b5a f1bc 87e0 b73a 8f27 bfba 3925 e33b
00000060: 8ced b03b 9018 4bba 37b8 6abc 5bc9 61bc
00000070: 9448 933c eb10 9e3b 2b71 8bbc b69b b33c
00000080: 5041 f93c 8e34 5ebc 042f fb3c 1752 673c
00000090: f0b4 9239 3567 b2bb 32a8 d43c 555c a43c
000000a0: 4309 a6bc 809c 7a3b 6638 7a3b e532 9f3c
000000b0: 8a49 b9bc 35fa ea3b ba60 7ebb ec0a 083a
000000c0: e8ab e3bc ed1e 83b9 2552 293d cb9c 8f3c
000000d0: c98e 573c 1218 8d3c 855e d7ba 8c8e 4f3b
000000e0: 4cf5 0abd 3121 163c ef48 5ebc 3762 103d
000000f0: 88cb adbb 25ea 39bd e89a f33c 4da5 513d
0.050830096 0.014669805 0.032080002 -0.017266968 0.009173033 0.017903276 0.016319314 0.02554394
-0.009994865 -0.023045836 -0.03485082 0.0093350895 0.035023056 0.004896335 -0.007959512 0.06709138
0.01986008 0.06902051 0.0333423 0.00074045477 -0.02946203 0.0014028706 -0.0014583933 0.0069319275
0.0053994115 -0.00077474955 -0.014326147 -0.013780917 0.017978944 0.004823794 -0.017021736 0.021924835
0.030426651 -0.013562335 0.030662067 0.014118693 0.000279821 -0.005444432 0.025959108 0.020063559
-0.020268088 0.0038240254 0.0038180589 0.019433448 -0.022618074 0.0071709403 -0.0038814978 0.0005189616
-0.027791932 -0.0002500931 0.041338105 0.01753082 0.013156601 0.017223392 -0.0016431367 0.0031670658
-0.03392534 0.009163187 -0.013567193 0.035249915 -0.005303804 -0.045389313 0.029736951 0.051183034

actor.3.weight f4 [64, 64]
00000000: 61bb bfbd 846e 013e 1ef3 943d 324a aabd
00000010: 3160 763d 8028 233d cce4 e1bd f164 95bd
00000020: b1ec 94bd 2470 efbd 0a6d 68bc 89b0 4abb
00000030: 210d 303d 7891 f93c 8421 a4bd 2223 723b
00000040: 0ed2 47bd a09f 0cbd 231a 1a3d f227 213e
00000050: 45b5 a63d 1826 bd3b 4277 713c 81cd c1bd
00000060: 896c f33d b497 8a3d b1bf 33bd e12c 843d
00000070: 0fa5 923d 34e4 d7bd ce94 3fbd 17ca 123b
00000080: f613 4c3d d8b7 233d dc5d 913d 1167 cebd
00000090: 8953 a1bd f10e 5a3d 1420 d2bc 5c2a d83c
000000a0: 08fe db3d 2037 d93c 3892 bc3b df52 a5bd
000000b0: d7cd 573d b1cd bebd 9301 293b f7a9 b63d
000000c0: 5393 f8bd 39a0 373b 6189 b4bd 775e 19bd
000000d0: 76d6 16be a284 183e 6d85 a53d aad3 473d
000000e0: bff6 90bd c9a8 1e3d 4b71 9f3d 604b b4bd
000000f0: f55b 043e 00ec 23be 5287 92bc 5b87 f73c
00000100: 0627 7d3d a8e9 78bc 949c 51bd 454c 083e
00000110: f517 013c 9e51 3c3c 60c4 15bd 92b1 0f3d
00000120: 8803 9a3d 24f0 893d 1824 90bd 117e cbbd
00000130: c795 e8bd f728 bfbd 1124 a7bd 87c5 3b3d
00000140: 995d 8abd d110 173e d0b2 ca3d f369 13bd
00000150: abe3 c6bd 7e54 883d 8dfa 86bd d05d 1c3d
00000160: 2f22 bc3d 14d8 89bc e514 d4bd f8e0 943b
00000170: c441 74bb 1fdc c8bc d9b1 a7bd d385 a3bd
00000180: 9e7d e5bc d93d 853c 666a 853d 9aa0 9abd
00000190: b4e4 1a3d a11a 983d f3ec a1bc 7532 d23d
000001a0: 905a 9ebd 9cd7 1d3d 6431 fabd f084 e83d
000001b0: 32ea f23d 254d 66bd 76cf afbd 0f30 93bd
000001c0: 02a3 893d 9475 803d 51ab aebd 1f68 883b
000001d0: b44f 183e 2ce0 94bd d558 583d f413 983d
000001e0: cf78 443d 6ad8 383d f201 80bd 944c 88bb
000001f0: 4479 59bb 1752 0f3d 4506 55bd 6c92 d63d
00000200: 9221 0bbd a316 89bd 4b5c eb3d abd7 b83d
00000210: 6394 03bc 70d0 523d 6ee0 6438 7832 bf3d
00000220: 694e 923d b580 f7bb 4395 dabc 0efd 3cbb
00000230: b065 ffbd 7ef1 89bd f6e9 c23c 7da0 3bbc
00000240: 3d65 4e3d adab 74bd f23b 86bd f006 873d
00000250: d8c7 a0bd 44f8 c53d 222a dfbc 6756 c5bc
00000260: 0dcb 983d 7480 ef3c c014 693d c136 cfbb
00000270: ae38 c03b 35c9 74bd 73f7 c03d ed50 173c
00000280: 89b9 96bd 6a0c b93d 12d5 723c 918c 623d
00000290: 2937 153e b3ed f0bd 2c8a 01be 0947 643d
000002a0: 197b b7bc 8877 2dbd 418d c33d d62f 2dbd
000002b0: c8f6 7bbd b63f 673d 565a 08bc 155a 04bd
000002c0: d073 ab3d 63f8 8abd d7e1 0dbd fa01 313d
000002d0: a6f0 783d 5290 763b 67ee 353d 574d af3d
000002e0: 5a47 b93d 2612 3a3d 2a1f 853d 8bec de3d
000002f0: 8260 a53c 9203 9fbd 5a82 36bb cfac d73d
00000300: 81fe 9d3d 0344 5e3d f600 b6bd ec8f 773d
00000310: 16c3 88bc 328a 683d 016a 9dbd d5e3 4abd
00000320: 6656 bfbc 3390 4cbd 850f bebd 1d85 22bd
00000330: 3002 f13d a86a 88bb 5618 633d e8d0 8d3d
00000340: 296d ad3d 7766 19bd 299f d0bd b7ed e1bd
00000350: 953c 56bd 2047 093c f92e 64bd 344d 043d
00000360: 8c7c 933d b72d 1bbd e83a f63d 0a0d dbbd
00000370: 227a e43d b3aa 033e 0838 dfba 3a69 9d3d
00000380: 2145 f1bc b55a e4bd 4730 21bd 4d9c e93c
00000390: 9b5b 013d 676a 033d 65f6 243c 512f ef38
000003a0: cf73 69bd 7856 8ebd e147 133d 3149 dabd
000003b0: 27b3 953d ddc9 fcbd eb5d 3d3d d839 c53d
000003c0: 5af7 9a3d 71b4 7d3d adb2 16bd fe0b b83d
000003d0: f1cb dd3d 2318 00bd 2bf9 003e 44ff d8bd
000003e0: 7c92 143d 2df7 a0bd fa46 87bd d834 04be
000003f0: d7fb bd3d 3ef2 cf3d 5c9a d33c 1f89 f3bd
-0.093619116 0.12639815 0.072729334 -0.08314933 0.06015033 0.039833546 -0.11029968 -0.07294644
-0.07271708 -0.11691311 -0.014186153 -0.0030927977 0.04298127 0.030464873 -0.08014205 0.003694721
-0.048784308 -0.034331918 0.037622582 0.15737894 0.08140043 0.0057723634 0.014737906 -0.09463025
0.11885936 0.06767216 -0.043883983 0.064538725 0.07160389 -0.10541573 -0.04677277 0.0022398287
0.049823724 0.03997025 0.070979804 -0.10078252 -0.07877261 0.053236905 -0.025650062 0.026387386
0.10741812 0.026515543 0.0057547353 -0.08072447 0.05268654 -0.09316576 0.0025788292 0.08919137
-0.12137475 0.0028019084 -0.088152654 -0.037443604 -0.14730248 0.14894345 0.080820896 0.048785843
-0.07078313 0.038735185 0.07785281 -0.08803439 0.12925704 -0.16007996 -0.017886791 0.03021591
0.061804794 -0.015192427 -0.051174715 0.13310345 0.007879247 0.011494068 -0.03656423 0.035081454
0.07520205 0.06735256 -0.07038134 -0.09936155 -0.11356693 -0.09333985 -0.08161176 0.045842674
-0.067561336 0.14752509 0.09897387 -0.035989713 -0.09711393 0.066567406 -0.065907575 0.038175404
0.091862075 -0.016826667 -0.10355548 0.00454342 -0.0037270645 -0.024519024 -0.081882186 -0.07984509
-0.028014 0.016264843 0.065144345 -0.075501636 0.037815765 0.07426954 -0.019766307 0.1026353
-0.07732117 0.0385357 -0.12216452 0.11353481 0.118610755 -0.056225915 -0.08584492 -0.07186901
0.067205444 0.06272426 -0.0852877 0.004162803 0.14874154 -0.0726932 0.05281909 0.07425681
0.047966775 0.045128264 -0.06250371 -0.0041595194 -0.0033183852 0.034990396 -0.052007932 0.104771465
-0.033967562 -0.06693771 0.11492213 0.090255104 -0.008030984 0.051468313 5.4568452e-05 0.09335798
0.07143862 -0.007553185 -0.026682502 -0.0028837356 -0.12470567 -0.06735514 0.023793202 -0.011451838
0.050389517 -0.059734035 -0.065544024 0.0659312 -0.07850617 0.096664935 -0.02724177 -0.024089051
0.07460604 0.029236056 0.056904554 -0.006323666 0.0058661317 -0.0597622 0.09422197 0.009235603
-0.07359607 0.09035571 0.014821308 0.055309836 0.14571823 -0.117640875 -0.12650365 0.055731807
-0.022397565 -0.042350322 0.095484264 -0.042281948 -0.061514646 0.056457244 -0.008322319 -0.03231247
0.08371699 -0.06785657 -0.034639206 0.043214776 0.060776375 0.0037622643 0.04441681 0.08559673
0.09046812 0.045427464 0.06500085 0.10884961 0.02018762 -0.07764353 -0.0027848692 0.105310075
0.077145584 0.05426408 -0.08886902 0.06043999 -0.016694587 0.05677242 -0.07686234 -0.049533684
-0.023356628 -0.049942207 -0.09280304 -0.039677728 0.11767995 -0.004163105 0.05544313 0.06924611
0.08468086 -0.037451234 -0.101866074 -0.11031669 -0.05230387 0.008378774 -0.05570886 0.03230019
0.0720149 -0.037885394 0.12022954 -0.106958464 0.111561075 0.12858085 -0.0017030248 0.07686086
-0.029451909 -0.111501135 -0.03935268 0.028516913 0.031581502 0.032083895 0.010068511 0.000114052214
-0.05699521 -0.06950086 0.03595722 -0.106584914 0.07309561 -0.1234319 0.046232145 0.096301734
0.0756671 0.06193966 -0.036791492 0.08986662 0.10829914 -0.03127302 0.1259505 -0.10595563
0.03627251 -0.07859645 -0.066053346 -0.12910783 0.0927655 0.10153626 0.02583044 -0.11891388

actor.3.bias f4 [64]
00000000: 2ac3 643d f237 db3d a9cf 17bc 5c90 4e3d
00000010: cc92 90bd 494e b83c 5422 cebd 1847 3cbd
00000020: 4468 433d 6887 e3bd 6b69 383d cd5b 903d
00000030: 18b8 a8bd 5571 c63d f1ae fdba ca0a a5bd
00000040: 44da 8fbd 4491 753d a73d 33bd 8a9e cebd
00000050: 7eee 4a3d 8979 d83a ad80 f0bd 76ac 72bd
00000060: 1eb7 853d 5b51 f5bc 9bdc 00be 8845 edbc
00000070: c0ec 783d 765c 53bd c109 573c 0b0b 7dbc
00000080: bd25 653d 96d9 fb3d f079 043e 8aa7 843d
00000090: e04c 78bc c005 9dbd 4b6f 68bc a773 f8bb
000000a0: 00e6 ef3c e777 983d ce0b e43d f7df a63d
000000b0: f542 41bc b348 063d 0935 e6bd c068 2f3c
000000c0: 3e46 86bc 4e4e b43d 6e32 e33c c90e 9fbd
000000d0: 4809 3c3d 2bd0 adbc 9bfe 8fbd 594e b33d
000000e0: 8a4c c83d 1f9b 9d3d e72b 9ebd 1ec8 e53d
000000f0: 685d 89bd f76b 8e3d bd79 70bc 6ed4 cfbd
0.055850185 0.1070403 -0.009265819 0.05043064 -0.07059249 0.022498267 -0.10065141 -0.045966238
0.047706857 -0.11109811 0.04502241 0.070487596 -0.08238238 0.09689585 -0.0019354505 -0.080586985
-0.07024053 0.05995299 -0.043759968 -0.10088833 0.04954385 0.0016515712 -0.11743293 -0.059246503
0.065290675 -0.02994602 -0.12584154 -0.02896382 0.060772657 -0.05160185 0.013124884 -0.015444527
0.055944193 0.122973606 0.1293714 0.06477268 -0.015155047 -0.07667112 -0.014186691 -0.007582146
0.029284477 0.074447446 0.11135064 0.08148187 -0.011795749 0.032784175 -0.112405844 0.010706127
-0.016390916 0.08803998 0.027734008 -0.07766492 0.04590729 -0.021217426 -0.07030984 0.08755178
0.09780224 0.076956026 -0.077232175 0.1121981 -0.06707269 0.069541864 -0.014677462 -0.101479396

actor.4.weight f4 [64]
00000000: ab1f 8f3f a9cb 903f 2aee 8f3f 74f8 8a3f
00000010: 5913 8a3f 3134 843f c708 813f 9934 963f
00000020: c67a 883f dc36 8c3f dd8b 873f cc55 8a3f
00000030: bedd 8e3f 61c6 923f c1a1 963f f971 9b3f
00000040: 3964 8b3f f63d 983f ee21 933f af95 973f
00000050: 27a1 8c3f 9934 9c3f 6b80 8c3f ede9 903f
00000060: 49ce 913f 2f65 893f 5270 893f 99fe 823f
00000070: a282 9c3f deb1 9c3f 24b5 a33f 2b52 963f
00000080: adad 8e3f 0da6 8e3f 6ec0 8a3f e1bf 963f
00000090: f915 9a3f 80cd 803f 3f83 833f ddec 8c3f
000000a0: 0719 853f 9c11 933f 4316 983f 9b1b 9e3f
000000b0: e7d1 8c3f ec9f 913f 37db 8b3f 7cdc 8c3f
000000c0: 0b95 963f 0a55 803f 3b52 843f d302 973f
000000d0: 09e6 903f ab03 8c3f ddf6 8b3f 9f28 823f
000000e0: ad33 943f 2d7b 883f f369 7e3f 9e9e 8b3f
000000f0: 3ed6 923f 62e0 893f 9b92 a03f 5ad9 903f
1.1181539 1.1312152 1.1244557 1.0857072 1.0787154 1.0328428 1.0080804 1.1734802
1.0662467 1.0954242 1.0589558 1.0807433 1.116142 1.146679 1.1768113 1.2144157
1.088996 1.1893909 1.149473 1.1842555 1.098668 1.2203552 1.097669 1.1321388
1.1391078 1.0734004 1.0737402 1.0233947 1.2227366 1.2241781 1.2789655 1.1743826
1.1146752 1.1144425 1.0839975 1.1777307 1.2037956 1.0062714 1.0274428 1.1009785
1.0398263 1.1489749 1.1881794 1.2352175 1.1001557 1.1376929 1.0926274 1.1004786
1.1764234 1.0025952 1.0337595 1.1797737 1.1320201 1.0938619 1.0934712 1.0168647
1.157827 1.066259 0.99380416 1.0907781 1.1471632 1.0771601 1.254474 1.131633

actor.4.bias f4 [64]
00000000: b35b 393d 6c9c 573d 34c5 5c3d afc3 943d
00000010: 30f6 033d 555e bd3c 340c 8c3b 2a1d 923d
00000020: 8731 623d eedc 5f3d bc7d 0b3d 4625 623d
00000030: fe49 293d 6028 9f3d daaa 903d de31 a13d
00000040: 06f0 913d 58bd c53d f2a6 c53d 5ecd cd3d
00000050: 95e9 b23d 3d80 c03d 9a20 633d 41cf 803d
00000060: a7a6 9f3d 0ff5 3c3d f53c 673d 9f34 c13c
00000070: 6e7d 803d 65de 7e3d d881 163e 00ec 8a3d
00000080: 248c a23d 83f7 2f3d 78bf 953d 8b01 ad3d
00000090: c7f1 c13d 4c52 6c3c 5e49 323d e459 8b3d
000000a0: ceb5 d33c 72d6 953d 86a0 a43d 0ffb e33d
000000b0: e56f 653d fa77 ff3d eaf6 a93d 7294 723d
000000c0: 4484 a83d 4f71 2a3c 756a 103d 34f3 e13c
000000d0: 45a3 953d ff16 823d 07dc 6f3d 6a6c d43c
000000e0: c217 b93d e723 f03c 14da 9c3b 8df6 8d3d
000000f0: 6392 a93d e945 733d 514d ce3d bc85 843d
0.045253467 0.05263941 0.053899005 0.07263886 0.032217205 0.02311627 0.0042739157 0.07134469
0.055223014 0.054654054 0.034055457 0.055211328 0.04133033 0.07771373 0.07063837 0.078708395
0.07125859 0.09655255 0.09650983 0.10048936 0.087359585 0.093994595 0.055451013 0.062895305
0.07795458 0.046132144 0.056454618 0.023584662 0.06273924 0.06222381 0.14697969 0.06783295
0.07936886 0.042960655 0.073119104 0.0844756 0.094699435 0.014423918 0.043527 0.06804255
0.025843527 0.07316293 0.0803843 0.1113187 0.056014914 0.124740556 0.08299048 0.0592236
0.08228353 0.010402991 0.035257775 0.027581789 0.07306532 0.063520424 0.058559444 0.025930602
0.090377346 0.029313995 0.004786739 0.069317915 0.08279874 0.059392843 0.10073341 0.0647082

actor.6.weight f4 [2, 64]
00000000: 1da9 b6bd 28de 5f3e a3c3 ab3d d95e 003d
00000010: bbf7 e53d 6578 c5bd 0a6e 933d edd7 1abe
00000020: 985a c9bd 3127 3dbe 7e1f e7bd 5d10 39be
00000030: 2983 4e3e ab06 59be f87f 66be a722 a33e
00000040: 6f61 393e b15c fdbc 80fa c03d 0259 58bd
00000050: 90c1 eabd 9d8c 5c3e 0e42 33be 3615 f13d
00000060: a24a 373e 96a6 193e c3f5 073d 88f1 6e3c
00000070: 23f3 6d3e d6d8 50be 0736 1c3e 5e39 6bbe
00000080: f8c7 62bd 0604 f9bd 5db5 9d3c 1ec6 503e
00000090: a0d2 6d3e 99db d4bd ae8d 223d 69c9 1f3d
000000a0: 4d30 5dbd 724a 4a3e 5a7a 643e 3be4 1ebe
000000b0: 6c76 a93c 68a9 e33c a513 58bd 9d70 403e
000000c0: 5388 673e 04fa 3c3d 947f bc3d 52b7 6c3e
000000d0: 3ee3 463d e8f6 17be c7f3 e1bd 1ad2 103e
000000e0: c901 65be 5447 ba3c 128e d93d 5364 1c3e
000000f0: 4433 30be de57 30be dbfa 8dbe 985e 123d
00000100: e36a 15be 67ed 0c3e 87c7 1e3e a737 21be
00000110: f859 f13d fd2f bb3c fdb4 15bd 7a6e 28be
00000120: 3118 e33d dd9a 63bc 959b 123e 7c09 613d
00000130: 3ccc dbbd d60b 42be 5eff d1bd 3edd 7dbc
00000140: ffed bfbd 02f4 4c3e c490 4ebe c0f0 2abe
00000150: b1a8 8fbd 3744 e4bc de42 99bd 2b65 363e
00000160: 7f2c 4f3e 8eaa 093e 05d8 27be e766 be3d
00000170: 0129 95bd 979d a1be 7c6c 54be 4213 3fbe
00000180: fa9a 363e 6a7b 98bd 34fc 0abe 91b0 8c3e
00000190: f100 483e c85f ce3d 2aa9 aebd 36d2 37be
000001a0: f769 163d b2b2 23bb d39f 683e 9eac 82be
000001b0: 64a5 553e 5d9d 01be 95b7 0ebe 5293 af3d
000001c0: d285 493e 723f 663c f46d 88bd 7323 8c3e
000001d0: 49e1 68be 5d9e ccbc 3340 d93d 71b0 e4bd
000001e0: 70df 0bbe 68ed f2bd 42f9 b9bd c7cf c33d
000001f0: 830b c2bd 2aab b33d e4fa 2bbe 8ebc 7b3e
-0.089189745 0.2186209 0.08386924 0.031340454 0.112288915 -0.09642104 0.07198723 -0.15121432
-0.098317325 -0.18471982 -0.112853035 -0.18072648 0.20167221 -0.2119395 -0.22509754 0.31862375
0.18103574 -0.030927988 0.09422779 -0.05281926 -0.114627 0.21538015 -0.17505667 0.11771624
0.17899564 0.15004954 0.03319336 0.014583953 0.2323728 -0.20395216 0.15254985 -0.22971103
-0.055366486 -0.121589705 0.01925152 0.20388076 0.23224878 -0.103934474 0.039685898 0.03901044
-0.05400114 0.19754961 0.22312298 -0.1551675 0.02068635 0.02779074 -0.05275311 0.18792959
0.22610597 0.04613687 0.09204021 0.23116806 0.04855656 -0.14840281 -0.11032825 0.14142647
-0.22363962 0.02273909 0.10622801 0.15272646 -0.17207056 -0.17221019 -0.2773045 0.035734743
-0.14591555 0.13762437 0.15505801 -0.15743886 0.11784738 0.022850031 -0.036549557 -0.16448393
0.110885985 -0.013891903 0.14317162 0.054940686 -0.10732314 -0.18949828 -0.102537856 -0.015494643
-0.09371566 0.20014957 -0.20172411 -0.16693401 -0.07014597 -0.027864559 -0.07483457 0.1781203
0.20231818 0.13443968 -0.16390999 0.09296971 -0.072832115 -0.31565544 -0.20744509 -0.1865969
0.17832556 -0.07445414 -0.1357277 0.2747846 0.19531609 0.100768626 -0.08528359 -0.17951283
0.03672215 -0.0024978337 0.22717218 -0.2552232 0.20863873 -0.12657686 -0.13937218 0.08573021
0.19679955 0.0140532125 -0.06661597 0.27370796 -0.2274219 -0.024977857 0.10607948 -0.11166466
-0.13659453 -0.11861688 -0.09080745 0.09561115 -0.09474852 0.08772881 -0.16794926 0.24583647

actor.6.bias f4 [2]
00000000: ce8d 7bbc d89c a03c
-0.015353633 0.019606039

critic.0.weight f4 [64, 29]
00000000: 7c4e 1abe 8426 553d b181 13be 5698 f0bc
00000010: 09e1 dcbb f4dd 7dbd 2027 d43b c8e8 493e
00000020: dcba 303d cfeb d7bc ebc9 7c3d 2226 063d
00000030: 7795 87bd 8f7d e63d de66 9ebc 7dcc 80bd
00000040: 9e3b e7bc f252 49bc 77e1 d33c a197 21bc
00000050: 8ff7 5cbc 603f d93d 7840 85bd 9c0c ce3d
00000060: fca5 79be 3e5e 86bd 6268 9cbc 3bc0 0b3e
00000070: 0f09 ffbd d32c 5fbd 9525 eebc ce0d d93d
00000080: 3798 20bd fc9c 21be ee6e 073e ea41 09be
00000090: 5d8f 3cbe f02f 26bc 8ab7 d4bc d822 fe3c
000000a0: 0381 c93d 20b3 9e3d 26fd 1c3d caaf 443d
000000b0: 3441 8ebd ae31 d03d c0fb 44bb 673b 003e
000000c0: 0a23 65be f975 533d 25db 6b3d 1ccc cdbd
000000d0: 8edd 98bc 9073 9dbc 255c a0bd fbdc c13d
000000e0: 29c5 e33d 770f 2e3e ea8a af3c 3021 753d
000000f0: b676 73bc 64a2 d3bb f0e7 043c 62e7 4c3d
00000100: 995c 22be a785 1ebe ca95 1f3c 899b bc3c
00000110: 180a 723c 60c8 933d e6ea d83c fc70 493c
00000120: 0f5b 083d 0087 58bc 47fb 143d 0c65 e83b
00000130: 0f64 efbc 6df9 8ebc bde6 ae3d ce68 edbc
00000140: 40e6 453e 7b5e dabd 9bc4 9d3e 2e40 493c
00000150: 3d18 d63b e998 a23b c7ad 75bb 13cd a0bd
00000160: ce7f 453d 1a8c 0cbe f5fc f3bc 1006 ad3d
00000170: 9390 ffbd 1729 f93d 6b0d e83d 3f2b bf3b
00000180: 83de 33bc 5d40 3abd 5420 98bc 9b65 e43b
00000190: 0b7c 78bd 6847 0c3c f4b4 d23c 1004 f9bd
000001a0: b5c5 87bd 2014 91bd 25a0 ca3d e1e9 0d3e
000001b0: 5ece a93d 498c 37bd 1463 583b 45d3 c13d
000001c0: 145d 583d 4d03 c63d 1d4d 09be 735c c4bd
000001d0: b7ac 563d 4f25 b93c 334b a33d a830 84bc
000001e0: bead 56bd 4286 9b3d 9483 4ebe 7007 02be
000001f0: c80a 32bd c89c a03c ceab 38bd f61a 8f3c
00000200: 2ffe bb3d 7144 16bd d302 713d edd1 453c
00000210: a32d 96bd 1270 24ba cc57 c2bd 2840 0e3e
00000220: 99c0 d43d bc31 edbd 3828 f13d a286 17be
00000230: 0192 b33c b1d5 b03c c8dc 2ebe 3872 0dbb
00000240: 3fe7 49bd 08ff b23d 4689 003d 1d63 053e
00000250: f5c0 dab9 0d8d 0cbe 3a88 babd 0c54 ea3d
00000260: f79a 273e 0a72 363d 9352 03bd 0e11 e8bb
00000270: 4003 b6bc 3ec6 8cbb 765c 8cbc d37c 073b
00000280: fdde debc ce77 67bc 1877 3a3e c752 c03b
00000290: af24 a73d 4f2d 29bd 280e 13bd c825 aebc
000002a0: 9ba0 bebd d9de 8b3d fcb1 353e 4712 8a3e
000002b0: 8e56 91bd 6baa 1dbe 636c aa3c cc66 8bbd
000002c0: 04f4 95bc 2cf2 e7bb 7450 9c3d 8b7e 43bd
000002d0: b782 9c3d cc0c 913d b2c3 0bbc 9628 4abd
000002e0: 4384 883c 3708 51bd 63a3 833d b3fa adbc
000002f0: a09f fc3c 147d 8b3b ec03 a3bd bf05 053b
00000300: 1773 27bc dfe6 95bc 2985 7cbd 531f 103e
00000310: 09e1 823c fb4d ef3d 27fa 96bc b40a d4bd
00000320: a492 893e 5750 a53d e9e8 31bd a1ec a4bd
00000330: 08ef 90bd 97fc 70bd 56aa 583c e85f 0dbe
00000340: 3fa2 f03d 3dd8 d13d cac2 65bd d147 423c
00000350: 69db 9fbd ec1f db3c 81b2 c5bd b90a 113d
00000360: 86f5 b9bc 9e94 2e3c cb90 00bc 41ec b93d
00000370: 00ae 3cbe 62d7 d73d 4dcc 0c3e bc4b fd3d
00000380: 85c9 e63d 99e2 9b3d 5971 c93d 599b 41bc
00000390: 5c3f babd 5227 12bd fff8 1b3e 51ca df3d
000003a0: c673 113d 6ce3 da3c 2b89 0cbe 57d3 67bc
000003b0: 80f6 1b3d e76d d23d 0b56 033d f3e2 a73d
000003c0: 9078 8abd 2f8a 5a3d 683e de3b 8c57 babc
000003d0: b9d3 863d 06aa 253d e594 0d3d 3ead 5ebc
000003e0: 238f c53b 1a54 2cbc ac01 81bd 6985 16be
000003f0: a929 fd3d cb54 053e 81bd f13d 6c64 253c
-0.15069002 0.052038684 -0.14404942 -0.029369514 -0.0067406935 -0.06197925 0.0064743906 0.19717705
0.043146953 -0.02635756 0.061716 0.03275121 -0.06620305 0.11254417 -0.01933616 -0.06289003
-0.02822667 -0.012287842 0.025864346 -0.009862811 -0.013486757 0.10607791 -0.06506437 0.10060999
-0.24379724 -0.06560944 -0.019092742 0.13647549 -0.124529 -0.054486107 -0.029070655 0.10598336
-0.039207663 -0.15782541 0.1322591 -0.1340405 -0.18414064 -0.010143265 -0.025966424 0.031022474
0.0983906 0.07749009 0.03832736 0.048019208 -0.0694603 0.10165726 -0.0030057281 0.1252266
-0.22376648 0.05162618 0.05758204 -0.100486964 -0.018660333 -0.019220144 -0.07830075 0.09465977
0.1112159 0.16998087 0.021428544 0.059846103 -0.014859846 -0.0064585675 0.008111939 0.05002535
-0.15855636 -0.15480672 0.009740302 0.023023384 0.014772914 0.07215953 0.026479196 0.012295004
0.033289965 -0.01321578 0.03637245 0.007092124 -0.029222516 -0.01745292 0.085401036 -0.028980639
0.19326115 -0.10662552 0.3081406 0.012283368 0.006533651 0.004962076 -0.0037487613 -0.07851615
0.048217587 -0.1372532 -0.029783705 0.08448422 -0.12478747 0.121660404 0.11330684 0.0058340128
-0.010978344 -0.045471538 -0.018570103 0.00697012 -0.06066517 0.008561946 0.02572105 -0.12158978
-0.066295065 -0.07083917 0.098938264 0.13858749 0.082913145 -0.04481152 0.003301804 0.094641246
0.05282314 0.09668598 -0.13408323 -0.09587946 0.052410807 0.022600798 0.079733275 -0.016136482
-0.052411787 0.07593967 -0.2016738 -0.1269815 -0.043467313 0.01960601 -0.04508572 0.01746891
0.09179341 -0.036686365 0.058840584 0.012073976 -0.07332923 -0.00062728033 -0.09489402 0.13891661
0.103882976 -0.11581752 0.11775249 -0.14797452 0.021920206 0.021586271 -0.17076409 -0.0021582972
-0.0492928 0.087400496 0.031380914 0.1302609 -0.00041723964 -0.13725682 -0.091080144 0.11441812
0.16367708 0.04454235 -0.03206117 -0.007082111 -0.022218347 -0.0042960932 -0.017133933 0.0020673766
-0.027205938 -0.014127685 0.18209493 0.005869243 0.08161294 -0.041302975 -0.035902172 -0.02125825
-0.09307977 0.06829614 0.17743677 0.2696707 -0.07096587 -0.1539704 0.020803636 -0.06806716
-0.018304832 -0.0070784297 0.07632533 -0.047728103 0.076421194 0.07082519 -0.008530544 -0.049355112
0.01666463 -0.051033225 0.06427648 -0.021237707 0.030837834 0.004256854 -0.079597324 0.0020297614
-0.010220311 -0.018298564 -0.06165043 0.14074449 0.015976446 0.116847955 -0.018429829 -0.10353604
0.2686969 0.08071964 -0.04343501 -0.08052946 -0.070768416 -0.05883464 0.013224205 -0.13806117
0.11749696 0.10246322 -0.05609397 0.011857943 -0.07805521 0.02674862 -0.096531875 0.035410617
-0.022700083 0.01065555 -0.007847021 0.09078265 -0.1842575 0.10539128 0.1374981 0.12367961
0.112689056 0.076115794 0.098360725 -0.011816823 -0.09094116 -0.03568203 0.15231703 0.10927261
0.0355108 0.026719771 -0.137242 -0.014149508 0.038076878 0.102748685 0.03206448 0.08197584
-0.06761277 0.05335444 0.0067823417 -0.022746824 0.06583352 0.04044535 0.034565825 -0.013591109
0.006029026 -0.010518098 -0.06299147 -0.1469933 0.12361462 0.13020627 0.11803723 0.010094743

critic.0.bias f4 [64]
00000000: 28be 9a3e c7c1 f4bd 4d07 f9be 2ceb a03d
00000010: 6ce4 8c3e a508 0dbe dc59 763d e21f ef3d
00000020: 6bc3 303e fe95 163e 436c febd 3c92 753e
00000030: f09b 1f3c 4e23 61be 3eb0 313e b2b8 eabd
00000040: 1987 acbe e119 8b3e 2b4e c93d cf6d 4c3d
00000050: f643 823e e512 7fbe d63d 0ebe a233 913e
00000060: 7040 513e 1210 d8bd f136 a43d 1e0f 903d
00000070: b151 d23d 2c80 6c3d 218d 12be 1fb9 183e
00000080: 94b8 893e f322 adbd b55f aabd ed63 b63d
00000090: b06c 38be 7587 63bd e0a4 8dbe e9f1 ca3d
000000a0: d7d7 5ebe cf38 5cbe 8a43 8e3e 35b9 14be
000000b0: 6237 fa3d 67cd 0e3e a3d7 4ebe d73d 75be
000000c0: ba50 e2be 9521 3fbe cb37 3abe 17d4 e73d
000000d0: 9339 14be b67e fc3a b1aa 183e 33c2 95bd
000000e0: 0445 233d ce96 133e cc25 4fbe 88c9 013e
000000f0: 96fc 093e fd41 983d c4d1 543e af8f 81be
0.30223203 -0.119510226 -0.48638383 0.078573555 0.27518022 -0.13772829 0.06014429 0.11676003
0.17262046 0.14705655 -0.12422993 0.23981565 0.009741768 -0.21986124 0.17352387 -0.11461009
-0.3369682 0.27168182 0.098293625 0.04990941 0.25442475 -0.24909551 -0.13890776 0.28359705
0.20434737 -0.1054994 0.08018292 0.070341334 0.10269488 0.05773942 -0.14311649 0.14914368
0.26898634 -0.08453932 -0.08319036 0.08905778 -0.18010211 -0.055549104 -0.27664852 0.09909422
-0.21762024 -0.21506046 0.27785903 -0.14523776 0.12217595 0.13945542 -0.20199446 -0.23949371
-0.44202214 -0.18665154 -0.18185346 0.1131975 -0.14475088 0.0019263837 0.14908864 -0.07312431
0.03986074 0.14412996 -0.20229262 0.12674534 0.1347526 0.07434461 0.20783144 -0.25304934

critic.1.weight f4 [64]
00000000: 0a62 893f 568e 6e3f 1ed0 933f 492d 773f
00000010: e492 863f fc05 803f 192c 7f3f 0026 6b3f
00000020: 165c 6b3f 6d05 813f 06d7 813f 749c 853f
00000030: 64fa 7f3f e8ce 6e3f 9e80 7a3f 203b 6b3f
00000040: 0c8c 903f 62cc 853f 79f4 7e3f 96f9 7e3f
00000050: c0fc 8a3f 3a27 833f 8df3 693f f838 8d3f
00000060: 4858 753f 8705 883f f099 763f abdc 723f
00000070: 62cc 843f d1c9 733f 561c 7b3f c50b 753f
00000080: e7fa 833f 3d4f 743f e57e 863f 49c8 733f
00000090: 877b 823f 3adc 823f 47c9 7a3f 2ffd 863f
000000a0: 9238 843f bee4 703f 8986 863f b683 7c3f
000000b0: 4cb2 693f 7b4c 893f f666 823f 53b6 7d3f
000000c0: aa8d 8d3f fd15 7d3f 3e9a 833f 141e 723f
000000d0: 4bab 753f fb7d 753f 940f 7f3f d843 883f
000000e0: 32e9 683f 1bb5 833f 4b9c 833f a135 793f
000000f0: bb22 883f 3997 843f ddce 873f f15a 863f
1.0733044 0.9318594 1.1547887 0.96553475 1.0513577 1.0001826 0.9967666 0.9185486
0.91937387 1.0079781 1.0143745 1.0438371 0.9999144 0.93284464 0.97852504 0.9188709
1.1292739 1.0452998 0.99591786 0.9959959 1.0858383 1.0246346 0.91387254 1.103301
0.9583783 1.0626687 0.9632864 0.9486796 1.0374873 0.9522982 0.9809011 0.95721084
1.0310944 0.9543341 1.0507475 0.95227486 1.0193948 1.0223458 0.97963375 1.0546016
1.0329764 0.9409903 1.0509807 0.98638475 0.91287684 1.0726465 1.0187671 0.9910633
1.1058857 0.98861676 1.0281446 0.94577146 0.959645 0.95895356 0.99633145 1.0645704
0.9098083 1.0289644 1.0282072 0.97347456 1.0635599 1.035865 1.0610005 1.0496503

critic.1.bias f4 [64]
00000000: 03cd 903d 41a3 fa3b 65a5 73bc ef5e adbc
00000010: 84d2 803c e81f 14bd 4c4c 3cbc 9279 893b
00000020: c49f 3cbd 8b71 3fbc e53d 343c f7bd 7c3d
00000030: 0c76 303b c6ca abbd 7803 573c b7c8 33bd
00000040: 6bd7 4f3d cff3 253d f110 3f3d 5485 133d
00000050: 6f29 843d bfc3 22bb cb6a 473c 20b3 603d
00000060: 2d2e 9a3c 4529 7b3d 1b33 a63c cf0a 2bbd
00000070: b72b 733c 2ff2 6cbd 519c e4bc 8f55 763d
00000080: 67f8 8b3d 6d1e 363c e72d 833d cdb2 3bbd
00000090: 2996 d33c fc7f d33c 4474 2b3c a2be 383c
000000a0: a3af 9d3d 9241 9bbd 9cd2 9e3c fa28 693d
000000b0: 08ac 50bc a031 5dbd cae4 48bc 5531 983d
000000c0: 8dc7 11bd 0c7e bebc 74a4 da3d e5fd 943c
000000d0: 7975 983c 2c50 7a3c beef 283d e854 093e
000000e0: fd67 883c 89ec 4e3d dbee 653d be0a 00bd
000000f0: 99d4 1f3d 6c25 8e3c c5ee 0a3e bf5b 55bb
0.07070353 0.007648856 -0.014870976 -0.021163432 0.015725382 -0.03616324 -0.0114928 0.0041954005
-0.046050802 -0.011684786 0.011001085 0.061704602 0.002692583 -0.08388285 0.013123386 -0.04389259
0.050742548 0.040515717 0.046647016 0.036015823 0.06453215 -0.0024835912 0.0121714575 0.054858327
0.018820846 0.061318655 0.02028804 -0.041758355 0.014841965 -0.05784815 -0.027906569 0.06014019
0.06834488 0.0111156525 0.064052396 -0.045824815 0.025828438 0.025817864 0.010464732 0.011275919
0.07699516 -0.07580866 0.019387536 0.056923844 -0.012736328 -0.054002404 -0.012261579 0.07431284
-0.035590697 -0.023253463 0.10675898 0.018187473 0.018610703 0.0152779035 0.04124426 0.13411295
0.016651148 0.050518546 0.056135993 -0.031260245 0.03902111 0.017351829 0.13567646 -0.0032555906

critic.3.weight f4 [64, 64]
00000000: ba16 e03d 3d94 2c3d b25e f4bd fbbe 533d
00000010: 54fd 083e 6c70 0abd f12c 7ebc e251 133c
00000020: 8651 bd3d 1543 cf3d 86fc d1bd 6cf2 d3bc
00000030: 8cd3 72bd ebef e7bd e6cf fb3d 1a26 4ebd
00000040: 4d76 30bd ded1 08bc 83fc 953d fd3a 9f3d
00000050: 50d2 ae3c e035 a3bd 7bed 28bd 06cb 1e3d
00000060: 885e 093d e47d 4bbc a0ba e13d 95cc c33d
00000070: 73e0 5c3d 624b 69bc 6cb7 c9bd 7292 283d
00000080: 1a23 ef3d 9ec8 d5bc 9fe0 d4bc d861 263d
00000090: 2dbe d3bd 43ce 1b3d 2711 0abb 4b3a 9d3c
000000a0: 9842 933c 9537 bfbd c6d8 203e 80c2 5a3c
000000b0: 934b 2a3e 6304 7f3d 7571 abbd 65e1 6ebd
000000c0: 5e96 833d b383 2abb ffd7 88bd 0717 5bbd
000000d0: 2857 173d 43fd afbc 131d 213d a502 f1bd
000000e0: e366 313d e5eb 123e 1adc cfbd 26ad 073e
000000f0: 7a8c db3d 6322 adbb c054 a5bd aeb6 91bd
00000100: a407 1fbe 8f39 883d 4b48 0cbe 9328 b0bd
00000110: 135f b33c 6bf6 043e ef67 fabd 8ba1 73bd
00000120: 21af 4c3d 9825 213d d200 d33d ad75 75bd
00000130: 010a fb3d b628 f33c e76b c43c 1361 af3d
00000140: 6107 723e 8b93 05bd 49a6 aa3d f4d2 f23d
00000150: 621e a53d 1bfd f43c 5bd6 0d3e dae2 34be
00000160: 5889 62bd 3050 ac3d fc12 04bb 3194 e43c
00000170: aaf1 74bd 8c63 973c 7506 4d3e 6de1 21bc
00000180: 5dcc 1abe 0946 31be 44e6 4dbc 6249 c4bb
00000190: db62 8f3d 56f5 733c 12a0 d53d faa5 ae3b
000001a0: 24da 71bd f641 fc3d a96b 893d 4f34 b3bc
000001b0: 0cc5 52bd 61ef eebd 8edd 243d 2de9 08be
000001c0: 409c 3e3e 11bf 93ba f38b 04be 487e aabc
000001d0: 9e8f 393c 70a7 983d b61b 3ebd 987c a33d
000001e0: 7eb3 08be 66b3 b2bc ebbd 613d 24b7 963d
000001f0: ee56 e2bd 0cee 28be 4718 e0bc 7c32 873d
00000200: 55c7 153e 6b27 0f3d 5c44 fbbd 47fe 9a3d
00000210: 313d 263d 0af8 dd3c c8f6 3bbd abc8 af3c
00000220: 2c70 8cbd 428c 513d 0c84 54bc 8f2e 763d
00000230: b94a 06bc ee75 4ab9 8919 80bc e554 d8bb
00000240: 3e89 aabc 105b c13d 6e25 cd3d ccd8 4bbd
00000250: 4f7a 4f3d 1145 f1bb 0520 3fbd daa9 a93d
00000260: b2aa e23d 2e8e afbd 58c7 0c3d c297 19bd
00000270: 4ca9 ff3d d2e9 4fbd c5ce e6bc 4e98 71bd
00000280: 903d f93d 50fc 0dbd 8a8c 9ebd 0a4a e83d
00000290: 1f29 98bd 7977 9cbd ab0f 3ebb 1be5 793d
000002a0: 5f69 823d 6cef cc3d b668 15bc 4f61 e2bb
000002b0: 8680 d23d a68c f93c 3ea0 f1bd aee7 a0bc
000002c0: 8e4f 30be e040 273d d185 a7bd 1e7f 2bbd
000002d0: 80cd 90bd ab43 5dbc 820e a83d fa62 563d
000002e0: cc60 223d 9105 a43b adb7 7f3d 1bdc 873d
000002f0: 90a3 0e3e 8668 1e3d a017 ad3d ef20 853d
00000300: 20ce 383d 6a64 6aba e9bd 6cbe 04de 993c
00000310: afd3 d93d d686 b03c da47 e63d 333e 5b3b
00000320: d4d9 4ebd 1d1f bc3d ff35 e6bc c230 f63d
00000330: c287 333d 64a3 8f3d 2c51 cf3d ec01 20bd
00000340: caf2 47bc 0a1e 3a3b 9f54 923c 9ca1 cc3b
00000350: 2f24 9e3d 9ed7 11bd 49e3 14bc 7113 c03d
00000360: a83a c53d dd9e 343d 885b 8e3d 7244 a3bd
00000370: edae 3bbb 9a1c e8bb c117 1abd e7b5 fa3d
00000380: e78e 2c3c a031 8e3d ef4a f0bd 0dbc c53d
00000390: 6b4c 0e3d ec57 1f3c 1505 c6bc c8c5 47bd
000003a0: 938c f8bc 9fb9 17bd af53 053e 4270 ca3d
000003b0: 8ca0 6f3d 9f81 323e f03f 12bc acee 653d
000003c0: f152 cabd 0e32 7c3d a206 eebc 4965 fd3c
000003d0: 5bbe 07bd 7f7f 153d 1ede 0cbc 95ed 03be
000003e0: 2aa7 323c c6af 573d 4932 c2bc eccb cf3c
000003f0: 2ed1 4b3d bdd8 bd3c 63fc a5bc 83bb 7bbd
0.10941835 0.04213356 -0.11932124 0.051695805 0.13377887 -0.03379862 -0.015513645 0.00899169
0.09244065 0.10120217 -0.10253243 -0.025872432 -0.059283778 -0.113250576 0.12295513 -0.050329305
-0.04308157 -0.0083508175 0.073235534 0.07774923 0.02134052 -0.0796926 -0.041242104 0.038767837
0.033537418 -0.012420151 0.11021924 0.09560505 0.05392499 -0.014239164 -0.09849438 0.041155286
0.11676617 -0.026096638 -0.025986014 0.040620655 -0.103390075 0.038038503 -0.0021067352 0.019192835
0.01797609 -0.09336773 0.15707693 0.0133520365 0.16630392 0.062260043 -0.083712496 -0.05832042
0.06425165 -0.002601844 -0.06681823 -0.053488757 0.036948353 -0.02148307 0.039334368 -0.117680825
0.04331101 0.14347799 -0.10149403 0.13249645 0.10720153 -0.00528364 -0.080728054 -0.071149215
-0.15530258 0.066516034 -0.13699453 -0.08601489 0.02189592 0.12984626 -0.12226855 -0.05948023
0.049971703 0.039342493 0.10302891 -0.059926677 0.122577675 0.029682498 0.023977233 0.08563437
0.23635627 -0.03261141 0.083324976 0.11856642 0.08062436 0.029905846 0.13851301 -0.17664662
-0.055306762 0.08413732 -0.0020152917 0.027902694 -0.05980078 0.018480085 0.20021994 -0.009880406
-0.15117021 -0.17311873 -0.012567107 -0.005990193 0.07001277 0.014890036 0.104309216 0.0053298445
-0.059045926 0.123172686 0.06709988 -0.021875529 -0.05145745 -0.11666752 0.040250354 -0.133702
0.18614292 -0.0011272152 -0.12944011 -0.020812169 0.011325745 0.07453811 -0.046413146 0.07982749
-0.13349721 -0.02181406 0.05511276 0.0735915 -0.11051737 -0.16497058 -0.027355326 0.06601426
0.1462682 0.0349497 -0.12268898 0.07568031 0.0405857 0.027095813 -0.045889646 0.02145799
-0.068573326 0.05115915 -0.012970936 0.060102995 -0.008196526 -0.00019308153 -0.015637176 -0.006601917
-0.020817395 0.09441197 0.10016905 -0.0497673 0.050653752 -0.0073629697 -0.046661396 0.0828435
0.11067714 -0.085720405 0.034369797 -0.037498243 0.12483463 -0.050760098 -0.028174767 -0.05898314
0.12169945 -0.034664452 -0.077416494 0.11342247 -0.07429718 -0.07639975 -0.0029001038 0.061009508
0.06367754 0.100066036 -0.009119203 -0.0069085727 0.1027842 0.030462574 -0.11798142 -0.019641723
-0.17217848 0.040833354 -0.0817982 -0.041869275 -0.07070446 -0.013504903 0.08205892 0.052340485
0.039643094 0.0050055464 0.062431026 0.06633779 0.13929582 0.0386739 0.08451772 0.06500422
0.04511845 -0.00089413545 -0.2311932 0.018782623 0.106360786 0.02154867 0.11244173 0.0033453822
-0.050500706 0.09185622 -0.02810192 0.120210186 0.04383064 0.07013586 0.10122904 -0.039064333
-0.0122038815 0.0028399252 0.017862616 0.0062448513 0.07721745 -0.03560602 -0.009087392 0.09378708
0.096303284 0.044096816 0.06951052 -0.07972039 -0.00286382 -0.0070834877 -0.03762031 0.12241726
0.010532117 0.06943059 -0.117330424 0.096550085 0.034740847 0.009725552 -0.024172345 -0.048772603
-0.030340469 -0.037042256 0.13020204 0.09884693 0.05850272 0.17432259 -0.008926377 0.05613582
-0.09879101 0.061571173 -0.029055897 0.030932086 -0.03314052 0.036498543 -0.008597879 -0.12883599
0.010904113 0.052657865 -0.023705618 0.025365792 0.049760036 0.023174638 -0.020261949 -0.061458122

critic.3.bias f4 [64]
00000000: 3bdd 54bd 01ad 343d 3828 bcbd cac2 1fbd
00000010: a941 d63d 4c5e 4b3d 9caa 253c d124 3f3d
00000020: d965 183e 67f1 88bd 1b74 a0bd 1d2c c3bd
00000030: aa76 aebd 4aee f4bd 0e08 ce3d fa0e b4bc
00000040: 9dd1 aa3d 2628 aebd 9367 eebc aa5d 40bd
00000050: 9533 e23c ee84 ba3d 6644 84bd a71a 83bd
00000060: f816 1cbd 7214 d33d 63fb f8bd bf37 66bd
00000070: b3e1 15bc bf42 88bd 5b9a 32bd 9f4f 8dbd
00000080: 4ad3 9f3d 6e59 6e3d 5250 9f3c bff6 043c
00000090: 9da3 2bbd 2196 443c 06de 923d 8a72 48bd
000000a0: ae99 8b3d 002e 723d 522c 39bd 9dd7 8cbd
000000b0: b849 8abc 44c2 293a 907e 823d 716a 983c
000000c0: 14ee b73d dc36 e2bc 5b83 12bd a298 b33d
000000d0: eb4b 74bd b5f6 873d 79a9 af3c 2a09 14bc
000000e0: 7c8e 973c d7a5 3f3d 4879 e53d 3b52 d93d
000000f0: 6251 c73d bb9d afbd be80 7dbb f2de 9e3d
-0.051968794 0.044110302 -0.091873586 -0.039004125 0.104617424 0.049650475 0.010111477 0.04666597
0.14882602 -0.06686669 -0.07834645 -0.09529898 -0.08518727 -0.119595125 0.1006013 -0.021979798
0.08340762 -0.085037515 -0.029102122 -0.046964325 0.027612487 0.091073856 -0.064583585 -0.06401568
-0.038107842 0.10306634 -0.12157323 -0.056205507 -0.009148049 -0.06653356 -0.043604236 -0.06899952
0.07803972 0.058190756 0.01944748 0.0081154695 -0.04190408 0.011998684 0.07171254 -0.048937358
0.068164214 0.0591259 -0.045208283 -0.068770625 -0.016880855 0.0006475786 0.06371796 0.018605443
0.08980957 -0.02761405 -0.0357698 0.08769347 -0.059642714 0.066388525 0.021443116 -0.009035388
0.018500559 0.046789017 0.11204773 0.10611387 0.097323194 -0.085750066 -0.0038681473 0.07757367

critic.4.weight f4 [64]
00000000: 22ec a13f 5489 7f3f 051e a53f cb13 b23f
00000010: d8d3 7e3f d023 883f 9e9e 7f3f 7385 a83f
00000020: 5b7b af3f 2c7c 9b3f f960 8a3f 96ad 913f
00000030: 3885 8a3f 56bb 7f3f 554a 843f 0821 a53f
00000040: d4c7 983f 0e4e 843f e007 8e3f 2c2b 7c3f
00000050: 3a0f 813f 47a3 7e3f ecf2 a93f 6971 ac3f
00000060: 06c7 823f f27f 853f 29e9 8d3f a009 8a3f
00000070: b422 8a3f 167e 9a3f f306 af3f df9d 7d3f
00000080: d02b 843f 92d6 893f 6628 9f3f e83b 7e3f
00000090: ce40 8b3f 3653 ad3f 8299 833f e3ef 873f
000000a0: 040e 9d3f b6aa 883f 179f ac3f 4185 9b3f
000000b0: aef3 803f 921a 833f f14f 803f 06ae 813f
000000c0: 5211 923f b250 883f e45b 7f3f 83d1 853f
000000d0: 30be 9f3f 7cd4 7d3f 6655 7c3f 1089 873f
000000e0: f000 833f 99c8 7e3f 4669 923f f99d a33f
000000f0: a9f1 aa3f 91e8 9e3f 1fc3 7e3f d841 853f
1.2650187 0.9981892 1.2899786 1.391229 0.99542 1.0635929 0.99851406 1.3165725
1.370952 1.2147269 1.0810844 1.1381099 1.0821905 0.99895227 1.0335184 1.2900705
1.1935983 1.033632 1.1096153 0.98503375 1.0082772 0.9946789 1.3277259 1.347211
1.0216987 1.0429671 1.108678 1.0784187 1.079184 1.2069728 1.3673996 0.9906902
1.032587 1.0768607 1.2434204 0.9931016 1.0879152 1.3541019 1.0281222 1.0620083
1.2269902 1.0677097 1.348605 1.2150041 1.0074365 1.0242484 1.0024396 1.0131233
1.1411536 1.0649626 0.9974959 1.0454563 1.2479916 0.9915235 0.9856781 1.0588703
1.0234661 0.9952484 1.1438377 1.2782584 1.3354999 1.2414724 0.9951648 1.0410719

critic.4.bias f4 [64]
00000000: e04a 7b3e 77d4 85bc 9663 853e 6b81 a43e
00000010: bd4c c3bc 1532 9339 e856 29bb 303c 8a3e
00000020: 3558 9e3e 5c06 833e 7edd cabb 2ab4 e03c
00000030: 0920 95bc 425d 1abc 2fa0 9f3c 4740 833e
00000040: ba53 26bd 08d2 68bc 44a1 333e 2b2b d2bc
00000050: 588f c6bc 4c31 4abc bbc8 833e 8cd7 963e
00000060: be7c 6cbc 391c 973d 5aba c93c 554d eabb
00000070: 3f91 67bd fb2e c3bc c084 9c3e c709 b4bb
00000080: e004 1b3d 19d7 023e d1bc 7f3e e673 a4bc
00000090: 7b91 253c ba35 943e dad5 4a3d 3899 37bc
000000a0: 849d 653e 27a0 0a3d 5011 9c3e c8bd 813d
000000b0: 846f c5bc d3f5 fbbc 13ab 39bb e063 5abc
000000c0: 4ba8 603d 6f1b fe3b 422a 943c ea77 843d
000000d0: 2d14 643e 9354 b8bb 1c84 83bc 82db 623d
000000e0: 1cb5 a33b 5159 bcbc 426b 64bd 3956 803e
000000f0: e0b1 903e 8110 9eb9 b66e d3bc 6ffb 42bd
0.24540281 -0.016336663 0.2605254 0.32129988 -0.023840303 0.0002807534 -0.0025839154 0.26999044
0.30926672 0.2559079 -0.0061909547 0.027429659 -0.018203752 -0.009421648 0.019485561 0.25634977
-0.04060719 -0.014210232 0.17541987 -0.02565535 -0.024238274 -0.012340855 0.25739083 0.29461324
-0.014434038 0.0737843 0.024624992 -0.007150332 -0.056535 -0.023826113 0.3057003 -0.0054943296
0.037846446 0.12777366 0.24974371 -0.020074796 0.010105486 0.2894724 0.04952035 -0.011205964
0.22423369 0.03384414 0.30481958 0.06335026 -0.024101026 -0.030756867 -0.0028330728 -0.013329476
0.054847997 0.007754735 0.018086556 0.06468184 0.22273321 -0.0056253164 -0.016054206 0.05538512
0.004995955 -0.022991808 -0.05576635 0.25065783 0.28260708 -0.00030148405 -0.025809627 -0.047603067

critic.6.weight f4 [1, 64]
00000000: a70b a73e c7ca d9bb ad1a 943e 391c bb3e
00000010: f2d8 6fbd 12e6 2abd ba4d c1bd 10b2 983e
00000020: 9d54 d63e 2e2f 413e 8b1f 95bd abfb 0bbe
00000030: 96ed 0fbe a404 05bd 0840 08bd b690 9e3e
00000040: ac3a 6fbe 738f 1cbe d042 1e3e 0a1b 93bd
00000050: 9a7d cabd 9708 9ebc f03d c93e ffa1 cd3e
00000060: 6ad8 f53c bad0 8d3d 8189 ad3d b05c 1cbe
00000070: 3088 b8bd 95d7 5dbe 0200 df3e bfa1 cebd
00000080: 1353 18be 75f3 df3d 1579 553e 67ba b9bd
00000090: aa79 9e3d 932a b13e 6918 093d caba 03be
000000a0: d4a5 933e 7be1 a2bd dda4 ce3e a933 9abe
000000b0: 06cb adbd fc53 95bd 7499 d0bd 3b79 97bd
000000c0: b3e9 7fbe 308e d7bd dca4 d3bc c1e0 8d3d
000000d0: d812 a53e 7455 433b c7ad 9fbd b779 0abe
000000e0: 6cdb 78bc eb30 79bd 3876 14be aa80 b93e
000000f0: f4ad ab3e 96bc 9abe 123e 53bd a352 ccbc
0.32626078 -0.0066464874 0.28926602 0.3654497 -0.058556505 -0.04172332 -0.09438653 0.2982335
0.4186143 0.18865654 -0.07281407 -0.13670222 -0.14055476 -0.03247513 -0.03326419 0.3096978
-0.23362225 -0.15289097 0.15455174 -0.07182892 -0.09887238 -0.019291205 0.39305067 0.40162656
0.03001042 0.06924577 0.084734924 -0.15269732 -0.09010351 -0.2166427 0.43554693 -0.10089444
-0.1487544 0.109351076 0.2084697 -0.090687566 0.07738049 0.34602794 0.033470545 -0.12864223
0.28837454 -0.07953163 0.40360156 -0.3011754 -0.08485989 -0.072914094 -0.10185519 -0.0739617
-0.24991493 -0.10525167 -0.025835447 0.06927634 0.3224094 0.0029805573 -0.07796817 -0.13522993
-0.015189033 -0.060837667 -0.14498222 0.36230975 0.33531153 -0.30222005 -0.051572867 -0.024941748

obs_mean f4 [29]
00000000: 449d 16b8 7ca1 b4be 5499 d638 0569 8b3d
00000010: bb5c 2539 9680 5838 f918 c6b7 f590 2db8
00000020: 0099 3db9 036b ed3e b4c5 3f38 cd69 db3e
00000030: 131a 87b7 a073 00b8 fcfa 9bb9 168f 23b8
00000040: 8c22 933e f281 5f3a 3ed3 e9ba 31ed be3b
00000050: db44 513d de9c 1b3a ebdb cc3c b5f1 beba
00000060: 5f92 79bc 030d cf3c 5039 433b 0000 0000
00000070: a674 933c
-3.5909252e-05 -0.35279453 0.00010232875 0.0680714 0.00015770171 5.1618168e-05 -2.3615068e-05 -4.1381416e-05
-0.00018081442 0.46370706 4.5722074e-05 0.42854157 -1.6105396e-05 -3.0625262e-05 -0.00029750902 -3.8995488e-05
0.28737295 0.0008526138 -0.0017839444 0.0058266153 0.051091056 0.0005936156 0.025007209 -0.0014567884
-0.0152326515 0.02527476 0.00297888 0.0 0.017999958

obs_var f4 [29]
00000000: ef8e 2b36 4491 3641 480b 1036 39eb 1941
00000010: 1971 f835 9c8a 3536 6c18 e236 1049 0537
00000020: 54c3 6239 e4fb b041 275d 3f39 457d b141
00000030: 1555 f138 a12c ed38 4f38 153a 7c13 fe39
00000040: c123 d23e 143e f83b ab82 fc3b 056d fb3e
00000050: 83f1 f33e ffbf 4b3b 43e2 143c 3b55 563c
00000060: 57f3 2d3f 38da 2a3f 375b 393f 92ff 5a29
00000070: f99b 3f3f
2.5564184e-06 11.410465 2.1464239e-06 9.619927 1.8510356e-06 2.7051783e-06 6.738168e-06 7.944429e-06
0.00021625805 22.122993 0.00018249881 22.186167 0.00011507623 0.000113093534 0.00056922896 0.00048461172
0.41042903 0.0075757597 0.0077060065 0.49106613 0.47645196 0.003108978 0.009087148 0.013081844
0.6794943 0.66739225 0.7240481 4.8627396e-14 0.7484737
