src/taser/locomotion/models/track_velocity.onnx (onnx, 30922 bytes, 11 tensors)

model.log_std f4 [2]
000000 1f 8e da be a4 9f b0 be
       -0.42686555 -0.34496796

model.actor.0.weight f4 [64, 35]
000000 45 ab 48 be ec f4 10 bd 2d 2f c5 bd 12 31 b7 3d
       -0.19596584 -0.035389826 -0.09628139 0.08944906
000010 60 5c 33 bd 45 40 86 bc e4 7b 53 bd 00 aa 43 be
       -0.043789268 -0.016388068 -0.051631823 -0.19107819
000020 ee 67 6d bd df 7a 48 3d 1c ba 4c 3d 4d 7e f2 bd
       -0.057960443 0.048945304 0.049982175 -0.11840496
000030 a9 9f 32 3d 2b c2 b7 3d 38 f4 a0 bd fa e5 dc bc
       0.043609295 0.089725815 -0.07859081 -0.02696513
000040 6f 58 3e bd 5d de 02 3e bc 16 8a 3d 96 b5 a2 bd
       -0.046471056 0.12780137 0.067426175 -0.07944791
000050 26 19 3a bc 6e 31 de bc f2 ed db bd 59 7d 4d 3d
       -0.011358535 -0.02712318 -0.10738744 0.05016837
000060 97 b9 22 bd e3 f0 c9 3d d0 22 12 3e f2 98 a7 3c
       -0.039727774 0.098603986 0.14271092 0.020458672
000070 89 69 df bc 7c ff 90 be fc aa 90 3d 4f 1f 26 3e
       -0.027272003 -0.2831992 0.07063863 0.16222881
000080 a8 df 2b be 40 56 15 be 82 48 4b bd 65 33 7f bd
       -0.16784537 -0.14583683 -0.049629696 -0.062304873
000090 ee ee 66 3d d5 5f 24 bd 02 81 64 bd 0a 52 a0 3d
       0.056380205 -0.040130455 -0.055787094 0.07828148
0000a0 4c ed bf 3d 42 20 0e 3e 57 80 27 bd 1a 08 89 bd
       0.09371433 0.13879493 -0.04089388 -0.066909984
0000b0 1c eb bc 3d 29 6c 1a be 9d 72 67 bd eb 7d d3 3d
       0.09224531 -0.15080322 -0.056505788 0.10326751
0000c0 00 4d e7 bd 65 37 53 3d 6d 0b 88 3c 80 a3 1b bd
       -0.112939835 0.0515665 0.01660701 -0.037997723
0000d0 66 59 12 3c d3 d7 e5 3d 41 35 f1 3c c5 1f 16 be
       0.008932447 0.11222806 0.029444339 -0.14660557
0000e0 7f 65 f5 bd 01 63 e8 bd fe 45 54 bd 65 72 0b be
       -0.119822495 -0.113470085 -0.051824562 -0.13617857
0000f0 19 ec 06 3e d2 c4 08 bd f9 b5 0f bd 9c 33 94 bd
       0.13176002 -0.033390827 -0.035085652 -0.07236406
000100 83 96 16 3e dc b0 e4 3b 6b a5 07 3c f7 02 db bd
       0.14705853 0.006979091 0.008279185 -0.10693925
000110 1d fd 42 bd f0 b8 47 bc 00 46 f2 bd c3 90 c4 bd
       -0.04760467 -0.012190089 -0.11829758 -0.095979236
000120 95 ab 20 be 31 38 75 3c db c3 f1 bc a6 f3 d0 bd
       -0.15690453 0.01496701 -0.029512336 -0.10202722
000130 23 56 f9 3d d0 8c e3 bc 32 77 ad bd 1f 12 ba bb
       0.121746324 -0.027777106 -0.0847 -0.0056784297
000140 cf f4 6e 3d 39 e5 1b bc 00 a6 8f 3d 1f 2c f3 3d
       0.058338936 -0.0095151 0.07014084 0.1187365
000150 80 f0 4a 3e ef 25 f5 bc ea cb 04 3b 47 42 88 3d
       0.19818306 -0.029925315 0.0020263144 0.066532664
000160 2c 64 e6 3d f2 10 52 bc 0d 10 61 3d 38 84 08 3c
       0.11249575 -0.012821423 0.054946948 0.008332305
000170 22 2e 07 3c c5 de 55 ba ca 9b 95 3c 56 c0 54 bd
       0.008250745 -0.00081585004 0.018262763 -0.05194124
000180 4f 04 d3 bd db 1e 15 3d 5e d7 a0 bd 29 a9 de 3d
       -0.10303556 0.03640638 -0.07853578 0.108721085
000190 3f 08 d9 bd d0 d5 32 bd 01 18 57 be 88 95 1b 3e
       -0.10597276 -0.04366094 -0.2100525 0.1519376
0001a0 df de fd 3d 5a 9a 94 bd 73 38 d6 3d cc e4 39 3e
       0.12396025 -0.07256003 0.104599856 0.18153685
0001b0 b6 7e 04 bd 8b 08 c2 bd b1 a1 b5 3d 52 58 ce bd
       -0.032347403 -0.09474286 0.08868731 -0.100754395
0001c0 01 7c e5 3c 9a ff 7d bd 7c 50 4e 3b d6 55 e3 3d
       0.028013231 -0.06201134 0.0031481078 0.11100356
0001d0 07 7e 60 3d 3f 41 76 bd ad 3e 17 be 18 72 bf 3d
       0.05480769 -0.060120817 -0.14770003 0.093479335
0001e0 16 08 8b bd c3 94 92 3d 4e b2 c8 3d c5 82 67 bd
       -0.06788652 0.0715728 0.09799634 -0.056521196
0001f0 44 12 a8 3d 77 e2 4d bc f0 3e 91 3d 18 97 a4 bc
       0.08206609 -0.0125662 0.070920825 -0.020091578
000200 98 42 95 bd 35 18 b3 3d 52 75 0b be 0d 4c 1f be
       -0.072880924 0.087448515 -0.13618973 -0.15556355
000210 40 5d ae 3c c8 a4 22 be ad d6 0d bd 59 2b 19 be
       0.0212847 -0.15883172 -0.03462856 -0.14957942
000220 07 14 04 3e 43 3c 38 3e b0 53 f1 3d 26 ba 3f be
       0.12898265 0.17991738 0.1178354 -0.18723354
000230 c4 61 1f 3e 21 44 19 bb 34 8b e7 3d 31 13 da 3d
       0.15564638 -0.0023386555 0.11305848 0.10648192
000240 d0 3d 3b 3d 6d ce c1 bd 6b 06 17 be 5f bd d2 bd
       0.045713246 -0.09463201 -0.14748542 -0.10290026
000250 08 f6 87 3d 2d 37 8e 3d 54 b0 82 bc 64 79 e5 bb
       0.066387236 0.06944118 -0.01595322 -0.0070029963
000260 e2 b5 b0 3d 73 fa bc 3c c7 a5 40 3d 30 ee 22 bd
       0.086284414 0.023068642 0.047033098 -0.039777935
000270 fb 85 8f 3c 19 f9 87 3c b5 6c b4 3d b7 27 a5 3d
       0.017519942 0.016598271 0.08809797 0.08064216
000280 3c e0 4c bd ad b5 31 3d bc 42 a7 3d 65 1d 29 bd
       -0.050018534 0.04338615 0.081670254 -0.0412878
000290 2a 7d 2b 3d 3f c2 46 3d 04 46 11 be b1 55 10 bd
       0.041867413 0.04852509 -0.14186865 -0.03523797
0002a0 50 69 aa 3d 23 2e 94 3d 44 1c d8 bc e6 b3 06 3e
       0.08320868 0.072353624 -0.026380666 0.13154563
0002b0 65 30 a2 bc 98 38 89 3d e5 d1 23 3e c0 c3 a2 3d
       -0.019798467 0.067002475 0.15998037 0.079474926
0002c0 4d 67 19 3d 5b de af 3c dd 59 33 3b 62 5a e2 bd
       0.03745203 0.021468332 0.0027366795 -0.110523954
0002d0 ed 99 08 3e f0 3b 68 bc 46 bc 05 be 00 5f 6f bd
       0.13339968 -0.014174446 -0.13060102 -0.05844021
0002e0 dd c3 b5 bd e4 4c 8e bd eb 7e 21 3c cc e2 ee bd
       -0.088752486 -0.069482595 0.00985692 -0.11664352
0002f0 38 88 4a bc 4c bb 16 3e 3c d3 e4 bc 41 c5 3f bc
       -0.012361579 0.14719886 -0.027932756 -0.011704744
000300 76 46 5d bd 43 2f 0f be f3 b5 05 3d 33 18 8c bc
       -0.054022275 -0.13982873 0.032644223 -0.017101383
000310 8f dc 22 bb 25 a3 5c 3e 26 44 1b bd 8f 1e 28 3d
       -0.0024850701 0.2154661 -0.03790679 0.041044768
000320 a8 68 ff bd ec 1f 19 be ea 2c b1 bc 60 bb 69 3d
       -0.124711335 -0.14953583 -0.021627862 0.05706346
000330 53 dc 3d 3d 10 75 84 3c 5a dc 06 be 01 65 a3 3d
       0.046352696 0.016169101 -0.13169995 0.07978249
000340 17 9d 22 3e 7f 30 20 3e 08 11 88 bd 14 01 70 bd
       0.15880238 0.156435 -0.066438735 -0.05859478
000350 66 dd 8e 3d cd 01 a4 bc c4 cc da bd cf f8 07 3e
       0.06975822 -0.02002039 -0.10683587 0.13278507
000360 af 90 29 be ee 51 e3 3d 9d 40 11 be db 59 73 bc
       -0.16559099 0.11099611 -0.14184804 -0.014852966
000370 3d 22 f0 bd 90 f2 31 3e 2c 75 24 3d c0 cb 3d bd
       -0.117252804 0.17377687 0.040150806 -0.04633689
000380 5c 3b e6 3d 2c 37 49 3d 6f 37 24 3c 57 58 12 3d
       0.11241791 0.04912488 0.010022982 0.03572878
000390 81 67 3b 3c c5 19 88 3d e0 e1 80 bc 1a 5b 99 bd
       0.0114382515 0.0664554 -0.015732706 -0.07488079
0003a0 98 72 68 be bb e9 44 bd a5 5c 8d 3c dd 26 c0 bd
       -0.22699964 -0.048074465 0.01725609 -0.093824126
0003b0 b1 63 3a 3e 7f 3c ca 3c d6 2d 36 3e dc 4d 0d 3e
       0.18202092 0.02468705 0.17790923 0.13799232
0003c0 1e b2 e9 bd 15 57 d5 bd 27 0c 2c bd 25 1d 9d bd
       -0.11410926 -0.10417 -0.042003777 -0.076715745
0003d0 c2 1f 9a bd 93 97 68 3d 8d 10 a9 3c 41 4a e7 bd
       -0.075255886 0.056785177 0.020637775 -0.1129346
0003e0 2a 67 e9 3c 0e 23 98 3d 1f 87 99 3c e1 91 ca bd
       0.028491575 0.07428561 0.018741189 -0.098911054
0003f0 26 8f b6 bd 6d 87 68 3d d1 55 1d 3e 76 f1 d2 3d
       -0.08914022 0.056769777 0.15364768 0.10299961

model.actor.0.bias f4 [64]
000000 46 ed 8e 3d b3 da b5 bd 03 8d e0 bc 26 cc 1e 3d
       0.0697885 -0.08879604 -0.02741099 0.03876891
000010 c9 28 0e 3e 58 fc ed 3d 5a 9d 3e 3d 54 c9 30 be
       0.13882746 0.116203964 0.04653678 -0.172643
000020 06 35 b9 3d 43 5b 69 bd ac 3c 1b 3d af df 13 3e
       0.090433165 -0.0569718 0.037899658 0.14440797
000030 47 53 f6 b9 10 58 82 bd 9e 1e 3e bd bd 3e e7 3d
       -0.00046982823 -0.06364453 -0.046415918 0.11291263
000040 fe 80 75 3d 6b 32 1d bd 20 3f e9 bd 8c 34 06 3e
       0.05993747 -0.03837816 -0.11388993 0.13105983
000050 6e 5d 60 be d0 38 3e 3d 68 b2 1d bd 12 5d e8 3b
       -0.2191064 0.0464409 -0.03850022 0.007091173
000060 9e 0a 9d bd 55 d3 1a be 32 94 a6 3c 88 cd be 3d
       -0.07668041 -0.1511968 0.020334337 0.09316546
000070 11 3e 84 bd 2a a9 1a 3e 8e 75 46 3d fe dc 0d 3e
       -0.06457151 0.15103593 0.048451953 0.13853833
000080 e6 06 31 3e 27 48 d0 3c ea 3e 3c be 09 43 c6 bc
       0.17287788 0.02542503 -0.18383375 -0.024201887
000090 33 9e fb 3d 28 d5 9f 3d 23 84 eb bc 6b 81 2a be
       0.122860335 0.07804328 -0.028749531 -0.16650932
0000a0 ea 89 dc bb 5f dd 47 3e c4 ec 1f 3e 23 e9 9b bd
       -0.006730308 0.1951804 0.15617663 -0.07612827
0000b0 8a e3 15 be 54 53 2a 3e d1 d5 98 3d 3f 19 2d 3e
       -0.1463758 0.1663335 0.07462657 0.16904162
0000c0 33 9e 03 be 98 2e d2 bd 24 d4 99 3c 3f 7d cc bd
       -0.12853317 -0.10262793 0.018777914 -0.09984826
0000d0 a1 9c 1a 3e 51 f4 21 be 9e f0 e9 bd 6f 30 92 3d
       0.15098812 -0.15815856 -0.11422847 0.07138144
0000e0 12 7e 4e 3d bc 99 61 be 05 7a 02 be fa a3 55 3d
       0.0504132 -0.22031301 -0.1274186 0.052158333
0000f0 d8 0b 18 3d fd 74 ba bd 21 ad 48 be f2 e1 db bd
       0.03712067 -0.09104345 -0.19597293 -0.10736455

model.actor.1.weight f4 [64]
000000 b1 7d 82 3f 53 94 7a 3f 43 2e 82 3f ae 7d 87 3f
       1.0194608 0.97882575 1.0170368 1.0585229
000010 42 be 78 3f d1 1a 85 3f a1 c1 7e 3f 3c 54 7e 3f
       0.9716531 1.0398809 0.99514204 0.9934728
000020 83 87 7a 3f 12 5c 73 3f 66 a6 7c 3f a2 7d 74 3f
       0.97863024 0.95062363 0.98691404 0.955042
000030 c4 6f 77 3f 48 ac 7f 3f 77 d2 7f 3f 8d c2 7b 3f
       0.96654916 0.99872255 0.9993052 0.98343736
000040 1e ac 83 3f 38 18 80 3f 62 02 80 3f f7 d9 81 3f
       1.0286901 1.0007391 1.0000727 1.0144643
000050 5e 9c 7d 3f 1c bb 80 3f 7f d7 80 3f 71 03 6e 3f
       0.9906672 1.0057101 1.0065764 0.92974
000060 e2 dd 6e 3f 01 72 75 3f bd 5c 7a 3f c5 1f 77 3f
       0.93307316 0.9587708 0.9779776 0.9653285
000070 66 88 7d 3f a4 d8 81 3f 91 14 77 3f 36 59 80 3f
       0.9903625 1.0144238 0.96515757 1.0027225
000080 ea 14 82 3f 02 60 83 3f 68 11 76 3f 0f 36 82 3f
       1.0162632 1.0263674 0.9612031 1.0172747
000090 e1 5e 7e 3f cb 61 81 3f 46 23 89 3f d9 12 7c 3f
       0.99363524 1.0107969 1.071389 0.9846626
0000a0 af f6 80 3f 4b 7a 85 3f 44 ac 85 3f 9d 3b 74 3f
       1.0075282 1.0427946 1.0443196 0.9540346
0000b0 2c 3c 77 3f 45 a7 7f 3f 6e d6 76 3f d6 39 82 3f
       0.9657619 0.9986461 0.96420944 1.01739
0000c0 03 fe 83 3f ed c0 81 3f 0b 48 85 3f f9 0b 7a 3f
       1.0311893 1.0137001 1.0412611 0.9767452
0000d0 58 2a 81 3f 89 b9 78 3f 4a 86 82 3f e4 eb 80 3f
       1.0091047 0.97158104 1.0197232 1.0071988
0000e0 11 eb 7a 3f 73 5b 75 3f e4 f4 81 3f 4d 1b 81 3f
       0.9801493 0.95842665 1.015286 1.0086457
0000f0 61 2b 7b 3f ba 3f 7d 3f aa 3b 74 3f 6a 03 7a 3f
       0.98113066 0.98925364 0.9540354 0.9766146

model.actor.1.bias f4 [64]
000000 91 56 2d 3c ba 97 59 39 98 c8 f5 3c bf 9a 2f 3d
       0.010579721 0.00020751255 0.030002877 0.042872187
000010 87 dd 6d bc 78 37 15 3d 9e 73 cc 3b d5 dd 2f b9
       -0.014518148 0.036429852 0.0062393686 -0.0001677194
000020 b4 58 98 bb d2 76 1d bc f5 77 86 3c e5 ec 48 3b
       -0.004649246 -0.0096108485 0.016414622 0.0030658778
000030 c8 97 8b bc 68 9a 8d 3c 22 85 1e 3d 59 a6 0d bb
       -0.017040148 0.01728554 0.038701184 -0.0021614044
000040 69 85 ec 3c f5 fb 41 3c 81 41 4f bc 43 12 6c 3c
       0.028872209 0.011839856 -0.012649895 0.014408651
000050 98 03 d2 bc 8e f1 c9 3b 72 f3 05 b8 b1 15 05 bd
       -0.02563648 0.0061628288 -3.1936397e-05 -0.03249139
000060 47 14 34 bd 92 66 70 bc 26 2b 6e bc 9a 3a ab 39
       -0.04396465 -0.014672892 -0.014536655 0.00032659323
000070 a3 44 17 3b a2 87 a4 3c 73 d5 af bc 0c 69 40 3c
       0.0023081682 0.020084206 -0.021464085 0.011743795
000080 94 a4 e7 3b fd fd 14 3d 57 3a d1 bc d7 45 90 3c
       0.00706918 0.036375035 -0.025540514 0.017611427
000090 48 5a 12 3c 3d 68 8a 3c 8e e4 51 3d 27 0e 13 bc
       0.008932658 0.016895408 0.051243357 -0.008975542
0000a0 42 46 41 3c 27 f8 f4 3c 4e e8 07 3d 28 02 3b bc
       0.011796536 0.029903485 0.033180527 -0.011414088
0000b0 82 32 22 bc bd d6 07 3c f8 0d 85 bc 7c a9 e4 3b
       -0.009899737 0.008290944 -0.016242012 0.006978212
0000c0 fd bd 5b bb 11 5a 1e 3d 8d 75 e0 3c 1d 2c 9f bc
       -0.003352999 0.038660113 0.027399803 -0.019430215
0000d0 a4 47 e5 3c c7 24 17 bc d7 51 81 bc 2f b7 38 3c
       0.027988262 -0.009225077 -0.015786095 0.011274143
0000e0 83 7f 07 3b d5 53 51 3a 72 71 eb 3c 41 dd 8f 3c
       0.0020675368 0.0007985209 0.028740618 0.017561557
0000f0 58 ef 81 3c 04 6f 91 3b 13 07 a4 bc ef 87 5c 3c
       0.015861198 0.004438283 -0.020022905 0.0134601435

model.actor.3.weight f4 [64, 64]
000000 9d 02 d1 bd 4e 89 1e 3b 7d 24 8e 3c 3c e8 d5 bd
       -0.102055766 0.0024190727 0.017351383 -0.10444686
000010 9a d5 4d bc 36 5b 0c 3e c2 2a b0 3d 8b c8 8c 3c
       -0.012563134 0.13706669 0.086019054 0.01718547
000020 c1 6b c6 bc 95 ca 07 3d 2d 62 23 3d 34 97 b7 3d
       -0.024221303 0.03315218 0.03988855 0.089643866
000030 1c 23 d9 bd 2f 00 ce 3d 51 10 ea bd fd e9 eb 3d
       -0.106024 0.10058629 -0.11428893 0.11519239
000040 0e c5 26 3e 55 e6 73 bd fc 5a 0f bd 62 82 09 be
       0.16286108 -0.059545834 -0.03499888 -0.13428643
000050 36 ce d7 bd cc 1f ab 3d ec 28 de 3d 3b 22 bb 3b
       -0.105373785 0.08355674 0.10847649 0.0057108677
000060 94 b7 87 bc d7 93 56 3d 22 c4 92 bd 48 a4 f0 bc
       -0.016567029 0.052387085 -0.071663156 -0.02937521
000070 89 65 12 3c ca 24 12 3b 4d c6 71 bd 03 b6 8a bc
       0.008935341 0.002229976 -0.059027005 -0.016932493
000080 ee 12 05 bd 6e a5 27 3d f8 b8 65 3d 94 5e 5c bd
       -0.032488756 0.04092925 0.056084603 -0.053801134
000090 b2 63 b7 bc 58 a2 c1 3d 85 bc 33 bd 3b 17 ca bb
       -0.022386406 0.09454793 -0.043880958 -0.00616732
0000a0 83 52 60 3d 5c 8c b6 bd 28 34 b9 bd ec 4b aa 3d
       0.05476619 -0.0891349 -0.09043151 0.08315262
0000b0 d5 51 3f 3d 3b 94 49 3d 46 77 a7 3d 1f dd 30 bd
       0.0467089 0.04921363 0.081770465 -0.043179628
0000c0 28 d4 ff bd 30 bd ec 3d 8f 8b 88 3c 6e b4 02 3c
       -0.124916375 0.11559522 0.01666811 0.007977588
0000d0 03 55 f7 bd 4d 2e cd 3d e5 24 4a bd 95 37 7b bd
       -0.120767616 0.10018597 -0.04935159 -0.061332304
0000e0 6e f9 b8 bc 18 b8 a6 3d fe 73 2e bd 0c 8d 9a 3d
       -0.022579875 0.08140582 -0.042591088 0.07546434
0000f0 cb 9c 9d bd 2a 20 2b 3d 6c b2 9b 3d 48 fa 1f ba
       -0.076959215 0.04177872 0.07602391 -0.00061026635
000100 6c 45 7f 3d 9e 26 2f bd dc 59 f1 3c 9a 7d 8c bb
       0.062322065 -0.042761438 0.029461794 -0.004287434
000110 19 2a 9a 3d 44 35 90 3d 97 57 9d bc 88 ff c3 bc
       0.07527561 0.070414096 -0.019206805 -0.023925558
000120 f0 4f a6 3d 72 1f 0d bd 6f e9 34 3d 76 95 8a bd
       0.081207156 -0.034453817 0.044167932 -0.06766789
000130 8c db 51 3c d0 24 ff bd ce ab da 3d 95 79 5f 3d
       0.012808692 -0.12458193 0.106773004 0.05455931
000140 43 c9 93 bd d5 b0 11 bd 9c 9d 61 bd 05 7f e9 3d
       -0.07216122 -0.03556903 -0.05508195 0.1140118
000150 2b 21 93 bc 4b b6 8b bc 40 f1 61 bd 5c 7d 66 bd
       -0.017960152 -0.017054697 -0.055161715 -0.056271896
000160 df c2 af 3c 50 25 3e 3c 83 1c 8c 3d 27 54 fd 3d
       0.021455226 0.011605576 0.06841376 0.123695664
000170 64 27 bf 3b 09 bc 6f 3d 56 1b b9 bd da ab 56 bd
       0.005833553 0.058528934 -0.09038417 -0.052409984
000180 bd 61 8f bd c4 f3 ad bd e0 40 5f bd f2 a7 8e 3d
       -0.07001064 -0.0849376 -0.05450523 0.06965627
000190 0a 8b c2 3c 3c 2f 30 3d c4 37 19 bc 48 5d f8 bd
       0.02374794 0.043013796 -0.0093516745 -0.12127167
0001a0 91 1e 26 bd b2 dc 16 3d 90 aa 53 bd e1 e0 97 3d
       -0.040556494 0.036831565 -0.051676333 0.07415939
0001b0 eb c3 d1 bc 9f 90 99 bb c8 80 27 3d ef d8 3e 3c
       -0.025606116 -0.0046864296 0.0408943 0.011648401
0001c0 2b dc f1 3d e6 24 98 bb 2c f3 0e 3d 49 5e 8b bb
       0.11809572 -0.0046430705 0.034899876 -0.004253183
0001d0 de 79 0c 3b e0 16 ad bc 23 ba 96 bd 52 cb 0b bd
       0.0021434943 -0.021129072 -0.073597215 -0.03412945
0001e0 56 76 71 3d 33 d2 af 3d ab 4c 84 3d 7f 66 cb bc
       0.058950745 0.08585014 0.06459936 -0.024829147
0001f0 6c 47 7a 3d 02 92 aa 3c 81 ba 6a 3d 2e cc 96 bc
       0.06110327 0.020821575 0.05730677 -0.018407907
000200 08 0d 8a 3d 02 7f 5e 3c c7 9c bc 3d 21 27 ea 3b
       0.06740767 0.013580086 0.092095904 0.007145778
000210 e5 fd 63 3d ba 01 ba bc 7e a2 a6 3d 48 82 0f bd
       0.055662055 -0.022705901 0.08136462 -0.035036355
000220 4e 25 db bd c1 fd be bc 06 14 d2 bc b7 28 d0 3a
       -0.10700475 -0.023314359 -0.025644314 0.0015881275
000230 d4 7d 0b bd cd 9b 1a bd 55 69 ba 3c 4c e8 42 3c
       -0.034055546 -0.03774624 0.022755304 0.011896204
000240 ca a7 dc 3d bf 50 a6 3d 7d 90 42 bc 36 92 99 bd
       0.10774191 0.0812087 -0.011875269 -0.07498591
000250 1f b8 95 3d ec 79 e6 3d 22 69 a8 3c 61 0e 5f bd
       0.07310509 0.112537235 0.020557944 -0.054457072
000260 3e 91 09 3d d3 2a b9 bd 5d 3a 0a bd 98 f8 c3 b9
       0.03358578 -0.09041371 -0.033747066 -0.00037378515
000270 a4 bf 9a 3d ca 53 fa 3c 21 16 68 3d 48 80 6a bd
       0.07556084 0.030557532 0.05666173 -0.057251245
000280 49 e6 69 bd cf dc 8c bd 18 47 8b bc 5e f8 4c bc
       -0.057104383 -0.068780534 -0.017001674 -0.012510387
000290 7d cc c3 3d bd 02 41 bc 02 f5 f3 3d 33 15 81 3d
       0.095604874 -0.011780438 0.11911966 0.063028716
0002a0 a4 92 9c 3d 5d ba ab 3c 6e 4f 28 3d f6 bd d1 3a
       0.07645157 0.020962888 0.041091375 0.0016002047
0002b0 b3 81 7f bd 9e f6 ba bd d6 27 e7 bd f4 e4 d4 bd
       -0.06237955 -0.0912907 -0.11286895 -0.10395232
0002c0 c0 ba 12 3d c8 76 52 bd e9 92 84 bd 67 94 52 3d
       0.03582263 -0.05138281 -0.064733334 0.05141106
0002d0 54 fa 51 3d ab 95 ea 3c b3 be e0 3d 36 e6 0a bc
       0.051264122 0.02863582 0.10973873 -0.008477738
0002e0 0c f0 8b 3c 8b bd 8a bc fe 60 1c bd 47 7e 0d bd
       0.017082237 -0.016936084 -0.038178436 -0.034544256
0002f0 f0 fe 06 bd 3c 76 0c bd e8 55 10 3b a9 89 75 bb
       -0.03295797 -0.034292445 0.002202386 -0.0037466085
000300 77 d0 a0 3d d2 41 50 bd ba f4 cd 3d 81 8d 3b 3d
       0.078522615 -0.05084402 0.100564435 0.045789246
000310 4c 8d bb 3d f6 9d 6c 3d 0b 58 a5 3d 3f 34 81 3c
       0.091578096 0.05776783 0.080734335 0.015771983
000320 61 51 c8 bd db 8c 47 bd 25 be 06 be 77 2f a1 3d
       -0.09781147 -0.048718315 -0.13158472 0.07870381
000330 86 af 63 bd 7e 12 15 3d 95 f5 82 bd b0 4a b0 3d
       -0.055587314 0.03639459 -0.06394497 0.086079955
000340 f5 fd 58 3d cc ae 45 3c 68 17 62 3c 1f 73 83 3d
       0.052976567 0.012065601 0.013799526 0.06418442
000350 18 bc e5 3d b7 9d 0e be fb d3 ab 3c 75 28 e0 bd
       0.11217517 -0.13927351 0.020975104 -0.109452166
000360 0c 12 0e bd 96 02 9c bd e7 07 2e bb 82 4a 1b 3d
       -0.03468518 -0.07617681 -0.0026555003 0.037912853
000370 04 53 1d bd 1b 7c 63 3d 44 34 6e bd ad 1a d8 bb
       -0.038409248 0.055538278 -0.058155313 -0.006594977
000380 cc c1 ed bd 22 92 44 3d 3f 2f 22 3d 17 9b a0 3d
       -0.116092294 0.047990926 0.03959584 0.07842081
000390 15 53 4f 3b bf cc 8a 3d ac 47 9a bc f4 80 b6 3b
       0.0031635214 0.067773335 -0.018833004 0.0055695716
0003a0 f0 a1 0b 3d 59 13 ca bc 1f 98 77 3d 5e 61 1a 3d
       0.034089983 -0.024667429 0.06044781 0.037690513
0003b0 06 7f d8 3c 85 0e cf bd bf 09 84 3d 28 80 b1 3d
       0.026427757 -0.10110191 0.064471714 0.08667022
0003c0 56 80 d5 3d 20 54 2d bb fb 63 95 bd d1 2a e6 3d
       0.10424869 -0.0026447847 -0.072944604 0.11238635
0003d0 c1 1d 82 bd aa 9c b4 bd 1f 0e 00 3e 37 1a 5e 3c
       -0.06353331 -0.08818944 0.12505387 0.013556055
0003e0 f6 30 e0 3d 39 d6 f6 3d ad d1 bc bd 5b 34 04 bc
       0.109468386 0.120525785 -0.0921968 -0.008069123
0003f0 7f 28 bb 3d 22 e8 ec 3d ad 37 a3 bd fb eb be 3d
       0.091385834 0.11567713 -0.07969604 0.093223535

model.actor.3.bias f4 [64]
000000 01 21 dc 3d 4b 51 70 bd 99 ea 21 3d 59 d2 f6 bd
       0.107484825 -0.058671277 0.03953037 -0.120518394
000010 0f 42 df bc 25 18 99 3d c9 fe b1 3d f1 e4 37 3c
       -0.027253179 0.07475308 0.086911745 0.0112240175
000020 07 fa de 3d 6c 90 f2 3d b9 dc 79 3d e4 5b 53 3d
       0.10887533 0.118439525 0.061001513 0.051601306
000030 9d 71 d8 3d d3 6e f0 bd 2b 26 1b bd 46 a5 23 bd
       0.10568545 -0.11739888 -0.037878197 -0.03995254
000040 cb fc fc 3d 17 d9 d7 bc 79 dd 06 bd 0f dc e8 3d
       0.12352904 -0.026348634 -0.032926057 0.11370098
000050 ea 6b c8 bd 4f 89 a0 3d c9 a3 3a bd f7 fe d7 bd
       -0.09786208 0.078386895 -0.045566354 -0.105466776
000060 cb 27 60 3d c3 b3 01 3d 40 24 e9 bd 11 ed 33 bc
       0.05472545 0.031665575 -0.11383867 -0.010981814
000070 2e b7 ff bb 75 86 72 3d 83 91 8a bd 75 c5 af bc
       -0.007803819 0.05921026 -0.067660354 -0.02145646
000080 37 74 48 3d a1 a4 c5 bd bf 32 2c 3d 30 cf a9 3d
       0.048938956 -0.09650541 0.042040583 0.08291471
000090 09 9d 8b bd e5 bc 87 3c 6b 74 85 bc a8 1e cf bc
       -0.068170615 0.016569564 -0.016290864 -0.025283173
0000a0 28 49 c5 bd 07 5e 7f 3d 59 a8 da bd 5b 70 62 bd
       -0.09633094 0.06234553 -0.10676641 -0.05528293
0000b0 94 1d bb 3c 74 6f 8c bd 52 5e f3 3d f0 f2 7e 3d
       0.022841252 -0.068571955 0.118832245 0.062243402
0000c0 07 b4 8b bd 32 a7 b8 bd a2 61 f9 bc 29 37 37 bd
       -0.06821447 -0.09016265 -0.030442063 -0.04473034
0000d0 12 89 a0 3d 2d aa c1 bd 6b c0 9c bd de 27 e7 bb
       0.07838644 -0.094562866 -0.07653888 -0.007054313
0000e0 70 38 7d bd af a2 9b bd 29 5e b6 3d 6f 92 f0 bc
       -0.0618214 -0.07599389 0.089046784 -0.0293667
0000f0 8a 58 80 bd 74 77 f9 3b c8 7a 8b bc 47 36 d1 bd
       -0.062668875 0.007613117 -0.01702632 -0.10215431

model.actor.4.weight f4 [64]
000000 18 b3 8c 3f 64 b3 84 3f c9 08 86 3f 57 a8 8b 3f
       1.0992155 1.0367246 1.0471431 1.0910748
000010 77 27 88 3f dc 23 8c 3f 65 8a 86 3f 04 d3 8a 3f
       1.0637044 1.0948443 1.0510985 1.0845647
000020 b1 99 8c 3f 5c 4f 94 3f 4b 7f 87 3f 06 89 88 3f
       1.0984403 1.1586719 1.0585722 1.0666816
000030 ee ec 89 3f 4e c2 8d 3f da c7 87 3f 9a 04 8a 3f
       1.077543 1.1074922 1.0607865 1.0782654
000040 98 61 8d 3f 84 5c 8e 3f 15 02 8a 3f c3 ac 90 3f
       1.1045408 1.1121984 1.0781885 1.1302723
000050 af ca 87 3f d0 90 88 3f fd 16 88 3f 02 f1 88 3f
       1.0608729 1.0669193 1.0632015 1.069855
000060 54 32 82 3f 4c 6a 87 3f 77 cf 8a 3f b7 80 95 3f
       1.0171609 1.0579314 1.0844563 1.1679906
000070 66 07 89 3f b8 6d 8c 3f dd 38 96 3f 6e 24 a6 3f
       1.0705383 1.0970984 1.1736103 1.2979867
000080 71 64 90 3f 64 7e 88 3f 4d c4 82 3f a6 26 8b 3f
       1.1280652 1.0663571 1.0216156 1.087117
000090 02 2c 99 3f 1f 77 91 3f 86 81 8b 3f 15 30 88 3f
       1.1966555 1.1364478 1.0898902 1.0639673
0000a0 4d aa 82 3f f2 ae 8b 3f b5 14 84 3f eb dd 94 3f
       1.0208222 1.0912764 1.0318819 1.1630224
0000b0 64 dc 84 3f 28 9a 88 3f 0c 17 8b 3f 7b 89 87 3f
       1.0379758 1.0672045 1.0866408 1.0588831
0000c0 05 d9 86 3f e6 3b 87 3f 8e 18 8d 3f e6 38 8a 3f
       1.0534979 1.0565155 1.1023118 1.0798614
0000d0 a1 da 76 3f 25 9f 88 3f df 8a 88 3f 9f f5 92 3f
       0.9642735 1.0673567 1.066738 1.1481208
0000e0 fa 93 86 3f 39 40 8c 3f 4c 50 8c 3f be 7a 89 3f
       1.0513909 1.0957099 1.0962005 1.0740583
0000f0 39 3c 8b 3f d9 20 8c 3f fb d1 8d 3f f9 4d 8f 3f
       1.0877753 1.0947524 1.1079706 1.119567

model.actor.4.bias f4 [64]
000000 a0 45 34 3d 60 37 1f 3d 6c a9 2c 3d 06 1c 17 3d
       0.044011712 0.03887117 0.04215376 0.03689196
000010 4d 26 24 3c ba d6 6e 3d 4c 91 3b 3d 84 dc 39 3d
       0.010018897 0.058310248 0.045792863 0.045376316
000020 29 fe 62 3d 54 47 99 3d 29 46 1e 3d fa fd 10 3d
       0.055418167 0.07484308 0.03864113 0.03539846
000030 12 91 21 3d 3b 1b f3 3c a4 57 16 3d e9 31 8b 3c
       0.03944499 0.02967607 0.036704674 0.016991572
000040 21 65 6f 3d 74 88 64 3d f0 6f 32 3d a6 55 4b 3d
       0.058446053 0.055794194 0.043563783 0.049642228
000050 89 43 3b 3d 9c ab 4a 3d 01 f1 25 3d cb c7 49 3c
       0.045718703 0.049480066 0.040513042 0.012315701
000060 e1 88 8d 3c 87 1f 31 3c 1f fc 2f 3d 1e e8 50 3d
       0.017277183 0.010810739 0.04296505 0.051002614
000070 55 1e 5c 3d 23 3d 5e 3d d8 0e a2 3d 9b 61 94 3d
       0.053739864 0.054257523 0.079129875 0.07245179
000080 d8 c5 a3 3d 55 e0 1c 3d 30 93 86 3c df 58 4a 3d
       0.0799672 0.038299877 0.016427606 0.04940116
000090 d5 20 ae 3d 39 46 92 3d 7e bd 5a 3d b0 be 05 3d
       0.08502356 0.071423 0.05340337 0.032652557
0000a0 37 0d 77 3c 3c d9 55 3d 05 3a d8 3c 56 8f 58 3d
       0.015078834 0.052209124 0.026394853 0.05287107
0000b0 f2 ad 09 3d 62 b0 36 3d 92 b2 23 3d dc 5e 22 3d
       0.033613153 0.044601806 0.03996522 0.039641246
0000c0 a1 e8 52 3d ab af a3 3c ba 13 79 3d 25 83 02 3d
       0.051491383 0.019981226 0.06080983 0.03186335
0000d0 0d 3b 9a bd 6c bd 2c 3d 6a 24 86 3d 66 38 43 3d
       -0.07530794 0.042172834 0.06549914 0.047661208
0000e0 b8 75 54 3c f8 c3 69 3d 6f 1d 32 3d 74 14 89 3d
       0.012967519 0.057071656 0.0434851 0.06693354
0000f0 51 c6 5d 3d b6 82 4b 3d 3b 86 6f 3d 35 ab 87 3d
       0.054144207 0.049685203 0.05847762 0.06624452

model.actor.6.weight f4 [2, 64]
000000 ad 75 3f be a4 81 fe 3d b5 49 98 3d e4 56 36 3e
       -0.18697233 0.12427071 0.074359335 0.17806584
000010 6a fb 87 3d 48 8d b0 3d 71 ce b3 3d fb 4f 4d 3e
       0.0663975 0.08620697 0.0877961 0.20050041
000020 a4 f7 9c 3c 9e 7c 0a 3e 65 57 f9 bb 90 a7 9d bd
       0.019161053 0.135241 -0.007609295 -0.07697976
000030 df 9b 43 3e bf 78 55 be c7 55 84 bd 2f ed 24 3e
       0.19102429 -0.20846842 -0.06461673 0.16106103
000040 79 52 23 be f4 55 27 3e e3 23 c8 bd b3 a0 38 3e
       -0.1594943 0.16341382 -0.0977247 0.18030052
000050 d2 a3 a2 bc 90 2a 19 3e 43 73 21 3d 3a 37 b4 3d
       -0.019853506 0.14957643 0.039416563 0.08799596
000060 81 da ca 3d 5f ff 0b 3d 15 65 c0 bd 8f 95 03 3e
       0.099049576 0.034179088 -0.0939428 0.12850021
000070 32 2e 00 bd 39 f9 1f 3e 16 4c 35 bc 03 f9 9c be
       -0.031294055 0.15622415 -0.011065504 -0.3065873
000080 a3 1d 93 bd b1 e0 e0 3d 20 f0 e3 bd 39 c7 33 be
       -0.07183387 0.109803565 -0.111297846 -0.17556466
000090 cd 34 8a bc 14 c3 01 be 95 c3 34 3e 62 fa 3f 3e
       -0.01687088 -0.12672073 0.17652734 0.18747857
0000a0 7a 92 05 3d f9 a0 8b 3d b0 41 08 bc 74 f2 cc bd
       0.032610394 0.068178125 -0.008316442 -0.10007182
0000b0 73 4e 01 be 16 ba 3c be 52 5f 6e 3d 36 7c ed 3d
       -0.12627582 -0.18430361 0.058196373 0.11595957
0000c0 22 d4 ab 3d 52 bf 37 3e af 7e 3d be b7 39 d2 bd
       0.083900705 0.17944077 -0.18505357 -0.102649145
0000d0 d5 57 b3 3d 09 96 ed 3d b2 23 ad 3b a6 c9 4e 3e
       0.08756987 0.116008826 0.005283796 0.2019411
0000e0 a6 a7 dd 3d f8 d9 5c 3d 79 fe 3b be a4 6a 81 bd
       0.10822992 0.05391881 -0.18358792 -0.06319168
0000f0 29 4b 89 bc 1d f4 bf 3d 9b db 1e be 00 0b d6 bd
       -0.016759472 0.09372733 -0.1551346 -0.10451317
000100 9e 3e d8 3d 4b 6a 05 be 58 51 bd 3d 19 8e 31 3e
       0.10558818 -0.13028829 0.09244031 0.17339362
000110 a5 76 b1 3d 6c 4b 10 3e 32 7d 2a be 67 aa e1 3d
       0.08665208 0.14091271 -0.1664932 0.1101883
000120 f9 4d 43 3e c6 c2 95 bd 66 1f 17 3e 2f b5 2c be
       0.19072713 -0.07312541 0.14758071 -0.16865991
000130 1b b0 b8 3d e0 a5 e2 bd bb 39 95 bd a6 4a ef 3d
       0.090179645 -0.110667944 -0.07286402 0.1168416
000140 a6 fd 81 bd a9 01 85 bd d7 8f 0f be 6c 98 99 bc
       -0.06347208 -0.06494457 -0.14019714 -0.018749438
000150 fc 05 02 3e 8b 4d 04 be 65 f9 31 3e 40 f8 05 be
       0.12697595 -0.12920205 0.17380293 -0.13082981
000160 bc 3e c9 3c 3e f3 2d be 3f 87 1f be 0f fe 57 3e
       0.024566047 -0.16987321 -0.15578936 0.2109301
000170 c6 ec 1c be ca 56 de 3c 2a a0 6d 3e d8 69 8e be
       -0.15324697 0.027140994 0.23205629 -0.27815127
000180 fe 31 52 3e b6 49 39 3e 7e 84 98 3c c6 43 a3 3d
       0.20526883 0.18094525 0.018617865 0.07971911
000190 a0 15 82 3e c5 7b 88 bd 44 9d 86 bc 5a 84 01 3e
       0.25407124 -0.06664232 -0.016432412 0.12648144
0001a0 fe 98 26 bd a1 17 02 3e f2 4a 58 bd 22 cf 7a be
       -0.04067325 0.12704326 -0.05280585 -0.24493077
0001b0 6e 1f d1 bd 9f 90 8e bd fa 57 3a be 86 23 0e 3e
       -0.10211073 -0.06961178 -0.18197623 0.13880739
0001c0 a3 25 b7 3d ca fc 63 3d bb 2e b6 bc 45 1c f7 bd
       0.089427255 0.055661 -0.02223908 -0.12065939
0001d0 4f 78 34 bd d8 35 4c 3e 8d 98 e3 bd ae 42 19 3e
       -0.044060048 0.19942415 -0.11113081 0.14966843
0001e0 77 b3 16 3e 3a f0 d8 bd 2a 1a 23 be 0f 5a e7 3d
       0.14716898 -0.105926946 -0.1592795 0.11296474
0001f0 68 d8 2c 3e ab 77 df bd f4 64 1f be 4e 69 c4 bd
       0.16879427 -0.10911497 -0.15565854 -0.09590398

model.actor.6.bias f4 [2]
000000 e2 31 84 bd 3d e5 7b bd
       -0.06454827 -0.061497916
