src/taser/locomotion/models/track_velocity.pth (torch, 59817 bytes, 22 tensors)

log_std f4 [2]
00000000: 3cd8 b2bf b77a b3bf
-1.397224 -1.4021825

actor.0.weight f4 [64, 29]
00000000: e004 843c a1f2 d83b 85bd 0cbc d69c 503d
00000010: 3c67 b3bd 265f 0b3e 2d96 183e 3406 323c
00000020: 871b c2bd 367a 303e fcf1 eabd fd7a dfbd
00000030: d5fb e23d ddb6 8a3c 340d cabc dcbe 01be
00000040: 66fc 963e 1e01 90bc 19e1 81bd 7f93 43be
00000050: e382 a0bd 39a9 ed3c d2d6 973d f531 f53c
00000060: 52d6 523e 8011 fdbc 7886 5ebe 7eba 003e
00000070: 62bd 13be 4dd9 84bd 7257 7fbd 4cc0 40bd
00000080: 3d60 a93d 3f90 043e 0e17 0abe fd72 333e
00000090: 793b c83c 5805 03bd 1e8d 13bd 0e42 983d
000000a0: abb0 88bd 177f 433d 1a05 10bd 900e 753d
000000b0: 0f68 4ebd 07af 013e e174 38be 4229 91bd
000000c0: 26d7 113c 6dd8 94bc 2fe2 4dbe 8ce6 4ebd
000000d0: 8e30 d2bc c360 65bd 6f7a 5fbd 7c1a 25be
000000e0: 5d4f 03be 2676 9bbd 1a14 683d 8156 b73d
000000f0: b7e8 363e 85b7 493c 49f3 aabd 1e29 c43c
00000100: 52b1 cdbc c66c 8bbd bff8 bfbc 1bef f0bb
00000110: 8509 9dbd 6221 0abd cc94 813d 4e0f d73c
00000120: b90d 60bd 707f 21bd 96db c43d 80d5 303d
00000130: ed83 cebd 03e8 883d b013 edbd b3eb 213e
00000140: d9b1 fbbc a158 d03c 10f4 913c 6485 3a3d
00000150: db54 133d db18 cabd 7d08 85be 70b7 093e
00000160: 8d5f 8c3d b457 023e de7a 773d d076 533d
00000170: 01a3 27bc 0dbd 073e 237a 673d ed47 c3bd
00000180: 2c78 563d 0c14 a5bd bdb7 9d3d a30e c23d
00000190: ef40 21bc f888 8ebc 951b 55bd 1070 88bb
000001a0: d79e 0fbc f1dd 5fbe fe9f 983d 759c 21bd
000001b0: 1ba4 80be 2e6c 7fbb 620f 103e ba03 813d
000001c0: 05f4 953d 5431 a0bc 9b81 2dbe 92b4 893e
000001d0: 53e2 183d a423 743d 00ec b33c d640 68bd
000001e0: fbf0 03be a2a8 2d3e 24e7 1c3d e688 67bd
000001f0: 917c 70bd 303a 813d 8c42 673d f920 133d
00000200: 639b 8bbc 12c9 4d3d 7517 9dbd a172 c3bc
00000210: e137 d13d 0462 343d cb2c 2b3d 52f8 993d
00000220: 8f87 0d3d 2921 7b3e 5e92 0dbe 51b7 7cbc
00000230: db92 83bd 0bd0 b6bc 6135 07bc faea 2bbe
00000240: 0f4d 57be a603 8f3c 425a 113e a1b9 bc3d
00000250: 480b a1b9 bd2f b33d 3b79 66bc e75d 16be
00000260: e99b 80bd 7bd1 2e3e 2e78 a4bc 7d40 293e
00000270: 495b 1ebe b7f6 0dbe 005c 50ba 1cbe 8e3d
00000280: 5c93 0c3c 3cde 14be 1871 a33d 0689 d33d
00000290: 97fb 123e 0cd3 d2bd e62a 8dba 11dc a9bd
000002a0: 2964 b737 cba7 873b 8f09 6e3d b33f 1ebb
000002b0: bac8 12bd 4457 413e 047a 01be 79b5 bfbd
000002c0: 9eb1 a03c f331 853d 172d 053d 56f6 f2bd
000002d0: 3c02 7f3c 4c2b c43c 9676 b83d 0315 ee3d
000002e0: 09f4 f43c 8043 623d b718 2f3d 427b f93d
000002f0: 2155 253d 78cf 5cbd 42e2 48bd 6ff5 513b
00000300: ba59 88be 6a7a 95bd a3ca 37bd 7fe7 5e3d
00000310: bd4e c8bd 4baf 4c3e 7a20 12be 2c6a afbd
00000320: d87b 833d dcf7 13be 77de 91be f3e0 713d
00000330: 1492 debd 3c73 1b3d bd78 af3c 3e1b 213e
00000340: 0d4a 1cbe e35b 33be 2a9c 10bc b1c2 92bd
00000350: 2d35 b13d bc18 803c 964f 8fbd e5cd e8bb
00000360: 1808 7d3d 9995 86bc 531e be3d d42e 12be
00000370: bce6 17be 7688 7bbd 89b5 3bbd a2d7 9c3d
00000380: 4d24 4abd bb60 72bd e840 5d3e 6a0d 5c3d
00000390: 9d39 2a3e 4338 243d 2402 ea3d 79b0 6cbe
000003a0: 86ca 14be 2243 c53d 0f0e 4b3d d2de b8bd
000003b0: 8650 d9bc 7ae4 6bbd 1fba 90bc 587e 463e
000003c0: a6d5 b1bc 8a42 b73d cf1c e4bc d169 313d
000003d0: cfd0 b6bc 774b 95bd eb65 2abd 557b 4cbd
000003e0: df4d 1fbe f424 6ebd 6fd2 afbd ceea 653c
000003f0: 7e04 22be b719 f13d 182c ad3c 67ed 8dbd
0.016115606 0.0066207205 -0.008590107 0.05093082 -0.08759925 0.13610515 0.14901038 0.010865737
-0.09477907 0.1723412 -0.11471936 -0.1091213 0.110831894 0.0169329 -0.024664499 -0.12670463
0.2948944 -0.017578658 -0.06341762 -0.19099234 -0.07837465 0.029011356 0.074140206 0.029931048
0.20589569 -0.030892134 -0.21730983 0.12571141 -0.14427713 -0.06486759 -0.062339254 -0.04705839
0.08270309 0.1294565 -0.13485357 0.17524333 0.024442421 -0.031987518 -0.03602325 0.07434474
-0.06674322 0.047728624 -0.035161115 0.05982834 -0.050392207 0.12664424 -0.18013336 -0.070879474
0.008901393 -0.018169606 -0.20105813 -0.050512835 -0.025657918 -0.056000482 -0.05456012 -0.16123384
-0.12823243 -0.075908944 0.056659795 0.08952046 0.17862211 0.012311821 -0.08347184 0.023945387
-0.025108967 -0.06807856 -0.023434041 -0.0073527223 -0.07667831 -0.033723243 0.06327209 0.026252415
-0.054700587 -0.039428174 0.09612195 0.04317236 -0.100837566 0.06684878 -0.11576021 0.15812568
-0.030724453 0.025432887 0.017816573 0.045537367 0.035969596 -0.09868022 -0.2598304 0.13448882
0.06854162 0.12728769 0.06041991 0.05162698 -0.010231734 0.13255711 0.056512963 -0.09535203
0.0523607 -0.08060464 0.07701061 0.09475448 -0.0098421415 -0.017399296 -0.052028257 -0.0041637495
-0.008765898 -0.21862008 0.07452391 -0.03945585 -0.25125203 -0.0038974392 0.14068368 0.06299539
0.07321934 -0.019554771 -0.16943972 0.26895577 0.037325215 0.059604302 0.02196312 -0.056702457
-0.12884896 0.1695886 0.03830637 -0.05652704 -0.058712546 0.063099265 0.05645995 0.035920117
-0.017041868 0.050240584 -0.0767049 -0.02385837 0.10215736 0.044038787 0.041790765 0.075180665
0.034553107 0.24524368 -0.13825366 -0.015424565 -0.06424495 -0.022316 -0.008252473 -0.16788855
-0.2102549 0.017457794 0.14194587 0.092150934 -0.00030716718 0.0874934 -0.0140669895 -0.14684258
-0.062797375 0.17072098 -0.020076837 0.16528507 -0.1546451 -0.13863645 -0.00079482794 0.06969854
0.008580055 -0.145379 0.07980555 0.103288695 0.14353786 -0.1029416 -0.0010770231 -0.082939275
2.186194e-05 0.0041398755 0.058114585 -0.0024146854 -0.03583596 0.18880945 -0.12644202 -0.09360785
0.019615944 0.06503668 0.032513704 -0.11863391 0.015564498 0.023946427 0.090069935 0.116251014
0.029901521 0.055240154 0.04274818 0.12181713 0.04036439 -0.053908795 -0.0490439 0.003203716
-0.26630956 -0.07298739 -0.044870984 0.05441999 -0.09780643 0.19988744 -0.14270201 -0.085651726
0.06420106 -0.1445002 -0.2849004 0.05905242 -0.10867706 0.037951693 0.021419877 0.15733048
-0.15262623 -0.17515521 -0.008826295 -0.07166041 0.086527206 0.015636794 -0.06997602 -0.0071046227
0.061775297 -0.016428756 0.09283128 -0.14275676 -0.14834112 -0.061409436 -0.045827422 0.07658316
-0.049351025 -0.05917428 0.21606791 0.05372373 0.1662354 0.040092718 0.114261895 -0.23114194
-0.14530382 0.09631945 0.049573954 -0.090268746 -0.026527654 -0.05759094 -0.017666874 0.19384134
-0.02170832 0.08948238 -0.027845768 0.043313805 -0.022316365 -0.072897844 -0.041601103 -0.049922306
-0.15557049 -0.05814071 -0.08585059 0.014033033 -0.15822026 0.11772483 0.02113919 -0.069300465

actor.0.bias f4 [64]
00000000: 0f0d a5bd 433c 1a3e d69c c83d 41c5 45bd
00000010: c5b5 0d3e dbf5 ddbd 3d35 3fbe 1769 9b3d
00000020: 4288 04be ee83 583d c4ea 3b3e d38c c9bd
00000030: 2d46 053e 39cf 4c3c f27b 3d3e 5465 a13c
00000040: 6cd6 88bd cb34 f63c dcce 0c3e cd8d 163e
00000050: 8d56 1ebe 9048 b03d 331b 4bbe ec39 a1bd
00000060: bc82 01be 6457 143e bb5a cd3c 4aa6 4ebb
00000070: afb9 72be 2009 623e 3aa4 2e3e e4bc 36bc
00000080: 97db 893b 3f22 773d 594a a2bd 1d7b 803d
00000090: 8bc3 dd3b f513 433e 9870 e73d a739 5e3c
000000a0: 97b2 e43c 5c83 4cbe 644e aebd 2a0d d2bc
000000b0: b199 5ebe 76a6 aabd 2d6e 3abe aabb bebd
000000c0: 4346 4fbc 0002 9fbd 6445 babd 6d1b 343e
000000d0: 9803 b33d c41b 17be ea39 7d3d e0e5 033e
000000e0: 5e9e a23c f0aa f6bd 29d0 203e 10bc 2cbd
000000f0: ff87 7dbe af39 e33c 5398 f8bb 2a53 293e
-0.08059131 0.1506205 0.09795539 -0.04828382 0.13838871 -0.10837909 -0.18672653 0.07588404
-0.12942603 0.052860193 0.18351275 -0.09841313 0.13015051 0.012500578 0.18504313 0.019701637
-0.06681523 0.03005447 0.13750786 0.1470253 -0.15462704 0.0860759 -0.19834594 -0.07872376
-0.12647527 0.14486462 0.025067678 -0.0031532221 -0.23703645 0.22073793 0.17054835 -0.0111534335
0.0042070854 0.060335394 -0.07924337 0.06273482 0.0067676953 0.19050582 0.113007724 0.01356355
0.02791719 -0.19971985 -0.085110456 -0.025641043 -0.21738316 -0.08332531 -0.18206091 -0.09313138
-0.012651029 -0.07764053 -0.090952665 0.17588587 0.0874092 -0.14756685 0.06182281 0.12880659
0.019850906 -0.120443225 0.15704407 -0.042171538 -0.2475891 0.027737467 -0.007586518 0.16535631

actor.1.weight f4 [64]
00000000: 0274 813f dac0 813f 5b2c 833f 7f28 803f
00000010: 1868 813f 2df8 7b3f 8732 7b3f d039 7a3f
00000020: 1273 783f c570 7d3f 9de3 813f d6f4 823f
00000030: c528 7f3f 324f 773f b6f7 783f 0705 813f
00000040: 3a33 803f 7865 7e3f 26ed 7e3f 58b5 823f
00000050: 738f 813f 8297 7d3f 4e00 8a3f 33bc 733f
00000060: e5cd 803f 5478 803f 2df5 773f 06cf 733f
00000070: b160 883f cf5b 8a3f d63f 7a3f 49c2 843f
00000080: 0ea2 7c3f 9113 7e3f 0c97 723f de72 763f
00000090: 752c 803f c38c 843f 045f 833f 7842 753f
000000a0: 6f85 7a3f 2220 823f 9b64 743f 1d7e 843f
000000b0: 310c 823f 8b62 843f 69fa 863f e6cb 7e3f
000000c0: f746 813f af59 773f a207 713f 30cd 823f
000000d0: 0396 773f 0cb8 843f cb99 7e3f 8d21 7e3f
000000e0: 5166 713f 6981 763f 7249 773f 793c 803f
000000f0: ad30 803f 8beb 7e3f 8f52 813f a471 7a3f
1.0113528 1.0136979 1.0247911 1.0012358 1.0109892 0.9842556 0.98123974 0.97744465
0.97050583 0.990002 1.0147587 1.0230968 0.99671584 0.9660522 0.97252977 1.0079659
1.0015633 0.9937358 0.9958061 1.0211592 1.0121902 0.9905931 1.0781343 0.95209044
1.0062834 1.0036721 0.96858484 0.9523777 1.0654508 1.0809268 0.97753656 1.0371791
0.98684776 0.99248606 0.9476173 0.96269023 1.0013567 1.0355457 1.0263371 0.9580455
0.97859854 1.0166056 0.9546601 1.0350987 1.015997 1.0342573 1.0545169 0.99529874
1.0099782 0.9662122 0.9415227 1.0218868 0.96713275 1.0368667 0.9945342 0.99269944
0.9429675 0.96291214 0.96596444 1.0018455 1.0014855 0.9957816 1.010332 0.9782965

actor.1.bias f4 [64]
00000000: 812f 4d3c d1d5 8f3b 9dfa bf3c ad10 8e3d
00000010: 087e 523d 16d2 993c 5b7d cb3c 1536 653c
00000020: 47f8 4cbb de9e 8bbb 5adb 813c 14b3 d03c
00000030: abaa 933c 89a7 cabc 2ed6 f43a 35b9 0bbd
00000040: f801 eb3c 2308 2cbd 2766 7b3c 516b 2a3d
00000050: 8e11 423d 003c 1a3c 3e68 493d 1ac2 c1bc
00000060: b1a2 983c 27b1 073c 3212 ed3b d234 72bc
00000070: 74b8 af3b b90c 4d3d 8f74 4fbc cdaf 433d
00000080: 22a2 983c cd04 b43c 5565 81bb 06f0 803b
00000090: c82e 733c d413 a63d b0bf 9c3c 51c5 90bc
000000a0: 0671 a63b 578e b23c ec9f c5bc d4d1 4f3d
000000b0: c94f 663c a155 443d b6e1 193c 08e2 393d
000000c0: ac9c c23b b9e1 653b 0690 82bb 6f1c 3d3c
000000d0: 2cb5 f9bb 9a52 b73c b113 ef3b f746 4cbb
000000e0: de5c dd3c 745b e13c 7dbf 4b3c 230d 863c
000000f0: 3cf7 963b 15d3 1c3d c66e fa3b 9493 13bc
0.012523533 0.0043895026 0.023434931 0.069367744 0.051389724 0.018776935 0.024840048 0.013989945
-0.0031275915 -0.004260882 0.015851665 0.025476016 0.018025717 -0.02473809 0.0018679553 -0.034112174
0.028687462 -0.041999947 0.015344179 0.04160625 0.047380023 0.009413719 0.04917168 -0.023652125
0.018632265 0.0082819825 0.007234835 -0.014783101 0.0053625647 0.05006096 -0.012662067 0.04777508
0.018631998 0.021974945 -0.0039488473 0.003934863 0.0148426965 0.08109251 0.019134372 -0.017672213
0.0050793914 0.021796389 -0.024124108 0.050737217 0.014057108 0.047933225 0.009392193 0.045381576
0.005939087 0.0035077168 -0.003984454 0.011542424 -0.0076204743 0.022378255 0.0072960486 -0.0031170228
0.027021822 0.027509429 0.012435791 0.016363686 0.0046071094 0.03828724 0.0076425998 -0.009007353

actor.3.weight f4 [64, 64]
00000000: 91b9 823d ee50 e2bd f3c5 99bd 0414 6ebd
00000010: 67e7 a6bd 6069 963d 3153 633d 8fa7 f6bc
00000020: 5be2 8f3d 8b68 62bd 4dd6 863d f772 dd3c
00000030: bada 5d3d 3c46 27bd 02d4 663d f857 dc3d
00000040: 736c cc3c 302e 8fbd 4b53 35bc 1096 e8bc
00000050: d527 88bd 78a3 4f3d 4ef3 08bd 64b7 4e3d
00000060: 8c91 883d 3bb8 a53d fade 823d ca97 abbc
00000070: 8473 653c b48a 3f3d 797d b0bd 52a6 643c
00000080: 7f07 193d f14b 363d cfdd 9c3d 03d4 fa3d
00000090: ab10 9e3c 184e 8b3d 3247 0bbd b855 26bc
000000a0: 4c1c 493d ef80 bd3d 497f cebd 24e8 46bd
000000b0: 8929 46bd 25ec f9bc 64a1 a33d b492 083d
000000c0: 66e5 813b 470e 10bd 9a75 39bd 0241 2f3d
000000d0: 4a7a 343d ea4f 0d3b 5ba2 4e3d 5575 3c3d
000000e0: 56f9 bd3c 7674 763d ce71 bbbd 47df 453d
000000f0: 7157 a8bb 4a80 35bd f376 d7bd aa39 93bd
00000100: 4584 39bc 9818 abbd d03c c3bd fa03 b53d
00000110: f381 d3bc a2ed 15bd e7be 4cbd 4952 603d
00000120: fd1a c13d c340 783d 7670 39bd e28e adbb
00000130: 3c25 b53d fde3 663d 963b 17bd 4792 28bd
00000140: eaf7 86bc ee8d c13d 0297 9ebd 7ca5 a03d
00000150: 45c7 993d 69cc fcbc faf5 ca3d 7372 0d3e
00000160: c408 0d3d 4351 10bd 10f8 1e3d ce1e 5ebd
00000170: 522b 733d 60fd 5b3d b859 2f3d 6a01 90bd
00000180: 34e6 bbbc 985c 0e3e c98a 4ebc 4451 4b39
00000190: 3c38 483d f2e0 06bd 583a 413c ca91 59bd
000001a0: 3e2f a7bd 8044 4cbd 95d4 35bd 5eb0 2d3c
000001b0: 9fe6 103e 7302 45bd c64e fdbd aacb fb3d
000001c0: 5f2f b33d e9bc 7a3d a56a bd3c 191e 7fbd
000001d0: e637 cebd d4e3 d9bc a817 12bd f4a9 b6bc
000001e0: 0d0b 1c3d e7a8 b3bb 9abf cd3d 8653 a23d
000001f0: 7bd5 47bd ace9 d63d b1d7 a33a d0a4 fbbd
00000200: 28b0 3a3d 3125 18bd b85c b43d 484a abbd
00000210: 993f 8dbd 235d 33bd f1c3 0d3c faa6 bdbd
00000220: 987d 8c3c 30e7 153d 7839 013e 3f48 493d
00000230: 133e 2b3c 07cc bbbd dec6 a2bc 51fa ef3d
00000240: d4cd 893d af9f 20bc 06c3 b8bc 8e18 c23d
00000250: d3bc 5fbd 507f a6bc a9a1 133e 3eba b0bd
00000260: 84eb 193c 3c48 a3bd f636 653d ca39 a03c
00000270: 0b74 573e b1a5 debc 26a7 4a3d 04ee 1939
00000280: 631f 24bc adaa 59bd 7053 32bd e442 8a3d
00000290: d55e 013d 9f46 3abd c6d7 513c d9c2 d63b
000002a0: cf0b acbd 392e 4abd 63f9 cabc 5f39 8fbb
000002b0: f04b 493d a703 92bc f64d 82bc 6dc9 ecbc
000002c0: 1ffc 063e 7674 febc 8038 423d 5654 21bb
000002d0: a0d7 1fbc 383c ad3d 8dad 903d eb09 8a3d
000002e0: 7ab0 8bbd fe2d c33c c0db e2bd 244e 7b3c
000002f0: 30f1 f93d 2ca9 bd3d d295 f73c 34c9 7e3d
00000300: 5c70 263d 6cda 62bc c3fb 97bd d87c 96bd
00000310: 6ff1 80bd 9236 c4bd 3bf7 153d 325f 753c
00000320: 06a7 6c3d c5af fa3d 0f62 14be bfdb bc3d
00000330: 15a3 fd3d cd21 f83d fa6f a43b 454e b33d
00000340: 70f4 563d 3612 0b3e 580c 91bc fa9f b73c
00000350: 8c34 7ebd f74c 6c3d 8d6c 983b 60b9 223d
00000360: 5d13 b93d 09a1 843d d927 da3d 05c3 8bbd
00000370: 8ceb 1c3d 8831 81bd d39b a3bd 046c 033c
00000380: 94b6 5e3c 3074 23bc ae9c 4c3d 86e9 29bd
00000390: 7f26 7a3d 22d8 c03d bfb4 003d e72a 8abd
000003a0: e6a4 493d 5776 98bd 2c6d b9bc e1e0 593d
000003b0: 9d94 543c 7c0c 13be d51c 06be 2071 febd
000003c0: ffab dc3c 727a b73c 2850 0ebc 11f5 703c
000003d0: a540 88bd 6341 a6bd 1469 b53d 7447 01bd
000003e0: ac3e aabc 2a10 873d 13a6 bf3d 9f18 f5bc
000003f0: f524 01be 76f9 f93d 57a0 5f3d 6960 703d
0.0638305 -0.11050592 -0.07508459 -0.058124557 -0.08149605 0.073443174 0.05549926 -0.030109195
0.07025596 -0.05527548 0.065838434 0.027032359 0.054163672 -0.040838465 0.05635453 0.10758966
0.024954056 -0.069912314 -0.011067222 -0.028391868 -0.06648222 0.050693005 -0.03343516 0.050467864
0.06668386 0.0809178 0.06390186 -0.020946402 0.014004592 0.046763137 -0.08617682 0.0139556695
0.037360664 0.044506017 0.07659494 0.12247469 0.019295057 0.068020046 -0.034003444 -0.010152273
0.04909925 0.09253108 -0.100828715 -0.04856123 -0.048379455 -0.03050811 0.07989767 0.033343032
0.003964114 -0.035169866 -0.04527817 0.042786606 0.044061936 0.0021562525 0.050447803 0.046010334
0.023190182 0.06016966 -0.09152566 0.048308637 -0.005137377 -0.0443118 -0.10520735 -0.07188733
-0.011323039 -0.083543 -0.095330834 0.08838649 -0.0258188 -0.036603577 -0.049986746 0.054765973
0.09428976 0.060608637 -0.045273267 -0.005296574 0.088449925 0.05636977 -0.03692206 -0.041155126
-0.016475637 0.09450899 -0.07743646 0.07844064 0.07508711 -0.03085919 0.099101976 0.1381319
0.034432188 -0.035233747 0.03881079 -0.054228596 0.059367485 0.053708434 0.04281017 -0.0703152
-0.022936918 0.13902509 -0.012606331 0.00019389862 0.048881754 -0.03292937 0.011793695 -0.05311755
-0.081633076 -0.049870014 -0.044392187 0.010601131 0.14150475 -0.04809804 -0.123685405 0.12294705
0.0874927 0.061215315 0.023122141 -0.062284563 -0.100692555 -0.026597895 -0.03566709 -0.022297837
0.038096476 -0.005482781 0.10046311 0.07926087 -0.048787575 0.10493788 0.0012500194 -0.12287295
0.045578152 -0.037144843 0.08806747 -0.083637774 -0.06896896 -0.043789994 0.008652673 -0.09260364
0.017149732 0.03659743 0.12619579 0.049141165 0.010451811 -0.091697745 -0.019870218 0.11717666
0.06728712 -0.009803697 -0.022553932 0.0947734 -0.054623436 -0.02032438 0.14417137 -0.08629273
0.00939453 -0.07972762 0.055960618 0.019558806 0.2104036 -0.027178617 0.04947581 0.00014679885
-0.010017249 -0.053141285 -0.043536603 0.067510396 0.03158458 -0.045477506 0.012807792 0.0065539894
-0.0840069 -0.049360488 -0.02477712 -0.004370853 0.049144685 -0.017824007 -0.015906315 -0.028904641
0.13182114 -0.031061392 0.047417164 -0.0024616919 -0.009755999 0.084587514 0.07064352 0.06740173
-0.068207696 0.023825642 -0.1107707 0.015338454 0.12204206 0.092607826 0.030222807 0.0622036
0.040634498 -0.013846021 -0.074210666 -0.07348031 -0.0629605 -0.09580721 0.03661273 0.01497631
0.057776473 0.12240557 -0.14490531 0.09221601 0.12384621 0.12115822 0.0050182315 0.08755163
0.052479208 0.13581166 -0.017706081 0.02241515 -0.06206183 0.057690587 0.004651612 0.03972757
0.090368964 0.064760275 0.106521316 -0.068243064 0.038310573 -0.063082755 -0.079887055 0.008021358
0.013593335 -0.009976432 0.04995411 -0.04148247 0.06107187 0.09416224 0.031422373 -0.06746464
0.049229525 -0.074444465 -0.022635065 0.053192977 0.012974885 -0.14360231 -0.13096936 -0.12423921
0.026937483 0.022397254 -0.008686103 0.014706866 -0.06652955 -0.0811794 0.08857933 -0.031562284
-0.020781837 0.0659488 0.09357848 -0.029918967 -0.12611754 0.12205784 0.05459627 0.058685694

actor.3.bias f4 [64]
00000000: 0aef e5bd b787 56bc 10e7 b2bb c44c 14bc
00000010: 2da0 083c 9a86 533d e7f0 5a3d 86d0 2abd
00000020: e76e 2d3d 6804 8f3d e77c 853d 46fb bb3d
00000030: 5cef e8bd dd2f 5ebc f81a 65bd cc9c 8d3d
00000040: 36ba d83d 3a0c 4d3d 1071 3b3d 7395 dc3d
00000050: 38c6 d63d fe25 26bb a2c6 9fbd 0a58 053d
00000060: 1b25 5abd 55d4 e8bd d334 b7bd 7a5a 253d
00000070: 9e6e e6bd 497c cdbd 592c ba3d c136 233d
00000080: 46b3 db3d d00e 403d 8706 debd 0b12 423b
00000090: 5b7f a8bd 5cf9 16bd 90cd 8e3d e5bc 603d
000000a0: 6462 d5bd b214 a4bd 5dec 013d 8118 953c
000000b0: aadf 78bd b22c 983d 0d6b 273b 7d55 fb3c
000000c0: 854c d7bd d3ab 3c3c e315 dcbd 0fe1 f3bb
000000d0: 7611 ee3d fa91 f7bc cc0c ecbd df55 25bd
000000e0: 92fb 8a3d f224 7cbd 3504 9ebd a4c3 743d
000000f0: a4e7 1c3d 4fb8 d5bd 40c0 92bd 2bc9 193e
-0.11227234 -0.01309388 -0.0054596737 -0.0090515055 0.00833897 0.051642038 0.0534524 -0.04170277
0.042342093 0.06983262 0.06517964 0.09178786 -0.11373779 -0.013561216 -0.055933923 0.06914672
0.10582392 0.05006049 0.04576212 0.10770693 0.10487026 -0.0025352235 -0.07801558 0.032554664
-0.053258043 -0.11368624 -0.08945622 0.04036949 -0.11251567 -0.10033471 0.0909049 0.03984714
0.10727553 0.046889126 -0.10841089 0.0029612805 -0.08227416 -0.0368589 0.06972802 0.054867644
-0.10419157 -0.0801176 0.031719554 0.018200161 -0.060760178 0.074304 0.0025545985 0.030680412
-0.10512642 0.011515575 -0.10746362 -0.0074426006 0.11624424 -0.030220974 -0.11525878 -0.040365096
0.067862645 -0.06155867 -0.07715646 0.05975689 0.038306847 -0.10435545 -0.07165575 0.15018146

actor.4.weight f4 [64]
00000000: cf37 833f ffce 8a3f 1f1b 993f 8d1b 833f
00000010: 4410 883f 5fc4 963f 7bf3 833f f766 963f
00000020: bd0b 8f3f f0cd 8f3f 97c2 843f 45f9 943f
00000030: fee7 8b3f 773f 8d3f 196f 9c3f af72 873f
00000040: ea7c 873f 92cd 963f 219f b13f e25c 9c3f
00000050: 7c28 8a3f 4eff a43f 7e4e 873f f6a3 923f
00000060: 5eb7 873f 0429 803f 2f44 8f3f 7515 893f
00000070: 890d 8f3f 5f85 843f 74b4 833f c69a 873f
00000080: ebea 803f ea91 803f 3df7 8c3f c76e 903f
00000090: c85b ba3f a741 9c3f ad11 863f 571c 923f
000000a0: 1d78 9e3f 44d9 923f 15f8 823f 26b1 8f3f
000000b0: 0ed9 8d3f 271d 873f 6111 8e3f 4b48 a23f
000000c0: 0d8f 9a3f 1f9a 803f 1351 963f af89 9a3f
000000d0: 80d1 7f3f e841 ad3f a5b4 863f 38e7 883f
000000e0: dc81 903f 12aa 893f a5f0 9f3f 1abd 913f
000000f0: 793f 963f 8709 853f 8973 903f b528 913f
1.0251406 1.084442 1.1961402 1.0242783 1.0629964 1.1778678 1.0308679 1.1750172
1.1175457 1.1234722 1.0371884 1.1638571 1.0930173 1.1034993 1.2221404 1.0581874
1.0584996 1.1781485 1.3876687 1.2215846 1.0793605 1.2890413 1.0570829 1.1456287
1.0602834 1.0012517 1.1192683 1.0709673 1.1176006 1.0353202 1.0289445 1.0594108
1.0071691 1.004453 1.1012951 1.1283807 1.455926 1.2207536 1.0474144 1.1414899
1.2380406 1.1472554 1.0231959 1.1225936 1.1081865 1.0555772 1.1099054 1.2678312
1.2074906 1.0047034 1.1743492 1.2073268 0.99929047 1.3535738 1.0523878 1.0695562
1.128963 1.0755026 1.2495314 1.1385834 1.173812 1.0393533 1.1285259 1.1340548

actor.4.bias f4 [64]
00000000: 2893 cb3b 553f f73b 4cb7 cc3d 9875 7f3c
00000010: 5fd7 d73b 6635 b93d bd56 1dbc 79f0 a23d
00000020: c686 323d e2f6 143d 8620 d33c f6cc 993d
00000030: 9ffd a03c 0539 9f3d 8ea7 b83d 37fb 113c
00000040: f8fd 243d 2e04 bf3d 618e 1c3e 941c 9c3d
00000050: 73c6 813d 73f1 b43d d02c b03c 83af 823d
00000060: 8608 1f3d 1fc4 a9bc 503b 063d ea57 033d
00000070: 3a1d ae3d 02b1 303d 9f84 80bc 2b52 143c
00000080: 38e6 a5bc bb00 b13b 3c87 3c3d fce4 113d
00000090: 2985 c3bc 48d8 dd3d fdb3 233c f45c 963d
000000a0: 4eee ae3d 2978 8b3d 1ba8 8639 c724 a53d
000000b0: 502c 87bd 74c6 ea3b ff1f b23c 783a e83d
000000c0: 852f e93d b85b b0bb 267f bf3d cc79 153e
000000d0: 6078 0cbc 828a 193e 7025 a33b ee65 1c3d
000000e0: 3085 2c3d bb37 3f3d c985 fc3d 6108 1d3d
000000f0: 35bb a83d 4be9 343c 4542 043d 8a41 993d
0.0062126108 0.0075453916 0.099958986 0.015592001 0.0065869535 0.09043388 -0.0096032 0.07956023
0.04358556 0.03636826 0.025772344 0.07509796 0.019652186 0.077745475 0.090163335 0.008909992
0.040281266 0.09326969 0.15288688 0.07622638 0.06336679 0.08835115 0.021505743 0.063811325
0.038826488 -0.0207234 0.03277141 0.032066263 0.08501668 0.043137558 -0.015688239 0.0090527935
-0.020251378 0.0054016984 0.046027407 0.035618767 -0.023867207 0.10832268 0.009991643 0.07341948
0.08541547 0.06810028 0.0002568372 0.08063655 -0.06600249 0.0071647707 0.021743773 0.11339277
0.11386017 -0.0053820275 0.093504235 0.14597243 -0.0085736215 0.14994243 0.004978828 0.038183145
0.042119205 0.046684008 0.12330205 0.03833807 0.08238832 0.0110419495 0.032289762 0.07483204

actor.6.weight f4 [2, 64]
00000000: f31f b9bd 5e0e 7ebc 6b79 ed3d c509 163e
00000010: 4215 c73c d47a 15be df96 033e 862c 633e
00000020: d901 4d3e e74e 86be 18f7 283e 452d 06be
00000030: 3c5b 923d b66f b2bd 218a abba 238a 083e
00000040: 3bc4 1d3e 8b2a 1ebe a78f 71be 93e1 983e
00000050: af69 363e 6af1 a13e 5ca6 be3d 1f18 833d
00000060: 67da 153e 86eb 79bd a846 b73d 66b7 9b3d
00000070: 4bfb 2ebe 6c3d 36be d509 c1bd 94e3 febd
00000080: 4989 0dbe a317 053d 4295 cd3d e739 033d
00000090: 7719 c7be ed62 5abe 43eb 0fbd b9c2 44be
000000a0: 9d40 733e 18ce 573e 5137 8cbd ab83 ce3d
000000b0: 6e75 24be cf00 1ebc b1df 4cbc 7ade 5bbe
000000c0: ab7f f0bd 2a33 a1bd b547 25be bb12 13be
000000d0: b43d c0bd d6c3 183e 3c6f 1e3e d07e 26be
000000e0: 062a 47be eeef 603d 3515 3cbe 091a 21bd
000000f0: e283 25be 3d9f 21be 6df5 41bc 1b41 223e
00000100: 674f 3cbd ec8b 153e 8206 623e c2aa 67bd
00000110: 0948 193e 818b 58be 4116 afbd 2309 5f3e
00000120: 1a02 aa3d 0340 393d 646a 9fbd fc4a 57be
00000130: 04d4 8ebd 05a3 45be cb57 67be 9cdb d4bd
00000140: 9688 0a3d 89fa 53be b748 83be fef7 293e
00000150: e05c f23d 5f77 293e dcbd 71bd d499 b93d
00000160: 73cc 843b 3c4c 9b3d 82d9 563e b9a4 d2bd
00000170: ae08 9abd 4315 0e3c a798 0b3d c548 3b3e
00000180: 0995 393d cf04 e3bd cb36 1ebe b5b2 6f3e
00000190: 6957 e4be a6d0 64be b946 253e 8937 31be
000001a0: d07f 5d3e 9fb8 023e ae11 de3d 23e1 1b3e
000001b0: b1d5 1dbe 19a9 3b3e 26e0 29be 1dd0 87be
000001c0: 2c0e 74be 26ef 0b3e e2c0 78be 0fde 10be
000001d0: 4638 5c3d 9b1e 653e 30a0 f2bd 1b8b 493c
000001e0: e554 483c d1a9 db3d dfec 22be afff 8a3e
000001f0: b56f 6cbe a648 8e3d bcda 35be 5f62 93bd
-0.09039297 -0.015506355 0.11595424 0.14652164 0.024302129 -0.14597636 0.12850522 0.22184953
0.20020236 -0.26232073 0.16500509 -0.13103206 0.07146308 -0.087127134 -0.001308743 0.13333945
0.15406887 -0.15445916 -0.23589955 0.298596 0.17813753 0.31629497 0.09309074 0.06401085
0.14634095 -0.06101563 0.089490235 0.0760334 -0.17088048 -0.17796868 -0.094257034 -0.12445751
-0.13821901 0.032493245 0.10038234 0.03203764 -0.38886616 -0.213268 -0.035136472 -0.19214906
0.23755117 0.21074712 -0.06846488 0.100837074 -0.16060421 -0.0096437475 -0.012504504 -0.21471587
-0.11743101 -0.07871087 -0.16140635 -0.14362614 -0.09386769 0.14918455 0.1547212 -0.16259313
-0.19449624 0.054916315 -0.18367465 -0.03933147 -0.1616359 -0.15783401 -0.011838299 0.15845148
-0.04597416 0.14604157 0.22072795 -0.05655933 0.14968885 -0.21146967 -0.085491665 0.21780829
0.08301182 0.045227062 -0.07783964 -0.21024698 -0.069740325 -0.19300468 -0.22592084 -0.1039345
0.033821665 -0.2070104 -0.25641415 0.16598508 0.11834121 0.16549443 -0.059018955 0.090625435
0.0040526926 0.075829 0.2098141 -0.102853246 -0.07521187 0.008672061 0.034081127 0.18289478
0.045308147 -0.110849015 -0.1545059 0.23408015 -0.4459794 -0.22345218 0.1614026 -0.17306341
0.21630788 0.1276574 0.10843216 0.15222602 -0.15413548 0.18326224 -0.16589412 -0.26525965
-0.23833531 0.13665447 -0.24292329 -0.14147209 0.053764604 0.22374956 -0.118469596 0.012301232
0.012227272 0.10725749 -0.15910672 0.27148196 -0.23089488 0.0694745 -0.17759222 -0.07196497

actor.6.bias f4 [2]
00000000: 3065 5fbd 2c35 b63d
-0.05453986 0.088968605

critic.0.weight f4 [64, 29]
00000000: 3f74 d7bd 737c f83b de01 0dbd 17a2 0e3d
00000010: a8f2 983d e0a2 58bd 52bb e23c 21d0 55bc
00000020: 33c2 3ebc 9823 473d e2a1 283d a88e 193d
00000030: ba36 81bc 1823 d33c 94ad 9dbb f201 8ebc
00000040: ce97 253e 1981 2c3d 0bfa cf3d 83ec c53b
00000050: 8699 4c3d b37a 783c 0486 1e3b 28ab 95bd
00000060: 9b58 d33d aaab fd3a 2e58 80bb 8c01 253e
00000070: eacb 72bd 3aa2 18be 2d4a 503b 4438 fabb
00000080: bf15 373d eab1 94bd 9d4e a03d c17f 473e
00000090: 8ec4 afbd 6bd0 b2ba f345 0b3d de61 173d
000000a0: 6664 243b 01d7 2ebb 6102 753c 9322 5fb9
000000b0: ec21 45bc e0b3 a6bd c326 8d3d 5973 0cbe
000000c0: fd40 da3c c43d b03d 4913 033e daed c93d
000000d0: d7e0 f7bd b1fa 44bd af5a 1cbe 4288 8abd
000000e0: 008a 14be 5df4 20bb 6b3c cd3d 8129 e3b8
000000f0: 7c55 63bd fc47 103d 2f28 fa3d 4ef5 01be
00000100: 66f2 11bb 8ec3 f93c 2e87 36bc 0076 3239
00000110: b6ea 013d 4ecf 423c 1f80 71bc cffe 673c
00000120: cfbb ffbb 34f2 3abc 0feb 92be e446 6dbc
00000130: f759 07bc 19dd a3bc 81d7 a83c 8de0 083e
00000140: d465 75bc 1235 043e 9a38 0c3e edd8 4bbc
00000150: a5cc 6abd de7b e33d f20c 293e 2dac 063e
00000160: 83d6 fc3b 743e 673d 6168 143d 31e6 96bc
00000170: 3e8d 9f3d a3ca 51bd 210a fbbc 7dad 7fbc
00000180: 83b5 073c f7f7 c53c b2ad 813c 9a15 22bc
00000190: aa25 ec3b bda4 12bc eaa0 5ebc e13a 51be
000001a0: 55c2 70bc 7f5c fd3d 23a4 54bd b788 72bd
000001b0: 3204 833d 051b a0bb b4da 7e3c 369f 15bb
000001c0: 59db d6bc 73cb 953d b042 c8bd abb4 c83b
000001d0: 7ff7 bc3b 3130 133c 1dcb 28bc 312a 333d
000001e0: f65f bc3d 879a c9bd 755c 20be e898 ab3d
000001f0: 036c 6bbc bdb8 133d 5c05 893b 5b39 a83c
00000200: 7616 fa3c f70e 7bbd ab80 053c 7c30 df3c
00000210: 52c6 c03b b857 343c 2a39 063e b4bc 5ebd
00000220: 12e7 023e b082 9c3c 338d 043c a0ef c0bd
00000230: 4510 e0bd 19d9 ef3c 3372 18bd 8897 b03d
00000240: 4ecf 17bd 72ae 1ebd ecb4 d63b 7136 393e
00000250: 6b57 373d 8589 fc3d 9e12 533d 0176 fe3d
00000260: 59a0 463d dec4 2c3c 73f5 ce3c 008d 283d
00000270: f8ef 043d 9aa7 57bd f6b3 b03b 369d 14bd
00000280: af55 823a ae3d 7ebc 4fd1 65bb b44a f1bd
00000290: ee68 20bd e8a2 f63d db24 0cbe 5ecb 393d
000002a0: 584e 6fbd 24e4 6fbd 4eca 4cbd 96a1 713d
000002b0: 50b5 b6bd 415c ddbd f023 9abd 1367 223c
000002c0: 17ef 013d cc13 163d 9b24 893b 00d6 603c
000002d0: 2918 a03c 2880 4c3c de07 71bc b68d 8bbc
000002e0: 8d9f de3c d96b abbc 93e2 c7bb 5a0a e639
000002f0: 573a cdbb 828c 93bb 07d5 ad3d 763b 9a3c
00000300: d809 19bd ee80 bbbc f78a cd3c d5ca 32bd
00000310: a561 0b3d d15f 0cbd 1ad1 983d c922 b53c
00000320: 0447 0cbf cb4d 48bd bcc8 16bd 3ef1 30bd
00000330: 4125 85bb c3b0 883c fa84 103d f120 f93b
00000340: 4958 9fbd 7be4 3c3e 0bf6 eb3d ade7 903c
00000350: 1b9d f93b 186f 043d a189 9f3c 9e19 b3bc
00000360: d96c 7e3a 743e 5cbc 1761 7abc 2bbb 5abe
00000370: 3af4 e5ba e7cb 65bd ccce 74bd adb4 fc3d
00000380: aeaa 0d3e 0689 963d 6537 90bd cc3b 8dbd
00000390: 1f08 06be fdca 2fbd 7cce 9abd b868 70bc
000003a0: 25af 483d 5297 243c 1abb ce3c 3f06 1a3d
000003b0: 6da5 7a3d a793 1fbd 2662 81bd 56a9 073d
000003c0: 31ba f53c 2180 043c 69e9 773d 8ec2 503b
000003d0: d393 d5bd 56f8 953d 920e 51bd 4b6d 1fbd
000003e0: abb2 703e d600 dc3c 93dc 5ebd a295 86bc
000003f0: a0c6 123c 0a1a a8bc 3e00 08bc 16b6 02be
-0.10520219 0.007583195 -0.03442561 0.03482255 0.07468158 -0.052889705 0.027677212 -0.01305011
-0.01164298 0.04861793 0.04117001 0.037489563 -0.015773166 0.02577357 -0.004811952 -0.017334912
0.1617119 0.042115305 0.10155114 0.0060401573 0.0499511 0.0151659725 0.0024188766 -0.07308036
0.103196345 0.0019353528 -0.003916762 0.16113871 -0.0592765 -0.14905635 0.0031782493 -0.007636102
0.044698473 -0.07260497 0.07827494 0.19482328 -0.08582412 -0.0013642436 0.034002256 0.036958568
0.0025084256 -0.0026678445 0.01495418 -0.00021279817 -0.012032013 -0.08139777 0.06892159 -0.13715877
0.026642317 0.08605531 0.12800325 0.0985982 -0.12103432 -0.04809064 -0.15268968 -0.0676427
-0.14505768 -0.0024559714 0.100212894 -0.00010831934 -0.055501446 0.0352249 0.12214696 -0.12691233
-0.0022269725 0.030488756 -0.011140628 0.00017019361 0.03171798 0.011890246 -0.014740019 0.014159872
-0.007804371 -0.011410285 -0.2869496 -0.014482234 -0.008261195 -0.020002889 0.020610573 0.1336691
-0.014977891 0.1291087 0.13693467 -0.012441856 -0.05732407 0.1110761 0.16508844 0.13151617
0.0077160015 0.056456044 0.036232356 -0.01842031 0.07790612 -0.05121864 -0.030644478 -0.015605328
0.008283022 0.02416609 0.015829895 -0.0098928455 0.0072066383 -0.0089504095 -0.01358817 -0.20432617
-0.01469477 0.12371158 -0.051914345 -0.059212413 0.063972846 -0.0048860335 0.015555073 -0.0022830493
-0.02622764 0.073141955 -0.09778345 0.006125053 0.0057668085 0.008983658 -0.010302332 0.04374141
0.091979906 -0.09843927 -0.1566027 0.08378774 -0.014369014 0.036064852 0.004181547 0.020535162
0.030528288 -0.06129357 0.008148353 0.027244799 0.0058830166 0.011007242 0.13107744 -0.05437918
0.12783459 0.019105285 0.008090305 -0.09420705 -0.10940603 0.029278325 -0.037218284 0.08622652
-0.037062936 -0.038740583 0.0065523293 0.18087174 0.044761103 0.12330917 0.051531427 0.12424851
0.048492763 0.010544984 0.025263524 0.041150093 0.032455415 -0.05265007 0.0053925468 -0.03628274
0.0009943749 -0.015517635 -0.0035067385 -0.117818266 -0.03916257 0.12042791 -0.13685934 0.04535996
-0.058424324 -0.05856718 -0.04999762 0.05899199 -0.08921301 -0.10808612 -0.07526386 0.00991227
0.031722154 0.036639974 0.004185272 0.013722897 0.01954277 0.012481727 -0.014711348 -0.017035346
0.02717569 -0.02092545 -0.006100008 0.0004387673 -0.006263058 -0.004502834 0.08487897 0.018827181
-0.037362903 -0.022888627 0.025090678 -0.043650467 0.034028668 -0.034271065 0.07461758 0.022111313
-0.5479586 -0.048902314 -0.03681253 -0.043198816 -0.004063279 0.016685849 0.035283066 0.007602804
-0.07780511 0.18446533 0.11521538 0.017688597 0.0076176054 0.03233251 0.019474806 -0.021862801
0.00097055506 -0.013442624 -0.015281937 -0.21360461 -0.0017544099 -0.05610266 -0.05976753 0.12339149
0.1383464 0.07350354 -0.07041816 -0.06896171 -0.13089035 -0.042918194 -0.07558915 -0.014673404
0.048995156 0.010045843 0.025235701 0.037603613 0.06119292 -0.03895917 -0.063175485 0.033120476
0.02999601 0.008087189 0.06052533 0.0031854245 -0.10428586 0.07322757 -0.051039286 -0.03892259
0.23505656 0.026855867 -0.054409575 -0.016428772 0.008958489 -0.020520229 -0.008300839 -0.12764773

critic.0.bias f4 [64]
00000000: 3db4 d2be 13ab 203d 84cb c8be 19b2 a93e
00000010: 34f0 61bd 6169 cebd 1f2e 85be 79a0 d53c
00000020: 9100 5a3e 0c37 febe c295 cdbe 9581 3bbe
00000030: 3a19 9c3e 5041 0abf 3df3 403d 2105 213e
00000040: c50f 3abe aba8 ad3e ea9b 8e3d c4be 2b3e
00000050: 3068 3abe b9a0 503e 0c51 10bf acbe aabd
00000060: a774 143d 3ea6 4d3e a607 e73d 8ae1 b13e
00000070: eb2d 91be 730f a3bc 0e25 a93c 9d0c 2abe
00000080: aef1 6bbd 6bd9 67be 924e 493e 47b2 2fbe
00000090: 84a1 6f3e 32b0 443e c594 debd 01c7 a93e
000000a0: 46ec 8c3e 8272 0fbf 1885 f73d 11d6 1d3e
000000b0: 64b9 c1be c543 233e cc9e 373e dbdb 973e
000000c0: b226 a9bd ec0b 9d3d 1006 0dbe 2f5e b9bd
000000d0: b1a2 b93e 1c2b 963e 634d 47bd f0fe 56be
000000e0: d79d 9ebd 9d46 28be 4959 04be 191c b5be
000000f0: b6cf 9b3e be06 cabe 0155 583e 85ff 2d3d
-0.41153136 0.03922565 -0.3921777 0.3314369 -0.055160716 -0.10078693 -0.2601175 0.026077496
0.21289279 -0.49651372 -0.4015332 -0.1831115 0.30487996 -0.5400591 0.04710697 0.15724613
-0.18170078 0.33917746 0.06963332 0.1677199 -0.18203807 0.20373811 -0.5637367 -0.08337149
0.03624406 0.20082948 0.11280756 0.34742385 -0.28355345 -0.019904828 0.020647552 -0.16606374
-0.05760353 -0.22641532 0.19658878 -0.17157851 0.23401457 0.19207838 -0.10868219 0.3315964
0.27524012 -0.560341 0.120859325 0.15413691 -0.37836754 0.15943821 0.1793167 0.29659924
-0.08259334 0.076682895 -0.13771844 -0.09051167 0.36256936 0.29329765 -0.048657786 -0.20995688
-0.07744949 -0.16433187 -0.12924685 -0.35373 0.30431908 -0.3945827 0.21126176 0.04248001

critic.1.weight f4 [64]
00000000: 5d9f 8f3f 6617 673f a9ec 973f 77a6 933f
00000010: 34a3 733f d2ae 703f 96b2 a33f 66d6 563f
00000020: fc05 853f 7bc4 9d3f 434c 873f b9a2 733f
00000030: ef0c 8d3f 4f0b a63f 7479 553f 7cf4 803f
00000040: b3a7 5f3f 1153 803f f0da 753f e077 753f
00000050: a90a 713f bb43 813f cb40 a63f e669 6c3f
00000060: 2dd5 583f fe62 7c3f 9518 733f 76fe 843f
00000070: 30c9 993f 2f66 713f 1904 513f 509a 8b3f
00000080: 4595 663f 2948 5f3f b74d 6d3f 2b60 7b3f
00000090: 366f 6e3f d06a 713f 20c7 863f 1e8d 8f3f
000000a0: fad4 823f f6a4 933f d09f 693f d7e1 693f
000000b0: f394 873f 8180 7a3f d946 713f bf0b 7e3f
000000c0: d972 713f 1e58 613f 7290 823f f4d8 813f
000000d0: 4368 843f 9406 8e3f 7b4c 803f bfe0 893f
000000e0: fc12 863f d46a 7c3f 16c5 6f3f 99f1 933f
000000f0: 7fc0 853f 1269 933f 49a9 743f b103 6f3f
1.1220509 0.9027008 1.1869098 1.1535176 0.95170903 0.94016755 1.2788875 0.83920896
1.0392451 1.2325586 1.0570148 0.9517017 1.1019572 1.2972201 0.8338845 1.0074611
0.87365264 1.002535 0.960372 0.9588604 0.9415689 1.0098795 1.2988523 0.9234909
0.8470028 0.9858855 0.94959384 1.0390155 1.2014523 0.94296545 0.8164688 1.0906467
0.9007152 0.8721948 0.9269671 0.98193616 0.93138444 0.9430361 1.0529518 1.121494
1.0221245 1.1534717 0.9125948 0.9136023 1.0592331 0.9785233 0.9424873 0.99236673
0.9431587 0.8802508 1.0200331 1.0144334 1.0344318 1.1095757 1.002334 1.0771712
1.0474544 0.98600507 0.93660104 1.1558105 1.044937 1.151644 0.9557081 0.9336501

critic.1.bias f4 [64]
00000000: a40b 24be 51ca 523d bada 7ebd 349f 0a3e
00000010: 7492 2abd 64fe 063d 9ed0 a7bd b37b 62bc
00000020: 3ef0 573d ac0b 3ebd abe1 2e3d 889b 1b3d
00000030: 29eb 073d 45bb 9b3c 9d75 a83c 9b7a 843d
00000040: cd30 503e 9fe7 163d ab6e 3f3d 9611 693d
00000050: aed3 0cbe 1575 153d 229a 3cbd f7af 9cbd
00000060: 52fc 71bc 61da 8b3b 00f7 643c b521 6b3d
00000070: 862a 2e3e 59c5 47bc 9d75 8f3d bdc0 58bd
00000080: 8018 a7bd f919 b8bd 42e2 32bc 049b 9ebc
00000090: 3393 fbbb cf15 023e 8210 263e b0b1 dd3c
000000a0: 4461 0a3d c48d ccbd 7931 39bd 2389 843d
000000b0: 13c8 56bc 2590 d2bb 7084 253c c9c7 3e3d
000000c0: 380f 08bd ed67 ef3c 9b1f 263c 494e 693d
000000d0: 170a 1b3d 9082 9c3d 78a0 353d d482 d73d
000000e0: 5d65 9b3d 7f1a 8c3d 4e67 ec3c af49 5ebd
000000f0: 0dc7 5a3d 1049 c23d 067d 3ebd 3ec7 d43c
-0.16020066 0.051462475 -0.062220313 0.13537294 -0.041643575 0.03295745 -0.081940874 -0.0138234375
0.052719347 -0.04639785 0.042695682 0.037990123 0.03318325 0.019010196 0.020563895 0.06468698
0.20331116 0.036841985 0.0467364 0.056901537 -0.13752624 0.03648861 -0.04604543 -0.0765075
-0.0147696305 0.004267976 0.013974905 0.057405192 0.17008409 -0.012193047 0.07004855 -0.052918185
-0.0815897 -0.08989329 -0.010918202 -0.019361027 -0.0076774596 0.12703632 0.16217235 0.027062267
0.033784166 -0.09987977 -0.045213196 0.06471469 -0.013109225 -0.006425875 0.010102376 0.04657725
-0.03321764 0.02922436 0.010139371 0.056959424 0.03785142 0.0764209 0.044342488 0.10523
0.07587693 0.06840991 0.028857853 -0.05426949 0.053412486 0.09486592 -0.04650595 0.025973912

critic.3.weight f4 [64, 64]
00000000: d6ac 703e 4b58 32bd a34f 473d 8603 bbbc
00000010: c9bc 923c c9db bf3a c208 313d 148b 35bd
00000020: a25a 833c 7eb0 77bd b14b 9ebd 48fa 0fbd
00000030: 455e 0cbe a586 dd3d 1979 4f3d 32bb 21bd
00000040: 27fc 963d 3811 c33b 3442 5cbd 5118 4fbd
00000050: 4bcd 4abc ad2d 5abc 3fa6 6bbd a992 663d
00000060: bff0 8c3d 925e d2bd 9ff0 5a3d 70ab 0e3b
00000070: 4c61 4e3e ea24 9b3d 1dcb c7bc 86d1 c8bb
00000080: 6bfb dcbd 48c3 5bbb 0dbb 17bc 892e 06be
00000090: 07e2 ec3c 2217 47bc 3949 c6bc 9b03 8a3d
000000a0: 372a 9a3c e776 b73c 53b2 b63d 165e cd3a
000000b0: 5bb2 4f3d fa9d a8bd 965c 51bd 82dd e1bc
000000c0: 0c51 cc3c ae52 e3bb 3394 b6bc 970a 3a3d
000000d0: 2e37 9a3d 571c 343c ca0d e8bd 54d5 afbc
000000e0: 89ca 1e3e f4a7 65bc 8650 94bb 8f6f cc3c
000000f0: 7542 9bbd 1d9b b83d a920 c73c dd48 233d
00000100: e18e f03d ea8e b2ba c710 63bd ff93 8ebd
00000110: a9ac 59bc 5481 26bd a69d b63d 8062 00be
00000120: 9ec3 2a3d 03fa e83d 8700 803c b9fb 303d
00000130: d32c 84bd 1cd8 4e3e 8134 49bd 3711 0cbe
00000140: 7452 ad3d 5d27 463d 5313 8bbd d8ba ae3d
00000150: b842 eb3c eb02 75bb 46fd aa3d 13f5 613d
00000160: 65bd 093d d854 ddbc 5213 79bd 7e15 52bc
00000170: 0c56 573c e3a6 c83c 777c 46bb c00d a0bd
00000180: 8bf8 62bd 283c d13d 1385 7b3c aedc 82bc
00000190: 871c 0fbe 012f 343d 7576 a63d b01d 0cbd
000001a0: ca1b 9abd 28c5 ebba ca76 41bb 7164 c93d
000001b0: 1bbe fc3d 38d6 b23c f922 5bbd 310a 2c3d
000001c0: 5e49 1d3d 1f2d b63d c5f7 84bc 7d7f 103d
000001d0: 0c91 68bd 51b1 9bbd c70b 04be 3159 ef3d
000001e0: 3c64 0ebc fc5e 043d 269f 7a3d 3aef c93d
000001f0: 6824 683d c3d7 cbba e4a2 c0bb 1ff5 3e3d
00000200: dde8 7e3e 486a 113d e561 0ebd bf4f 7cbc
00000210: a4fe 52bd f33d 183d 6188 a3bd 2319 9abc
00000220: a7e8 e83b fd86 6a3d eb1e 4e3d e746 84bc
00000230: 44e5 bbbb 6557 683e 832c 163d 1a82 02bb
00000240: c6fe 2c3d 315e 5bbd 8e48 9abd 491b d93c
00000250: 92ce b73d 778c 0f3d 6090 d53b 6cc7 c7bc
00000260: 8206 c83d e945 a3bd bff0 643d 5201 7ebd
00000270: 5aab a13c 15cb 513c 626b 1abd ff1e 42be
00000280: a5c2 573d 9d02 e4bc 3df2 0c3e fe36 c7b8
00000290: a156 89bd 772d 013e af82 903c 10be cc3c
000002a0: af79 a83c a673 373e 9734 b0bd 9ef9 a53d
000002b0: eaa9 dd3d ad8a 7fbc 7397 2fbd c1f4 98bc
000002c0: 4cee cf3d d581 24bc d992 f5bc 4fdc e13d
000002d0: 87a1 24be 3ce8 033d 7a8e 81bd 4b1b 04bc
000002e0: 1547 97bd 103b d13c 4462 e33c 7432 a93d
000002f0: 8391 93bd d91d 783e c925 6fbc 57f8 f93d
00000300: 0167 c6bd a8ec ca3d 75c6 66bd 3ffa be3d
00000310: 086c 9ebd fa58 cfbb e861 49be 7ddf 8f3d
00000320: 192a 85bd 064c 20be 1621 32bd a398 2f3d
00000330: 215e 7d3d e512 4fbe 5a4e 983c 4285 693c
00000340: fa40 23bc 1134 0d3d 38db 5a3d 4ebb ec3b
00000350: 872a 60bd 6c92 80bc 1d0e 51be b3f5 433d
00000360: a381 203c 7410 bd3d 11ca 1bbc 803a b53d
00000370: dd7d a9be 8610 2e3d 9ea8 bc3d d58d dabd
00000380: e191 edbc 41ee d5bc 9484 ca3d c428 c13d
00000390: 8dd4 933d 8f22 7b3d 3e2c eb3d dfc5 833c
000003a0: 986a af3b 5a1a bbbd 4c1c 603d decc c83b
000003b0: bee6 cebd f56f 713d bec1 2f3d 18bc c43d
000003c0: c56c d8bd a3ad 463c b623 0bbd b790 d43d
000003d0: e06d 013d 4dc6 553d 742d ca3d 5b0d 18be
000003e0: f04b 14be 9bed debd 22c5 c13d 7597 edbd
000003f0: e1cd 523c 59ad 7c3c 3d5b 183e 917f f03c
0.23503432 -0.043541234 0.048659932 -0.022828829 0.017912285 0.0014637645 0.043221243 -0.04432209
0.016034428 -0.06047105 -0.07729281 -0.035150796 -0.13707836 0.10816697 0.050652597 -0.039485164
0.07372313 0.0059529804 -0.053774074 -0.0505603 -0.012378047 -0.013316554 -0.05753159 0.05629221
0.06881856 -0.10271944 0.05345213 0.0021769665 0.20154303 0.075754 -0.024388844 -0.0061284928
-0.10790142 -0.0033533145 -0.009260905 -0.13103689 0.028916372 -0.012151511 -0.024204837 0.06738969
0.018818958 0.022395564 0.089207314 0.0015668299 0.050707202 -0.08233257 -0.051113687 -0.027571443
0.02494099 -0.0069373464 -0.022287464 0.045420256 0.07530056 0.010993085 -0.11330755 -0.021464027
0.15506949 -0.014017094 -0.0045262007 0.024955539 -0.07581035 0.090139605 0.024307566 0.03986441
0.11746002 -0.0013622914 -0.055435922 -0.06961822 -0.013285794 -0.04065068 0.08916788 -0.12537575
0.04169046 0.11375811 0.015625251 0.04320881 -0.06453862 0.20199627 -0.049122337 -0.13678442
0.08462992 0.048377384 -0.06790795 0.08531731 0.028718337 -0.0037385772 0.08349089 0.05516536
0.033627886 -0.027017996 -0.06080944 -0.012822507 0.013143074 0.02449364 -0.003028659 -0.078151226
-0.05541281 0.10216552 0.015351552 -0.015974369 -0.13975726 0.04399014 0.08128063 -0.034208
-0.075248316 -0.0017987834 -0.0029520267 0.09833611 0.12340947 0.021830663 -0.05350015 0.042001907
0.038400047 0.08895325 -0.016231427 0.035277832 -0.056778952 -0.0760218 -0.12895118 0.11686934
-0.00869089 0.032317147 0.061186932 0.09860082 0.056675345 -0.0015551973 -0.005878793 0.046620484
0.24893518 0.03550175 -0.03476133 -0.015399872 -0.051512375 0.037168454 -0.079849966 -0.018810814
0.0071078124 0.05725764 0.050322454 -0.01614709 -0.0057341177 0.22689588 0.036663543 -0.0019913972
0.04223516 -0.053556625 -0.0753337 0.026502268 0.08974947 0.035046067 0.006517455 -0.024387084
0.09766866 -0.07972319 0.055893656 -0.062012978 0.019735027 0.012804766 -0.037700064 -0.18957137
0.052675862 -0.027833277 0.13764282 -9.4993025e-05 -0.06705976 0.12615 0.01764044 0.024992973
0.020565836 0.1791521 -0.08603781 0.08104251 0.10823424 -0.015597028 -0.042869043 -0.018671395
0.101528734 -0.01004072 -0.029977249 0.11028349 -0.16077243 0.032203898 -0.063260034 -0.008063148
-0.07386605 0.025540859 0.027756818 0.08261576 -0.072054885 0.24230136 -0.014596411 0.1220557
-0.09687615 0.0990842 -0.056341607 0.093250744 -0.07735449 -0.0063277455 -0.19666255 0.07025049
-0.0650217 -0.15654 -0.043488584 0.042870175 0.061857346 -0.20222051 0.018592048 0.014252963
-0.009964222 0.034473483 0.05343172 0.007224477 -0.054728057 -0.01569482 -0.2041554 0.04784174
0.009796533 0.09231654 -0.009508626 0.088490486 -0.3310384 0.042496227 0.09211849 -0.106715836
-0.029000225 -0.026114585 0.098885685 0.094316036 0.07218275 0.061312255 0.11483048 0.016085563
0.005353283 -0.091358855 0.054714486 0.0061279377 -0.10102604 0.05894466 0.042909376 0.096061885
-0.10567621 0.012126359 -0.033969603 0.10379165 0.031598926 0.052191067 0.09871951 -0.14848845
-0.14482093 -0.108851634 0.09461428 -0.11601154 0.012866468 0.015422189 0.14878555 0.029357703

critic.3.bias f4 [64]
00000000: c6ee a8bd 7947 dfbc c58f 9bbd 3f98 fc3c
00000010: f379 8d3c e95c 2bbd 65c9 e43d 2b1c a73b
00000020: c076 5fbc 82cd 9e3d ec65 cb3d d9d1 c53d
00000030: 5963 63bb 1186 d3bb b85a cb3a ed5a 1c3d
00000040: a66f e1bc fdf1 4abd 574a 113e 4f8a b63d
00000050: 43b9 af3c 6347 77bc 3ace de3b 83ca b3bd
00000060: d157 71bd c371 e43d cb77 dd3d 9043 79bd
00000070: c5af abbd b04e 0d3d b298 12bc 4e0c c2bd
00000080: a05a e63d b8f0 ed3d bf30 eabd a699 16bd
00000090: 63fc 823d 2fa0 83bd 3f61 c8bd fc20 8f3d
000000a0: cf32 a9bd a20c c43d 4139 ff3d 7aa8 27bd
000000b0: 10fd 3c3d 5c8e 83bd ac49 143d 252a 513d
000000c0: 9d1e 043d aadb de3d aeb5 79ba 9a2d 4e3d
000000d0: 94fd 473d 217f 11bd d3c2 a03d 026a ecbd
000000e0: af9e bebd 7243 c9bd ea5c c0bb 90dc 6f3d
000000f0: 78ff 01bd e496 a8bd 637a a9bb 4604 c9bd
-0.082486674 -0.02725576 -0.07595781 0.030834315 0.017270064 -0.041836653 0.111712255 0.0050997934
-0.013639152 0.07754041 0.099315494 0.09659166 -0.0034696667 -0.006455191 0.0015514707 0.03817265
-0.027519058 -0.049547184 0.14188515 0.08913099 0.021450644 -0.0150927035 0.0067994865 -0.087788604
-0.05892164 0.11154511 0.10813864 -0.06085545 -0.08383135 0.03449887 -0.008947538 -0.09475003
0.11247754 0.11618179 -0.11435079 -0.036767624 0.06395795 -0.06427037 -0.09784173 0.06988713
-0.08261644 0.09572722 0.12462092 -0.040932156 0.046139777 -0.06423637 0.03620307 0.051065583
0.032255758 0.10881741 -0.00095256686 0.050336458 0.048825815 -0.03552163 0.0784966 -0.11543657
-0.0930761 -0.09827317 -0.005870451 0.058559954 -0.031737775 -0.08231905 -0.0051720603 -0.09815268

critic.4.weight f4 [64]
00000000: 388f 893f 530a 703f 07a9 a23f 0230 bf3f
00000010: 5d5e 953f 0b27 843f 1a7a b93f 3dbb 993f
00000020: b6d0 bc3f a683 923f 046f b13f 35c8 aa3f
00000030: b0de b73f b0c6 c53f f63f ad3f 8ac3 bd3f
00000040: e846 b13f 73c3 b93f edc5 af3f 206b bb3f
00000050: 4e7b 893f eb49 a23f 593f bf3f 98fd 903f
00000060: ffbb be3f 7907 8e3f b9be a73f f8da b53f
00000070: 5bf1 b33f b0b2 983f 6507 bb3f 7577 7b3f
00000080: 230a ba3f 3f6e a13f ce7e a03f 8e17 c23f
00000090: 5a05 923f e74a 703f 12c2 913f 2685 b73f
000000a0: 75bc a63f d889 903f 40ad bc3f b774 ae3f
000000b0: a6e5 7e3f bfee bf3f 97f4 b93f 361a be3f
000000c0: 2983 bc3f 5eb2 c03f da85 793f 033d 983f
000000d0: 855c 9a3f a144 d03f b250 bf3f 186c bd3f
000000e0: 9930 c03f 7c3a 903f 6ac2 ae3f 9ca2 833f
000000f0: 577d 8b3f 3517 b83f c15f c23f ac81 923f
1.0746832 0.93765754 1.2707833 1.4936526 1.1669422 1.0324415 1.4490387 1.2010266
1.4751194 1.1446426 1.3862004 1.3342348 1.4364834 1.545126 1.3535144 1.4825299
1.3849764 1.4512771 1.3732277 1.4642067 1.0740755 1.2678808 1.4941207 1.1327391
1.4901122 1.109603 1.3105079 1.4207449 1.4058031 1.1929531 1.4611632 0.9822915
1.4534343 1.261177 1.2538698 1.5163438 1.1407883 0.9386429 1.138735 1.4337509
1.3026263 1.1292067 1.4740372 1.3629369 0.99569166 1.4994735 1.4527768 1.4851749
1.4727527 1.5054433 0.97469866 1.1893619 1.2059485 1.6270944 1.4946501 1.4798613
1.5014831 1.1267848 1.365308 1.0284 1.0897626 1.4382082 1.5185472 1.1445823

critic.4.bias f4 [64]
00000000: a80a ecbd 67f8 ffbd 3415 e7bd 1c8e e13e
00000010: 9df8 0dbe 5fcc 0e3f bfd2 d93e 0b02 243e
00000020: 2e98 e73e f363 25bd 7a6e 263e 667b 153e
00000030: 3364 c73c f7ca e93e 8b03 2c3d 1c5c ec3e
00000040: 45e9 8e3d e5db 6b3d 7293 5a3e 7f0c e43e
00000050: 34b1 54be 0dca 673e 7e04 e53e 7876 0e3e
00000060: ea8a e93e 3df3 b93e 36ee c43e 733b 063e
00000070: efb4 543e 955a 0e3e 9159 e33e ee66 8b3d
00000080: 18f1 dc3e ac11 aa3d 498f 8a3e ba6e e13e
00000090: 7445 073e 199d 94bd 470f 4f3e 7d2d e03e
000000a0: 715c 483e ad81 053e 9235 df3e b2ef 343e
000000b0: 1104 183d d825 de3e 8ee7 e33e e2b9 e53e
000000c0: da06 f13e f31a ea3e fbe9 a8bd ae33 c5bb
000000d0: 0576 ef3d 0692 523d 89d7 e33e 9f96 e13e
000000e0: cc23 e43e 7e08 cabc eba1 d53d e96c 5d3e
000000f0: e48f 9b3a 4645 e13e 7257 e93e b10a 663c
-0.1152547 -0.12498551 -0.11283341 0.44053733 -0.1386437 0.55780596 0.425436 0.16016404
0.4523329 -0.040378522 0.16253081 0.14597854 0.02433977 0.45662662 0.041995566 0.46164024
0.069780864 0.057582755 0.21345308 0.44540784 -0.20770723 0.2263567 0.4472999 0.1391238
0.45613796 0.3631839 0.3846299 0.13108616 0.20772146 0.13901742 0.4440427 0.06806742
0.4315269 0.08304152 0.27062443 0.4402979 0.13210088 -0.072565265 0.20220672 0.43784705
0.19566514 0.13037749 0.43595558 0.17669562 0.037113253 0.43388247 0.445126 0.4486838
0.4707554 0.45723686 -0.08247753 -0.0060181236 0.11692432 0.05140879 0.44500378 0.44060227
0.4455856 -0.024662253 0.10431274 0.21623577 0.0011868444 0.43998164 0.45574528 0.014040635

critic.6.weight f4 [1, 64]
00000000: 7630 56be e71f 95bc f865 b3be f163 013f
00000010: 4ea4 87be 54ba d3bd 8279 f53e 48b4 523e
00000020: 1cff f83e 4fe0 243e eb4f ab3e 5d5d 853e
00000030: 8997 93be 6a9c a7be 5fda 8d3e 4608 003f
00000040: 1d4e 94be 8cf3 d13e a8a6 abbe 0d52 083f
00000050: 8e41 5ebe e6ac 13be 5535 ff3e c499 2fbe
00000060: fe2c 013f b746 8ebe 1a09 9dbe 8a4a cc3e
00000070: 820f bf3e 4892 67be 132e 053f e38b e2bd
00000080: 4077 043f e0ce 783e 8b9b 8fbe 9cc8 083f
00000090: 95d8 d4bd 0106 bc3c dc03 55be b849 023f
000000a0: f898 abbe 0c8c 0b3e 260d f73e b6c5 ab3e
000000b0: 324b 0e3c fd8a fd3e 3c3e 053f 2fc8 f93e
000000c0: be4f 093f 1275 043f 9b10 26bd 9f08 80be
000000d0: bf31 8fbe c9d3 ddbe cdaa 003f 2047 fc3e
000000e0: 5eda 043f 199b fcbd 37a1 c7be 11d4 853d
000000f0: e761 32be 1d31 f73e 72b0 003f 829a 48be
-0.20916924 -0.018203689 -0.35038733 0.50543123 -0.26492542 -0.10338274 0.47944266 0.20576584
0.48632133 0.16101192 0.3345941 0.26047793 -0.2882655 -0.32736522 0.27705666 0.50012624
-0.28965846 0.41006124 -0.33525586 0.532502 -0.21704695 -0.14421424 0.49845377 -0.171485
0.5045928 -0.27788326 -0.30671006 0.3990062 0.3731652 -0.22614396 0.5202343 -0.110618375
0.5174446 0.24297667 -0.28048357 0.53431106 -0.10392872 0.022952082 -0.20802253 0.50893736
-0.33515143 0.13627642 0.4825222 0.3354928 0.00868492 0.49520102 0.5204809 0.4878554
0.536373 0.51741135 -0.04054318 -0.25006577 -0.2796764 -0.43325642 0.5026062 0.49273014
0.518957 -0.1233427 -0.38990185 0.06534589 -0.1742016 0.48279658 0.50269234 -0.1959019

obs_mean f4 [29]
00000000: 2b1a 96b7 a0d5 cbbc 2307 c1b7 a008 d3bc
00000010: 0786 1538 8d26 6038 ce6c 18b8 c137 32b8
00000020: 66fa 52b7 1780 afbc 427d 14b8 4601 bc3c
00000030: 2c0c d436 a672 a736 e33c 4ab8 0671 11b8
00000040: 099b 9e3b 5fb3 63ba ef80 8d3c 20ed ec3a
00000050: da74 6b3c b7dc 6339 1563 da3d b6f9 de39
00000060: 2620 983a 71f5 94bb 2044 c1bb 0000 0000
00000070: f258 75bb
-1.7893579e-05 -0.024882138 -2.3010716e-05 -0.025760949 3.564919e-05 5.3441665e-05 -3.6340956e-05 -4.2490432e-05
-1.2575276e-05 -0.021423383 -3.5402605e-05 0.022949826 6.3195093e-06 4.9903347e-06 -4.8217258e-05 -3.4675955e-05
0.004840259 -0.0008686091 0.017273394 0.001807604 0.014371121 0.0002173063 0.1066343 0.0004252919
0.0011606261 -0.0045458605 -0.0058980137 0.0 -0.0037437049

obs_var f4 [29]
00000000: b4db 1c36 79d2 4241 0e8e 4c36 c8e9 4441
00000010: c061 a636 7b6e 2937 65c7 8336 ea12 b136
00000020: fa56 ff39 e5c7 8942 34ff e039 dd14 8342
00000030: 1bc2 9a39 e242 8339 95a0 b73a dde6 813a
00000040: 02c4 fd3e 5992 cd3a 1731 323c 7069 ab3b
00000050: 9d84 683e b7b9 373f e273 f83e 9bb0 fe3a
00000060: 3a28 fb3a cccb fe3e f59c 3b3f e1b9 e028
00000070: 2cd1 3e3f
2.3373696e-06 12.176385 3.0481056e-06 12.3070755 4.958565e-06 1.0098908e-05 3.927317e-06 5.277213e-06
0.00048702193 68.89042 0.0004291475 65.54075 0.0002951779 0.000250361 0.0014009649 0.0009910722
0.49563605 0.0015683874 0.010875962 0.005231075 0.22706838 0.71767753 0.48525912 0.0019431295
0.0019161769 0.4976486 0.7328637 2.4949608e-14 0.7453792
