src/taser/locomotion/models/track_velocity.onnx (onnx, 29334 bytes, 11 tensors)

model.log_std f4 [2]
000000 45 b8 46 bf 7f 48 3c bf
       -0.77624923 -0.7354812

model.actor.0.weight f4 [64, 29]
000000 a1 53 db bd 15 06 9f bd 15 0e dd bb ae 31 ad 3d
       -0.1070931 -0.07764832 -0.0067460635 0.08456741
000010 a8 f9 db 3d 3f d0 0e 3d 7f be 3c bd 46 b8 4a be
       0.107409775 0.034866568 -0.04608011 -0.19796857
000020 19 77 09 3e 0e 9e 06 3c 9b b7 57 3d 86 84 a2 3d
       0.13424338 0.008216394 0.052665334 0.07935433
000030 93 49 5a bc ad 5e 2a be 2f 22 67 3d a8 de 95 3c
       -0.0133232055 -0.16637678 0.056429084 0.018294647
000040 02 99 85 3c 5e a8 fc bd 21 03 ae bd e8 ee bd bd
       0.016308311 -0.12336801 -0.084966905 -0.092740834
000050 35 c4 22 3e bd f0 a6 3d a7 c5 29 bd ec c3 15 3d
       0.1589516 0.08151386 -0.04144826 0.0365638
000060 16 b8 20 3d 35 37 d6 bb 93 bd ba bc 6d 1b 23 3e
       0.039238058 -0.006537343 -0.022795474 0.15928431
000070 a9 e4 7d be d2 e9 11 be 55 14 4b 3d 43 36 36 be
       -0.24794258 -0.14249352 0.049579937 -0.17794137
000080 32 9f bb 3c c2 e8 4f 3d cd b8 91 b9 8e 30 ba 3c
       0.022903059 0.050759085 -0.00027794242 0.02272823
000090 17 f1 d8 3d 6d 44 e4 bd ef 3a 23 3e e1 db f8 bd
       0.10592859 -0.11145864 0.1594045 -0.121513136
0000a0 45 63 01 3e a5 41 e5 3d e1 73 ca 3c a8 4e fb 3d
       0.12635525 0.11194161 0.024713458 0.12270862
0000b0 a7 a5 1f 3e 85 d0 05 bd 93 b3 4f bc 26 c1 fd 3d
       0.15590535 -0.032669563 -0.012677091 0.12390356
0000c0 e4 16 1d bd dc 4d f9 bd 7b 84 8d 38 ab 28 d9 bd
       -0.03835191 -0.121730536 6.74808e-05 -0.1060346
0000d0 03 44 cf 3d ce d8 11 be ff 4d 9f 3d 6e 45 2f 3e
       0.10120394 -0.1424286 0.077785484 0.17116329
0000e0 4d 11 e0 3d 06 80 8d bd fe 2f 73 be fa 88 31 be
       0.109408 -0.06909184 -0.23748776 -0.17337409
0000f0 f8 c5 47 3d 38 8d d6 3d 56 18 10 be 5b 88 e8 3d
       0.048772782 0.10476154 -0.14071783 0.11354133
000100 5c 03 37 be 2b d9 19 bc bf 15 2d 3d b6 7e 21 3e
       -0.17872375 -0.009390156 0.042257067 0.15770993
000110 67 a4 dd 3d e7 03 1d 3b a9 58 b6 bd d3 bf b0 3c
       0.10822373 0.0023958625 -0.08903629 0.021575844
000120 57 d1 c5 3d c0 57 fc 3d 34 5a 82 bd cc b1 1a bd
       0.09659069 0.123214245 -0.06364861 -0.037767217
000130 16 e0 25 be 5d 2a 80 3d 33 6b 4f 3e 1d cd 10 bc
       -0.16198763 0.0625808 0.20255737 -0.008837965
000140 f8 c0 f5 3c a7 d5 f2 3d b8 d3 2d bc a7 03 aa bd
       0.029999241 0.11857157 -0.01060956 -0.08301478
000150 2b a7 2f 3e 10 45 00 3e 44 9e 3b be 5b 2e 30 be
       0.17153613 0.12526345 -0.18322092 -0.17205183
000160 97 e3 bf 3d 78 37 ca bd 33 5b 41 3d 91 c1 16 3c
       0.09369581 -0.09873861 0.047206115 0.009201423
000170 43 f9 fb bd bd de 78 3d 16 ff d6 3d c9 a8 a8 bb
       -0.12303402 0.060759295 0.104978725 -0.005147074
000180 a4 fe 66 3d 51 5a c4 3a 92 f7 4b 3d 78 9f 0d be
       0.056395188 0.001498053 0.04979665 -0.13830364
000190 4b 54 cf 3d 1c 03 10 bd 85 fc 7d bc 0f c4 52 3d
       0.101234995 -0.035159215 -0.0155021 0.051456507
0001a0 f3 e3 67 3e 19 59 ff 3d 37 f0 bb 3c 27 c4 5c 3e
       0.2264555 0.12468166 0.022941692 0.21559201
0001b0 1d e3 41 3d a9 8f 33 3e 1c 54 99 bc ad dc a8 3d
       0.047335733 0.17535271 -0.018716864 0.082452156
0001c0 c5 e2 5f be e7 f7 16 3d 6c 8e f0 3c bf 16 c8 3d
       -0.2186385 0.03685751 0.029364787 0.097699635
0001d0 5e 18 13 be da f4 a9 bd 62 50 26 be 73 24 e2 bd
       -0.14364764 -0.08298655 -0.16241601 -0.110421084
0001e0 40 d9 ce bd 26 0c df bd b7 f6 b2 3d 68 14 2f bd
       -0.10100031 -0.10890989 0.08738463 -0.04274407
0001f0 b5 09 7a 3d c4 27 55 bd a9 e6 1c 3e 79 43 d7 bd
       0.061044414 -0.052039877 0.15322365 -0.10510916
000200 74 fc bc 3d c9 1d c8 bd 41 5c 75 3d 6b 37 f2 bd
       0.09227839 -0.09771306 0.059902433 -0.118269764
000210 bf 9f 8c 3d f6 e3 ec 3d ca 5e 8f 3c 67 db bc 3d
       0.06866407 0.115669176 0.017501254 0.09221535
000220 48 53 3d be 28 ca 80 3c f5 47 05 3e e8 97 92 3d
       -0.184888 0.015721396 0.1301573 0.0715788
000230 7c fc 00 3e 97 fa 8e bd fe a8 32 3e 08 6c d7 3c
       0.12596315 -0.0698139 0.17447278 0.02629663
000240 c1 4f 1b 3e 7f 0e c3 3d fd 73 04 be a2 3f 21 be
       0.15167142 0.09524249 -0.12934871 -0.1574693
000250 fa fd 2b 3e a6 09 c6 3d 61 79 1f 3e 9f d9 5d 3d
       0.16796103 0.09669809 0.15573646 0.054162618
000260 4d cb 11 be 90 d1 15 3d e8 26 cb bd 66 ea 4f bd
       -0.1423771 0.036576807 -0.0991953 -0.05076065
000270 b8 b8 d5 3c 80 27 0e 3d 0c c3 1b 3e b3 a3 39 3e
       0.026089057 0.03470564 0.15211123 0.18128853
000280 d9 52 59 3c 02 af 57 bc 59 7a 52 3d f1 9d 57 bd
       0.013264381 -0.013164284 0.05138621 -0.05264086
000290 e7 ec ff bd 86 e1 42 bd ad 31 ef 3d 76 f6 95 3d
       -0.124963574 -0.047578357 0.11679397 0.07322399
0002a0 73 45 06 3e 23 23 05 bd 30 14 e6 3d bb b3 cc 3d
       0.1311243 -0.032504212 0.11234319 0.09995218
0002b0 56 87 58 bd 08 d8 51 3e 5b f7 15 3d dc 8b db bd
       -0.05286344 0.20492566 0.03661285 -0.107200354
0002c0 30 b6 e6 3d 4f 99 ca 3d a2 2a 41 bc 40 59 85 3d
       0.11265218 0.098925225 -0.01178995 0.06511164
0002d0 08 fb 0e be 2a 07 de bc 91 76 f0 3d 92 b3 1c be
       -0.13962948 -0.027103025 0.11741365 -0.15302876
0002e0 f5 14 d4 3c 9e 29 03 be 43 5f 73 3b 6b 28 ad 3c
       0.0258889 -0.12808844 0.0037135638 0.021137437
0002f0 51 f9 a8 3d 64 69 2a bd 8b 34 bb 3d 56 63 b8 bd
       0.08250678 -0.041604415 0.09140881 -0.09003322
000300 02 66 a7 bc 70 e6 c2 3c cc c6 54 bd c5 7a a3 bc
       -0.020434383 0.023791522 -0.0519474 -0.019956002
000310 c1 80 4d 3c f2 44 a7 3d b8 f7 67 3e fc e3 2b 3e
       0.012542904 0.08167447 0.22653091 0.16786188
000320 6b 58 3c bd e1 06 25 3e 35 a6 53 be 03 50 1a be
       -0.04598276 0.16115905 -0.20668872 -0.15069585
000330 02 d0 2e be f5 92 a7 bd 8c 4d 43 bd 85 f0 ec bc
       -0.17071536 -0.08182327 -0.047681376 -0.028923282
000340 cb d2 58 bd e7 f1 25 3e de 04 f7 3d 24 49 1d bd
       -0.052935403 0.1620556 0.12061475 -0.03839983
000350 4a 60 b3 3d 21 ec 04 3d ae 8b ed 3d c8 03 2d 3e
       0.087586 0.032451753 0.115989074 0.16895974
000360 80 7b d8 bd c7 89 a5 3d 1e d3 4d bd c7 34 cd bc
       -0.10570431 0.080829196 -0.050250165 -0.02504958
000370 cd 9e c1 3c a2 8f 43 bd 3c fa 98 bb 59 db 2a 3e
       0.023635292 -0.0477444 -0.004668502 0.16685237
000380 7f 19 8c 3d 94 18 da 3d e5 f3 d5 3d 8e 88 11 3c
       0.068408005 0.10649219 0.1044691 0.008882655
000390 0b 1b 2d be 95 97 69 bd c8 3e ab 3d c5 a0 91 3e
       -0.16904847 -0.057029326 0.08361584 0.2844297
0003a0 f8 aa ec 3c 03 74 c3 3d 89 78 b2 3d 1e 2e 42 bd
       0.028890118 0.09543612 0.087143965 -0.047407262
0003b0 e5 5b 20 3e d7 e5 8a bd c4 6e 9a 3d a7 cb a4 bd
       0.15660055 -0.0678212 0.07540658 -0.08046656
0003c0 2c 8f 16 3d f9 be 4a 3d 4f 8a 27 bd 2d cb 01 be
       0.036757633 0.049498532 -0.040903386 -0.12675162
0003d0 aa f7 bf bd d6 b5 89 3b b0 da 42 3b 01 ff 5c 3d
       -0.0937341 0.0042025847 0.0029732399 0.05395413
0003e0 d5 e5 82 bc 50 3e da bd 06 6f 02 3e d9 10 a8 3d
       -0.015978733 -0.106564164 0.12737665 0.082063384
0003f0 3b 9c 2c 3d 45 63 0f be 93 d9 24 3e 7e 7e 3f 3e
       0.04214118 -0.14002712 0.16098623 0.18700597

model.actor.0.bias f4 [64]
000000 7d ea 46 be 2e f4 ca 3d 86 1c f5 bc 27 64 7f be
       -0.19425388 0.09909855 -0.029920828 -0.24940549
000010 c2 97 9d 3c 40 7f 3c 3e 85 f0 8a 3d 6e 8b b0 3d
       0.019237403 0.18407917 0.06784157 0.08620344
000020 2c 58 87 3d 83 e5 ab bd 20 1d 38 be cf cc 0a bc
       0.06608614 -0.08393385 -0.1797986 -0.008471682
000030 bc fa e8 3d c1 6e 68 3c 46 d2 03 be 4d 33 9a 3c
       0.11375949 0.014186562 -0.12873182 0.01882329
000040 69 bc 4f bd 9d 67 1f bd 00 82 08 be 1f 99 5a 3e
       -0.05071679 -0.038917173 -0.13330841 0.21347474
000050 0d 0b 3a 3e a2 9b bd 3b 58 2a c5 3d 0d 63 a1 bd
       0.18168278 0.005786375 0.09627217 -0.078802206
000060 6b b0 0f 3e df 2f 1f be 67 85 04 be b1 7d 93 bb
       0.14032142 -0.15545605 -0.12941514 -0.0045010676
000070 bd 7e 12 be 7b d3 32 bd b9 b5 b7 bd b3 78 1a 3e
       -0.1430616 -0.043658715 -0.08970208 0.15085106
000080 e7 d1 1e 3e 03 45 8d 3d b7 03 6d bd 55 77 8a 3d
       0.15509759 0.068979286 -0.05786487 0.06761042
000090 54 b1 5d 3d 99 d8 0e bd 81 20 2c bd 9b c6 8a bd
       0.05412419 -0.034874532 -0.042023186 -0.06776162
0000a0 53 95 27 bd 8a 3f e6 bd 5f 04 f8 bd 16 89 07 be
       -0.04091389 -0.11242588 -0.12110209 -0.13235888
0000b0 23 3f b6 bb e0 dd 80 3c 99 7d b8 3d 9b 75 24 be
       -0.0055617257 0.015730798 0.09008331 -0.16060488
0000c0 d5 35 bf bc 9c 58 2a be 6d 69 f8 bb 23 5e 2b 3e
       -0.023341099 -0.16635364 -0.007580927 0.16735129
0000d0 7a c3 93 bd 92 03 d1 bd f4 ed a3 3d a5 91 35 3d
       -0.072150186 -0.10205759 0.0800437 0.04432835
0000e0 35 60 e8 bd c8 a1 95 3d d4 80 50 3e 20 c5 80 bd
       -0.11346475 0.07306248 0.20361644 -0.062875986
0000f0 08 22 2b 3e 30 c9 ac 3d ba 39 8b 3a 1b 99 19 be
       0.167122 0.08436811 0.0010622062 -0.14999811

model.actor.1.weight f4 [64]
000000 bb bb 86 3f bd 44 81 3f bc 73 80 3f 6d 66 81 3f
       1.0526041 1.0099102 1.0035319 1.0109383
000010 74 37 82 3f f0 8a 7f 3f 82 64 81 3f 35 59 89 3f
       1.0173173 0.99821377 1.0108798 1.0730349
000020 3d 6a 7a 3f e5 0a 79 3f 0e 67 7e 3f 7d b2 78 3f
       0.97818357 0.9728225 0.99376 0.9714735
000030 3a 35 84 3f ca 79 7c 3f 70 55 7c 3f d8 9f 81 3f
       1.0328743 0.98623335 0.9856787 1.0126905
000040 b7 a2 83 3f 85 33 88 3f 16 ef 7d 3f 92 cc 80 3f
       1.0284032 1.0640723 0.9919294 1.006243
000050 41 83 7e 3f 3e 9d 78 3f 89 46 85 3f db ae 85 3f
       0.9941903 0.9711493 1.0412151 1.0443987
000060 83 cc 7f 3f 8e 78 79 3f 5b a1 7e 3f 99 8d 72 3f
       0.99921435 0.97449577 0.9946496 0.9474731
000070 81 f5 82 3f 50 ad 79 3f 49 5d 81 3f 7a 11 83 3f
       1.0231172 0.9753008 1.0106593 1.0239708
000080 be e0 80 3f af 45 81 3f 75 9a 82 3f 9d 74 7e 3f
       1.0068586 1.0099391 1.0203387 0.9939669
000090 2d d8 7f 3f 4d 04 74 3f 7c b8 7e 3f b9 e3 82 3f
       0.99939233 0.9531906 0.9950025 1.0225745
0000a0 ee 26 76 3f 76 f8 81 3f 5d ea 78 3f 1a 1e 81 3f
       0.9615315 1.0153949 0.9723261 1.0087311
0000b0 98 65 82 3f aa f8 81 3f 6d a8 81 3f b8 78 7a 3f
       1.0187254 1.0154011 1.0129524 0.9784045
0000c0 38 13 73 3f f1 4b 76 3f 79 81 7d 3f 4e 01 80 3f
       0.949512 0.9620963 0.99025685 1.0000398
0000d0 be 33 89 3f bb 19 7d 3f be cf 70 3f b0 00 81 3f
       1.0718915 0.98867387 0.9406699 1.0078335
0000e0 1d fa 75 3f 0e 0d 82 3f 73 b6 7f 3f b6 c1 82 3f
       0.9608477 1.0160234 0.9988777 1.0215366
0000f0 a4 e7 71 3f 18 b7 6f 3f 1f 5a 81 3f 2c 91 7e 3f
       0.9449408 0.93638754 1.0105628 0.99440265

model.actor.1.bias f4 [64]
000000 38 33 50 3d 9f 59 70 3c 52 66 03 3d 75 73 8d bc
       0.050830096 0.014669805 0.032080002 -0.017266968
000010 7d 4a 16 3c e4 a9 92 3c 15 b0 85 3c 86 41 d1 3c
       0.009173033 0.017903276 0.016319314 0.02554394
000020 81 c1 23 bc 9f ca bc bc bc bf 0e bd 34 f2 18 3c
       -0.009994865 -0.023045836 -0.03485082 0.0093350895
000030 56 74 0f 3d 6f 71 a0 3b 9d 68 02 bc 35 67 89 3d
       0.035023056 0.004896335 -0.007959512 0.06709138
000040 9b b1 a2 3c a0 5a 8d 3d f0 91 08 3d 14 1b 42 3a
       0.01986008 0.06902051 0.0333423 0.00074045477
000050 5b 5a f1 bc 87 e0 b7 3a 8f 27 bf ba 39 25 e3 3b
       -0.02946203 0.0014028706 -0.0014583933 0.0069319275
000060 8c ed b0 3b 90 18 4b ba 37 b8 6a bc 5b c9 61 bc
       0.0053994115 -0.00077474955 -0.014326147 -0.013780917
000070 94 48 93 3c eb 10 9e 3b 2b 71 8b bc b6 9b b3 3c
       0.017978944 0.004823794 -0.017021736 0.021924835
000080 50 41 f9 3c 8e 34 5e bc 04 2f fb 3c 17 52 67 3c
       0.030426651 -0.013562335 0.030662067 0.014118693
000090 f0 b4 92 39 35 67 b2 bb 32 a8 d4 3c 55 5c a4 3c
       0.000279821 -0.005444432 0.025959108 0.020063559
0000a0 43 09 a6 bc 80 9c 7a 3b 66 38 7a 3b e5 32 9f 3c
       -0.020268088 0.0038240254 0.0038180589 0.019433448
0000b0 8a 49 b9 bc 35 fa ea 3b ba 60 7e bb ec 0a 08 3a
       -0.022618074 0.0071709403 -0.0038814978 0.0005189616
0000c0 e8 ab e3 bc ed 1e 83 b9 25 52 29 3d cb 9c 8f 3c
       -0.027791932 -0.0002500931 0.041338105 0.01753082
0000d0 c9 8e 57 3c 12 18 8d 3c 85 5e d7 ba 8c 8e 4f 3b
       0.013156601 0.017223392 -0.0016431367 0.0031670658
0000e0 4c f5 0a bd 31 21 16 3c ef 48 5e bc 37 62 10 3d
       -0.03392534 0.009163187 -0.013567193 0.035249915
0000f0 88 cb ad bb 25 ea 39 bd e8 9a f3 3c 4d a5 51 3d
       -0.005303804 -0.045389313 0.029736951 0.051183034

model.actor.3.weight f4 [64, 64]
000000 61 bb bf bd 84 6e 01 3e 1e f3 94 3d 32 4a aa bd
       -0.093619116 0.12639815 0.072729334 -0.08314933
000010 31 60 76 3d 80 28 23 3d cc e4 e1 bd f1 64 95 bd
       0.06015033 0.039833546 -0.11029968 -0.07294644
000020 b1 ec 94 bd 24 70 ef bd 0a 6d 68 bc 89 b0 4a bb
       -0.07271708 -0.11691311 -0.014186153 -0.0030927977
000030 21 0d 30 3d 78 91 f9 3c 84 21 a4 bd 22 23 72 3b
       0.04298127 0.030464873 -0.08014205 0.003694721
000040 0e d2 47 bd a0 9f 0c bd 23 1a 1a 3d f2 27 21 3e
       -0.048784308 -0.034331918 0.037622582 0.15737894
000050 45 b5 a6 3d 18 26 bd 3b 42 77 71 3c 81 cd c1 bd
       0.08140043 0.0057723634 0.014737906 -0.09463025
000060 89 6c f3 3d b4 97 8a 3d b1 bf 33 bd e1 2c 84 3d
       0.11885936 0.06767216 -0.043883983 0.064538725
000070 0f a5 92 3d 34 e4 d7 bd ce 94 3f bd 17 ca 12 3b
       0.07160389 -0.10541573 -0.04677277 0.0022398287
000080 f6 13 4c 3d d8 b7 23 3d dc 5d 91 3d 11 67 ce bd
       0.049823724 0.03997025 0.070979804 -0.10078252
000090 89 53 a1 bd f1 0e 5a 3d 14 20 d2 bc 5c 2a d8 3c
       -0.07877261 0.053236905 -0.025650062 0.026387386
0000a0 08 fe db 3d 20 37 d9 3c 38 92 bc 3b df 52 a5 bd
       0.10741812 0.026515543 0.0057547353 -0.08072447
0000b0 d7 cd 57 3d b1 cd be bd 93 01 29 3b f7 a9 b6 3d
       0.05268654 -0.09316576 0.0025788292 0.08919137
0000c0 53 93 f8 bd 39 a0 37 3b 61 89 b4 bd 77 5e 19 bd
       -0.12137475 0.0028019084 -0.088152654 -0.037443604
0000d0 76 d6 16 be a2 84 18 3e 6d 85 a5 3d aa d3 47 3d
       -0.14730248 0.14894345 0.080820896 0.048785843
0000e0 bf f6 90 bd c9 a8 1e 3d 4b 71 9f 3d 60 4b b4 bd
       -0.07078313 0.038735185 0.07785281 -0.08803439
0000f0 f5 5b 04 3e 00 ec 23 be 52 87 92 bc 5b 87 f7 3c
       0.12925704 -0.16007996 -0.017886791 0.03021591
000100 06 27 7d 3d a8 e9 78 bc 94 9c 51 bd 45 4c 08 3e
       0.061804794 -0.015192427 -0.051174715 0.13310345
000110 f5 17 01 3c 9e 51 3c 3c 60 c4 15 bd 92 b1 0f 3d
       0.007879247 0.011494068 -0.03656423 0.035081454
000120 88 03 9a 3d 24 f0 89 3d 18 24 90 bd 11 7e cb bd
       0.07520205 0.06735256 -0.07038134 -0.09936155
000130 c7 95 e8 bd f7 28 bf bd 11 24 a7 bd 87 c5 3b 3d
       -0.11356693 -0.09333985 -0.08161176 0.045842674
000140 99 5d 8a bd d1 10 17 3e d0 b2 ca 3d f3 69 13 bd
       -0.067561336 0.14752509 0.09897387 -0.035989713
000150 ab e3 c6 bd 7e 54 88 3d 8d fa 86 bd d0 5d 1c 3d
       -0.09711393 0.066567406 -0.065907575 0.038175404
000160 2f 22 bc 3d 14 d8 89 bc e5 14 d4 bd f8 e0 94 3b
       0.091862075 -0.016826667 -0.10355548 0.00454342
000170 c4 41 74 bb 1f dc c8 bc d9 b1 a7 bd d3 85 a3 bd
       -0.0037270645 -0.024519024 -0.081882186 -0.07984509
000180 9e 7d e5 bc d9 3d 85 3c 66 6a 85 3d 9a a0 9a bd
       -0.028014 0.016264843 0.065144345 -0.075501636
000190 b4 e4 1a 3d a1 1a 98 3d f3 ec a1 bc 75 32 d2 3d
       0.037815765 0.07426954 -0.019766307 0.1026353
0001a0 90 5a 9e bd 9c d7 1d 3d 64 31 fa bd f0 84 e8 3d
       -0.07732117 0.0385357 -0.12216452 0.11353481
0001b0 32 ea f2 3d 25 4d 66 bd 76 cf af bd 0f 30 93 bd
       0.118610755 -0.056225915 -0.08584492 -0.07186901
0001c0 02 a3 89 3d 94 75 80 3d 51 ab ae bd 1f 68 88 3b
       0.067205444 0.06272426 -0.0852877 0.004162803
0001d0 b4 4f 18 3e 2c e0 94 bd d5 58 58 3d f4 13 98 3d
       0.14874154 -0.0726932 0.05281909 0.07425681
0001e0 cf 78 44 3d 6a d8 38 3d f2 01 80 bd 94 4c 88 bb
       0.047966775 0.045128264 -0.06250371 -0.0041595194
0001f0 44 79 59 bb 17 52 0f 3d 45 06 55 bd 6c 92 d6 3d
       -0.0033183852 0.034990396 -0.052007932 0.104771465
000200 92 21 0b bd a3 16 89 bd 4b 5c eb 3d ab d7 b8 3d
       -0.033967562 -0.06693771 0.11492213 0.090255104
000210 63 94 03 bc 70 d0 52 3d 6e e0 64 38 78 32 bf 3d
       -0.008030984 0.051468313 5.4568452e-05 0.09335798
000220 69 4e 92 3d b5 80 f7 bb 43 95 da bc 0e fd 3c bb
       0.07143862 -0.007553185 -0.026682502 -0.0028837356
000230 b0 65 ff bd 7e f1 89 bd f6 e9 c2 3c 7d a0 3b bc
       -0.12470567 -0.06735514 0.023793202 -0.011451838
000240 3d 65 4e 3d ad ab 74 bd f2 3b 86 bd f0 06 87 3d
       0.050389517 -0.059734035 -0.065544024 0.0659312
000250 d8 c7 a0 bd 44 f8 c5 3d 22 2a df bc 67 56 c5 bc
       -0.07850617 0.096664935 -0.02724177 -0.024089051
000260 0d cb 98 3d 74 80 ef 3c c0 14 69 3d c1 36 cf bb
       0.07460604 0.029236056 0.056904554 -0.006323666
000270 ae 38 c0 3b 35 c9 74 bd 73 f7 c0 3d ed 50 17 3c
       0.0058661317 -0.0597622 0.09422197 0.009235603
000280 89 b9 96 bd 6a 0c b9 3d 12 d5 72 3c 91 8c 62 3d
       -0.07359607 0.09035571 0.014821308 0.055309836
000290 29 37 15 3e b3 ed f0 bd 2c 8a 01 be 09 47 64 3d
       0.14571823 -0.117640875 -0.12650365 0.055731807
0002a0 19 7b b7 bc 88 77 2d bd 41 8d c3 3d d6 2f 2d bd
       -0.022397565 -0.042350322 0.095484264 -0.042281948
0002b0 c8 f6 7b bd b6 3f 67 3d 56 5a 08 bc 15 5a 04 bd
       -0.061514646 0.056457244 -0.008322319 -0.03231247
0002c0 d0 73 ab 3d 63 f8 8a bd d7 e1 0d bd fa 01 31 3d
       0.08371699 -0.06785657 -0.034639206 0.043214776
0002d0 a6 f0 78 3d 52 90 76 3b 67 ee 35 3d 57 4d af 3d
       0.060776375 0.0037622643 0.04441681 0.08559673
0002e0 5a 47 b9 3d 26 12 3a 3d 2a 1f 85 3d 8b ec de 3d
       0.09046812 0.045427464 0.06500085 0.10884961
0002f0 82 60 a5 3c 92 03 9f bd 5a 82 36 bb cf ac d7 3d
       0.02018762 -0.07764353 -0.0027848692 0.105310075
000300 81 fe 9d 3d 03 44 5e 3d f6 00 b6 bd ec 8f 77 3d
       0.077145584 0.05426408 -0.08886902 0.06043999
000310 16 c3 88 bc 32 8a 68 3d 01 6a 9d bd d5 e3 4a bd
       -0.016694587 0.05677242 -0.07686234 -0.049533684
000320 66 56 bf bc 33 90 4c bd 85 0f be bd 1d 85 22 bd
       -0.023356628 -0.049942207 -0.09280304 -0.039677728
000330 30 02 f1 3d a8 6a 88 bb 56 18 63 3d e8 d0 8d 3d
       0.11767995 -0.004163105 0.05544313 0.06924611
000340 29 6d ad 3d 77 66 19 bd 29 9f d0 bd b7 ed e1 bd
       0.08468086 -0.037451234 -0.101866074 -0.11031669
000350 95 3c 56 bd 20 47 09 3c f9 2e 64 bd 34 4d 04 3d
       -0.05230387 0.008378774 -0.05570886 0.03230019
000360 8c 7c 93 3d b7 2d 1b bd e8 3a f6 3d 0a 0d db bd
       0.0720149 -0.037885394 0.12022954 -0.106958464
000370 22 7a e4 3d b3 aa 03 3e 08 38 df ba 3a 69 9d 3d
       0.111561075 0.12858085 -0.0017030248 0.07686086
000380 21 45 f1 bc b5 5a e4 bd 47 30 21 bd 4d 9c e9 3c
       -0.029451909 -0.111501135 -0.03935268 0.028516913
000390 9b 5b 01 3d 67 6a 03 3d 65 f6 24 3c 51 2f ef 38
       0.031581502 0.032083895 0.010068511 0.000114052214
0003a0 cf 73 69 bd 78 56 8e bd e1 47 13 3d 31 49 da bd
       -0.05699521 -0.06950086 0.03595722 -0.106584914
0003b0 27 b3 95 3d dd c9 fc bd eb 5d 3d 3d d8 39 c5 3d
       0.07309561 -0.1234319 0.046232145 0.096301734
0003c0 5a f7 9a 3d 71 b4 7d 3d ad b2 16 bd fe 0b b8 3d
       0.0756671 0.06193966 -0.036791492 0.08986662
0003d0 f1 cb dd 3d 23 18 00 bd 2b f9 00 3e 44 ff d8 bd
       0.10829914 -0.03127302 0.1259505 -0.10595563
0003e0 7c 92 14 3d 2d f7 a0 bd fa 46 87 bd d8 34 04 be
       0.03627251 -0.07859645 -0.066053346 -0.12910783
0003f0 d7 fb bd 3d 3e f2 cf 3d 5c 9a d3 3c 1f 89 f3 bd
       0.0927655 0.10153626 0.02583044 -0.11891388

model.actor.3.bias f4 [64]
000000 2a c3 64 3d f2 37 db 3d a9 cf 17 bc 5c 90 4e 3d
       0.055850185 0.1070403 -0.009265819 0.05043064
000010 cc 92 90 bd 49 4e b8 3c 54 22 ce bd 18 47 3c bd
       -0.07059249 0.022498267 -0.10065141 -0.045966238
000020 44 68 43 3d 68 87 e3 bd 6b 69 38 3d cd 5b 90 3d
       0.047706857 -0.11109811 0.04502241 0.070487596
000030 18 b8 a8 bd 55 71 c6 3d f1 ae fd ba ca 0a a5 bd
       -0.08238238 0.09689585 -0.0019354505 -0.080586985
000040 44 da 8f bd 44 91 75 3d a7 3d 33 bd 8a 9e ce bd
       -0.07024053 0.05995299 -0.043759968 -0.10088833
000050 7e ee 4a 3d 89 79 d8 3a ad 80 f0 bd 76 ac 72 bd
       0.04954385 0.0016515712 -0.11743293 -0.059246503
000060 1e b7 85 3d 5b 51 f5 bc 9b dc 00 be 88 45 ed bc
       0.065290675 -0.02994602 -0.12584154 -0.02896382
000070 c0 ec 78 3d 76 5c 53 bd c1 09 57 3c 0b 0b 7d bc
       0.060772657 -0.05160185 0.013124884 -0.015444527
000080 bd 25 65 3d 96 d9 fb 3d f0 79 04 3e 8a a7 84 3d
       0.055944193 0.122973606 0.1293714 0.06477268
000090 e0 4c 78 bc c0 05 9d bd 4b 6f 68 bc a7 73 f8 bb
       -0.015155047 -0.07667112 -0.014186691 -0.007582146
0000a0 00 e6 ef 3c e7 77 98 3d ce 0b e4 3d f7 df a6 3d
       0.029284477 0.074447446 0.11135064 0.08148187
0000b0 f5 42 41 bc b3 48 06 3d 09 35 e6 bd c0 68 2f 3c
       -0.011795749 0.032784175 -0.112405844 0.010706127
0000c0 3e 46 86 bc 4e 4e b4 3d 6e 32 e3 3c c9 0e 9f bd
       -0.016390916 0.08803998 0.027734008 -0.07766492
0000d0 48 09 3c 3d 2b d0 ad bc 9b fe 8f bd 59 4e b3 3d
       0.04590729 -0.021217426 -0.07030984 0.08755178
0000e0 8a 4c c8 3d 1f 9b 9d 3d e7 2b 9e bd 1e c8 e5 3d
       0.09780224 0.076956026 -0.077232175 0.1121981
0000f0 68 5d 89 bd f7 6b 8e 3d bd 79 70 bc 6e d4 cf bd
       -0.06707269 0.069541864 -0.014677462 -0.101479396

model.actor.4.weight f4 [64]
000000 ab 1f 8f 3f a9 cb 90 3f 2a ee 8f 3f 74 f8 8a 3f
       1.1181539 1.1312152 1.1244557 1.0857072
000010 59 13 8a 3f 31 34 84 3f c7 08 81 3f 99 34 96 3f
       1.0787154 1.0328428 1.0080804 1.1734802
000020 c6 7a 88 3f dc 36 8c 3f dd 8b 87 3f cc 55 8a 3f
       1.0662467 1.0954242 1.0589558 1.0807433
000030 be dd 8e 3f 61 c6 92 3f c1 a1 96 3f f9 71 9b 3f
       1.116142 1.146679 1.1768113 1.2144157
000040 39 64 8b 3f f6 3d 98 3f ee 21 93 3f af 95 97 3f
       1.088996 1.1893909 1.149473 1.1842555
000050 27 a1 8c 3f 99 34 9c 3f 6b 80 8c 3f ed e9 90 3f
       1.098668 1.2203552 1.097669 1.1321388
000060 49 ce 91 3f 2f 65 89 3f 52 70 89 3f 99 fe 82 3f
       1.1391078 1.0734004 1.0737402 1.0233947
000070 a2 82 9c 3f de b1 9c 3f 24 b5 a3 3f 2b 52 96 3f
       1.2227366 1.2241781 1.2789655 1.1743826
000080 ad ad 8e 3f 0d a6 8e 3f 6e c0 8a 3f e1 bf 96 3f
       1.1146752 1.1144425 1.0839975 1.1777307
000090 f9 15 9a 3f 80 cd 80 3f 3f 83 83 3f dd ec 8c 3f
       1.2037956 1.0062714 1.0274428 1.1009785
0000a0 07 19 85 3f 9c 11 93 3f 43 16 98 3f 9b 1b 9e 3f
       1.0398263 1.1489749 1.1881794 1.2352175
0000b0 e7 d1 8c 3f ec 9f 91 3f 37 db 8b 3f 7c dc 8c 3f
       1.1001557 1.1376929 1.0926274 1.1004786
0000c0 0b 95 96 3f 0a 55 80 3f 3b 52 84 3f d3 02 97 3f
       1.1764234 1.0025952 1.0337595 1.1797737
0000d0 09 e6 90 3f ab 03 8c 3f dd f6 8b 3f 9f 28 82 3f
       1.1320201 1.0938619 1.0934712 1.0168647
0000e0 ad 33 94 3f 2d 7b 88 3f f3 69 7e 3f 9e 9e 8b 3f
       1.157827 1.066259 0.99380416 1.0907781
0000f0 3e d6 92 3f 62 e0 89 3f 9b 92 a0 3f 5a d9 90 3f
       1.1471632 1.0771601 1.254474 1.131633

model.actor.4.bias f4 [64]
000000 b3 5b 39 3d 6c 9c 57 3d 34 c5 5c 3d af c3 94 3d
       0.045253467 0.05263941 0.053899005 0.07263886
000010 30 f6 03 3d 55 5e bd 3c 34 0c 8c 3b 2a 1d 92 3d
       0.032217205 0.02311627 0.0042739157 0.07134469
000020 87 31 62 3d ee dc 5f 3d bc 7d 0b 3d 46 25 62 3d
       0.055223014 0.054654054 0.034055457 0.055211328
000030 fe 49 29 3d 60 28 9f 3d da aa 90 3d de 31 a1 3d
       0.04133033 0.07771373 0.07063837 0.078708395
000040 06 f0 91 3d 58 bd c5 3d f2 a6 c5 3d 5e cd cd 3d
       0.07125859 0.09655255 0.09650983 0.10048936
000050 95 e9 b2 3d 3d 80 c0 3d 9a 20 63 3d 41 cf 80 3d
       0.087359585 0.093994595 0.055451013 0.062895305
000060 a7 a6 9f 3d 0f f5 3c 3d f5 3c 67 3d 9f 34 c1 3c
       0.07795458 0.046132144 0.056454618 0.023584662
000070 6e 7d 80 3d 65 de 7e 3d d8 81 16 3e 00 ec 8a 3d
       0.06273924 0.06222381 0.14697969 0.06783295
000080 24 8c a2 3d 83 f7 2f 3d 78 bf 95 3d 8b 01 ad 3d
       0.07936886 0.042960655 0.073119104 0.0844756
000090 c7 f1 c1 3d 4c 52 6c 3c 5e 49 32 3d e4 59 8b 3d
       0.094699435 0.014423918 0.043527 0.06804255
0000a0 ce b5 d3 3c 72 d6 95 3d 86 a0 a4 3d 0f fb e3 3d
       0.025843527 0.07316293 0.0803843 0.1113187
0000b0 e5 6f 65 3d fa 77 ff 3d ea f6 a9 3d 72 94 72 3d
       0.056014914 0.124740556 0.08299048 0.0592236
0000c0 44 84 a8 3d 4f 71 2a 3c 75 6a 10 3d 34 f3 e1 3c
       0.08228353 0.010402991 0.035257775 0.027581789
0000d0 45 a3 95 3d ff 16 82 3d 07 dc 6f 3d 6a 6c d4 3c
       0.07306532 0.063520424 0.058559444 0.025930602
0000e0 c2 17 b9 3d e7 23 f0 3c 14 da 9c 3b 8d f6 8d 3d
       0.090377346 0.029313995 0.004786739 0.069317915
0000f0 63 92 a9 3d e9 45 73 3d 51 4d ce 3d bc 85 84 3d
       0.08279874 0.059392843 0.10073341 0.0647082

model.actor.6.weight f4 [2, 64]
000000 1d a9 b6 bd 28 de 5f 3e a3 c3 ab 3d d9 5e 00 3d
       -0.089189745 0.2186209 0.08386924 0.031340454
000010 bb f7 e5 3d 65 78 c5 bd 0a 6e 93 3d ed d7 1a be
       0.112288915 -0.09642104 0.07198723 -0.15121432
000020 98 5a c9 bd 31 27 3d be 7e 1f e7 bd 5d 10 39 be
       -0.098317325 -0.18471982 -0.112853035 -0.18072648
000030 29 83 4e 3e ab 06 59 be f8 7f 66 be a7 22 a3 3e
       0.20167221 -0.2119395 -0.22509754 0.31862375
000040 6f 61 39 3e b1 5c fd bc 80 fa c0 3d 02 59 58 bd
       0.18103574 -0.030927988 0.09422779 -0.05281926
000050 90 c1 ea bd 9d 8c 5c 3e 0e 42 33 be 36 15 f1 3d
       -0.114627 0.21538015 -0.17505667 0.11771624
000060 a2 4a 37 3e 96 a6 19 3e c3 f5 07 3d 88 f1 6e 3c
       0.17899564 0.15004954 0.03319336 0.014583953
000070 23 f3 6d 3e d6 d8 50 be 07 36 1c 3e 5e 39 6b be
       0.2323728 -0.20395216 0.15254985 -0.22971103
000080 f8 c7 62 bd 06 04 f9 bd 5d b5 9d 3c 1e c6 50 3e
       -0.055366486 -0.121589705 0.01925152 0.20388076
000090 a0 d2 6d 3e 99 db d4 bd ae 8d 22 3d 69 c9 1f 3d
       0.23224878 -0.103934474 0.039685898 0.03901044
0000a0 4d 30 5d bd 72 4a 4a 3e 5a 7a 64 3e 3b e4 1e be
       -0.05400114 0.19754961 0.22312298 -0.1551675
0000b0 6c 76 a9 3c 68 a9 e3 3c a5 13 58 bd 9d 70 40 3e
       0.02068635 0.02779074 -0.05275311 0.18792959
0000c0 53 88 67 3e 04 fa 3c 3d 94 7f bc 3d 52 b7 6c 3e
       0.22610597 0.04613687 0.09204021 0.23116806
0000d0 3e e3 46 3d e8 f6 17 be c7 f3 e1 bd 1a d2 10 3e
       0.04855656 -0.14840281 -0.11032825 0.14142647
0000e0 c9 01 65 be 54 47 ba 3c 12 8e d9 3d 53 64 1c 3e
       -0.22363962 0.02273909 0.10622801 0.15272646
0000f0 44 33 30 be de 57 30 be db fa 8d be 98 5e 12 3d
       -0.17207056 -0.17221019 -0.2773045 0.035734743
000100 e3 6a 15 be 67 ed 0c 3e 87 c7 1e 3e a7 37 21 be
       -0.14591555 0.13762437 0.15505801 -0.15743886
000110 f8 59 f1 3d fd 2f bb 3c fd b4 15 bd 7a 6e 28 be
       0.11784738 0.022850031 -0.036549557 -0.16448393
000120 31 18 e3 3d dd 9a 63 bc 95 9b 12 3e 7c 09 61 3d
       0.110885985 -0.013891903 0.14317162 0.054940686
000130 3c cc db bd d6 0b 42 be 5e ff d1 bd 3e dd 7d bc
       -0.10732314 -0.18949828 -0.102537856 -0.015494643
000140 ff ed bf bd 02 f4 4c 3e c4 90 4e be c0 f0 2a be
       -0.09371566 0.20014957 -0.20172411 -0.16693401
000150 b1 a8 8f bd 37 44 e4 bc de 42 99 bd 2b 65 36 3e
       -0.07014597 -0.027864559 -0.07483457 0.1781203
000160 7f 2c 4f 3e 8e aa 09 3e 05 d8 27 be e7 66 be 3d
       0.20231818 0.13443968 -0.16390999 0.09296971
000170 01 29 95 bd 97 9d a1 be 7c 6c 54 be 42 13 3f be
       -0.072832115 -0.31565544 -0.20744509 -0.1865969
000180 fa 9a 36 3e 6a 7b 98 bd 34 fc 0a be 91 b0 8c 3e
       0.17832556 -0.07445414 -0.1357277 0.2747846
000190 f1 00 48 3e c8 5f ce 3d 2a a9 ae bd 36 d2 37 be
       0.19531609 0.100768626 -0.08528359 -0.17951283
0001a0 f7 69 16 3d b2 b2 23 bb d3 9f 68 3e 9e ac 82 be
       0.03672215 -0.0024978337 0.22717218 -0.2552232
0001b0 64 a5 55 3e 5d 9d 01 be 95 b7 0e be 52 93 af 3d
       0.20863873 -0.12657686 -0.13937218 0.08573021
0001c0 d2 85 49 3e 72 3f 66 3c f4 6d 88 bd 73 23 8c 3e
       0.19679955 0.0140532125 -0.06661597 0.27370796
0001d0 49 e1 68 be 5d 9e cc bc 33 40 d9 3d 71 b0 e4 bd
       -0.2274219 -0.024977857 0.10607948 -0.11166466
0001e0 70 df 0b be 68 ed f2 bd 42 f9 b9 bd c7 cf c3 3d
       -0.13659453 -0.11861688 -0.09080745 0.09561115
0001f0 83 0b c2 bd 2a ab b3 3d e4 fa 2b be 8e bc 7b 3e
       -0.09474852 0.08772881 -0.16794926 0.24583647

model.actor.6.bias f4 [2]
000000 ce 8d 7b bc d8 9c a0 3c
       -0.015353633 0.019606039
