src/taser/locomotion/models/track_velocity.pth (torch, 59817 bytes, 22 tensors)

log_std f4 [2]
-1.5267051 -1.548148
00000000: 136b c3bf b729 c6bf

actor.0.weight f4 [64, 29]
0.13645104 -0.0018689962 -0.0007734931 -0.0528497 0.037178807 0.030795377 -0.16126494 0.09570575
-0.061503466 0.04617824 -0.031023167 0.06148368 0.1616814 0.03834582 0.042078424 -0.081592746
-0.033095222 -0.03189825 -0.052385487 0.021371718 -0.016589284 0.14286835 0.11583141 -0.015646815
0.115451425 0.15865669 -0.15063697 0.018191643 -0.12585619 -0.09792998 0.07584785 0.0549422
0.06971882 0.032572687 -0.0070441402 0.053827517 -0.12172377 -0.1030923 0.03235005 -0.037960302
0.1362075 -0.08230203 0.015986525 0.0018805366 0.093949474 -0.12600534 0.08486792 -0.058001447
0.08165854 -0.12354047 0.04297631 -0.018781222 -0.11223416 -0.030256765 -0.008266019 0.16247529
0.026613185 0.14703883 0.00981528 0.06405177 -0.024398556 -0.03323224 0.08953097 -0.12402436
-0.16887315 0.12370114 0.07177676 0.069942206 -0.12788269 0.091777205 0.05248686 -0.11712551
0.06722576 -0.04723147 -0.18399906 0.10468143 -0.07231738 0.19265616 -0.23334911 0.1347328
-3.5259882e-06 0.077705905 -0.07256938 0.06635301 0.11428174 0.026439192 0.055708256 0.047684878
-0.02606537 -0.00663352 -0.0055505396 0.049776837 0.08012083 -0.011105635 -0.07318866 0.13289842
0.057119936 -0.15097013 0.03042647 -0.10245004 -0.060314815 0.029710874 -0.09709648 0.27000108
-0.08428223 0.103073485 -0.0015728464 0.05915597 -0.25321192 0.04941896 -0.015780408 -0.007680211
0.06719837 -0.11892439 -0.10995566 -0.08762134 0.06825487 -0.034008827 0.08115758 -0.06278775
0.093401864 0.02611646 -0.093962945 0.116088055 -0.04716017 0.06449602 -0.014626295 0.081521995
0.02701061 -0.04868264 -0.028719492 -0.048979625 -0.0013280049 0.025036644 0.03937641 -0.007288606
0.24589062 0.21487685 -0.18041308 -0.016489321 -0.1800791 0.07342323 -0.019890346 -0.017886026
-0.09508629 -0.19429317 -0.051141463 -0.08612323 0.05587588 0.07079659 -0.12280482 0.023646384
0.048608184 -0.031198567 -0.16950089 -0.12193347 0.027886016 0.06540106 -0.044068366 0.010992338
-0.07546234 0.19923021 0.04622279 -0.0686437 0.06922158 0.07903005 -0.123722315 0.15000173
-0.02049699 -0.025649285 0.021512961 0.010542901 -0.06649403 0.106100574 0.045476355 -0.0047128703
-0.03252139 -0.10999506 0.04047446 0.07695574 0.0017498664 0.08530785 0.079310216 -0.02235041
0.037684817 0.0074742977 0.04061463 0.018335056 0.108629294 -0.032681037 0.018907445 -0.06809673
-0.03494417 -0.045305133 -0.016401466 -0.075980596 0.18867843 -0.12679017 0.07202171 0.17778882
-0.18840916 -0.15167524 0.20476797 -0.004723291 0.011829104 -0.04830537 -0.052956127 0.040615723
0.05710359 -0.10049732 -0.06284319 0.098636225 0.00034382206 0.079154715 -0.09283003 -0.04084115
-0.06469099 -0.08406738 -0.081681795 -0.0054591214 0.041171353 0.015830427 -0.12054435 -0.05721566
0.044904295 -0.062396966 -0.019628532 -0.063664876 0.06879864 -0.2020643 0.11759228 0.2306426
-0.050107054 -0.0052079502 -0.033340316 0.04527244 0.08388248 -0.11557813 0.14379312 0.12725525
0.053354148 0.040264662 -0.023390034 0.04503667 0.043052536 -0.09806742 -0.035363115 -0.046171308
0.07711873 0.046391528 -0.09564905 0.019115621 0.013659171 -0.25307104 0.015443565 0.053813614
00000000: d2b9 0b3e 1bf9 f4ba 3ec4 4aba ed78 58bd
00000010: ce48 183d 9646 fc3c a322 25be 6001 c43d
00000020: 0feb 7bbd 6525 3d3d 4c24 febc 50d6 7b3d
00000030: cf8f 253e 8210 1d3d 6d5a 2c3d 191a a7bd
00000040: db8e 07bd bda7 02bd 2a92 56bd be13 af3c
00000050: 40e6 87bc 154c 123e 0539 ed3d c02d 80bc
00000060: cc71 ec3d e676 223e 9440 1abe a406 953c
00000070: 72e0 00be 838f c8bd 1e56 9b3d 130b 613d
00000080: bec8 8e3d f06a 053d 88d2 e6bb 3e7a 5c3d
00000090: 504a f9bd 0e22 d3bd 7c81 043d 437c 1bbd
000000a0: fb79 0b3e f78d a8bd 2cf6 823c 567c f63a
000000b0: 9568 c03d 8b07 01be 3bcf ad3d ed92 6dbd
000000c0: 983c a73d c902 fdbd ed07 303d 14db 99bc
000000d0: 06db e5bd 09dd f7bc 326e 07bc ec5f 263e
000000e0: e503 da3c 5991 163e 45d0 203c 932d 833d
000000f0: 7bdf c7bc 871e 08bd 035c b73d 7c00 febd
00000100: 15ed 2cbe 0657 fd3d b2ff 923d dc3d 8f3d
00000110: aef3 02be b0f5 bb3d 76fc 563d 80df efbd
00000120: a9ad 893d c975 41bd 406a 3cbe 3863 d63d
00000130: 221b 94bd a847 453e 12f3 6ebe 65f7 093e
00000140: 04a0 6cb6 4624 9f3d 419f 94bd 16e4 873d
00000150: 8b0c ea3d 0197 d83c 572e 643d 3851 433d
00000160: 0b87 d5bc 005e d9bb 4de1 b5bb cce2 4b3d
00000170: 6416 a43d 69f4 35bc f0e3 95bd 8616 083e
00000180: 98f6 693d ea97 1abe ef40 f93c 54d1 d1bd
00000190: ab0c 77bd 3864 f33c 85da c6bd 953d 8a3e
000001a0: 299c acbd 3118 d33d f827 ceba 884d 723d
000001b0: fea4 81be 896b 4a3d ea45 81bc 48aa fbbb
000001c0: 4d9f 893d a18e f3bd 6f30 e1bd d172 b3bd
000001d0: 36c9 8b3d d74c 0bbd f235 a63d dd96 80bd
000001e0: 7a49 bf3d 30f2 d53c a56f c0bd 93bf ed3d
000001f0: 062b 41bd 7d16 843d 21a3 6fbc 01f5 a63d
00000200: 5b45 dd3c 7367 47bd 2445 ebbc dc9e 48bd
00000210: 7310 aeba a619 cd3c 2949 213d 42d5 eebb
00000220: c0ca 7b3e ad08 5c3e 35be 38be 9d14 87bc
00000230: a866 38be eb5e 963d 14f1 a2bc b785 92bc
00000240: 9abc c2bd caf4 46be b679 51bd 6061 b0bd
00000250: 1bde 643d cdfd 903d 1881 fbbd 10b6 c13c
00000260: 6019 473d 2394 ffbc a491 2dbe 41b8 f9bd
00000270: 3771 e43c fef0 853d 0881 34bd 3519 343c
00000280: 008c 9abd 0103 4c3e 1c54 3d3d 1195 8cbd
00000290: 0bc4 8d3d 82da a13d 2062 fdbd 0e9a 193e
000002a0: 4ee9 a7bc 731e d2bc f33b b03c 22bc 2c3c
000002b0: 062e 88bd 424b d93d 6a45 3a3d 6c6e 9abb
000002c0: 2635 05bd 1745 e1bd 8cc8 253d f99a 9d3d
000002d0: c65b e53a e2b5 ae3d 656d a23d 3518 b7bc
000002e0: 655b 1a3d f4ea f43b 875b 263d 6633 963c
000002f0: 0979 de3d 8ddc 05bd c9e3 9a3c 4c76 8bbd
00000300: 9e21 0fbd e091 39bd 5e5c 86bc b79b 9bbd
00000310: eb34 413e 48d5 01be 1e80 933d 460e 363e
00000320: 55ee 40be c150 1bbe b2ae 513e d6c5 9abb
00000330: dcce 413c dadb 45bd 86e8 58bd ac5c 263d
00000340: 74e5 693d 8ad1 cdbd eeb3 80bd ca01 ca3d
00000350: 0443 b439 de1b a23d ac1d bebd 0d49 27bd
00000360: b67c 84bd 852b acbd c948 a7bd 6ee2 b2bb
00000370: 4ba3 283d d0ae 813c f5df f6bd f85a 6abd
00000380: 91ed 373d f693 7fbd 04cc a0bc bb62 82bd
00000390: 4de6 8c3d f2e9 4ebe 39d4 f03d 932d 6c3e
000003a0: 0e3d 4dbd 74a7 aabb db8f 08bd 986f 393d
000003b0: 94ca ab3d 3ab4 ecbd 813e 133e 334f 023e
000003c0: e189 5a3d 8fec 243d 759c bfbc 5f78 383d
000003d0: db57 303d 92d7 c8bd ead8 10bd 201e 3dbd
000003e0: 6df0 9d3d 0b05 3e3d a6e3 c3bd 5d98 9c3c
000003f0: b7ca 5f3c 8792 81be 0207 7d3c aa6b 5c3d

actor.0.bias f4 [64]
-0.06076903 0.16380127 0.1532597 -0.09910729 -0.09604163 0.12084297 -0.10209639 0.049022976
0.012389943 0.013146441 0.10704265 0.06764596 -0.0826216 -0.07019287 -0.11424252 0.13862762
-0.017480422 0.0026681882 0.13940738 -0.07231424 -0.045279562 -0.17652507 -0.046553377 -0.07187215
0.1696592 -0.07511982 0.18074812 -0.10138847 -0.09635996 -0.009533018 -0.005885556 -0.18347715
-0.1946537 -0.0821502 0.022080457 0.067388386 -0.14725456 0.034884777 -0.03900246 0.12104602
0.0049761753 0.11468744 0.15203704 -0.14273795 -0.017887972 0.061172362 0.009126803 -0.0016660762
-0.23779921 -0.067779444 -0.2793031 -0.040507745 -0.18258263 0.09126502 0.01053865 0.09722922
0.13055155 0.11927226 0.14921807 -0.044439413 0.04139354 0.06971545 0.14369324 0.12199912
00000000: f2e8 78bd 85bb 273e 1cf0 1c3e c3f8 cabd
00000010: 79b1 c4bd 857c f73d ea17 d1bd 51cc 483d
00000020: 30ff 4a3c 2c64 573c 2d39 db3d f789 8a3d
00000030: 8335 a9bd 48c1 8fbd fbf7 e9bd 66f4 0d3e
00000040: 1a33 8fbc c5dc 2e3b cfc0 0e3e 7d19 94bd
00000050: 1077 39bd fdc2 34be c1ae 3ebd b531 93bd
00000060: 24bb 2d3e 6cd8 99bd 0916 393e c2a4 cfbd
00000070: 5f58 c5bd 6030 1cbc 9fdb c0bb 6fe1 3bbe
00000080: 4d53 47be 5d3e a8bd 13e2 b43c ec02 8a3d
00000090: e6c9 16be 57e3 0e3d 0bc1 1fbd fae6 f73d
000000a0: 2f0f a33b 40e1 ea3d 99af 1b3e e629 12be
000000b0: cc89 92bc df8f 7a3d 9688 153c 3e60 daba
000000c0: a381 73be f3cf 8abd d100 8fbe 73eb 25bd
000000d0: f1f6 3abe 28e9 ba3d 4daa 2c3c 1d20 c73d
000000e0: 4eaf 053e 0445 f43d 9fcc 183e 1a06 36bd
000000f0: 468c 293d f9c6 8e3d 5224 133e adda f93d

actor.1.weight f4 [64]
0.95584756 0.9958368 1.0084854 1.0035719 1.0201161 0.99934995 1.0102309 0.99416924
1.0605317 1.0037421 0.99275506 0.9684093 0.993712 0.9980718 0.99310535 0.9472705
1.0101961 1.0172275 1.0322217 1.0060828 0.9415641 1.1703439 0.989786 0.9984691
1.0694178 1.0053549 1.0444905 0.9297966 0.99993205 0.9354951 0.9821778 1.013976
0.92296946 0.97245824 0.9294041 1.0235761 1.0141655 1.0146395 1.1263894 0.9291643
0.96796644 1.0169152 0.999293 1.0248868 0.96980244 0.99834913 0.9735108 0.9452229
1.1178046 0.97099143 0.9640321 1.0261973 0.9922945 1.0148342 1.016195 0.99021864
0.9766413 1.0199542 0.96636134 0.9889239 1.0449414 0.9857367 0.97437584 1.0151591
00000000: 6db2 743f 29ef 7e3f 0d16 813f 0b75 803f
00000010: 2a93 823f 66d5 7f3f 3f4f 813f e081 7e3f
00000020: 81bf 873f 9f7a 803f 3225 7e3f ace9 773f
00000030: e963 7e3f a281 7f3f 273c 7e3f 5280 723f
00000040: 1b4e 813f 8334 823f d71f 843f 52c7 803f
00000050: 580a 713f d4cd 953f 9e62 7d3f ac9b 7f3f
00000060: afe2 883f 78af 803f ddb1 853f 2607 6e3f
00000070: 8cfb 7f3f 9b7c 6f3f 0170 7b3f f7c9 813f
00000080: ba47 6c3f 06f3 783f 6ded 6d3f 8b04 833f
00000090: 2dd0 813f b5df 813f 872d 903f b6dd 6d3f
000000a0: a6cc 773f 472a 823f abd1 7f3f 7e2f 833f
000000b0: f944 783f cf93 7f3f 0138 793f 21fa 713f
000000c0: 3914 8f3f e592 783f cfca 763f 6f5a 833f
000000d0: 0307 7e3f 16e6 813f ae12 823f f87e 7d3f
000000e0: 2a05 7a3f dc8d 823f 7563 773f 1e2a 7d3f
000000f0: a4c0 853f 3e59 7c3f b270 793f bcf0 813f

actor.1.bias f4 [64]
-0.0099413395 -0.006199533 -0.00299961 -0.0007798072 0.061107848 0.015293492 0.05036972 0.009962544
0.11825417 0.048158567 -0.0024040819 0.009015447 0.046700314 0.009367657 0.045788977 0.002892749
0.05120673 0.037845988 0.032831866 0.024902645 0.0002167109 0.1366523 0.04669616 0.029626008
0.09284843 0.015012546 0.019130558 -0.043316673 0.04559905 -0.01938261 0.0027624194 0.016861835
-0.027524875 -0.011900314 -0.04121657 0.037363097 0.03060082 0.016182752 0.12510075 -0.0048664426
0.020209473 0.04562134 0.0007694981 -0.009692675 0.022613095 0.019158918 0.015001245 -0.05149418
0.033210006 0.042578608 0.015110565 0.086538225 0.025219811 -0.006401754 0.0051966314 -0.0060912976
-0.009573068 0.019677913 -0.017582351 0.047474492 0.07370473 0.008182499 -0.013489085 -0.0006562996
00000000: 00e1 22bc 7425 cbbb 1b95 44bb fa6b 4cba
00000010: 394c 7a3d 8e91 7a3c 7b50 4e3d f039 233c
00000020: 3e2f f23d eb41 453d cd8d 1dbb 87b5 133c
00000030: d448 3f3d cd7a 193c 398d 3b3d 4694 3d3b
00000040: 26be 513d 6504 1b3d b57a 063d a200 cc3c
00000050: e43c 6339 95ee 0b3e 7944 3f3d 3eb2 f23c
00000060: 5127 be3d 2ff7 753c b0b7 9c3c d36c 31bd
00000070: 12c6 3a3d 48c8 9ebc b509 353b d521 8a3c
00000080: d97b e1bc 89f9 42bc b5d2 28bd 0c0a 193d
00000090: 92ae fa3c b191 843c 691a 003e ae76 9fbb
000000a0: 568e a53c 71dd 3a3d 25b8 493a 07ce 1ebc
000000b0: 193f b93c 2af3 9c3c c8c7 753c 90eb 52bd
000000c0: 3707 083d e866 2e3d 4e92 773c f43a b13d
000000d0: c799 ce3c cec5 d1bb 8148 aa3b 8299 c7bb
000000e0: 5bd8 1cbc 9333 a13c dd08 90bc 9d74 423d
000000f0: 81f2 963d e30f 063c 5301 5dbc 850b 2cba

actor.3.weight f4 [64, 64]
0.05394675 -0.12613147 -0.010104256 0.122962505 0.06470087 0.0769838 -0.09249305 -0.01308674
-0.037694026 -0.050971273 -0.096173055 -0.11778358 0.0677385 0.061417844 -0.07782166 -0.035087265
0.088483416 -0.09497273 0.04931334 -0.09587766 0.06361057 0.097959705 0.09365018 -0.12259537
-0.09306557 0.043346323 0.120656654 -0.086222365 -0.041844245 0.03393963 0.031728934 -0.08824823
0.11604593 0.014471413 -0.047936372 0.022931485 0.045316864 0.013722262 0.054569777 -0.03395823
-0.030268176 0.15992841 -0.030995643 -0.036756568 -0.004774344 0.07934683 0.09128002 -0.053830177
0.097038366 0.13779762 -0.088458255 -0.010387969 0.035920873 -0.0453389 0.03301814 -0.043277327
-0.062397342 0.12095492 0.10052136 0.015766906 0.06703708 0.071232244 0.024400728 0.04113628
0.08523255 0.042298537 0.00032052372 0.049080525 -0.07635172 0.019121768 0.08037862 0.046449672
-0.045981098 0.054246563 0.07555625 0.035393085 0.0961936 0.034524195 0.0071045836 -0.046188895
-0.08290178 0.09909437 -0.045853086 -0.07644143 0.047078066 0.088324845 0.02634531 0.021578712
0.024238847 -0.0047306935 -0.017734492 -0.04798502 0.1029488 -0.07875406 -0.03926478 0.10794655
-0.035977405 -0.11315803 -0.07151017 0.09786281 0.005770743 -0.0689922 0.034698717 -0.044643324
-0.116895296 -0.0043710074 0.037138555 0.078708656 -0.05250869 0.016483089 0.009019139 0.03191242
0.0028530876 -0.01139835 0.06528939 0.01806789 -0.025337527 0.060259145 0.021009272 0.04391835
0.06223535 0.034730896 0.0008852335 0.0032462843 0.0063141547 -0.044479374 0.009023884 -0.103756376
-0.009719131 -0.022332117 0.036250427 -0.10239794 -0.037762675 0.050399933 -0.11222164 0.06755145
-0.13216047 0.03175318 0.07015401 0.1351363 -0.034923434 -0.028971108 0.054035764 -0.004243476
-0.0056288857 0.13793613 0.1557189 -0.020921066 0.07868677 -0.011196823 -0.08870839 0.036560353
0.045756117 0.104452655 0.08122619 0.031989183 -0.03933054 0.118747376 -0.07172817 -0.0322049
-0.121193856 0.08409429 0.10183726 -0.0738058 -0.071205825 -0.021799218 -0.12039617 0.14438798
-0.09250715 -0.05573789 -0.088926785 -0.03547826 0.07129521 0.07488148 -0.10219917 -0.0795087
0.08497752 -0.014830847 -0.02543248 0.12083587 0.11697726 -0.10111155 -0.045123685 0.122400455
-0.14619422 0.059739824 -0.046588525 -0.07269854 -0.0028010348 0.028282769 0.013500468 -0.07482135
0.068149395 0.06376405 -0.047255967 0.016483096 -0.039211255 0.028102206 -0.09877744 0.12291732
-0.16093104 0.113242835 0.056611814 0.015524879 0.034464005 0.043844353 -0.034342293 -0.05260205
0.0025127635 0.10067069 0.007234425 -0.08411031 -0.11165649 0.058477603 -0.08538958 0.10879806
0.011258219 -0.04401476 0.07041068 -0.03135248 -0.020603487 -0.057958074 0.0010067432 -0.0005981336
-0.027776444 0.038947534 -0.10127955 -0.029348668 -0.06800779 -0.040624302 0.0014356215 0.0036256486
0.07277995 -0.061660383 0.093619525 0.07794934 0.037311465 0.08045487 -0.110212386 0.085698605
-0.10660456 0.027551966 0.08767865 0.09178834 -0.037634518 0.105525956 -0.08738551 0.08217834
-0.0028372542 0.048500847 0.08255327 -0.09281431 0.1087587 0.118070655 -0.006447131 -0.13802263
00000000: 44f7 5c3d 9c28 01be 528c 25bc c4d3 fb3d
00000010: e481 843d afa9 9d3d ff6c bdbd c469 56bc
00000020: 0d65 1abd 41c7 50bd 61f6 c4bd 8538 f1bd
00000030: 7cba 8a3d 4791 7b3d f660 9fbd aab7 0fbd
00000040: cb36 b53d 1081 c2bd c9fc 493d 825b c4bd
00000050: 4246 823d 199f c83d aacb bf3d 4813 fbbd
00000060: 2999 bebd ea8b 313d d61a f73d 5a95 b0bd
00000070: df64 2bbd 4804 0b3d 33f6 013d 7dbb b4bd
00000080: 7da9 ed3d 8119 6d3c ee58 44bd cfda bb3c
00000090: 2d9e 393d 57d3 603c 8f84 5f3d c917 0bbd
000000a0: f7f4 f7bc 46c4 233e 93ea fdbc 0e8e 16bd
000000b0: 1a72 9cbb 9780 a23d 05f1 ba3d 087d 5cbd
000000c0: 0dbc c63d d21a 0d3e 9a29 b5bd 4d32 2abc
000000d0: c421 133d 48b5 39bd 073e 073d 9143 31bd
000000e0: 5b94 7fbd 37b7 f73d 25de cd3d 9929 813c
000000f0: bd4a 893d 36e2 913d 09e4 c73c 847e 283d
00000100: 678e ae3d 3b41 2d3d f70b a839 a908 493d
00000110: 4a5e 9cbd 41a5 9c3c 8c9d a43d 0342 3e3d
00000120: ad56 3cbd a531 5e3d 3cbd 9a3d 57f8 103d
00000130: 2601 c53d 3e69 0d3d 91cd e83b 9130 3dbd
00000140: 69c8 a9bd fdf1 ca3d 72d0 3bbd 538d 9cbd
00000150: eed4 403d a8e3 b43d 1fd2 d73c d7c5 b03c
00000160: 8c90 c63c ef03 9bbb ed47 91bc f18b 44bd
00000170: d2d6 d23d cf49 a1bd 1bd4 20bd 1513 dd3d
00000180: 0b5d 13bd 66bf e7bd ed73 92bd 4c6c c83d
00000190: 8018 bd3b c84b 8dbd 3e20 0e3d ebdb 36bd
000001a0: cd66 efbd ab3a 8fbb 991e 183d 0132 a13d
000001b0: 5a13 57bd 8b07 873c 03c5 133c 99b6 023d
000001c0: defa 3a3b 25c0 3abc 72b6 853d 1d03 943c
000001d0: a590 cfbc 4bd2 763d a31b ac3c bae3 333d
000001e0: 7fea 7e3d fc41 0e3d 040f 683a 9dbf 543b
000001f0: f8e6 ce3b 0130 36bd ead8 133c 397e d4bd
00000200: fd3c 1fbc d8f1 b6bc 547b 143d 03b6 d1bd
00000210: 09ad 1abd 2970 4e3d 76d4 e5bd 6a58 8a3d
00000220: 1355 07be 9f0f 023d e8ac 8f3d 2c61 0a3e
00000230: e00b 0fbd d154 edbc 9b54 5d3d db0c 8bbb
00000240: 8472 b8bb 213f 0d3e c674 1f3e a862 abbc
00000250: 8726 a13d e172 37bc bfac b5bd 4fc0 153d
00000260: c46a 3b3d 46eb d53d eb59 a63d 1707 033d
00000270: 0f19 21bd d331 f33d 38e6 92bd 49e9 03bd
00000280: 7c34 f8bd a139 ac3d 0e90 d03d 7f27 97bd
00000290: 5cd4 91bd 4694 b2bc 4492 f6bd 71da 133e
000002a0: 6374 bdbd 6a4d 64bd 3f1f b6bd a751 11bd
000002b0: 3903 923d 765b 993d cc4d d1bd 75d5 a2bd
000002c0: b208 ae3d 15fd 72bc c757 d0bc cc78 f73d
000002d0: c691 ef3d 9313 cfbd 9dd3 38bd 17ad fa3d
000002e0: f0b3 15be bfb1 743d 9cd3 3ebd f9e2 94bd
000002f0: 9191 37bb 44b1 e73c 1131 5d3c f03b 99bd
00000300: e991 8b3d ba96 823d 798f 41bd 8f07 873c
00000310: fb9b 20bd 9936 e63c d44b cabd 13bc fb3d
00000320: 1bcb 24be dceb e73d cae1 673d 105c 7e3c
00000330: 212a 0d3d 2396 333d 81aa 0cbd 3f75 57bd
00000340: 2dad 243b 6f2c ce3d c10e ed3b 0742 acbd
00000350: 28ac e4bd 3686 6f3d bbe0 aebd 84d1 de3d
00000360: 6574 383c d248 34bd 7933 903d 756b 00bd
00000370: a5c8 a8bc 7265 6dbd b2f4 833a 11cc 1cba
00000380: 6d8b e3bc 7387 1f3d a76b cfbd 9e6c f0bc
00000390: ab47 8bbd ab65 26bd 772b bc3a 4a9c 6d3b
000003a0: a80d 953d 998f 7cbd 98bb bf3d e7a3 9f3d
000003b0: e8d3 183d 86c5 a43d 08b7 e1bd c082 af3d
000003c0: 7e53 dabd a9b4 e13c dd90 b33d 86fb bb3d
000003d0: a726 1abd fe1d d83d 2df7 b2bd 1e4d a83d
000003e0: 3af1 39bb d3a8 463d b011 a93d 6e15 bebd
000003f0: e2bc de3d 07cf f13d 7442 d3bb ce55 0dbe

actor.3.bias f4 [64]
-0.008710787 -0.01759987 0.08757081 0.0345918 -0.02288313 0.03585053 -0.0572928 -0.027227063
-0.008197144 0.005570999 0.1060357 0.10928064 -0.046001747 0.06916826 -0.07044773 -0.008412148
0.08266762 -0.06389832 -0.016286828 0.07745498 -0.044997316 -0.11339906 -0.09634214 0.045985073
-0.011356882 -0.10543239 0.11340696 0.045912053 0.009025266 0.12546776 0.07383827 -0.079401486
0.075651586 -0.026557649 -0.05118641 0.0060739648 -0.10283657 0.071817145 -0.032988716 0.091397494
0.025524078 0.006092162 0.07396212 -0.067842536 0.004436204 -0.0692436 -0.104857914 -0.043756623
-0.0366375 -0.00815061 -0.011762635 -0.043452423 0.07085071 0.0758303 -0.033455897 0.10751101
-0.08094613 0.060978886 -0.03763966 0.06938815 0.010917621 0.023120206 0.062478736 -0.055649027
00000000: b0b7 0ebc 9a2d 90bc 5358 b33d 22b0 0d3d
00000010: 6775 bbbc 01d8 123d dbab 6abd 4a0b dfbc
00000020: 504d 06bc ed8c b63b 3f29 d93d 87ce df3d
00000030: 546c 3cbd 17a8 8d3d e646 90bd 1bd3 09bc
00000040: a44d a93d 1fdd 82bd f46b 85bc b7a0 9e3d
00000050: 1b4f 38bd c43d e8bd 074f c5bd d85a 3c3d
00000060: 3712 3abc f0ec d7bd e941 e83d 470e 3c3d
00000070: b6de 133c 9f7a 003e 8538 973d 3f9d a2bd
00000080: 38ef 9a3d 6d8f d9bc d7a8 51bd 1c08 c73b
00000090: fb9b d2bd de14 933d 2d1f 07bd 9c2e bb3d
000000a0: df17 d13c c2a0 c73b 7479 973d 07f1 8abd
000000b0: 945d 913b 97cf 8dbd bfbf d6bd 253a 33bd
000000c0: 3411 16bd 238a 05bc 11b8 40bc 2bfb 31bd
000000d0: 2d1a 913d eb4c 9b3d 0d09 09bd bb2e dc3d
000000e0: 16c7 a5bd ffc4 793d 0b2c 1abd 601b 8e3d
000000f0: d2df 323c 9666 bd3c b4e9 7f3d 3cf0 63bd

actor.4.weight f4 [64]
1.0912496 1.0355985 1.0874383 1.0796666 1.0209403 1.1178826 1.0699583 1.0019267
1.2857342 1.1941706 1.0399518 1.1851294 1.1073152 1.174295 1.139766 1.1460307
1.1467332 1.0995073 1.1089555 0.99554485 1.0981232 1.027096 1.0579394 1.0279802
1.0778753 1.1505635 1.1168584 1.2090856 1.001993 1.0510167 1.0725368 1.032819
1.027585 1.0951129 1.1939249 1.1750807 1.0990968 1.0296353 1.1672628 1.3017603
1.0263768 1.2121468 1.0493859 1.1024525 1.1367326 1.1273215 1.1123086 1.0610883
1.09285 1.1371357 1.0745456 1.1463355 1.2162856 1.2621663 1.0074387 1.0637729
1.129011 1.205745 1.2523215 1.1724005 1.0216286 0.99505085 1.0189523 1.0247175
00000000: 11ae 8b3f 7e8e 843f 2e31 8b3f 8432 8a3f
00000010: 2cae 823f c716 8f3f 65f4 883f 223f 803f
00000020: f092 a43f 95da 983f 241d 853f 52b2 973f
00000030: 81bc 8d3f 4c4f 963f dae3 913f 22b1 923f
00000040: 27c8 923f a8bc 8c3f 41f2 8d3f 07dc 7e3f
00000050: 4d8f 8c3f e277 833f 8f6a 873f db94 833f
00000060: d1f7 893f aa45 933f 37f5 8e3f 51c3 9a3f
00000070: 4e41 803f b787 863f e348 893f 6a33 843f
00000080: e887 833f a92c 8c3f 88d2 983f 0b69 963f
00000090: 34af 8c3f 17cb 833f de68 953f 15a0 a63f
000000a0: 5160 833f a027 9b3f 4752 863f 2a1d 8d3f
000000b0: 7480 913f 124c 903f 2160 8e3f bed1 873f
000000c0: 82e2 8b3f aa8d 913f b68a 893f 1fbb 923f
000000d0: 3faf 9b3f aa8e a13f c0f3 803f b629 883f
000000e0: 6f83 903f da55 9a3f 124c a03f 3811 963f
000000f0: bac4 823f a7bb 7e3f 076d 823f f129 833f

actor.4.bias f4 [64]
0.04275132 0.010410324 0.03726085 0.036398996 -0.00957826 0.051027626 0.013643623 -0.012841553
0.045035347 0.006438954 0.020288017 0.019835832 0.05721925 0.030162448 0.042585164 0.046712205
0.036388822 0.044259492 0.06935894 -0.010070049 0.035776827 0.005111807 0.029251695 -0.01791576
0.042460185 0.05395978 0.042606 0.04102925 -0.0031382903 0.012536481 0.014668425 0.013699955
0.03374426 0.06950424 0.07430583 0.040307805 0.03474991 0.02554535 0.074068844 0.12282715
-0.000457082 0.075031675 0.032222968 0.044830453 0.08140404 0.027007144 0.06528745 0.030271066
-0.013217666 0.059435368 0.044572968 0.047142286 0.055474356 0.047491703 0.014807166 0.032529835
0.043031026 0.02602364 0.06518952 0.104345635 0.004579713 0.0005856749 0.010497727 -0.015338433
00000000: 021c 2f3d 1090 2a3c d59e 183d 1d17 153d
00000010: 22ee 1cbc 5802 513d 8189 5f3c 6165 52bc
00000020: fc76 383d dcfd d23b 0e33 a63c c17e a23c
00000030: bb5e 6a3d 3d17 f73c c86d 2e3d 4c55 3f3d
00000040: 720c 153d 7149 353d 0f0c 8e3d d9fc 24bc
00000050: b98a 123d f280 a73b 40a1 ef3c 12c4 92bc
00000060: bbea 2d3d ee04 5d3d a183 2e3d 490e 283d
00000070: c6ab 4dbb d065 4d3c d553 703c c775 603c
00000080: 6c37 0a3d 3d58 8e3d a82d 983d cc19 253d
00000090: ec55 0e3d 7b44 d13c 68b1 973d cd8c fb3d
000000a0: 82a4 efb9 35aa 993d 3bfc 033d 23a0 373d
000000b0: 29b7 a63d 163e dd3c 6db5 853d 07fb f73c
000000c0: e98e 58bc 8072 733d 2592 363d 4518 413d
000000d0: 1439 633d a986 423d c199 723c 013e 053d
000000e0: 4d41 303d 872f d53c 1582 853d 2ab3 d53d
000000f0: 6b11 963b fa87 193a a9fe 2b3c 0d4e 7bbc

actor.6.weight f4 [2, 64]
0.07492432 -0.05427699 0.08851033 0.14087361 0.011471046 0.102099165 0.0037566188 -0.022969235
0.17128535 0.15118292 0.10778976 -0.28797922 -0.2344059 -0.2573724 0.18487743 -0.081689015
-0.17369744 0.06977034 0.20045692 -0.004344463 -0.061903957 -0.05215105 -0.10512659 -0.09157136
-0.06612677 0.21233028 0.16369313 -0.23967977 -0.059978962 -0.045446545 -0.10239484 -0.12977071
0.04477287 -0.12623405 0.15656713 0.23074168 0.17095034 0.14408572 -0.13316615 -0.039942924
0.057816405 0.187081 -0.095628195 -0.044676866 -0.09563577 -0.18699089 0.17575376 0.120629005
-0.18591394 0.13054334 -0.06317848 0.14887667 -0.05170652 0.27910286 0.115916036 -0.09874629
-0.114783876 0.11227107 -0.17507687 0.0075184735 0.106516585 -0.06545854 -0.1182275 -0.09862549
0.1913928 0.15767941 -0.17571293 0.030030316 -0.05280564 0.13445692 0.124229506 0.058368526
0.22878583 0.24348973 -0.04439544 -0.18030408 -0.029658949 -0.1674106 0.079214655 -0.1621101
-0.11940829 -0.10191935 0.023101518 0.0889727 -0.16040808 0.12003859 -0.13690425 -0.049684834
-0.19380647 0.12942234 0.19000116 -0.15885916 0.04333917 0.03931557 0.08374046 0.03152255
0.06224133 0.17764904 0.11352345 0.23479225 0.10445372 0.04732349 0.05605632 -0.24440385
-0.064458765 0.2353966 -0.10235706 0.19517478 -0.21146214 -0.057751566 0.019165058 -0.027457574
-0.10562199 -0.03416514 -0.0052931686 -0.04260573 -0.21643189 0.27509782 -0.12202434 0.1205625
-0.11479525 0.08752682 -0.24709179 0.1353901 -0.06407573 0.084889255 0.04785897 0.0581638
00000000: ec71 993d 8d51 5ebd e744 b53d 2c41 103e
00000010: 0ef1 3b3c 5e19 d13d 9b31 763b fa29 bcbc
00000020: 6d65 2f3e b2cf 1a3e e1c0 dc3d 0372 93be
00000030: 1a08 70be 51c6 83be 8250 3d3e 924c a7bd
00000040: bedd 31be c1e3 8e3d 9444 4d3e ff5b 8ebb
00000050: 018f 7dbd 579c 55bd 9c4c d7bd c489 bbbd
00000060: 796d 87bd 1c6d 593e 2c9f 273e 9d6e 75be
00000070: 80ac 75bd 2826 3abd 63b4 d1bd 9de2 04be
00000080: c263 373d 8043 01be 2253 203e 8c47 6c3e
00000090: 9b0d 2f3e 358b 133e b55c 08be 319b 23bd
000000a0: e5d0 6c3d 2992 3f3e b7d8 c3bd 17ff 36bd
000000b0: b0dc c3bd 8a7a 3fbe cbf8 333e 570c f73d
000000c0: 3960 3ebe 27ad 053e b863 81bd 2073 183e
000000d0: 37ca 53bd 92e6 8e3e 6365 ed3d 7f3b cabd
000000e0: cf13 ebbd 60ee e53d 5a47 33be 875d f63b
000000f0: 5e25 da3d 210f 86bd 4221 f2bd 29fc c9bd
00000100: 79fc 433e b676 213e 17ee 33be 2302 f63c
00000110: ba4a 58bd 13af 093e 0a6c fe3d d613 6f3d
00000120: d546 6a3e 5f55 793e fed7 35bd a2a1 38be
00000130: 53f7 f2bc af6d 2bbe 4b3b a23d 3100 26be
00000140: 558c f4bd 18bb d0bd 653f bd3c 5237 b63d
00000150: 0442 24be cbd6 f53d a130 0cbe 5382 4bbd
00000160: 3475 46be 4a87 043e aa8f 423e faab 22be
00000170: 6a84 313d 5d09 213d 1e80 ab3d ca1d 013d
00000180: c4f0 7e3d a1e9 353e fc7e e83d 616d 703e
00000190: d5eb d53d 47d6 413d 509b 653d 0145 7abe
000001a0: f502 84bd ce0b 713e 94a0 d1bd e6db 473e
000001b0: 8889 58be e88c 6cbd 0a00 9d3c b5ee e0bc
000001c0: 5850 d8bd bff0 0bbd 5172 adbb 5983 2ebd
000001d0: 52a0 5dbe 9fd9 8c3e e6e7 f9bd 79e9 f63d
000001e0: c619 ebbd 4341 b33d a105 7dbe b4a3 0a3e
000001f0: 233a 83bd 6bda ad3d c407 443d 2a3d 6e3d

actor.6.bias f4 [2]
-0.093758054 0.005805909
00000000: 3904 c0bd 7f3f be3b

critic.0.weight f4 [64, 29]
-0.053011555 -0.0030932038 0.012802918 0.018845867 0.0026517543 0.020732336 0.030470904 0.0038232468
-0.0146855805 0.036361463 0.006150686 0.021196216 0.01891502 0.02300693 0.0059869955 0.022054117
-0.33681002 0.00933357 -0.02140706 -0.023120992 0.029470474 -0.052940197 0.009596658 -0.006076743
0.023887623 0.0034389144 0.3065883 -0.15082175 0.003999121 -0.012068623 -0.0006036044 0.038217627
0.021852545 0.00954815 0.023443287 -0.02436219 0.0011001689 -0.019432455 0.038388047 0.0041008503
0.023412984 0.010945697 0.028844193 -0.0040720482 0.01625401 0.28666633 0.01363401 -0.040733475
-0.010449128 0.023724392 -0.08103026 -0.006423039 0.009003905 0.027842687 0.0031544687 -0.3351733
0.021986235 0.023072831 0.07400152 -0.0061726742 0.02023826 0.020027375 -0.002923669 0.03799266
-0.034915898 -0.009377611 -0.015695322 0.05973548 0.015690332 0.043504927 0.028955448 0.027625458
0.0138233295 0.027233833 0.0073526036 0.03113403 -0.116016716 -0.0013988948 0.11175345 -0.024210367
-0.1881718 0.035381768 0.016025145 -0.0097053815 0.07043648 0.14385356 -2.8428552e-05 0.019269204
-0.0019224096 -0.02272422 0.024033124 0.023653734 0.054703344 0.0846547 -0.03932377 -0.005111926
0.02384051 0.0027617374 0.0043695066 -0.015751645 0.041956913 -0.01703854 0.009424397 0.05186861
0.018156525 0.0038062371 -0.02097353 -0.008086617 0.07894588 0.100638576 -0.13680162 -0.06101665
-0.26945865 0.023474434 -0.0039415783 0.04863761 0.10100002 0.0049620536 0.049756173 0.020372974
0.031857688 0.0655499 -0.027040506 -0.08131573 -0.0386076 -0.033329923 -0.030876929 -0.052159265
0.07287961 -0.037939195 0.02409272 0.04418282 -0.25998497 0.069225915 -0.04782091 0.0420042
-0.13699985 0.050273538 0.047911935 0.13721526 0.28854808 -0.019128133 0.24169444 -0.16466878
0.012091715 0.021351246 -0.0031062665 0.062879294 0.021609064 0.04241559 0.018179238 -0.013512742
0.038927034 -0.0283149 0.0120271435 -0.0115268575 0.020828428 0.03802103 -0.0097059375 0.0038974471
0.02787361 -0.0019091116 -0.017771535 0.049869727 -0.03422761 -0.001537579 -0.12215591 0.05518627
-0.0035911407 -0.014315925 -0.02396955 -0.0022609471 0.06389444 -0.03632174 -0.08384488 0.0023902983
0.108707115 0.028137367 0.09789018 0.047142196 -0.010256043 0.003755166 -0.0074306144 0.009164159
-0.012035173 -0.0035533502 -0.0017892453 0.029882388 -0.005042092 0.0018788156 -0.028340816 0.008230664
-0.07206373 -0.11599634 -0.091956295 0.08693494 0.022945276 -0.26477423 -0.1949957 0.11456742
0.01875694 0.12464423 0.18476939 0.033026464 -0.008547234 -0.050589535 0.020224405 0.01817565
0.059217487 -0.014739821 0.050860204 -0.00467149 0.018916313 0.008068088 -0.008714317 0.0062687234
0.024086306 0.0013026632 0.02570284 -0.12735358 0.028345363 -0.0131463045 0.032680634 0.02402578
0.042598084 -0.15741876 0.030281685 -0.12797418 -0.023226043 -0.2699058 -0.0667647 -0.09790043
0.021072818 0.0025726303 0.07860463 0.022639757 0.02103172 0.013103424 -0.0605965 0.047969572
-0.0378578 0.0036474296 -0.02275983 0.022633158 0.05934634 -0.008119087 0.022065409 0.017261347
-0.09574619 0.003888591 0.05634839 -0.038454372 -0.109954216 -0.09358111 0.019941343 0.09675724
00000000: a522 59bd 59b7 4abb 55c3 513c a662 9a3c
00000010: 0ec9 2d3b dcd6 a93c 1e9e f93c 708f 7a3b
00000020: ca9b 70bc c2ef 143d b28b c93b b0a3 ad3c
00000030: acf3 9a3c 0779 bc3c 8f2e c43b d6aa b43c
00000040: 5d72 acbe d4eb 183c dc5d afbc 3c68 bdbc
00000050: 106c f13c d2d7 58bd 4d3b 1d3c 6a1f c7bb
00000060: faaf c33c 695f 613b 24f9 9c3e 0471 1abe
00000070: 0f0b 833b 79bb 45bc 353b 1eba 168a 1c3d
00000080: 1c04 b33c d86f 1c3c 230c c03c 3793 c7bc
00000090: 8b33 903a d030 9fbc c93c 1d3d 6d60 863b
000000a0: 96cc bf3c 9555 333c a84a ec3c d16e 85bb
000000b0: 2127 853c eec5 923e 2f61 5f3c 25d8 26bd
000000c0: d232 2bbc a859 c23c 31f3 a5bd 5b78 d2bb
000000d0: 1d85 133c 5916 e43c 34bb 4e3b d69b abbe
000000e0: 7a1c b43c 3c03 bd3c 1c8e 973d 2544 cabb
000000f0: b5ca a53c 7310 a43c 079b 3fbb 319e 1b3d
00000100: f903 0fbd 8da4 19bc 7a93 80bc 31ad 743d
00000110: 0389 803c 3932 323d fa33 ed3c c94e e23c
00000120: 3f7b 623c 7d19 df3c 1cee f03b cb0c ff3c
00000130: 2c9a edbd 1f5b b7ba fede e43d d254 c6bc
00000140: 1cb0 40be 79ec 103d 2a47 833c 5203 1fbc
00000150: 0041 903d 594e 133e da79 eeb7 73da 9d3c
00000160: 5df9 fbba 2528 babc 1de1 c43c 7ac5 c13c
00000170: 9d10 603d 715f ad3d f611 21bd f181 a7bb
00000180: 2c4d c33c 44fe 343b 142e 8f3b 9809 81bc
00000190: 03db 2b3d 6994 8bbc c968 1a3c 2e74 543d
000001a0: febc 943c 1072 793b aed0 abbc bb7d 04bc
000001b0: 61ae a13d 991b ce3d b915 0cbe 98ec 79bd
000001c0: 7cf6 89be 754d c03c 5b28 81bb 3b38 473d
000001d0: 19d9 ce3d b998 a23b 21cd 4b3d 39e5 a63c
000001e0: 357d 023d 073f 863d 0d84 ddbc dd88 a6bd
000001f0: 0123 1ebd f584 08bd 9df1 fcbc f4a4 55bd
00000200: e841 953d 2166 1bbd 195e c53c 0bf9 343d
00000210: c01c 85be 51c6 8d3d dcdf 43bd 990c 2c3d
00000220: b049 0cbe a0eb 4d3d 4e3f 443d 2882 0c3e
00000230: 93bc 933e 9ab2 9cbc bf7e 773e ef9e 28be
00000240: 541c 463c cfe8 ae3c 8192 4bbb dcc6 803d
00000250: 7e05 b13c f8bb 2d3d a0ec 943c 8c64 5dbc
00000260: f471 1f3d a6f4 e7bc 7f0d 453c 25db 3cbc
00000270: 61a0 aa3c f1bb 1b3d a705 1fbc 506c 7f3b
00000280: 3257 e43c 283b faba 9c95 91bc 3344 4c3d
00000290: 4032 0cbd 9788 c9ba e12c fabd 000b 623d
000002a0: 5859 6bbb 578d 6abc ca5b c4bc 662c 14bb
000002b0: 17db 823d 1bc6 14bd ddb6 abbd 8da6 1c3b
000002c0: d6a1 de3d 5680 e63c a67a c83d 2d18 413d
000002d0: f608 28bc 3b19 763b 837c f3bb 4525 163c
000002e0: 2d2f 45bc 53df 68bb 1c85 eaba e9cb f43c
000002f0: 2238 a5bb 9742 f63a 002b e8bc e8d9 063c
00000300: 2696 93bd 7d8f edbd 9553 bcbd f20a b23d
00000310: bbf7 bb3c 7d90 87be f4ac 47be 53a2 ea3d
00000320: 27a8 993c 7945 ff3d 3034 3d3e c246 073d
00000330: b309 0cbc f936 4fbd a7ad a53c 1ae5 943c
00000340: 098e 723d 4a7f 71bc ca52 503d 4c13 99bb
00000350: 62f6 9a3c 0430 043c 7fc6 0ebc dd69 cd3b
00000360: a550 c53c 20be aa3a c38e d23c fa68 02be
00000370: 8934 e83c 9963 57bc 21dc 053d b6d1 c43c
00000380: 547b 2e3d 6232 21be 4c11 f83c aa0b 03be
00000390: 8b44 bebc 1831 8abe eebb 88bd 0580 c8bd
000003a0: e7a0 ac3c 9399 283b 77fb a03d 0377 b93c
000003b0: b74a ac3c beaf 563c 0934 78bd be7b 443d
000003c0: c810 1bbd b709 6f3b d372 babc 2c69 b93c
000003d0: 2615 733d eb05 05bc 84c2 b43c ab67 8d3c
000003e0: 9416 c4bd bbd7 7e3b 92cd 663d 5582 1dbd
000003f0: ad2f e1bd 74a7 bfbd 075c a33c a928 c63d

critic.0.bias f4 [64]
0.21151851 0.21067397 0.40072367 0.08908949 -0.46640274 0.29337627 -0.2967394 -0.23848432
0.30423805 -0.026116833 -0.28428113 0.08119908 -0.34573293 0.23582 -0.09639987 -0.087113656
0.10046374 0.3697351 -0.19447628 0.20433961 0.21564691 -0.087120876 0.006026415 0.19457243
0.28202158 -0.25777328 -0.4520845 -0.14200523 -0.40853715 0.18247017 0.16455205 0.33621842
-0.096513875 0.21307954 -0.3148367 0.33043733 -0.15230784 0.047977988 -0.5272498 -0.09557893
0.06688134 0.35919225 -0.15242311 0.09169575 -0.18606164 -0.5178648 0.3171584 0.034058046
0.071361564 -0.40098497 0.32169506 0.18065685 0.33740434 0.22190152 0.07953841 0.19900618
-0.24358702 0.38388988 0.1110665 0.07362335 -0.40418285 0.24334481 -0.20469067 0.18253928
00000000: 4f98 583e ebba 573e a72b cd3e 8d74 b63d
00000010: 57cc eebe 6a35 963e 3aee 97be 3c35 74be
00000020: 17c5 9b3e f8f2 d5bc 4c8d 91be b44b a63d
00000030: e803 b1be cc7a 713e 4c6d c5bd a568 b2bd
00000040: efbf cd3d eb4d bd3e ca24 47be 673e 513e
00000050: 8bd2 5c3e 6e6c b2bd 3c79 c53b ff3d 473e
00000060: 2265 903e dcfa 83be 9f77 e7be d269 11be
00000070: c82b d1be 76d9 3a3e 5580 283e d224 ac3e
00000080: 11a9 c5bd 8631 5a3e 4732 a1be 152f a93e
00000090: 96f6 1bbe 9184 443d d8f9 06bf e3be c3bd
000000a0: 16f9 883d 0ce8 b73e ce14 1cbe fbca bb3d
000000b0: f186 3ebe ca92 04bf 9662 a23e 7380 0b3d
000000c0: 0326 923d e74d cdbe 37b5 a43e 1cfe 383e
000000d0: 43c0 ac3e 273a 633e 09e5 a23d 47c8 4b3e
000000e0: e06e 79be 378d c43e d576 e33d d7c7 963d
000000f0: 0ef1 cebe 622f 793e 6e9a 51be 94eb 3a3e

critic.1.weight f4 [64]
1.3114266 1.1689346 1.0283692 0.93097395 1.0619377 0.9362761 1.0095787 0.9385995
0.9076572 0.9598704 1.0530996 0.91503835 1.0900421 0.9741346 0.8504796 1.0196838
0.8444411 1.0520581 1.0587916 0.9899216 0.94342685 0.89826083 0.94227386 0.9824278
0.94230086 0.8957051 1.0944723 0.94655776 1.1559441 0.84200335 0.9987729 0.99257106
0.98822755 0.9519972 1.0591663 0.9876434 0.93355864 0.9412105 1.2730682 0.8661515
0.8912247 1.07373 0.9386663 0.8501168 0.9673832 1.0627583 1.0156498 0.94507784
0.93595445 1.1137849 0.97726655 0.96083206 1.041337 0.95857936 0.9680194 1.0939832
1.1643428 1.0324023 0.91816443 0.935057 1.2019271 1.0698292 0.8875876 0.9498597
00000000: d4dc a73f a69f 953f 9aa1 833f 4f54 6e3f
00000010: 93ed 873f caaf 6f3f e039 813f 0f48 703f
00000020: 395c 683f 11ba 753f f8cb 863f f43f 6a3f
00000030: 8086 8b3f e360 793f 08b9 593f 0085 823f
00000040: 4b2d 583f d7a9 863f 7c86 873f 816b 7d3f
00000050: 6c84 713f 6cf4 653f dc38 713f 6380 7b3f
00000060: a13a 713f ee4c 653f ab17 8c3f 9c51 723f
00000070: faf5 933f 888d 573f 95af 7f3f 2319 7e3f
00000080: 7bfc 7c3f 17b6 733f c392 873f 33d6 7c3f
00000090: b3fd 6e3f 2cf3 703f e6f3 a23f 1bbc 5d3f
000000a0: 4d27 643f fc6f 893f 6f4c 703f 41a1 593f
000000b0: 6da6 773f 7708 883f d000 823f 9ff0 713f
000000c0: b69a 6f3f 8190 8e3f 242e 7a3f 17f9 753f
000000d0: 884a 853f 7565 753f 1fd0 773f a407 8c3f
000000e0: 2f09 953f c225 843f d30c 6b3f e55f 6f3f
000000f0: bfd8 993f 2af0 883f f138 633f 012a 733f

critic.1.bias f4 [64]
-0.06693191 -0.0999914 0.07059319 -0.050464 -0.010933489 0.039249584 0.00017315161 0.11236917
0.05295109 -0.08477541 0.060795944 -0.123071395 0.1751818 0.02864205 -0.089365534 0.062193796
0.022068841 -0.09568628 0.041259374 0.012894073 -0.038305372 0.08261532 -0.049091533 -0.1555608
-0.040115833 -0.014491757 -0.13324073 -0.0619119 0.09603198 -0.08658465 -0.06565656 0.020413341
-0.12188566 -0.03843731 0.08245995 0.013028013 0.1160699 -0.079906024 -0.22769083 0.14922892
-0.017612489 0.056704562 -0.23064978 -0.09209438 0.16898012 0.087622896 -0.015607519 0.054324362
-0.07604643 0.26077437 0.054049455 -0.024666633 0.17259286 0.016715216 -0.0650737 0.107595034
0.12307847 0.019176587 -0.010933923 -0.0057514524 0.018903296 0.022392603 0.10751974 -0.07532021
00000000: 9913 89bd 4bc8 ccbd 2a93 903d 57b3 4ebd
00000010: 6022 33bc 2cc4 203d 0890 3539 cf21 e63d
00000020: 3ee3 583d bb9e adbd 2b05 793d db0c fcbd
00000030: dc62 333e bca2 ea3c 4705 b7bd ecbe 7e3d
00000040: b7c9 b43c 2bf7 c3bd 97ff 283d a941 533c
00000050: 18e6 1cbd 3932 a93d 3414 49bd 554b 1fbe
00000060: 8050 24bd d66e 6dbc 4270 08be 5597 7dbd
00000070: 6aac c43d 4b53 b1bd f276 86bd e139 a73c
00000080: 309f f9bd 7170 1dbd c3e0 a83d 7273 553c
00000090: 0eb6 ed3d c5a5 a3bd c927 69be 77cf 183e
000000a0: 1148 90bc 0b43 683d 752f 6cbe fa9b bcbd
000000b0: 2009 2d3e a273 b33d aeb6 7fbc 3983 5e3d
000000c0: 3bbe 9bbd 3884 853e f662 5d3d ae11 cabc
000000d0: 2fbc 303e 59ee 883c 5c45 85bd c95a dc3d
000000e0: 9110 fc3d 3818 9d3c 3224 33bc ae76 bcbb
000000f0: 16db 9a3c b170 b73c 4f33 dc3d 7b41 9abd

critic.3.weight f4 [64, 64]
0.024058659 0.14278504 0.058493603 -0.013984668 0.033258967 -0.055897158 0.03561697 0.10078429
-0.06256724 0.009356989 -0.049562156 -0.0484396 0.04696724 -0.043659516 0.09298056 0.22655857
-0.030289127 -0.10860251 0.021143166 0.001677618 -0.041629296 0.1325174 0.0033506642 0.0081942165
0.0056186076 -0.15294713 -0.021722628 -0.044572588 0.13286872 -0.07539004 0.06340175 -0.0965386
0.060354266 0.012673817 0.10169469 -0.047883615 0.07209793 0.024014367 0.1464411 0.04767265
-0.041821737 -0.103926815 0.10065823 -0.11552213 0.02511333 0.10222704 -0.15099719 0.055852976
0.026941353 0.18957193 -0.061696354 0.0044603343 -0.07205415 -0.0931097 -0.04804323 0.054058056
0.13291907 -0.11552856 -0.0039412254 -0.19141881 0.17346072 -0.035359256 0.0816324 -0.062737286
0.117376424 -0.08661604 0.097026005 -0.00914644 -0.08328362 0.097512595 0.0062137274 -0.07656343
0.07919556 -0.00032726178 -0.087418914 0.05565247 -0.057063613 0.05339791 -0.024582502 -0.10681933
-0.020122195 0.03898842 -0.035360564 0.074545614 -0.024956733 -0.06535361 0.021842405 0.11498982
-0.007662126 -0.0018858218 -0.18413152 0.0020770393 -0.09083847 0.060233697 -0.013045266 0.042790253
-0.089697555 0.082879506 -0.05947321 0.013049677 -0.012338687 0.039097473 -0.18773946 -0.046144664
-0.025061691 0.07171399 -0.018348262 0.054088883 -0.104321696 -0.06796691 0.16358605 0.068442136
0.04224802 -0.14148615 0.054703206 0.014794686 0.11183808 0.06307915 -1.9289359e-05 -0.019715855
0.0005404155 0.13101415 0.011092961 -0.003932337 -0.21142153 0.086764865 -0.07563347 0.071533814
0.15598181 -0.036440775 -0.026017815 -0.016716331 -0.0064947032 0.041882843 -0.0048133866 0.06175753
-0.080221005 0.007149401 0.09269123 -0.017762179 0.011945478 -0.028260924 0.002022804 0.21021505
-0.008718002 -0.056070466 0.08245991 0.0076727993 -0.010168027 0.0055333856 0.05231669 -0.08091664
-0.014466984 0.0076888595 -0.09388911 -0.011716976 0.010672377 -0.040884066 -0.032992102 0.012820931
0.06530635 0.0074605797 0.033572722 -0.027778905 0.016867477 0.087463975 0.008909942 0.049298618
0.007978496 -0.05236111 0.1404201 -0.007141675 0.038249243 0.0074250964 -0.15070046 0.06388941
-0.03384196 0.068163514 -0.062209412 -0.06088256 -0.05130606 -0.0007286891 -0.033090983 0.018351546
0.10128198 -0.15758526 -0.05913669 0.03482529 0.26501727 -0.09310085 0.007336473 -0.088779114
-0.039981794 -0.005616402 -0.015127636 -0.010728988 0.12338588 -0.075912625 0.07583691 0.14967161
-0.02288057 0.01740933 -0.020866945 -0.0676389 0.1317651 -0.057378773 -0.014104929 0.12449872
-0.00014444196 -0.12399321 0.07301638 -0.038094945 -0.011719661 0.046830636 -0.01070761 -0.030542606
0.017326603 0.0011053868 0.07025485 0.04989715 0.12132888 0.06979451 -0.0042850813 -0.07567536
0.109223805 0.002955553 0.06396047 -0.087749176 0.085012704 0.026822586 0.22643559 0.03371569
-0.011830524 -0.106878854 0.04132164 0.0010707785 0.060558885 0.14306764 -0.03788345 0.013910777
0.08332563 0.19082679 -0.066821955 -0.05028906 -0.02362423 -0.021879729 -0.047682423 0.0970584
0.12974405 -0.0073985574 -0.067075334 0.0416951 0.10521575 -0.08490213 0.1695079 -0.055733528
00000000: aa16 c53c 3e36 123e fd96 6f3d f31f 65bc
00000010: 8e3a 083d 6bf4 64bd 1ae3 113d fe67 ce3d
00000020: 4123 80bd 0e4e 193c b001 4bbd 9a68 46bd
00000030: b860 403d 52d4 32bd 986c be3d f8fe 673e
00000040: e720 f8bc fe6a debd 6f34 ad3c 85e3 db3a
00000050: 7b83 2abd a4b2 073e d196 5b3b 0941 063c
00000060: 4c1c b83b 2c9e 1cbe a7f3 b1bc bf91 36bd
00000070: bd0e 083e 1866 9abd c7d8 813d 08b6 c5bd
00000080: 0936 773d d7a5 4f3c 4e45 d03d 9c21 44bd
00000090: 14a8 933d c7b9 c43c a8f4 153e 6644 433d
000000a0: 454d 2bbd 95d7 d4bd e725 ce3d de96 ecbd
000000b0: 78ba cd3c 695c d13d 029f 1abe 17c6 643d
000000c0: 1db4 dc3c 251f 423e 51b5 7cbd ff27 923b
000000d0: 2091 93bd 4cb0 bebd fac8 44bd fb6b 5d3d
000000e0: f01b 083e 3d9a ecbd 6525 81bb 4b03 44be
000000f0: b09f 313e ded4 10bd e32e a73d 687c 80bd
00000100: 0d63 f03d c063 b1bd 92b5 c63d f3da 15bc
00000110: 9a90 aabd afb4 c73d 869c cb3b 4acd 9cbd
00000120: 4831 a23d 5594 abb9 b008 b3bd d8f3 633d
00000130: 89bb 69bd c4b7 5a3d 3e61 c9bc 18c4 dabd
00000140: 4dd7 a4bc 52b2 1f3d 3dd6 10bd 5fab 983d
00000150: 1072 ccbc 1dd8 85bd d8ee b23c c87f eb3d
00000160: 9212 fbbb ae2d f7ba f98c 3cbe f01e 083b
00000170: 8509 babd 9cb7 763d d0bb 55bc d544 2f3d
00000180: 5ab3 b7bd bbbc a93d 2e9a 73bd 50ce 553c
00000190: 3428 4abc ac24 203d c63e 40be 3002 3dbd
000001a0: 2d4e cdbc c9de 923d 184f 96bc 4e8c 5d3d
000001b0: 9da6 d5bd 3c32 8bbd 1a83 273e 642b 8c3d
000001c0: 430c 2d3d bfe1 10be 7810 603d 6965 723c
000001d0: 5d0b e53d a42f 813d 95cf a1b7 2583 a1bc
000001e0: acaa 0d3a 9328 063e 40bf 353c d5da 80bb
000001f0: e37e 58be c7b1 b13d b9e5 9abd 5280 923d
00000200: b2b9 1f3e ec42 15bd 5023 d5bc b0f0 88bc
00000210: 85d1 d4bb 588d 2b3d 9db9 9dbb 77f5 7c3d
00000220: e94a a4bd 8645 ea3b e6d4 bd3d fd81 91bc
00000230: f7b6 433c 7483 e7bc 0591 043b 9d42 573e
00000240: f3d5 0ebc 25aa 65bd bee0 a83d 1b6c fb3b
00000250: cc97 26bc 6751 b53b 074a 563d a0b7 a5bd
00000260: ee06 6dbc d4f2 fb3b ef48 c0bd 8ff8 3fbc
00000270: 32db 2e3c 0d76 27bd ba22 07bd e20e 523c
00000280: 56bf 853d e177 f43b 8d83 093d 9690 e3bc
00000290: aa2d 8a3c 5020 b33d 01fb 113c 59ed 493d
000002a0: 3db8 023c 9a78 56bd 49ca 0f3e b604 eabb
000002b0: 3dab 1c3d 394e f33b 3951 1abe 73d8 823d
000002c0: de9d 0abd 5099 8b3d 4ccf 7ebd fe5f 79bd
000002d0: 4e26 52bd 7f05 3fba 698a 07bd fb55 963c
000002e0: ed6c cf3d 085e 21be 5039 72bd f7a4 0e3d
000002f0: 58b0 873e a9ab bebd cc66 f03b d3d1 b5bd
00000300: f3c3 23bd cb09 b8bb e7d9 77bc a3c8 2fbc
00000310: bcb1 fc3d 1478 9bbd 6250 9b3d 8443 193e
00000320: 0870 bbbc 039e 8e3c 28f1 aabc 4386 8abd
00000330: 6eed 063e 0106 6bbd 5c18 67bc 2ff9 fe3d
00000340: 5875 17b9 27f0 fdbd 9d89 953d 7209 1cbd
00000350: d203 40bc 7bd1 3f3d f96e 2fbc 7d34 fabc
00000360: 85f0 8d3c a0e2 903a c6e1 8f3d f460 4c3d
00000370: 477b f83d 6df0 8e3d de69 8cbb affb 9abd
00000380: bbb0 df3d f3b1 413b b5fd 823d d7b5 b3bd
00000390: 241b ae3d 0abb db3c bbde 673e 7719 0a3d
000003a0: d0d4 41bc 4de3 dabd e140 293d 5d59 8c3a
000003b0: 980c 783d 5380 123e ad2b 1bbd 07ea 633c
000003c0: a1a6 aa3d 1968 433e f3d9 88bd e7fb 4dbd
000003d0: 9a87 c1bc 1e3d b3bc a54e 43bd 8ec6 c63d
000003e0: a0db 043e 996f f2bb cb5e 89bd 7bc8 2a3d
000003f0: 5b7b d73d 2be1 adbd 7b93 2d3e d748 64bd

critic.3.bias f4 [64]
0.08794953 -0.11121742 0.09449599 0.045194007 0.034934536 -0.010710508 0.021924881 0.03676761
0.044511046 0.03343675 0.14959437 0.001907942 -0.033795882 -0.06523074 0.18082263 -0.14265929
0.18694425 -0.021350315 0.115056865 0.10945237 -0.056305286 -0.051692266 -0.021493673 -0.05349491
-0.08390302 0.07476663 -0.023723127 -0.0165623 0.030787315 0.0523962 0.086584546 -0.10626915
0.077653624 0.13529883 -0.034640085 0.1019153 0.019483952 -0.064172305 -0.0027808496 0.073955394
0.0035822748 0.10233463 0.11793618 -0.11854849 -0.0002666861 -0.027261276 0.15539965 0.08352104
0.017409766 -0.074316464 -0.015680524 0.06002146 -0.09735043 0.07608345 0.07500636 0.0028533044
0.060831014 -0.10672551 0.10280992 0.07712107 -0.0015426471 0.09417788 -0.049377475 0.0062564723
00000000: e21e b43d f5c5 e3bd 1d87 c13d 5a1d 393d
00000010: 8417 0f3d 207b 2fbc cf9b b33c a299 163d
00000020: 3751 363d f9f4 083d 442f 193e e913 fa3a
00000030: 8d6d 0abd b297 85bd 9129 393e 4715 12be
00000040: 506e 3f3e dbe6 aebc efa2 eb3d 9028 e03d
00000050: 5fa0 66bd 45bb 53bd 8013 b0bc 7b1d 5bbd
00000060: 59d5 abbd 3f1f 993d 0157 c2bc a9ad 87bc
00000070: ae35 fc3c 669d 563d 3d53 b13d a4a3 d9bd
00000080: dd08 9f3d c78b 0a3e c3e2 0dbd f8b8 d03d
00000090: cf9c 9f3c c56c 83bd ea3e 36bb ed75 973d
000000a0: 99c4 6a3b d294 d13d 8688 f13d 8dc9 f2bd
000000b0: 01d2 8bb9 0a53 dfbc 1621 1f3e 140d ab3d
000000c0: ed9e 8e3c 3b33 98bd 7174 80bc 10d9 753d
000000d0: aa5f c7bd a4d1 9b3d ef9c 993d 81fe 3a3b
000000e0: f129 793d e792 dabd 028e d23d a7f1 9d3d
000000f0: a632 caba 55e0 c03d 0940 4abd 1803 cd3b

critic.4.weight f4 [64]
1.0374582 1.5574371 1.2844142 1.7874414 1.568085 1.530979 1.5917646 0.98443234
1.5371376 0.9919924 1.2304355 1.1464795 1.5472411 1.0397719 1.8054576 1.5942029
1.639176 1.0893111 1.079891 0.977579 0.9998297 1.1405302 1.6124763 1.3503333
1.6107671 1.0106946 1.0951345 1.5638119 1.7266201 1.722204 1.3492198 1.601919
1.347235 1.5562359 1.3375971 1.6356854 1.6208502 1.5676286 1.9504157 0.9821573
2.0169454 1.0997965 1.6032586 1.5607027 1.7005192 1.6939592 1.2611971 1.533565
1.6423137 1.551142 1.5054811 1.6753193 1.5966886 1.2517118 1.0383543 1.5785214
1.0001565 1.5594858 1.0208397 1.2932881 0.9915145 1.1406231 1.6164957 1.002548
00000000: 6ecb 843f 195a c73f af67 a43f e1ca e43f
00000010: 02b7 c83f 1ff7 c33f f1be cb3f c203 7c3f
00000020: edc0 c43f 37f3 7d3f e97e 9d3f d7bf 923f
00000030: ff0b c63f 3f17 853f 3c19 e73f d70e cc3f
00000040: 85d0 d13f 8c6e 8b3f de39 8a3f 9e42 7a3f
00000050: d7f4 7f3f e5fc 913f a065 ce3f b9d7 ac3f
00000060: 9e2d ce3f 715e 813f 5e2d 8c3f fd2a c83f
00000070: e301 dd3f 2e71 dc3f 3cb3 ac3f af0b cd3f
00000080: 3272 ac3f bd32 c73f 6236 ab3f 245e d13f
00000090: 0578 cf3f 0ea8 c83f 39a7 f93f a96e 7b3f
000000a0: a215 0140 22c6 8c3f 9437 cd3f 1bc5 c73f
000000b0: 9daa d93f a8d3 d83f e86e a13f dc4b c43f
000000c0: 5637 d23f d28b c63f 9bb3 c03f dd70 d63f
000000d0: 4b60 cc3f 1838 a03f cbe8 843f fd0c ca3f
000000e0: 2105 803f 3b9d c73f e0aa 823f 778a a53f
000000f0: e5d3 7d3f f0ff 913f 55e9 ce3f 7e53 803f

critic.4.bias f4 [64]
-0.013344087 0.5588487 0.021466266 0.039332755 0.56527627 0.013489615 0.5755696 -0.019664338
0.54702014 -0.0061341906 0.08756277 0.10854821 0.5536503 0.079092525 -0.18321113 0.57929385
0.6294974 -0.036939465 0.0574635 0.25459754 -0.01951884 0.6093662 0.589342 0.09025652
0.5804724 0.013164654 0.054097556 0.5716335 0.6427893 0.60591346 -0.0012011329 0.5803448
-0.03225552 0.14864181 0.086176984 -0.10758945 0.5880469 0.5683303 0.23629257 -0.02829534
0.7010275 -0.02522478 0.61786985 0.5576308 -0.03812895 0.058972362 0.08458538 0.5474218
0.5945432 0.5554556 0.13929974 0.6198193 0.5799273 0.109472156 0.21766843 0.5672047
-0.028947752 0.56246203 0.0008829434 0.1256604 -0.0004914538 0.08625725 0.58099496 0.050060246
00000000: 28a1 5abc b510 0f3f 06da af3c 621b 213d
00000010: f2b5 103f 8c03 5d3c 8858 133f 1b17 a1bc
00000020: 8309 0c3f 5201 c9bb 1c54 b33d 864e de3d
00000030: 07bc 0d3f 43fb a13d b39b 3bbe 9a4c 143f
00000040: be26 213f d64d 17bd d95e 6b3d 9c5a 823e
00000050: f9e5 9fbc 6cff 1b3f 1edf 163f 69d8 b83d
00000060: d799 143f 90b0 573c 6695 5d3d 9356 123f
00000070: d78d 243f 251d 1b3f 556f 9dba 7a91 143f
00000080: 5d1e 04bd 8f35 183e 8f7d b03d dc57 dcbd
00000090: 3e8a 163f 187e 113f aef6 713e a1cb e7bc
000000a0: 8a76 333f 33a4 cebc b82c 1e3f e4c0 0e3f
000000b0: 1a2d 1cbd 018d 713d 1a3b ad3d d623 0c3f
000000c0: fc33 183f 5732 0e3f 97a4 0e3e 7aac 1e3f
000000d0: 1e76 143f f032 e03d 79e4 5e3e 5434 113f
000000e0: d623 edbc 83fd 0f3f 5475 673a 1fad 003e
000000f0: e8d4 00ba a4a7 b03d 16bc 143f f90b 4d3d

critic.6.weight f4 [1, 64]
-0.072627194 0.6024145 -0.32574373 -0.489547 0.59339005 -0.45741746 0.5897823 -0.105491005
0.6106769 -0.04470235 0.13183361 0.14197911 0.599206 0.04266849 -0.5830099 0.59133023
-0.6680803 -0.17266043 0.026658107 0.05042222 -0.10221273 -0.2206904 0.58821124 0.29343474
0.5867319 0.024855057 -0.045986895 0.6108756 -0.7534691 -0.72579795 -0.35905626 0.5869329
-0.36019388 -0.32732105 -0.1503123 -0.4944254 0.5882036 0.5744123 0.8001986 -0.057383876
-0.76070166 -0.18686707 -0.6082955 0.58759254 0.52627736 0.5961409 0.19930284 0.59431225
0.58745974 0.5980546 0.38166797 0.6106533 0.5844484 -0.22349672 0.08763291 0.58527064
-0.10130032 0.59340954 -0.12503928 0.1994332 -0.009431184 0.08803073 0.5843172 -0.06542509
00000000: 91bd 94bd d637 1a3f e2c7 a6be e8a5 fabe
00000010: 69e8 173f 9f32 eabe f9fb 163f ab0b d8bd
00000020: 5255 1c3f d019 37bd 64ff 063e f962 113e
00000030: 9065 193f 28c5 2e3d 2340 15bf 6b61 173f
00000040: 4f07 2bbf e5cd 30be 1a62 da3c 8887 4e3d
00000050: e854 d1bd aafc 61be 0395 163f 143d 963e
00000060: 1034 163f d59c cb3c c15c 3cbd 5862 1c3f
00000070: 5ae3 40bf e5cd 39bf 39d6 b7be 3c41 163f
00000080: 556b b8be a096 a7be 78eb 19be 5325 fdbe
00000090: 8394 163f af0c 133f d1d9 4c3f 5b0b 6bbd
000000a0: 58bd 42bf 155a 3fbe 41b9 1bbf 776c 163f
000000b0: 1dba 063f b19c 183f 0b16 4c3e d924 183f
000000c0: c363 163f 1b1a 193f fc69 c33e c653 1c3f
000000d0: 699e 153f 53dc 64be e278 b33d 4cd4 153f
000000e0: 8b76 cfbd b0e9 173f 4c0a 00be 3738 4c3e
000000f0: 4185 1abc 7549 b43d d095 153f 97fd 85bd

obs_mean f4 [29]
-6.44732e-05 -0.0596262 -2.5592999e-05 -0.02009622 2.869465e-05 1.4694859e-05 -7.053083e-05 -7.662758e-06
-1.642513e-05 -0.24970318 9.6850374e-05 -0.16928127 -1.8909901e-05 -1.7281214e-05 4.4649558e-05 8.039891e-05
0.00054889836 -0.00011753909 0.039967448 0.0013229379 0.021195183 0.008775462 0.12135588 0.0005570305
0.0017711949 -0.002172143 -0.0005084351 0.0 -0.003000681
00000000: c935 87b8 9a3a 74bd 8cb0 d6b7 d4a0 a4bc
00000010: 4bb5 f037 f089 7637 f3e9 93b8 4c8f 00b7
00000020: b3c8 89b7 31b2 7fbe 261c cb38 1258 2dbe
00000030: b4a0 9eb7 20f7 90b7 1946 3b38 d69b a838
00000040: f2e3 0f3a 527f f6b8 e8b4 233d 6e66 ad3a
00000050: 85a1 ad3c f5c6 0f3c 6e89 f83d af05 123a
00000060: 7027 e83a 835a 0ebb 8148 05ba 0000 0000
00000070: 13a7 44bb

obs_var f4 [29]
7.320443e-06 12.301179 7.4924264e-06 12.311517 5.677393e-06 1.3152498e-05 8.701367e-06 9.590891e-06
0.0011747453 242.14911 0.0009551065 231.28026 0.00078289286 0.00057547103 0.0032362745 0.0017465864
1.5780131 0.0042958497 0.04212344 0.012139935 0.32682514 1.1061745 0.48284084 0.0031498007
0.0030404215 0.49469638 1.7928357 2.3829896e-14 1.102323
00000000: 20a2 f536 a1d1 4441 7467 fb36 f9fb 4441
00000010: 6f80 be36 8ca9 5c37 16fc 1137 90e8 2037
00000020: e9f9 993a 2c26 7243 1d60 7a3a bf47 6743
00000030: 0d3b 4d3a 35db 163a ad17 543b b7ed e43a
00000040: 55fc c93f 33c4 8c3b a189 2c3d 94e6 463c
00000050: a055 a73e 2097 8d3f ea36 f73e e36c 4e3b
00000060: cf41 473b d848 fd3e a47b e53f 00a4 d628
00000070: ec18 8d3f
