src/taser_isaaclab/taser_isaaclab/tasks/track_velocity/data/model.pth (torch, 62498 bytes, 22 tensors)

log_std f4 [8]
-0.25238535 -0.3279872 -0.28902274 -0.3505306 -0.23704593 -0.30258888 -1.1871822 -1.1652564
00000000: a738 81be f0ed a7be cafa 93be bf78 b3be
00000010: 2bbc 72be eeec 9abe 96f5 97bf 1f27 95bf

actor.0.weight f4 [64, 32]
-0.12738213 0.04505193 0.015555159 0.10118097 0.10416749 0.04156929 -0.09620504 0.07129463
-0.024736363 0.04994007 0.12816589 -0.16121837 0.04192015 -0.048154272 -0.029593928 0.0074699367
-0.123807095 0.1958222 0.17270263 0.008944132 0.13678095 -0.11273828 0.2118098 0.03426496
-0.038807355 0.073464215 -0.1310598 0.053174756 0.11524295 -0.058181353 0.14793487 0.019769628
-0.12435209 -0.06695688 0.014304509 0.016937045 0.12674715 0.11011484 0.060301945 -0.07826449
-0.05106789 0.14371203 0.12768783 -0.053956468 -0.03404846 0.052716993 -0.09088523 0.084544085
0.019445533 0.13121364 -0.06008271 0.024517262 0.06874294 -0.104831465 0.091191955 0.036675766
-0.091368176 0.18123242 -0.09072633 -0.06658618 0.11220478 -0.17615093 0.0096301995 0.15868546
-0.027092434 0.05235019 -0.04069835 0.067145884 -0.019376708 0.03673786 0.10820798 0.100963324
0.09014155 0.016300205 -0.14709209 -0.05347677 0.042184018 -0.08812863 -0.08095235 0.00069125666
-0.05390302 -0.041916836 -0.08028937 -0.09776013 0.0580218 -0.16044828 -0.111635335 0.0024076072
0.035798237 -0.12156609 0.109833024 0.11646444 0.19542386 -0.00893085 -0.19375448 -0.09200341
-0.12530896 -0.16352732 0.074149996 0.0394273 0.04934926 0.09763963 0.14475553 -0.073571146
-0.08482841 -0.030473443 0.23656243 -0.06533405 -0.05528157 -0.057447944 -0.08807577 -0.07301361
-0.06018641 -0.11994158 0.07563013 -0.018679237 0.15230209 0.0063289152 -0.06967808 -0.07750183
-0.04943592 0.10148236 0.059053913 -0.037717722 -0.15995564 -0.045015655 0.20239949 -0.073979184
-0.10371247 -0.06057279 -0.025742033 -0.056885827 -0.04854103 -0.012291531 -0.074941315 0.03266665
0.048496887 0.009708583 -0.0010367869 -0.108642094 -0.042138815 -0.10721165 -0.03134292 -0.04766123
0.08037541 0.30448028 0.05839228 -0.23067568 -0.120142736 -0.018311938 0.13188505 0.09231599
-0.05892319 -0.07038217 0.026667899 0.055893537 -0.10654052 0.14993905 0.029332265 -0.06212857
-0.041209344 -0.072753355 0.043399535 0.044106778 -0.009812667 0.1606286 0.052325193 0.088188
0.0062948377 -0.04565367 -0.13280556 0.15055154 0.04574966 -0.027614249 0.13317758 0.04921567
0.0410157 -0.019846128 0.1894634 0.054720525 0.07246278 0.06791741 -0.03379124 0.07379907
0.1604608 -0.017256854 -0.048325386 0.04685798 0.12110533 -0.013934821 -0.1395101 0.21765609
-0.16436216 0.050283514 0.0037599404 -0.0062575405 0.16960566 0.15002471 -0.056060985 0.13177514
0.053440016 -0.020408716 -0.0046609407 0.049859658 -0.068586335 0.06895559 -0.063052975 -0.10415307
-0.14969726 0.11585909 -0.0073241624 0.038385887 -0.11773544 0.10877808 0.089900605 0.04284741
0.17522278 0.044516012 0.07477561 0.17783909 -0.13785775 0.033789407 0.18188296 0.23929812
-0.107725665 -0.15990905 0.020333478 -0.0069150194 0.18024531 -0.055550084 0.054739174 -0.07045874
0.08881144 0.119052395 -0.054735243 0.036213677 0.1376504 0.12911919 -0.048195824 0.015644865
-0.091634 0.096535 0.00485264 0.029164467 0.21528241 -0.006054667 -0.08603169 -0.30216622
-0.09542714 -0.009644043 -0.13065542 -0.094454736 -0.013336181 -0.06268116 -0.120167576 0.049240112
00000000: 7670 02be 5f88 383d 11db 7e3c f837 cf3d
00000010: c455 d53d 8f44 2a3d 2607 c5bd eb02 923d
00000020: eaa3 cabc f58d 4c3d eb3d 033e 6e16 25be
00000030: 77b4 2b3d 6a3d 45bd f76e f2bc 5fc6 f43b
00000040: 938e fdbd 9d85 483e f5d8 303e 698a 123c
00000050: 4e10 0c3e 54e3 e6bd abe4 583e 6a59 0c3d
00000060: 76f4 1ebd 6874 963d 8a34 06be c6cd 593d
00000070: 7f04 ec3d 924f 6ebd 3d7c 173e eaf3 a13c
00000080: 4fac febd b020 89bd 765d 6a3c 8fbf 8a3c
00000090: 01ca 013e e483 e13d 2cff 763d 2249 a0bd
000000a0: 902c 51bd 3f29 133e 99c0 023e 7501 5dbd
000000b0: 6676 0bbd c6ed 573d 0922 babd 7325 ad3d
000000c0: 3d4c 9f3c de5c 063e 4a19 76bd 6dd8 c83c
000000d0: 19c9 8c3d e1b1 d6bd d9c2 ba3d 5439 163d
000000e0: 3d1f bbbd fe94 393e bace b9bd 565e 88bd
000000f0: 9fcb e53d e960 34be fcc7 1d3c 717e 223e
00000100: f4f0 ddbc 276d 563d 50b3 26bd c883 893d
00000110: e7bb 9ebc 707a 163d 259c dd3d dcc5 ce3d
00000120: 229c b83d 0288 853c 4f9f 16be 750a 5bbd
00000130: 26c9 2c3d c87c b4bd 58ca a5bd 7335 353a
00000140: 6ac9 5cbd fdb0 2bbd c16e a4bd 7736 c8bd
00000150: 44a8 6d3d 8e4c 24be 11a1 e4bd f2c8 1d3b
00000160: 2ca1 123d a4f7 f8bd 23f0 e03d e984 ee3d
00000170: 311d 483e b352 12bc 9367 46be 496c bcbd
00000180: fe50 00be b573 27be f4db 973d 857e 213d
00000190: 7322 4a3d 49f7 c73d cb3a 143e 78ac 96bd
000001a0: 84ba adbd 71a3 f9bc 6c3d 723e dccd 85bd
000001b0: ed6e 62bd 894e 6bbd 1261 b4bd 2988 95bd
000001c0: 0686 76bd eea3 f5bd f8e3 9a3d 3305 99bc
000001d0: 14f5 1b3e ca62 cf3b 62b3 8ebd 48b9 9ebd
000001e0: 527d 4abd fcd5 cf3d 84e2 713d e67d 1abd
000001f0: 69cb 23be 5662 38bd d041 4f3e 6682 97bd
00000200: 3467 d4bd 2d1b 78bd f5e0 d2bc 1d01 69bd
00000210: f6d2 46bd 6b62 49bc d57a 99bd 77cd 053d
00000220: aca4 463d c010 1f3c cce4 87ba bf7f debd
00000230: c099 2cbd c891 dbbd 6f61 00bd 6c38 43bd
00000240: dd9b a43d d7e4 9b3e be2c 6f3d 3f36 6cbe
00000250: 650d f6bd eb02 96bc e00c 073e 2a10 bd3d
00000260: 7159 71bd 8724 90bd a376 da3c 9ff0 643d
00000270: eb31 dabd 9f89 193e 384a f03c 877a 7ebd
00000280: 21cb 28bd b6ff 94bd b6c3 313d 4fa9 343d
00000290: 4fc5 20bc d37b 243e f152 563d e99b b43d
000002a0: ed44 ce3b 58ff 3abd 2efe 07be 2f2a 1a3e
000002b0: ff63 3b3d 4737 e2bc b45f 083e 5f96 493d
000002c0: 1400 283d 5994 a2bc b202 423e a122 603d
000002d0: 5e67 943d 4818 8b3d af68 0abd f823 973d
000002e0: d64f 243e 3f5e 8dbc d7f0 45bd 27ee 3f3d
000002f0: 1206 f83d e04e 64bc bcdb 0ebe 3de1 5e3e
00000300: 8e4e 28be 16f6 4d3d 5569 763b 0e0c cdbb
00000310: 1bad 2d3e 14a0 193e 34a0 65bd 10f0 063e
00000320: ebe3 5a3d 2e30 a7bc ceba 98bb a439 4c3d
00000330: fe76 8cbd 9738 8d3d eb21 81bd 344e d5bd
00000340: 3d4a 19be 8847 ed3d 87ff efbb 853a 1d3d
00000350: 471f f1bd 0bc7 de3d cf1d b83d c480 2f3d
00000360: 9a6d 333e 6c56 363d f423 993d 731b 363e
00000370: 952a 0dbe c366 0a3d 873f 3a3e 910a 753e
00000380: 469f dcbd 33bf 23be 6592 a63c 6397 e2bb
00000390: 3a92 383e 7c88 63bd 2f36 603d ac4c 90bd
000003a0: c6e2 b53d bed1 f33d 1032 60bd cb54 143d
000003b0: 3af4 0c3e d237 043e fc68 45bd a929 803c
000003c0: 9baa bbbd 24b4 c53d e502 9f3b 52ea ee3c
000003d0: fe72 5c3e 3a66 c6bb 6231 b0bd 88b5 9abe
000003e0: 4e6f c3bd 0c02 1ebc 89ca 05be 7c71 c1bd
000003f0: ff7f 5abc fb5e 80bd 6b1a f6bd 00b0 493d

actor.0.bias f4 [64]
0.18756326 0.1614521 -0.23796956 -0.21084589 -0.106103964 -0.12782863 -0.1619583 0.09242192
0.03634775 -0.09548435 -0.02319676 0.02556097 0.054730307 0.10754518 0.062723346 -0.10573148
0.09665437 -0.10163227 -0.04883948 -0.14430012 -0.121564195 0.087690696 -0.14109145 0.12461586
0.14965999 0.0048917946 0.055545267 -0.11710938 -0.06818216 -0.07569459 -0.15425803 -0.1822663
0.004441321 -0.06408954 -0.036719672 0.09538877 0.26607108 -0.092445634 0.029145902 -0.063902065
0.020829726 -0.14822347 0.107514344 -0.17781505 -0.13893788 -0.1347895 0.12670694 -0.033983275
-0.08208806 -0.07432516 0.07722774 -0.081627734 -0.10478999 0.13788286 0.18256074 0.0060966564
0.1525651 -0.16318381 0.051042054 0.23510219 -0.077599555 -0.11019149 -0.033544462 0.036530156
00000000: 9510 403e b353 253e 4bae 73be fce7 57be
00000010: 094d d9bd 82e5 02be 66d8 25be b447 bd3d
00000020: 61e1 143d 4d8d c3bd 2207 bebc 3d65 d13c
00000030: e32c 603d a640 dc3d 1975 803d bf89 d8bd
00000040: baf2 c53d 9424 d0bd e80b 48bd 69c3 13be
00000050: a6f6 f8bd 2e97 b33d 477a 10be 9a36 ff3d
00000060: 7840 193e 594b a03b 6f83 633d 0bd7 efbd
00000070: 17a3 8bbd c405 9bbd d1f5 1dbe 04a4 3abe
00000080: 8088 913b 6041 83bd 5e67 16bd 305b c33d
00000090: 783a 883e 2354 bdbd 63c3 ee3c 16df 82bd
000000a0: 1aa3 aa3c e5c7 17be 7b30 dc3d 2615 36be
000000b0: bb45 0ebe 4206 0abe 77bf 013e 0c32 0bbd
000000c0: c91d a8bd ca37 98bd 9429 9e3d 712c a7bd
000000d0: 229c d6bd 2a31 0d3e 34f1 3a3e 76c6 c73b
000000e0: 073a 1c3e a819 27be 7911 513d a1be 703e
000000f0: 84ec 9ebd 13ac e1bd eb65 09bd a5a0 153d

actor.1.weight f4 [64]
0.98966795 1.0052419 0.9894373 1.0233175 1.0043076 0.9979543 1.0192643 0.9428568
0.9912629 1.0742054 1.0432528 1.0119622 1.0338949 0.9778727 0.9925618 1.044816
0.9659439 0.9778772 0.95248145 1.0288624 1.0034982 0.9766068 0.9763839 0.9723778
0.98989856 0.9500721 1.0065528 0.96018565 1.0098851 1.0451882 1.046315 0.9357021
0.99239755 1.0247325 0.9050499 0.9792054 1.0443242 0.98537195 0.98084915 1.0398705
0.9895372 1.0021414 0.9600757 1.0269183 0.9835853 0.93813777 0.9911104 1.0002813
0.97266906 1.0087098 0.96418166 1.0010227 0.9991953 0.95170933 1.0234916 0.9796573
0.99078315 0.99697864 1.0360473 1.0341566 0.989612 1.0318663 1.0301386 1.0054088
00000000: e15a 7d3f c4ab 803f c34b 7d3f 11fc 823f
00000010: 278d 803f ef79 7f3f 4177 823f 105f 713f
00000020: 68c3 7d3f 907f 893f 4f89 853f fa87 813f
00000030: ab56 843f de55 7a3f 8818 7e3f 88bc 853f
00000040: 1948 773f 2956 7a3f d3d5 733f c3b1 833f
00000050: a172 803f e702 7a3f 4cf4 793f c0ed 783f
00000060: fe69 7d3f ed37 733f b9d6 803f bace 753f
00000070: ea43 813f bac8 853f a6ed 853f 2c8a 6f3f
00000080: c40d 7e3f 6f2a 833f 5ab1 673f 35ad 7a3f
00000090: 6aac 853f 5641 7c3f ee18 7b3f 7a1a 853f
000000a0: 4f52 7d3f 2b46 803f 85c7 753f 0f72 833f
000000b0: 3fcc 7b3f cc29 703f 69b9 7d3f 3809 803f
000000c0: d700 793f 671d 813f 9cd4 763f 8321 803f
000000d0: 43cb 7f3f 39a3 733f c601 833f d2ca 7a3f
000000e0: f7a3 7d3f fe39 7f3f 339d 843f 3e5f 843f
000000f0: 3657 7d3f 3214 843f 95db 833f 3cb1 803f

actor.1.bias f4 [64]
-0.021516765 0.010254034 0.011448119 0.000655619 -0.010194007 0.029417964 0.006319856 -0.03190848
-0.0017331081 0.09595342 -0.032044977 -0.007842046 0.016627438 0.003440965 0.022272559 0.030346382
-0.0060231793 0.0052712266 -0.0107972035 0.031152911 0.007477273 -0.008532496 0.015287132 -0.004891232
-0.014803266 -0.043937042 0.0065635787 -0.01911498 0.04224292 0.03270805 0.031800937 -0.021426035
-0.025667029 0.0034399454 -0.04158926 -0.008440049 0.03634393 -0.028063456 0.01675675 0.0020478708
-0.028003097 0.056296576 -0.04548902 0.009088481 0.019245839 0.005544752 0.0042065093 -0.006282645
-0.010574054 0.012613754 0.011875996 0.015674027 0.048106287 -0.007866259 0.012404671 -0.017848702
0.032952916 0.028339949 -0.04120507 0.029610591 0.011538751 0.051372055 -0.0065238103 -0.06829854
00000000: ed43 b0bc 8900 283c e490 3b3c d9dd 2b3a
00000010: c404 27bc f1fd f03c cb16 cf3b 77b2 02bd
00000020: 7529 e3ba 3a83 c43d 9841 03bd ed7b 00bc
00000030: 4436 883c d081 613b f174 b63c fa98 f83c
00000040: 175e c5bb 41ba ac3b c1e6 30bc 6434 ff3c
00000050: e903 f53b e2cb 0bbc e176 7a3c a146 a0bb
00000060: 6689 72bc 54f7 33bd 4a13 d73b 0597 9cbc
00000070: e906 2d3d e0f8 053d b341 023d a785 afbc
00000080: a943 d2bc b570 613b 8059 2abd 2248 0abc
00000090: 5fdd 143d 55e5 e5bc 7445 893c 9235 063b
000000a0: c066 e5bc 3d97 663d b252 3abd dae7 143c
000000b0: 73a9 9d3c c0b0 b53b c2d6 893b a5de cdbb
000000c0: cc3e 2dbc eba9 4e3c 8a93 423c d166 803c
000000d0: 190b 453d 7be1 00bc f63c 4b3c 7137 92bc
000000e0: a3f9 063d 2e29 e83c a6c6 28bd e991 f23c
000000f0: 080d 3d3c 816b 523d b0c5 d5bb 1be0 8bbd

actor.3.weight f4 [64, 64]
0.015055654 -0.024117792 0.05371684 -0.031974256 -0.0070046885 -0.050471764 -0.015903546 0.07752313
0.08305228 -0.055001628 0.088876955 -0.08310934 0.083008796 0.045023393 0.013487926 -0.07939984
-0.07614448 -0.05752406 -0.054047383 -0.041711677 -0.060426172 -0.08513852 -0.09004391 0.09800454
-0.040650435 0.048462026 -0.00017100733 0.07795106 0.057129927 -0.10016681 -0.03734808 -0.014985935
0.04709806 -0.0450646 0.06987483 -0.07197855 0.10401658 0.071179785 -0.00052609754 0.049778722
-0.0112809995 0.034866966 -0.08444347 0.04807296 -0.11543124 -0.032186005 -0.01203691 -0.04688069
-0.011634055 -0.029690726 0.09576055 -0.057322774 0.0021541375 0.050413214 0.028514002 -0.004900579
0.060306817 -0.0010749726 0.09189329 -0.06923315 -0.022548381 -0.001820617 0.10424901 0.089615025
0.059327137 0.01664641 -0.108425066 0.087357834 -0.10312389 -0.056785524 -0.008462632 0.10715615
-0.005976716 -0.007416681 -0.009138602 0.020392573 0.060100112 -0.0074451966 -0.02893065 -0.03371265
0.06931125 0.017443784 -0.033060927 -0.08069674 -0.09244467 0.08920435 0.029216586 -0.0029497747
-0.013078991 -0.0065514026 -0.06069026 -0.06875414 0.09047088 0.08474969 -0.025575632 -0.14179966
-0.090179935 -0.04960573 0.08398256 -0.05768672 -0.09691608 -0.018338138 0.10425267 -0.0043462412
0.09865103 0.043592587 -0.06356389 0.021167792 0.08250566 -0.033500206 0.007998632 -0.069685355
0.03697001 -0.10380354 -0.037758555 -0.029072851 -0.090389125 0.047710046 -0.022587202 0.009814944
-0.0696426 -0.010188326 0.108986616 0.06164554 -0.15063906 -0.054684646 0.08323712 -0.0044413703
-0.014444146 0.14181454 -0.14159742 -0.032767892 0.08708847 -0.06374559 -0.05713153 -0.03662535
-0.069085084 -0.031597264 -0.0743108 0.03564005 0.007689999 0.13065201 0.091048 0.09113523
0.04555891 -0.004279906 -0.1451556 0.033792544 0.07944069 0.023584018 -0.061076142 0.039525136
-0.14161786 -0.053123202 -0.024190806 0.07835413 0.16196512 0.0518188 -0.084375545 0.069629885
-0.028820494 -0.050696943 0.10579342 -0.082113974 -0.02893942 0.0145833 0.022418497 0.11222344
-0.0013153313 0.092773266 -0.040946092 -0.0395747 -0.0008635106 0.08320647 -0.033673454 -0.05386082
-0.08244846 0.038597196 -0.06543881 0.027902627 -0.014200212 -0.019474234 -0.029428594 -0.024514027
-0.038834546 -0.05651256 0.077435166 0.13257308 -0.006943453 -0.007888856 0.06707383 0.03366732
0.12872267 -0.008381626 -0.11167283 -0.121266276 -0.13677152 -0.094493635 -0.059128627 -0.036506623
0.09834861 -0.042756762 -0.047466204 0.00087585923 0.02078612 -0.07629027 -0.045014072 -0.08161935
-0.11217419 0.053803995 0.0012266905 0.045290973 -0.107559115 0.053202417 0.05701476 0.009936458
-0.017075095 0.03543634 -0.023924548 0.09386792 0.042273637 -0.003794227 0.053685017 0.12114701
-0.13680752 -0.14258967 -0.10031884 -0.03140322 0.1394574 0.064638704 -0.14073141 -0.11460283
0.008268899 -0.008110995 -0.059115745 -0.012432972 -0.10621078 -0.07053029 0.05423821 -0.121913746
-0.03345957 0.049292352 0.011055734 0.010820506 0.089140564 0.006653999 0.14046825 0.028395828
0.08525967 -0.114973105 -0.112924024 0.11643451 0.07578549 -0.09496889 -0.072135784 0.19701666
00000000: fdab 763c ad92 c5bc 3006 5c3d 70f7 02bd
00000010: 9687 e5bb 7bbb 4ebd 2748 82bc 72c4 9e3d
00000020: 5017 aa3d 6349 61bd 1f05 b63d 3b35 aabd
00000030: 8400 aa3d 736a 383d 76fc 5c3c 629c a2bd
00000040: a3f1 9bbd 599e 6bbd ca60 5dbd ddd9 2abd
00000050: 6f81 77bd 1b5d aebd f168 b8bd 9bb6 c83d
00000060: 1281 26bd 1e80 463d 6e50 33b9 cea4 9f3d
00000070: 1201 6a3d 4224 cdbd 4dfa 18bd 9187 75bc
00000080: e5e9 403d a895 38bd 891a 8f3d 7d69 93bd
00000090: a506 d53d b5c6 913d cfe9 09ba c6e4 4b3d
000000a0: f1d3 38bc aad0 0e3d b3f0 acbd 27e8 443d
000000b0: 3767 ecbd 79d5 03bd 7636 45bc f705 40bd
000000c0: c39c 3ebc f739 f3bc 1b1e c43d 49cb 6abd
000000d0: 6e2c 0d3b 167e 4e3d 3296 e93c 0995 a0bb
000000e0: 4804 773d 18e6 8cba 8d32 bc3d 1cca 8dbd
000000f0: 62b7 b8bc c5a1 eeba 8180 d53d 1588 b73d
00000100: 0301 733d 0d5e 883c f60d debd aae8 b23d
00000110: 9e32 d3bd f097 68bd daa6 0abc af74 db3d
00000120: 54d8 c3bb a107 f3bb 13ba 15bc 530e a73c
00000130: 892b 763d d6f6 f3bb f8ff ecbc 4716 0abd
00000140: 0ef3 8d3d 44e6 8e3c e56a 07bd 5544 a5bd
00000150: a253 bdbd c5b0 b63d 9f57 ef3c 0251 41bb
00000160: 4449 56bc 26ad d6bb 5a96 78bd f8ce 8cbd
00000170: cc48 b93d 3f91 ad3d fd83 d1bc ee33 11be
00000180: 42b0 b8bd 612f 4bbd 0cff ab3d e948 6cbd
00000190: f07b c6bd dd39 96bc 6d82 d53d ea6a 8ebb
000001a0: 8d09 ca3d 248e 323d c92d 82bd 1468 ad3c
000001b0: baf8 a83d 8337 09bd b20c 033c 32b7 8ebd
000001c0: dd6d 173d f396 d4bd b7a8 1abd 302a eebc
000001d0: ef1d b9bd 9c6b 433d cc08 b9bc dcce 203c
000001e0: c8a0 8ebd f0ec 26bc 6034 df3d 0980 7c3d
000001f0: 2041 1abe 02fd 5fbd 3978 aa3d ea88 91bb
00000200: 24a7 6cbc d537 113e eafe 10be a037 06bd
00000210: 715b b23d 0c8d 82bd c002 6abd 7704 16bd
00000220: 7b7c 8dbd 226c 01bd 4330 98bd 4dfb 113d
00000230: 63fc fb3b a4c9 053e 6077 ba3d 1ca5 ba3d
00000240: fb9b 3a3d 743e 8cbb aba3 14be 0d6a 0a3d
00000250: cdb1 a23d 4533 c13c fa2a 7abd 1ce5 213d
00000260: 4604 11be b797 59bd cc2b c6bc 2178 a03d
00000270: 2fda 253e f33f 543d 16cd acbd 1d9a 8e3d
00000280: f518 ecbc 99a7 4fbd 38aa d83d 5f2b a8bd
00000290: 5d12 edbc cbee 6e3c ffa6 b73c 67d5 e53d
000002a0: 3267 acba e9ff bd3d 17b7 27bd 1519 22bd
000002b0: 375d 62ba 2768 aa3d 2ded 09bd 2a9d 5cbd
000002c0: bdda a8bd 1818 1e3d c804 86bd 0d94 e43c
000002d0: 02a8 68bc 6e88 9fbc 3c14 f1bc a4d1 c8bc
000002e0: f910 1fbd b779 67bd 5496 9e3d 3dc1 073e
000002f0: e885 e3bb 4340 01bc 015e 893d bee6 093d
00000300: e0cf 033e 1653 09bc bab4 e4bd 745a f8bd
00000310: d50d 0cbe e185 c1bd dc30 72bd f887 15bd
00000320: ff6a c93d b721 2fbd ec6b 42bd eb99 653a
00000330: a747 aa3c 133e 9cbd ad60 38bd 0c28 a7bd
00000340: 95bb e5bd 9461 5c3d e7c8 a03a 0783 393d
00000350: f447 dcbd c7ea 593d 4f88 693d 87cc 223c
00000360: 12e1 8bbc b225 113d 6afd c3bc d33d c03d
00000370: 1f27 2d3d 91a8 78bb d2e4 5b3d ec1b f83d
00000380: 4517 0cbe 0703 12be f773 cdbd aaa0 00bd
00000390: eccd 0e3e 4c61 843d e51b 10be e3b4 eabd
000003a0: 477a 073c fbe3 04bc 5a23 72bd aab3 4bbc
000003b0: 0a85 d9bd 2f72 90bd e328 5e3d eaad f9bd
000003c0: e70c 09bd c7e6 493d 1c23 353c 7e48 313c
000003d0: 548f b63d ca09 da3b e9d6 0f3e 5e9e e83c
000003e0: 9f9c ae3d 0577 ebbd b644 e7bd 3775 ee3d
000003f0: 6c35 9b3d 0d7f c2bd edbb 93bd bcbe 493e

actor.3.bias f4 [64]
-0.12549143 0.004297338 -0.093822084 0.042995155 0.05932167 -0.12391359 0.060156584 0.039489776
0.049840234 0.037845034 -0.044420242 -0.012423392 0.077953495 0.06777958 -0.10937558 0.024899237
-0.041719303 0.10109702 -0.09997082 0.04129436 0.06941822 -0.07613224 0.12039136 -0.052779008
-8.5546555e-05 0.040853195 -0.09005719 -0.059650242 0.10852993 0.030989699 0.034693636 0.10889514
-0.08664389 0.026703557 0.104627065 0.087338515 0.028630674 -0.02971933 0.10076012 -0.06647574
-0.06856986 -0.05610012 -0.027363965 0.044599485 0.043885153 0.12356473 0.06176636 -0.12251958
0.057982825 0.054489516 0.041799124 0.008852145 -0.0193077 0.031438112 -0.00170734 0.11982253
-0.062601924 -0.0935945 0.086618245 -0.062486928 -0.006691567 0.03835341 0.058741353 0.06962637
00000000: d380 00be afd0 8c3b cb25 c0bd b01b 303d
00000010: 48fb 723d 69c6 fdbd c066 763d 08c0 213d
00000020: 4625 4c3d 6503 1b3d 00f2 35bd 7c8b 4bbc
00000030: 15a6 9f3d 05d0 8a3d 4e00 e0bd 7cf9 cb3c
00000040: dce1 2abd f40b cf3d 80bd ccbd 4624 293d
00000050: 242b 8e3d 38eb 9bbd bf8f f63d cd2e 58bd
00000060: 7567 b3b8 ae55 273d e76f b8bd d053 74bd
00000070: f144 de3d 1cde fd3c ea1a 0e3d 6a04 df3d
00000080: 5a72 b1bd 6bc1 da3c b746 d63d 89de b23d
00000090: e08a ea3c f475 f3bc 525b ce3d 6f24 88bd
000000a0: 5b6e 8cbd 3dc9 65bd 652a e0bc f3ad 363d
000000b0: ebc0 333d 810f fd3d b9fe 7c3d 8ceb fabd
000000c0: 667f 6d3d 6630 5f3d 8f35 2b3d 9608 113c
000000d0: 2f2b 9ebc 40c5 003d d3c8 dfba 8465 f53d
000000e0: 7035 80bd 79ae bfbd e864 b13d 4bf2 7fbd
000000f0: ef44 dbbb 7718 1d3d c69a 703d 4598 8e3d

actor.4.weight f4 [64]
0.98720145 1.0101988 1.0510762 1.0660231 1.0475518 1.0196038 1.0402914 1.1572018
1.0279601 1.0404567 1.0415108 1.025459 1.0356054 1.0813079 1.0976675 0.9709331
1.077209 0.9950347 0.97823083 0.9808919 0.9968774 1.0378773 1.0679064 1.0795527
1.0288682 1.0572629 1.0504429 1.1222335 1.0435834 1.032593 1.0329585 1.0635424
1.048632 1.0787818 1.0067059 1.0259397 1.0045975 0.9517311 1.0964853 1.0459728
0.9899449 1.0410647 1.0182078 0.9991185 1.0891025 1.0048654 1.0381047 1.0269874
1.0150743 1.0266076 0.9600757 1.0095763 1.1127267 1.0089483 1.0556575 1.0345397
1.0839472 1.034114 0.974931 1.015228 1.0128194 1.0671704 1.0091889 1.0182788
00000000: 3cb9 7c3f 324e 813f aa89 863f 7273 883f
00000010: 2d16 863f 6182 823f 4528 853f 301f 943f
00000020: 3294 833f af2d 853f 3a50 853f 3e42 833f
00000030: b88e 843f 4c68 8a3f 5e80 8c3f 128f 783f
00000040: fce1 893f 98ba 7e3f 566d 7a3f bb1b 7b3f
00000050: 5b33 7f3f 2ad9 843f 28b1 883f c82e 8a3f
00000060: f4b1 833f 6454 873f ea74 863f 59a5 8f3f
00000070: 2494 853f 022c 843f fc37 843f 2822 883f
00000080: 9339 863f 8615 8a3f bddb 803f fe51 833f
00000090: a796 803f a6a4 733f a159 8c3f 70e2 853f
000000a0: 076d 7d3f 9c41 853f a254 823f 3bc6 7f3f
000000b0: b667 8b3f 6e9f 803f 9de0 843f 5374 833f
000000c0: f4ed 813f e167 833f 85c7 753f cc39 813f
000000d0: d46d 8e3f 3825 813f c91f 873f cc6b 843f
000000e0: c8be 8a3f d95d 843f 1495 793f fef2 813f
000000f0: 11a4 813f 0a99 883f 1a2d 813f f656 823f

actor.4.bias f4 [64]
-0.0077993274 -0.0039124573 0.004766192 -0.0027036825 0.02172647 -0.0047043776 0.021893915 0.013439759
0.013826861 -0.010278497 0.01766559 0.01641248 0.010670529 0.028739 0.0030071666 -0.0021470836
0.017728537 -0.0139275985 -0.01657102 0.00043026338 -0.0011924303 0.017065581 0.0067188055 0.013160957
-0.00013007973 0.01450315 0.01096016 -0.008496235 0.016591063 0.0039000853 0.023014043 0.0052381367
0.0016418291 0.02192941 0.0007284261 0.012322731 0.00088174164 -0.03041558 0.0116091175 0.015286533
-0.003833032 -0.014376926 0.021868069 0.0046161404 0.04771842 0.027012097 0.012584206 -0.005557644
-0.016214285 0.0035184633 -0.05229687 0.018867338 0.0063749645 0.011966374 -0.0058461046 0.015051231
0.02350048 0.0015581289 0.0013790912 0.004178224 0.015307196 -0.015448344 0.023156935 0.002912494
00000000: 8091 ffbb 1234 80bb b72d 9c3b 4430 31bb
00000010: b6fb b13c 2e27 9abb de5a b33c 6f32 5c3c
00000020: 0f8a 623c 2467 28bc 6db7 903c 7773 863c
00000030: 71d3 2e3c 0d6e eb3c e213 453b 16b6 0cbb
00000040: 703b 913c 9530 64bc f3bf 87bc f994 e139
00000050: 524b 9cba 1ecd 8b3c 6d29 dc3b 0ea1 573c
00000060: 0366 08b9 9f9e 6d3c 3e92 333c cb33 0bbc
00000070: fbe9 873c 9398 7f3b f287 bc3c ada4 ab3b
00000080: a532 d73a 4ea5 b33c d9f3 3e3a 48e5 493c
00000090: ae24 673a 182a f9bc 2b34 3e3c 5e74 7a3c
000000a0: 9b33 7bbb 338d 6bbc aa24 b33c fe42 973b
000000b0: 6474 433d 7948 dd3c fc2d 4e3c e61c b6bb
000000c0: d2d3 84bc 0596 663b 3e35 56bd ad8f 9a3c
000000d0: 14e5 d03b 9c0e 443c ae90 bfbb 7099 763c
000000e0: 1484 c03c 213a cc3a 9fc2 b43a 7ce9 883b
000000f0: 09cb 7a3c 0d1b 7dbc 9db3 bd3c 8adf 3e3b

actor.6.weight f4 [8, 64]
-0.008033682 0.082444236 -0.09885461 0.066394195 -0.061067957 -0.02630229 -0.054299682 0.041204747
0.020440035 -0.07011557 -0.072594054 0.09461069 0.061610498 -0.056707174 0.063311 0.06426456
-0.040935334 0.14276163 -0.054579455 0.006889682 -0.02180869 -0.13267714 -0.009709843 -0.08063297
0.045195576 -0.08408322 -0.08634109 -0.09321771 -0.0674006 0.010851451 -0.011510842 0.07568151
0.06967858 0.071891524 -0.034644898 -0.08020486 0.024944544 0.059085302 0.09773727 -0.094088815
0.03615682 0.028291132 -0.07604862 -0.03961435 0.049398012 0.10004761 0.13496798 -0.09994672
0.04204999 0.005679122 -0.03380783 -0.0695733 -0.03157388 0.13365029 -0.07546184 0.061936
0.05424791 0.04862809 0.06550391 -0.020931887 -0.05927036 -0.08849907 -0.058951482 -0.076148145
0.032547724 -0.04867802 0.01233965 -0.010548083 -0.036617313 -0.10320011 0.052622285 0.014282794
-0.01496582 -0.09822384 -0.11211043 0.13455363 -0.09238789 0.011795366 -0.0659452 -0.0840318
-0.056044046 0.07442912 0.14373748 0.10762242 0.053515855 0.053694364 -0.01026123 -0.073576644
-0.09426482 0.12553832 -0.01849789 0.14061914 -0.013970958 0.06280869 0.12844434 0.038834233
0.06567937 -0.08140141 0.13431366 -0.03338542 0.14032488 0.082916826 0.045637995 -0.04723493
0.109525315 -0.048570964 -0.10670668 -0.10393516 -0.006630738 -0.14729819 0.054612286 -0.07318415
0.036784418 -0.12326863 0.0026476518 0.051177137 -0.017602483 -0.050875172 -0.11614863 0.023504814
0.059432603 0.10286276 -0.099256285 0.149744 0.021870269 -0.01921341 -0.041533574 -0.09801652
0.11468558 -0.0072441157 -0.034695257 -0.020153876 0.040532492 -0.012514063 -0.043887626 -0.08019827
0.08479579 -0.06973961 -0.01495015 0.069076605 0.030017283 0.032975104 0.07533997 -0.020290796
0.000342811 0.10733893 0.08722487 0.098918036 0.06471476 0.06972515 0.081759654 -0.053992193
-0.03378822 -0.10089332 0.051390275 -0.084854044 -0.06498779 0.086648285 0.008913811 0.047651242
0.0612588 -0.024470864 0.15649438 -0.10592204 -0.09268995 -0.059569634 -0.015584618 0.042387314
0.06537916 0.023153411 0.049491473 -0.07487336 -0.04898192 0.043334708 -0.05558759 0.119519755
0.01844814 0.012648989 -0.09689449 0.13233161 0.10436867 0.04868429 -0.17325285 -0.006710242
0.03626237 -0.06643425 0.025005925 0.05487563 -0.0014699394 0.045895983 -0.018967807 0.11432698
0.020828282 0.04337792 0.02697037 0.100329615 -0.013992157 -0.15565985 0.098874256 0.060687013
-0.018061133 0.019260857 0.044358015 0.10894467 -0.11136017 -0.016907211 0.112691306 -0.10330592
0.046993025 0.080367304 -0.013657314 0.11766905 -0.12508419 0.109805584 -0.10713608 0.12665816
0.04095416 0.0017791074 0.01527804 -0.07033411 0.08961563 0.061543513 -0.042736974 0.031777434
-0.00073394453 0.049987443 0.10608694 -0.10021872 0.13349523 0.08865344 0.058797598 -0.013073903
0.052617908 -0.14930709 0.0886328 -0.049503796 0.052043587 0.09284179 -0.083604984 -0.10663
0.05289671 0.026947789 0.12984964 -0.033540893 -0.09448492 0.13418683 -0.12549819 0.122357756
0.015333626 0.108734086 0.028290996 -0.08542389 0.0844182 0.09673765 -0.09825738 0.065937035
00000000: b49f 03bc 86d8 a83d 4974 cabd aef9 873d
00000010: 6522 7abd e677 d7bc 5869 5ebd 4fc6 283d
00000020: dc71 a73c c198 8fbd 31ac 94bd 40c3 c13d
00000030: 4a5b 7c3d c845 68bd 33a9 813d 239d 833d
00000040: cfab 27bd 1b30 123e b58e 5fbd d7c2 e13b
00000050: 23a8 b2bc 84dc 07be 0916 1fbc e622 a5bd
00000060: ff1e 393d d333 acbd 99d3 b0bd ede8 bebd
00000070: 5309 8abd 49ca 313c f897 3cbc e8fe 9a3d
00000080: a5b3 8e3d dd3b 933d cfe7 0dbd 7242 a4bd
00000090: 8058 cc3c 6e03 723d 7a2a c83d a3b1 c0bd
000000a0: 2c19 143d cec2 e73c 61bf 9bbd a842 22bd
000000b0: 9255 4a3d c3e5 cc3d 0c35 0a3e deb0 ccbd
000000c0: 9c3c 2c3d ee17 ba3b 147a 0abd 727c 8ebd
000000d0: 9d53 01bd 9fdb 083e bd8b 9abd 9ab0 7d3d
000000e0: 0e33 5e3d 402e 473d ea26 863d 5979 abbc
000000f0: 7ac5 72bd 003f b5bd 1c77 71bd 8ff3 9bbd
00000100: c350 053d 9a62 47bd 3e2c 4a3c ded1 2cbc
00000110: 09fc 15bd 945a d3bd 778a 573d 6102 6a3c
00000120: 3333 75bc 9529 c9bd 279a e5bd 6dc8 093e
00000130: dd35 bdbd 5a41 413c 470e 87bd dd18 acbd
00000140: 718e 65bd 4b6e 983d eb2f 133e 2569 dc3d
00000150: 7133 5b3d 9fee 5b3d b81e 28bc 5aaf 96bd
00000160: ea0d c1bd 1e8d 003e e388 97bc 77fe 0f3e
00000170: 72e6 64bc d8a1 803d ea86 033e a510 1f3d
00000180: e882 863d c8b5 a6bd 8589 093e 26bf 08bd
00000190: 53b1 0f3e 4cd0 a93d e8ee 3a3d 6a79 41bd
000001a0: cf4e e03d 59f2 46bd 0889 dabd f5db d4bd
000001b0: a946 d9bb 56d5 16be 22b1 5f3d 92e1 95bd
000001c0: 42ab 163d 4374 fcbd 3a84 2d3b 1e9f 513d
000001d0: 1533 90bc 7c62 50bd 55df edbd 2b8d c03c
000001e0: 9a6f 733d b6a9 d23d e146 cbbd 7e56 193e
000001f0: 4729 b33c 7165 9dbc 1c1f 2abd e3bc c8bd
00000200: 46e0 ea3d 0c60 edbb 9d1c 0ebd be19 a5bc
00000210: 6605 263d c907 4dbc 83c3 33bd fe3e a4bd
00000220: 6aa9 ad3d a4d3 8ebd 79f1 74bc 0978 8d3d
00000230: cee6 f53c e710 073d d84b 9a3d e238 a6bc
00000240: 50bb b339 83d4 db3d f4a2 b23d 8a95 ca3d
00000250: 2c89 843d 0fcc 8e3d 9b71 a73d eb26 5dbd
00000260: 8465 0abd 28a1 cebd 9c7e 523d f5c7 adbd
00000270: 5218 85bd a874 b13d 3c0b 123c f32d 433d
00000280: 82ea 7a3d 1f77 c8bc 1040 203e a8ed d8bd
00000290: 3ad4 bdbd 4aff 73bd a056 7fbc 529e 2d3d
000002a0: 82e5 853d 39ac bd3c 92b7 4a3d 3457 99bd
000002b0: 44a1 48bd bc7f 313d d0af 63bd c6c6 f43d
000002c0: 8e20 973c b53d 4f3c 9e70 c6bd f081 073e
000002d0: 3ebf d53d 2e69 473d 3269 31be 97e1 dbbb
000002e0: da87 143d ae0e 88bd 3ad9 cc3c 45c5 603d
000002f0: fbaa c0ba 6dfd 3b3d 6062 9bbc 4424 ea3d
00000300: 13a0 aa3c 0cad 313d f7f0 dc3c 9d79 cd3d
00000310: 5c3f 65bc 4c65 1fbe 967e ca3d f292 783d
00000320: f1f4 93bc f2c8 9d3c c0b0 353d 621e df3d
00000330: cd10 e4bd fe80 8abc b3ca e63d 0e92 d3bd
00000340: c27b 403d 9d97 a43d edc2 5fbc 79fc f03d
00000350: 1216 00be c0e1 e03d 296a dbbd adb2 013e
00000360: 8dbf 273d f030 e93a bf50 7a3c 540b 90bd
00000370: 6688 b73d 0d15 7c3d f70c 2fbd 0e29 023d
00000380: 2f66 40ba a2bf 4c3d 1c44 d93d 793f cdbd
00000390: f9b2 083e ef8f b53d c0d5 703d ec33 56bc
000003a0: e085 573d f5e3 18be 1d85 b53d 7ec4 4abd
000003b0: a82b 553d d623 be3d 1739 abbd d460 dabd
000003c0: 38aa 583d 9cc1 dc3c 4ef7 043e 2d62 09bd
000003d0: 4f81 c1bd 4668 093e 9982 00be b496 fa3d
000003e0: e439 7b3c faaf de3d 85c2 e73c b8f2 aebd
000003f0: 73e3 ac3d 641e c63d 2a3b c9bd ff09 873d

actor.6.bias f4 [8]
-0.008302269 0.072605334 0.12952521 -0.068838924 -0.015586678 -0.09744599 -0.0009545351 0.06201648
00000000: 3d06 08bc 1bb2 943d 42a2 043e 6cfb 8cbd
00000010: 445f 7fbc c391 c7bd c439 7aba fe04 7e3d

critic.0.weight f4 [64, 32]
-0.05292627 -0.012461042 0.009852734 -0.015506762 -0.013697516 0.0143477 -0.015297659 -0.007657078
-0.00587413 0.0009413931 -0.050710257 0.08033236 -2.4052865e-06 0.004418008 0.009604374 0.018121544
-0.12153772 -0.24205549 -0.30430523 -0.14169393 -0.0046704733 0.22997645 -0.24078777 -0.23878399
-0.0488992 -0.060265485 -0.07264854 -0.0807508 0.11573505 0.1287168 -0.0686516 0.054713354
-0.016605258 0.041912515 -0.03892377 0.07891642 -0.079864465 0.040178772 -0.009174477 0.026905743
-0.03129922 -0.096346304 -0.05952426 -0.18255559 -0.003100352 -0.0048158686 -0.00625691 -0.08166155
0.024297234 0.15658568 0.14534947 -0.16088262 0.13941444 -0.07291994 0.10393547 -0.0053381124
0.06729029 0.02036152 0.05130616 -0.037425276 -0.115761556 -0.005149565 0.12518597 -0.059534766
3.544326e-05 0.0003736045 0.028979432 -0.028843354 -0.007974839 0.009987505 0.06713411 -0.0077295504
-0.008731602 -0.030756177 0.053641733 0.115509085 -0.0017609271 -0.0042635216 0.0059060114 -0.011530904
-0.058316212 -0.16666108 -0.15108122 0.24728347 -0.048929032 -0.086010054 0.25101155 0.0450472
-0.20700213 -0.18160512 0.008621566 0.079777576 0.14484662 0.12895131 0.11360269 0.07192296
0.10163015 -0.003910595 0.017707437 -0.0545914 -0.0012121538 -0.038139187 0.107027724 0.027443768
-0.0560388 0.0260227 0.00054149696 0.1551571 0.009102618 0.012102651 -0.040991176 0.041508026
0.02785453 -0.14457731 0.15654469 0.089367986 0.116270795 0.2089347 -0.018343017 -0.18211584
0.23379236 -0.07652356 -0.1235669 0.032997087 -0.14171174 -0.16981569 0.1366736 -0.09763786
-0.061901342 -0.02409459 0.016377619 0.035429146 -0.013024179 -0.0054728133 0.023403428 0.04362624
0.0101765115 -0.012521496 -0.026348064 -0.14744651 -0.0028832038 0.0027080534 0.016226891 -3.1264357e-05
-0.094744995 -0.099413246 0.21850553 0.11170293 -0.20336585 0.18196273 0.29639697 -0.120415755
-0.21827076 -0.12166179 -0.091124974 0.06708975 0.059440136 0.021259367 0.07080941 0.04266464
-0.07041973 -0.09600383 -0.003737592 0.0016753048 0.03467746 -0.01975186 0.024722164 -0.057793424
0.008044705 -0.009005081 0.06734751 0.10673113 0.0009531721 0.0049529187 0.035579357 0.00044474803
-0.08719007 0.25066185 0.34997112 -0.038766317 0.19132648 0.11529668 -0.15501823 -0.18101871
0.053206842 0.12173156 -0.13109094 -0.04129723 -0.020272473 -0.04050191 0.03707584 -0.07016118
-0.061380092 0.015410921 0.00676182 0.0107966075 0.027380591 0.021185437 0.06710447 0.01777981
-0.011137774 0.017887365 -0.012607644 0.20502025 -0.005246443 0.00555453 -0.020699708 0.046744544
-0.12210196 0.013770245 -0.007353639 -0.021429172 0.068826646 0.18013619 -0.27948156 -0.18362737
0.10570084 -0.14150402 -0.054437697 0.044070538 0.08097288 -0.03878652 0.13005184 0.06938284
-0.06582134 0.0149222175 0.044984575 0.0046162955 0.0055953637 -0.04539518 -0.027092526 0.016830571
0.011119738 -0.0072763665 -0.0050360593 -0.033182517 -0.00077946385 0.0019712676 0.028214522 0.014894795
0.020084405 -0.010916394 0.2549914 0.11950718 0.03972679 0.23751915 -0.19878253 0.049901944
0.10498192 0.11012519 -0.008311193 -0.037540607 -0.11360361 -0.028564308 -0.08227541 -0.024918145
00000000: 37c9 58bd 6629 4cbc 5d6d 213c 1310 7ebc
00000010: 8c6b 60bc 9e12 6b3c 08a3 7abc 3ae8 fabb
00000020: c67b c0bb d2c7 763a 8fb5 4fbd 4b85 a43d
00000030: 826a 21b6 f0c4 903b aa5b 1d3c a273 943c
00000040: c5e8 f8bd 65dd 77be e5cd 9bbe 3718 11be
00000050: c50a 99bb f27e 6b3e 1291 76be ca83 74be
00000060: 874a 48bd f1d8 76bd c2c8 94bd ad60 a5bd
00000070: 7f06 ed3d 56ce 033e 3699 8cbd 1c1b 603d
00000080: c007 88bc 75ac 2b3d 886e 1fbd ef9e a13d
00000090: fb8f a3bd 7f92 243d 8c50 16bc 6f69 dc3c
000000a0: 9c33 00bd 3651 c5bd b6cf 73bd daef 3abe
000000b0: 462f 4bbb 6fce 9dbb c406 cdbb 2c3e a7bd
000000c0: fe0a c73c ff57 203e 7ed6 143e 6abe 24be
000000d0: a9c2 0e3e 0d57 95bd 1fdc d43d 55eb aebb
000000e0: 7ecf 893d 34cd a63c 6826 523d 3f4b 19bd
000000f0: 6514 edbd afbd a8bb c030 003e bada 73bd
00000100: e9a8 1438 59e0 c339 4666 ed3c e648 ecbc
00000110: e6a8 02bc a2a2 233c 9c7d 893d 2b48 fdbb
00000120: fe0e 0fbc 61f4 fbbc 6fb7 5b3d 0790 ec3d
00000130: e9ce e6ba 03b5 8bbb 3787 c13b 1eec 3cbc
00000140: fbdc 6ebd 34a9 2abe 09b5 1abe e137 7d3e
00000150: cf69 48bd 0a26 b0bd 9684 803e 6a83 383d
00000160: 5ef8 53be b1f6 39be 7841 0d3c 6d62 a33d
00000170: ac52 143e d00b 043e 87a8 e83d 584c 933d
00000180: 7823 d03d 7324 80bb 300f 913c 3b9b 5fbd
00000190: 22e1 9eba d637 1cbd 5a31 db3d c1d1 e03c
000001a0: f188 65bd 8f2d d53c 3ff3 0d3a 81e1 1e3e
000001b0: 2623 153c 334a 463c 5de6 27bd 5204 2a3d
000001c0: 2f2f e43c 130c 14be 404d 203e 9006 b73d
000001d0: 621f ee3d faf2 553e 1844 96bc 937c 3abe
000001e0: 4467 6f3e 62b8 9cbd a510 fdbd f427 073d
000001f0: e21c 11be 2ae4 2dbe 2af4 0b3e 5cf6 c7bd
00000200: 438c 7dbd 0562 c5bc 5b2a 863c 271e 113d
00000210: 5e63 55bc 4955 b3bb 8cb8 bf3c 6eb1 323d
00000220: 62bb 263c f626 4dbc e5d7 d7bc 38fc 16be
00000230: 22f4 3cbb 9979 313b 42ee 843c d921 03b8
00000240: aa09 c2bd 2c99 cbbd eabf 5f3e 81c4 e43d
00000250: 233f 50be 7054 3a3e 58c1 973e 899c f6bd
00000260: 5f82 5fbe d129 f9bd bb9f babd 5a66 893d
00000270: 8077 733d 2028 ae3c 8604 913d 1ec1 2e3d
00000280: 3838 90bd a89d c4bd 63f2 74bb e795 db3a
00000290: f409 0e3d a7ce a1bc 2386 ca3c ccb8 6cbd
000002a0: f0cd 033c 0c8a 13bc 7eed 893d da95 da3d
000002b0: 4cde 793a 184c a23b a9bb 113d 122d e939
000002c0: b590 b2bd c056 803e 6a2f b33e 6ec9 1ebd
000002d0: 17eb 433e aa20 ec3d 19bd 1ebe f85c 39be
000002e0: 6bef 593d 654e f93d b43c 06be 4927 29bd
000002f0: 7512 a6bc 55e5 25bd d6dc 173d aab0 8fbd
00000300: b169 7bbd 167e 7c3c 4292 dd3b 41e4 303c
00000310: 434d e03c 158d ad3c 126e 893d f7a6 913c
00000320: 367b 36bc 8688 923c 4b90 4ebc d4f0 513e
00000330: 5bea abbb c602 b63b 6f92 a9bc 3577 3f3d
00000340: 9810 fabd 989c 613c ccf6 f0bb 3b8c afbc
00000350: fcf4 8c3d 9f75 383e 3518 8fbe d008 3cbe
00000360: af79 d83d 6ee6 10be 10fa 5ebd 4f83 343d
00000370: 1cd5 a53d 9dde 1ebd 4f2c 053e 9718 8e3d
00000380: 57cd 86bd 517c 743c bf41 383d 4b44 973b
00000390: 5059 b73b 4cf0 39bd 25f1 ddbc 44e0 893c
000003a0: 902f 363c 966e eebb 8705 a5bb 64ea 07bd
000003b0: ef54 4cba 6230 013b 2422 e73c 4c09 743c
000003c0: 0d88 a43c adda 32bc 3c8e 823e 2ec0 f43d
000003d0: 8fb8 223d 3838 733e a68d 4bbe fb65 4c3d
000003e0: c300 d73d 5189 e13d ac2b 08bc 2ec4 19bd
000003f0: 02a9 e8bd b2ff e9bc 0380 a8bd 2321 ccbc

critic.0.bias f4 [64]
-0.1291126 0.060897652 -0.04611498 -0.21167697 -0.0004991025 0.01930551 0.02658269 0.11782164
-0.20644587 -0.18531322 0.09416174 0.14417222 0.28207216 -0.18235146 0.16321929 0.038103007
-0.003748455 0.08214098 0.15894324 -0.065454125 -0.18740247 -0.26597732 -0.19127584 -0.039310794
0.020119226 -0.1851082 0.08023722 0.14339133 0.0640227 0.06676352 0.16835567 0.19884269
-0.11475494 -0.14861101 0.096300215 0.04980617 0.21572977 0.07460078 -0.012674405 -0.059664324
0.07473919 0.092013456 0.01990289 -0.09425746 -0.05765152 -0.19450614 -0.1860898 0.079238854
-0.13300174 0.16639881 0.059592545 -0.18318957 0.006700133 -0.074409924 0.2948201 0.012623694
0.09896342 -0.20015444 0.20210855 0.14884527 -0.15745239 0.032382347 -0.010459303 0.03476292
00000000: 1836 04be d16f 793d 10e3 3cbd d9c1 58be
00000010: 34d6 02ba 9726 9e3c f1c3 d93c 794c f13d
00000020: 8c66 53be c0c2 3dbe dfd7 c03d e2a1 133e
00000030: c36b 903e 57ba 3abe f522 273e e611 1c3d
00000040: a4a8 75bb 8839 a83d 04c2 223e d00c 86bd
00000050: 6fe6 3fbe 2e2e 88be d0dd 43be 5b04 21bd
00000060: 13d1 a43c 018d 3dbe 6953 a43d 2dd5 123e
00000070: 551e 833d 50bb 883d 6e65 2c3e 6b9d 4b3e
00000080: a304 ebbd 7c2d 18be 0c39 c53d 8e01 4c3d
00000090: 44e8 5c3e 4bc8 983d 4fa8 4fbc 9462 74bd
000000a0: dc10 993d 8d71 bc3d 630b a33c 0e0a c1bd
000000b0: 0024 6cbd 9e2c 47be 538e 3ebe fb47 a23d
000000c0: 9c31 08be 7364 2a3e 5017 743d 0c96 3bbe
000000d0: ca8c db3b 3b64 98bd a9f2 963e 9cd3 4e3c
000000e0: 55ad ca3d 49f5 4cbe 8bf5 4e3e e56a 183e
000000f0: 333b 21be 5aa3 043d 7f5d 2bbc 9063 0e3d

critic.1.weight f4 [64]
1.154093 0.95589757 1.0189663 0.9172322 1.0332253 1.0292798 0.991771 0.9750234
0.93850315 1.1190323 1.0106399 0.97188765 1.0790193 0.9167829 0.9766804 0.9879063
1.0239927 1.067313 0.9616203 0.97239846 0.93648624 1.1772138 1.1255655 1.0554371
0.96181697 0.96949124 0.8928342 0.9625551 1.0136904 1.0159645 0.9629433 1.0352113
0.9387147 1.1824143 1.0061247 0.9700004 1.1775578 0.97009194 1.0423437 1.018796
0.96995276 0.9832036 0.94414634 1.033281 0.96085966 1.0455484 1.0320472 1.024298
0.9136287 0.985504 0.9339368 1.1457124 0.9217525 1.0169065 1.1174794 1.002142
0.97413594 0.98479766 1.0675229 0.9662806 0.9768034 0.9883094 0.9849145 0.9676699
00000000: 52b9 933f b4b5 743f 7d6d 823f bbcf 6a3f
00000010: ba40 843f 71bf 833f b4e4 7d3f 229b 793f
00000020: be41 703f 733c 8f3f a65c 813f a1cd 783f
00000030: 4e1d 8a3f 49b2 6a3f ba07 7a3f 6de7 7c3f
00000040: 3112 833f b69d 883f bf2c 763f 1bef 783f
00000050: 90bd 6f3f f1ae 963f 8812 903f 9018 873f
00000060: a339 763f 9430 783f c890 643f 036a 763f
00000070: 9bc0 813f 200b 823f 7483 763f ce81 843f
00000080: 9b4f 703f 5a59 973f b2c8 803f f251 783f
00000090: 37ba 963f f257 783f 856b 853f e867 823f
000000a0: d34e 783f 3bb3 7b3f 93b3 713f 8d42 843f
000000b0: e6fa 753f 88d4 853f 1f1a 843f 321c 833f
000000c0: 92e3 693f fd49 7c3f 7b16 6f3f b4a6 923f
000000d0: f9f7 6b3f fe29 823f 9109 8f3f 3046 803f
000000e0: f960 793f b31b 7c3f 97a4 883f 2a5e 773f
000000f0: ca0f 7a3f d801 7d3f 5b23 7c3f 37b9 773f

critic.1.bias f4 [64]
0.105921224 -0.019882964 0.043451224 0.025792023 0.096118264 0.049836725 -0.009149527 0.0021191589
-0.06544733 0.07892442 0.0031631743 0.002490809 0.06709208 -0.046986848 -0.0004892779 0.0063665034
0.031606987 0.044967007 -0.017419025 0.020840438 -0.019338254 0.09863241 0.06906282 0.0061949403
0.004665718 -0.02555877 0.00742364 -0.026950868 0.022726025 0.02659666 0.0011051967 0.030438852
-0.023770915 0.07317362 0.028677525 0.010603336 0.062162835 0.0034622408 0.046421696 0.037957516
-0.022559749 0.030117132 -0.026745293 0.025748823 0.009678655 0.008782415 0.06071959 7.017927e-05
0.051807683 0.019325966 -0.023943882 0.11870668 -0.026051965 0.0022161577 0.07372356 0.041847967
0.010008123 0.047655825 0.059175253 0.01433868 -0.0071572424 0.033477068 -0.0008804401 0.0035500387
00000000: 3aed d83d 99e1 a2bc e9f9 313d cb49 d33c
00000010: a7d9 c43d 9821 4c3d e6e7 15bc 96e1 0a3b
00000020: 4009 86bd 20a3 a13d 424d 4f3b d73c 233b
00000030: 9367 893d 4875 40bd e242 00ba 1a9e d03b
00000040: 5476 013d 532f 383d 58b2 8ebc 91b9 aa3c
00000050: 426b 9ebc caff c93d cf70 8d3d edfe ca3b
00000060: e1e2 983b a060 d1bc 0242 f33b 11c8 dcbc
00000070: ee2b ba3c 3de1 d93c 3fdc 903a e65a f93c
00000080: 39bb c2bc 0ddc 953d 21ed ea3c 9db9 2d3c
00000090: 759e 7e3d c3e6 623b ad24 3e3d 5779 1b3d
000000a0: 39cf b8bc 34b8 f63c f218 dbbc 32ef d23c
000000b0: 3993 1e3c 1ee4 0f3c 1bb5 783d 352d 9338
000000c0: 4b34 543d 7d51 9e3c f625 c4bc 7d1c f33d
000000d0: ee6a d5bc f53c 113b 61fc 963d c668 2b3d
000000e0: 1cf9 233c c132 433d c061 723d c8ec 6a3c
000000f0: 4d87 eabb 401f 093d 56cd 66ba c4a7 683b

critic.3.weight f4 [64, 64]
-0.032516222 0.06749301 0.0024409217 0.10477409 -0.05154702 -0.11777165 0.032805737 0.059834782
0.10734236 0.07265567 -0.14491706 -0.047101278 -0.08931002 -0.05547512 0.05720371 -0.067255944
0.09712598 -0.036705606 0.096030116 0.010679087 -0.07511695 -0.094643824 0.0061838417 0.0623712
0.056010775 0.045603782 -0.0038591793 0.09922439 -0.019619104 -0.09215642 -0.06687473 0.08038595
0.019730024 0.07174903 -0.040056314 -0.02424454 0.015427303 -0.1019946 -0.013901482 -0.004954123
-0.058373317 -0.063498385 0.06880475 0.10716037 0.094264776 0.07410987 -0.07939656 0.08030693
-0.049054388 -0.114876665 -0.11574045 -0.12446166 0.046038624 0.061803456 -0.00090919883 -0.06016235
-0.022346226 -0.06683512 0.096125975 0.0605248 -0.041396286 -0.046284612 0.055357866 -0.055870038
-0.10697572 -0.017907145 -0.057170004 -0.032335956 0.053286444 -0.11516454 -0.11128741 0.005063591
0.06351402 -0.01071557 -0.11513029 0.02003561 -0.016295526 -0.0062628463 0.07421396 -0.028597314
0.12147487 -0.014606116 0.035027806 0.025549298 -0.108403996 -0.05177968 0.049395174 -0.00044213954
0.05114497 0.10387294 -0.11012999 0.025744015 -0.05554565 -0.037057135 -0.028493594 -0.019928515
-0.011684233 -0.09642033 0.025898457 -0.025379872 0.036965784 -0.06510622 0.036311585 0.11560378
0.012551027 -0.014444965 0.065038405 0.01969938 -0.003978603 0.06653902 -0.029023206 0.06624011
-0.07271505 -0.040196847 -0.10288469 -0.038495846 0.011668063 0.105936736 -0.029486926 -0.01073998
-0.060308006 -0.0056144306 -0.06841731 -0.036045913 -0.0030130532 0.001662251 0.108103976 0.08469873
0.0775249 0.03154274 0.05336731 0.052673217 -0.060508437 -0.09287584 -0.034257244 -0.08011864
-0.043484144 0.016258277 -0.08896126 0.038290832 0.06046277 -0.01311895 0.022196123 -0.013934177
-0.009134044 -0.009457974 -0.056842107 0.08444095 0.06658566 0.2371466 0.09819677 -0.06084074
0.06973127 0.015852207 0.038262103 -0.030524125 0.10988503 0.058633067 0.04456926 -0.09803061
-0.028335558 -0.077862486 -0.085781656 0.06663728 0.0817349 -0.0042687114 -0.0045535257 0.13816063
-0.1141324 -0.024380786 -0.08825353 -0.010254381 0.017828869 -0.03961989 -0.10039167 0.0038326837
-0.016452743 0.049010795 -0.05729765 -0.16307603 -0.047165375 0.09821655 -0.05886652 0.028542664
-0.021046761 0.018078448 0.030526465 -0.02452089 0.11859427 0.026854625 -0.046370663 0.052418184
-0.11094375 -0.12267958 -0.032192975 -0.06697143 -0.0306514 -0.08543268 -0.028845591 -0.0672237
-0.10879569 0.009569164 -0.041178934 0.024542063 0.07166315 -0.12323476 -0.026961537 -0.09553422
0.086999185 -0.045304995 -0.030798532 -0.05105907 -0.04749901 0.059141167 -0.12831683 0.04702902
-0.018778674 -0.06007484 0.047872957 0.07471422 -0.04049732 0.023725688 -0.017292805 0.08505687
0.10155946 -0.113014266 -0.10961191 -0.09822443 -0.118999645 -0.027598184 0.10099892 0.049188074
0.09107487 -0.02444309 -0.079726525 0.071565345 0.07401364 0.079237245 0.13518272 0.00413624
-0.050081514 -0.08861849 -0.0026806563 0.016117867 0.07567534 0.04734683 0.049002133 -0.09527066
0.05718879 -0.09245167 0.038136084 0.0798739 -0.09487776 -0.07912957 0.124707185 -0.015137855
00000000: bb2f 05bd c639 8a3d dff7 1f3b cc93 d63d
00000010: f822 53bd 4332 f1bd 4f5f 063d 5115 753d
00000020: 50d6 db3d 7fcc 943d 2365 14be 45ed 40bd
00000030: 2ce8 b6bd e139 63bd 704e 6a3d 7cbd 89bd
00000040: fce9 c63d 9e58 16bd 70ab c43d 56f7 2e3c
00000050: ead6 99bd 9fd4 c1bd d3a1 ca3b f278 7f3d
00000060: 8e6b 653d 08cb 3a3d 49ea 7cbb 2836 cb3d
00000070: 3eb8 a0bc 81bc bcbd 9ef5 88bd 64a1 a43d
00000080: dca0 a13c 28f1 923d 1712 24bd 7c9c c6bc
00000090: ccc2 7c3c 8be2 d0bd 0bc3 63bc 3256 a2bb
000000a0: dc18 6fbd 710b 82bd 81e9 8c3d e576 db3d
000000b0: e40d c13d eac6 973d aa9a a2bd f677 a43d
000000c0: 41ed 48bd 7544 ebbd 5409 edbd c1e5 febd
000000d0: ff92 3c3d 9f25 7d3d 4d57 6eba cc6c 76bd
000000e0: 6f0f b7bc dae0 88bd b2dd c43d dae8 773d
000000f0: 278f 29bd ef94 3dbd eebe 623d fbd7 64bd
00000100: 1616 dbbd 01b2 92bc 182b 6abd b572 04bd
00000110: e342 5a3d 63db ebbd a7ea e3bd 7bec a53b
00000120: a313 823d 5c90 2fbc 6ec9 ebbd b821 a43c
00000130: 327e 85bc 9038 cdbb 7dfd 973d ea44 eabc
00000140: d1c7 f83d 7e4e 6fbc 5179 0f3d c34c d13c
00000150: ea02 debd ee16 54bd 9852 4a3d f7ce e7b9
00000160: 637d 513d 56bb d43d d58b e1bd 1de5 d23c
00000170: d683 63bd 39c9 17bd 666b e9bc 2041 a3bc
00000180: 3a6f 3fbc 0678 c5bd 0029 d43c 73e9 cfbc
00000190: 6f69 173d 6956 85bd 75bb 143d adc1 ec3d
000001a0: d3a2 4d3c 93aa 6cbc db32 853d 9860 a13c
000001b0: f15e 82bb 9c45 883d 13c2 edbc e5a8 873d
000001c0: a1eb 94bd 73a5 24bd 35b5 d2bd d2ad 1dbd
000001d0: 672b 3f3c 5cf5 d83d 918e f1bc bef6 2fbc
000001e0: 8705 77bd 42f9 b7bb 601e 8cbd e1a4 13bd
000001f0: a576 45bb e3df d93a 9e65 dd3d 8776 ad3d
00000200: 60c5 9e3d f632 013d ae97 5a3d dfbf 573d
00000210: b2d7 77bd b035 bebd 5351 0cbd 3e15 a4bd
00000220: 6e1c 32bd 1430 853c 5231 b6bd d9d6 1c3d
00000230: cfa7 773d ddf0 56bc a5d4 b53c 2d4c 64bc
00000240: f5a6 15bc 9ef5 1abc 45d3 68bd 60ef ac3d
00000250: 105e 883d 8fd6 723e 631b c93d 2434 79bd
00000260: 45cf 8e3d 7ddc 813c b9b8 1c3d bb0d fabc
00000270: 670b e13d 3a29 703d 428e 363d 46c4 c8bd
00000280: f91f e8bc 5e76 9fbd 4bae afbd 2079 883d
00000290: a164 a73d 8ce0 8bbb be35 95bb fb79 0d3e
000002a0: 3fbe e9bd 37ba c7bc 44be b4bd fe01 28bc
000002b0: d90d 923c 7748 22bd 269a cdbd c32d 7b3b
000002c0: e7c7 86bc 8bbf 483d f1b0 6abd 67fd 26be
000002d0: 7b30 41bd c225 c93d 051e 71bd 4ed2 e93c
000002e0: 426a acbc 4119 943c a312 fa3c 09e0 c8bc
000002f0: 8de1 f23d 3bfe db3c 2aef 3dbd 73b4 563d
00000300: 7a36 e3bd 6e3f fbbd c8dc 03bd 5128 89bd
00000310: a518 fbbc 54f7 aebd 974d ecbc 94ac 89bd
00000320: 46d0 debd fcc7 1c3c 3eab 28bd 700c c93c
00000330: 21c4 923d 8162 fcbd 71de dcbc 72a7 c3bd
00000340: a12c b23d bb91 39bd 344d fcbc 5123 51bd
00000350: 528e 42bd 023e 723d 7d65 03be 80a1 403d
00000360: bcd5 99bc 0911 76bd 6f16 443d c503 993d
00000370: 85e0 25bd 605c c23c a4a9 8dbc 4c32 ae3d
00000380: 68fe cf3d 0674 e7bd 367c e0bd e429 c9bd
00000390: 16b6 f3bd 9615 e2bc 86d8 ce3d 6f79 493d
000003a0: 7685 ba3d e03c c8bc a947 a3bd da90 923d
000003b0: 7794 973d 2347 a23d 576d 0a3e 4c89 873b
000003c0: 4622 4dbd 9c7d b5bd f3ad 2fbb 9e09 843c
000003d0: acfb 9a3d c0ee 413d 76b6 483d 441d c3bd
000003e0: cb3e 6a3d 4d57 bdbd 9534 1c3d ed94 a33d
000003f0: 454f c2bd af0e a2bd 7b66 ff3d c404 78bc

critic.3.bias f4 [64]
-0.14114344 0.075521134 0.07036763 -0.13279204 0.11925195 -0.09048229 0.022320468 0.101967454
0.12519218 0.06381517 -0.024446096 0.042116296 0.1241673 0.047737636 -0.10133144 -0.0018875947
0.045676555 0.06313743 -0.03127359 -0.01662145 0.060332675 0.048766483 -0.051674508 -0.10262562
0.03875204 -0.05608537 -0.073770225 0.02469222 0.12070124 0.09558772 -0.042629205 -0.07934183
-0.112742625 -0.11901576 -0.07371372 0.039739877 -0.009592216 0.0681324 -0.051753644 -0.08615903
-0.08507888 -0.040722977 -0.119540885 -0.050945587 0.037412647 -0.029578814 -0.09264822 0.015626285
-0.07653888 0.11857816 -0.094827875 -0.05848851 0.08566487 -0.0506471 0.062092997 0.071016565
0.009683435 0.045128945 -0.04268008 -0.031674165 0.05308867 0.035638638 -0.09609179 0.0825109
00000000: e887 10be d3aa 9a3d e71c 903d a3fa 07be
00000010: 5e3a f43d c74e b9bd 6ad9 b63c 50d4 d03d
00000020: 6132 003e 87b1 823d 2e43 c8bc 2382 2c3d
00000030: 6d4b fe3d 8a88 433d dc86 cfbd 2b69 f7ba
00000040: 5717 3b3d 324e 813d bc18 00bd b529 88bc
00000050: 651f 773d 5dbf 473d a6a8 53bd 622d d2bd
00000060: 76ba 1e3d c6b9 65bd d814 97bd 5747 ca3c
00000070: 3632 f73d 7fc3 c33d f69b 2ebd f87d a2bd
00000080: 9be5 e6bd 89be f3bd 38f7 96bd 48c6 223d
00000090: ac28 1dbc 0089 8b3d a1fb 53bd 2574 b0bd
000000a0: d63d aebd 23cd 26bd dad1 f4bd 52ac 50bd
000000b0: 013e 193d 454f f2bc 5abe bdbd b202 803c
000000c0: 6bc0 9cbd 1bd9 f23d 1e35 c2bd a691 6fbd
000000d0: 1071 af3d 5573 4fbd 3a55 7e3d 2271 913d
000000e0: 45a7 1e3c 21d9 383d 4fd1 2ebd c5bc 01bd
000000f0: 8173 593d d2f9 113d c6cb c4bd 7afb a83d

critic.4.weight f4 [64]
0.9874408 0.98792017 0.99078196 0.9857144 1.1883976 1.003766 0.99155414 1.132554
1.0621953 0.9876622 0.98585355 1.0647861 1.13344 1.0682219 0.99288595 1.0734181
1.1038914 0.99742895 1.0685685 1.0819434 1.0005982 0.9872468 0.9926511 0.98909384
1.0625206 0.9920761 1.0017209 1.1035104 1.0672144 0.9999541 1.0295396 1.0533435
1.0677336 0.98677516 1.1246291 1.060793 1.0588418 0.9976443 0.9874111 1.0196229
0.988669 0.98589027 0.984883 1.0673977 0.99018 0.99033535 1.0639122 1.1129094
1.0567769 1.0640689 0.98346466 1.086145 0.9909625 1.0382527 0.9904828 0.98461866
0.987137 1.2162997 1.0991185 1.20271 0.98990756 0.99201 1.0128304 0.9959274
00000000: ecc8 7c3f 56e8 7c3f e3a3 7d3f c757 7c3f
00000010: 6a1d 983f 677b 803f 7ed6 7d3f 88f7 903f
00000020: 04f6 873f 6ed7 7c3f e660 7c3f e94a 883f
00000030: 9014 913f 7fbb 883f c62d 7e3f c465 893f
00000040: 504c 8d3f 8157 7f3f dac6 883f 1f7d 8a3f
00000050: 9a13 803f 35bc 7c3f 621e 7e3f 4135 7d3f
00000060: ad00 883f b3f8 7d3f 6438 803f d43f 8d3f
00000070: 7b9a 883f fefc 7f3f f4c7 833f f6d3 863f
00000080: 7fab 883f 4c9d 7c3f d9f3 8f3f 11c8 873f
00000090: 2188 873f 9e65 7f3f f9c6 7c3f 0183 823f
000000a0: 6919 7d3f 4e63 7c3f 4b21 7c3f 7da0 883f
000000b0: 707c 7d3f 9e86 7d3f 462e 883f d173 8e3f
000000c0: 7744 873f 6933 883f 57c4 7b3f cd06 8b3f
000000d0: b8af 7d3f 77e5 843f 4890 7d3f f80f 7c3f
000000e0: 03b5 7c3f b5af 9b3f eaaf 8c3f 67f2 993f
000000f0: 956a 7d3f 5ef4 7d3f 6da4 813f 19f5 7e3f
