src/taser/isaaclab/trained_models/balance.pth (torch, 60861 bytes, 22 tensors)

log_std f4 [8]
00000000: ad8f 01bf 2d51 e1be 111b 00bf be9c dbbe
00000010: 2cfa b9be 199f 03bf c4b4 8dbf eae5 90bf
-0.50609857 -0.44007245 -0.500413 -0.42893022 -0.36323678 -0.5141464 -1.107079 -1.1320164

actor.0.weight f4 [64, 29]
00000000: f933 a4bd e345 393e a9fb 8fbd 3b79 4e3d
00000010: 72d3 d43d d530 823d 54c5 41be 5bf5 383e
00000020: 9f02 c33d b18f 98bc 80c3 e33d be48 bebd
00000030: 3719 d13d 6913 293e dd73 a5bd 1f06 e0bd
00000040: 0de5 e53d 773f 903d a220 9e3c 4a8b d83b
00000050: 5800 d7bd 55bc 09be d85d 253e 059c dfbd
00000060: 57f4 f7bc ee7c 6cbd 3301 85be 0352 30be
00000070: 9e7f 92bd 620f 4c3e 4ae8 05bd c17b 113e
00000080: ad81 0c3e 9609 b23d c380 083e 94f3 3e3e
00000090: bcaf c4bc a7ff 1e3d 50e1 023d 0c0a 0dbe
000000a0: 5a75 fdbd 8679 273e a535 f43d 0a14 c53d
000000b0: d6cc 813d 5e9d 2cbd faad 9dbc bdb3 2bbe
000000c0: 49d1 103e 3003 afbd 6f77 0cba 37cd d33c
000000d0: f589 0f3e 759c 4ebd f9a3 91bd 757d 493b
000000e0: 70ce 473d 89a7 973b 44c7 2cbe 474b ecbd
000000f0: d829 873d 8520 f1bd 43da 643e 6299 26be
00000100: e1aa 27be 9f53 dfbd 1f59 0c3e 4c1b b53d
00000110: 8336 353e c29b 13bd 8150 52be df3c 93bc
00000120: 791e 5f3d dd72 babd 2e96 78bd 1df9 e1bc
00000130: 0069 343e e29b 313d 177b 68be 0d58 0ebe
00000140: ecce 803b 4f2a 12be 68d7 e8bd 9761 e63d
00000150: 5a70 4cbd 3a00 f7bb bd7a 4ebd b6aa 093e
00000160: 5c94 93bd a908 e4bd d0d4 083e 4f65 f13d
00000170: c503 43bd a96e 913c 5fbf 033d 0fa3 afbd
00000180: 908d 493d 3e6f 633d 42c2 32be a47c 3e3e
00000190: 6033 e93c 591c ff3d 88e7 03be 3c86 923d
000001a0: be18 52bd 0d1b 3dbe 0968 7dbd f6db 873e
000001b0: d7e8 f7bd ef44 3b3e 0d2f 9fbd 3718 853d
000001c0: 2a98 51be efd5 5ebd 95da 34bd daca 00be
000001d0: cbf9 cdbc 4557 7d3d 2e47 a7bd bc88 6fbd
000001e0: f827 bf3b d36e 313e fe37 21bd 018d c63d
000001f0: 497b f3bd 6c1e e03d 8d9d 593e d2cd 913d
00000200: e3cf ad3d 2dc5 68bd 6b12 a93d 7246 533d
00000210: 5650 0ebd b9c5 2a3e 39c8 193d 7681 cbbd
00000220: 3eca 2d3e 18fc 5a3e 8fe6 223e 5ac7 d83b
00000230: dd37 a8bd ecaa a0bd 12f6 36be 2487 0fbe
00000240: 497f 23bc 3a0b 46be 8507 623b cd71 eb3c
00000250: 6553 46be 3fec fb3d 2092 88bb 86e1 9a3d
00000260: 91ad c6bd a05e fb3c 9fce 20be 37b5 233e
00000270: 7a9c 193c df51 57bd e9b6 d7bd ece8 563e
00000280: 69e6 adbd b48b 443e aeb6 ddbc 0882 96bd
00000290: bf86 893d b373 113e a0b3 8ebd 2a00 02bd
000002a0: 37f6 e03d 9c7f 543e 1c79 933d 88b0 cabd
000002b0: 4ede 983d dd21 4f3e 0fd8 05be d0d0 58bd
000002c0: cf41 0bbe 32ac f73c 5536 833d 8194 003d
000002d0: 0976 24bd d5ac 0fbd aa22 a63d d880 9d3d
000002e0: d85d cabd 73c1 2d3e b475 e83c b341 a9bd
000002f0: 140d b7bd c7c9 823d c125 ad3d 5fae 04be
00000300: 756b 763d 313b 9fbd 6112 c8bd d6f5 5d3e
00000310: 111f 86bd 6e6f e6bd 8f80 ef3c 5e0a daba
00000320: 1bbd 023d f0f6 783d 918e 053e 2350 8ebd
00000330: 46c6 5f3d fdf1 d5bd ee61 513c fb27 703d
00000340: c1cb 373e 2973 b6bd 6c41 b1bd f902 073e
00000350: 3d17 1bbd 1a67 17be 6181 063a b823 83bd
00000360: 1ac3 23be a069 143d 72b2 5e3d d19e 733d
00000370: 271c d83d 5b5a c2bd addd 0fbe 2b9c 1b3e
00000380: 291f a2be 8400 0c3e ec5e a83d 4ebb 9cbd
00000390: fe0f d73d ee09 4a3e b6cb 8c3d 9090 0e3e
000003a0: 4a5a f13c 88e4 b83c dbde dc3a dcbe e1bd
000003b0: 320c 403e 79e8 873d a134 333e ace4 40bd
000003c0: bf88 853d fbd5 5b3d 9c16 d33d 4f39 213e
000003d0: 9105 febc 1c84 ffbd 0b56 c3bd 2d6e 79bd
000003e0: 1976 303e 20e3 383e 427d b63d d98b 12be
000003f0: 3911 4c3e bfd9 003d 3fa7 99bd 5797 a1bd
-0.080177255 0.18093066 -0.07030422 0.050408583 0.103918925 0.0635697 -0.18922931 0.18062346
0.09521984 -0.018623205 0.11121273 -0.09291218 0.102098875 0.1651131 -0.0807874 -0.109386675
0.112253286 0.07043355 0.01930267 0.0066084014 -0.104981124 -0.13450749 0.1614908 -0.1091843
-0.030267878 -0.05773633 -0.25977477 -0.17218785 -0.07153247 0.19927743 -0.03269223 0.14207365
0.13721342 0.086932346 0.13330369 0.18647605 -0.024009578 0.038818028 0.031953156 -0.13773364
-0.12375899 0.16354951 0.119242944 0.09622963 0.063378975 -0.042142265 -0.019247998 -0.16767783
0.14142336 -0.0854553 -0.0005358373 0.02585469 0.1401747 -0.050442178 -0.071113534 0.0030744944
0.04878086 0.004628126 -0.16872889 -0.115377955 0.06599778 -0.11773781 0.22348885 -0.16269448
-0.16373779 -0.10904621 0.13705872 0.08843097 0.17696576 -0.036037214 -0.20538522 -0.017973362
0.05447242 -0.0910394 -0.060690098 -0.027584607 0.1761818 0.043361552 -0.22703205 -0.13900776
0.003930917 -0.14273952 -0.113692105 0.112490825 -0.049911834 -0.007537869 -0.05041002 0.13444027
-0.07206032 -0.11134464 0.13362432 0.11786901 -0.047611017 0.017752962 0.032164928 -0.08576023
0.04920727 0.05552601 -0.17456916 0.18602234 0.02846688 0.12456579 -0.12881291 0.071545094
-0.051293127 -0.1846735 -0.061866794 0.26535004 -0.121049576 0.18288015 -0.07772646 0.06498759
-0.20468202 -0.05440324 -0.04415377 -0.12577382 -0.025143525 0.061850805 -0.08167873 -0.05848001
0.005833622 0.17327432 -0.03936004 0.09694863 -0.11888749 0.109433025 0.21251507 0.07119335
0.08486917 -0.056828666 0.08255466 0.051580854 -0.034744583 0.16676988 0.037544463 -0.09936802
0.1697168 0.21385229 0.15908264 0.0066155614 -0.0821378 -0.07845101 -0.17867306 -0.14016396
-0.009979078 -0.1934022 0.0034489345 0.028740788 -0.1936775 0.1230092 -0.00416781 0.075625464
-0.09701074 0.03068477 -0.1570382 0.15987097 0.009375686 -0.052568313 -0.10532934 0.2098729
-0.08491213 0.19193918 -0.027064648 -0.0734902 0.06715154 0.14204292 -0.069678545 -0.031738438
0.10984462 0.20751804 0.07200834 -0.09896952 0.07464276 0.20227762 -0.13070701 -0.052933514
-0.13599323 0.030233476 0.064068474 0.031391624 -0.04015163 -0.035076935 0.081120804 0.076905906
-0.098811805 0.16968326 0.028376438 -0.08264484 -0.08938041 0.06386142 0.084544666 -0.12957142
0.060161073 -0.07774962 -0.097691305 0.2167581 -0.06548894 -0.11251722 0.029236106 -0.001663517
0.031918626 0.060782373 0.13042666 -0.069488786 0.054632448 -0.10446546 0.012779696 0.05863188
0.1794882 -0.08908684 -0.08655056 0.13184728 -0.03786396 -0.14785424 0.00051309733 -0.06403297
-0.15992394 0.036233544 0.054369397 0.05947763 0.10552245 -0.0948989 -0.14049406 0.15196292
-0.31664398 0.13672072 0.0822123 -0.07652913 0.10501097 0.1973035 0.06874792 0.13922334
0.029461998 0.02256991 0.0016851084 -0.11022732 0.18754652 0.066361375 0.17500545 -0.04709308
0.06520223 0.053670865 0.10307047 0.15744518 -0.031008514 -0.1247637 -0.09537896 -0.060896087
0.1723255 0.18055391 0.0891061 -0.1431116 0.19928445 0.03145766 -0.07502603 -0.07890194

actor.0.bias f4 [64]
00000000: ed70 0d3e 9e03 073e 9f63 fb3b ba4e cfbd
00000010: da4e c33d 626a f83d 3b8f 7d3d 9680 27be
00000020: e442 953d cc9d 9fbd 5833 2fbe 3b5c 23be
00000030: cdca e33d 5a5c 37bc abee 36be 1a14 933d
00000040: eb1f a33d 26ef a6bd 44f4 c0bd 39e2 6cbd
00000050: 389f 39be ecb9 303e 8170 45be 058c 59bb
00000060: a437 9bbd 088f df3d a032 e33d 3ae3 afbd
00000070: 9935 503d ffdb 59be 00ba ba3d 19a3 393e
00000080: 8811 96bc e617 64be 121c b4bd d5d5 a3bd
00000090: 93c5 333e fb15 6dbe e080 273e 5fac 30bd
000000a0: eb91 debd cfe7 b4bd 2254 f13d 3740 05be
000000b0: 5f19 5cbe f07a 12be e6a2 febd f1b7 bc3d
000000c0: 17c0 0c3e a273 743d 35be 3dbd 1019 abbd
000000d0: f715 003e 89e8 c7bd 9711 3e3e 5f62 a4bd
000000e0: c03c 0d3e c5aa 483d 21f9 f93d 7a49 13be
000000f0: 40d4 173e 7cff 013e 7eb6 d7bc 0c2d fb3d
0.13812609 0.13184974 0.007671788 -0.10122438 0.09536524 0.12129666 0.061904173 -0.16357645
0.07288149 -0.07793769 -0.1710943 -0.15953152 0.111226656 -0.011191452 -0.17864482 0.071815684
0.07965072 -0.08151083 -0.0942159 -0.05783293 -0.18127143 0.17258424 -0.19281198 -0.003319503
-0.07578972 0.10915953 0.1109364 -0.08588262 0.050832365 -0.21275328 0.09117508 0.18128623
-0.018318906 -0.22274742 -0.087944165 -0.079997696 0.17555837 -0.23152916 0.16357756 -0.043133136
-0.108676754 -0.088332765 0.11783625 -0.13012777 -0.21494053 -0.1430471 -0.12433414 0.092147715
0.13745151 0.05968059 -0.046323974 -0.0835439 0.12508379 -0.097611494 0.18561397 -0.08026575
0.13792706 0.048990984 0.12205721 -0.14383498 0.1482706 0.12695116 -0.026332136 0.122644514

actor.1.weight f4 [64]
00000000: 9ceb 793f fe7d 743f a47b 833f fa90 803f
00000010: 9a4c 773f 37a9 803f af55 803f 560c 833f
00000020: 198c 763f 4e8d 833f 1c00 703f 9075 7e3f
00000030: d90a 7d3f 099f 813f 1c13 803f d169 813f
00000040: 8427 7f3f e858 713f 7a0b 823f 831c 823f
00000050: b6b8 833f 26a7 803f a0ea 6f3f 9c49 763f
00000060: 859e 783f 309b 7b3f 22f8 7e3f 664e 843f
00000070: de3b 813f fd8d 7e3f 520a 7c3f ace6 7d3f
00000080: 1b49 813f f560 863f 3c56 7d3f 18b6 7c3f
00000090: 463c 7e3f 6ceb 743f affd 7b3f 463b 813f
000000a0: 0e7b 883f a779 7e3f 4286 793f c5a7 773f
000000b0: c28c 733f fba6 873f 5cbd 803f 8be8 823f
000000c0: 3b3d 7b3f 7116 7e3f cf17 843f e898 823f
000000d0: 0941 7d3f b9e8 7a3f 0780 7f3f fc8f 843f
000000e0: 5b74 773f 8690 793f 086f 7c3f 1ad3 873f
000000f0: 34e6 7b3f 4914 813f 51bb 823f 497e 803f
0.97625136 0.9550475 1.0272107 1.0044243 0.9660126 1.005164 1.0026149 1.023814
0.9630752 1.0277498 0.93750167 0.99398136 0.9884468 1.0126659 1.0005832 1.0110418
0.9966967 0.94276285 1.0159752 1.0164951 1.0290744 1.005101 0.93717384 0.9620607
0.9711688 0.9828367 0.9959737 1.0336425 1.0096395 0.99435407 0.9845325 0.991801
1.0100435 1.0498339 0.9895971 0.98715353 0.9931072 0.95671725 0.98433965 1.0096214
1.0662553 0.99404377 0.97470486 0.9674037 0.95136654 1.0597833 1.0057788 1.0227216
0.98140305 0.9925299 1.0319766 1.0202913 0.9892736 0.98011357 0.9980473 1.035644
0.9666192 0.9748615 0.9860692 1.0611298 0.9839814 1.0084316 1.0213414 1.0038539

actor.1.bias f4 [64]
00000000: 2b69 75bc 66e5 08bd 009e 763d f010 c5bc
00000010: b66c 42bd d203 603b c5e4 013d a999 013d
00000020: 252f 2c3a d4a1 91bb dfa2 ffbc 883c 2fbd
00000030: 5731 45bc 3660 163d 17f4 aeba 3e68 66bc
00000040: c35c 50ba b0c5 0bbc ca1d e63c ef45 06bd
00000050: aad5 6f3c f289 913c da35 29bd a7f0 8fbc
00000060: a999 2cba 2d82 85bb ca4b 5a3c ac27 2c3d
00000070: b2c8 8ebc eae1 9bbc f7ea 87bc 530b b13b
00000080: 6449 7f3c 9421 2e3c 2d3a d33b 5191 69bc
00000090: f407 45bb 9e64 02bd c392 043c c0f5 223b
000000a0: 12e0 0f3d 64bb 383c 8da6 ac3c 23c1 90bd
000000b0: b3bf c5bd 7098 673c 55ce 053d ec05 4bbb
000000c0: ce58 ba3b 20c7 32bc 7296 b5bc c72c 19bc
000000d0: 4f1c 773c f055 66bc 7081 f73c 6f7b ed3b
000000e0: cdb0 5dbc ae8f 283b 1e15 3ebc 586f 403d
000000f0: 90c2 283c 47d0 f8b9 24ea cb3c ec67 423c
-0.014978687 -0.033421896 0.060209274 -0.024055928 -0.047466956 0.0034181965 0.031712312 0.031640682
0.00065683044 -0.0044443402 -0.031205593 -0.042782336 -0.012035689 0.036712848 -0.0013347891 -0.014062939
-0.0007948393 -0.008531019 0.028090376 -0.032781538 0.014638344 0.017765973 -0.041311122 -0.017570807
-0.00065841764 -0.004074356 0.013323734 0.04203002 -0.017429683 -0.019028623 -0.016591532 0.0054029613
0.0155814625 0.010628123 0.006446144 -0.014255838 -0.0030064555 -0.031834237 0.008091631 0.0024865717
0.0351258 0.011275146 0.021075511 -0.07068088 -0.09655704 0.014135465 0.032667477 -0.0030978872
0.005686856 -0.010911733 -0.022166464 -0.009349055 0.015082433 -0.014058575 0.030213088 0.0072473804
-0.013530922 0.0025720405 -0.011601714 0.046981186 0.010300294 -0.00047457425 0.02489192 0.011865597

actor.3.weight f4 [64, 64]
00000000: fc76 de3d 7e5d 963d 390a c5bc e61e 0dbd
00000010: 80c1 e93b 4193 643d 4a70 cfbd 8a82 cc3c
00000020: a05d ee3d e1db 8a3d 6b98 ddbc 0bad a53d
00000030: 05ad 34bd 88f4 a03d 4e86 273d 2a0a a4bc
00000040: 5568 c03d b8a2 df3c 8420 8a3d ade1 963c
00000050: ea88 a0bd ca46 ac3d d391 d1bd 7ed7 a63c
00000060: cf1c d5bd 96ab e8bd 4efd e23c 1174 d73d
00000070: 344f cbbd 8997 bd3d 9866 bebd 1c7c 00bc
00000080: 147f adbd b4ac 9e3c 5167 56bd aee1 0f3d
00000090: 6708 a1bd 3416 493d 86b8 483c 1240 a13d
000000a0: 55a0 f4bd b1cb 8a3b e608 0cbd 0b39 91bd
000000b0: a3fa d83d 4248 973d c6ab ec3d 815c c03d
000000c0: 19e8 d7bb 05a8 5c3c e1f3 13be 7cd6 e8bd
000000d0: 9b27 ce3b e11f de3d 1a58 cf3d 18df b8bd
000000e0: af1d c0bd 1213 f1bb e883 99bd 6887 fa3d
000000f0: 2455 c13d 6a81 0c3e 73bb 86bd aff2 94bd
00000100: 3778 b83c 4ed6 8dbc 4a3e a4bd 3f1c a53d
00000110: fb8a ea3c 5cd4 f2bc d9b5 35bd 54cb cc3c
00000120: e24a 833d a8f2 0bbe 9d11 873d 6e37 fb3d
00000130: 2b06 e9bc db0d 83bd 497f 18bd d662 2dbd
00000140: a088 abbd 6291 ae3c a4e8 303d 40f0 eebd
00000150: 29bb 4f3d 5044 00be 6f25 5c3c 219a 8ebd
00000160: 17b0 cabd 236a 2f3d dd72 68bd 687f c63d
00000170: 6148 5abd b516 763c 46d4 e53d 5f5c ce3d
00000180: b4c9 e8bd 4cc4 e0bc 364c 333d 5e63 8fbd
00000190: 7867 453d 60e0 2ebc fd7d 2a3d 1033 95bd
000001a0: 8746 39bd 1609 85bd 9c19 da3d 1e96 a93d
000001b0: 1d48 1f3d 46e8 81bd cdf2 a93d 4a45 87bd
000001c0: a668 6a3b 43b5 d0bc 49df 0abb bce5 cbbc
000001d0: 160c bd3d 2e74 fd3c 9529 5dbd 988b 58bd
000001e0: 9318 d53d fedb fd3b 516c b1bd 6045 a4bd
000001f0: 6078 143d 3e92 f4bb b62a 863d f0d7 ce3d
00000200: 6e7f a3bd 04ca a83b 7bf0 1ebd 354d 7bbd
00000210: 2766 143d 3ca6 0fbd c8b1 d8bb 8021 69bd
00000220: 4cd2 3bbd 1333 2d3c e3eb 953d c22d 2fbd
00000230: 1533 bcbd 4834 243d 5447 19bd 5aad 9b3d
00000240: 041f 7e3c f300 b33d f883 37bc ef80 a23d
00000250: 368e 9c3d eb32 53bd dcd9 0e3d 6451 a93c
00000260: 8e8f 893d 7dae 1dbc de8e f0bd 288c c1bd
00000270: fd36 c53d 761d fcbc d524 fc3d c4de bf3d
00000280: 82a4 dc3d dae0 07be b3d7 c0bc 1ab6 fc3d
00000290: 839a 5abd a8ea 8ebd 781a 583d 2cbb a63d
000002a0: cf22 edbc 4c09 0bbd 9fe6 913d 4e7e c1bd
000002b0: cd40 033d 4e7b e4bc 2daa c2bd 57ea dfbc
000002c0: 9732 f23b 3007 c9bc d573 e43c 2ad1 663d
000002d0: ba03 2b3d cbfe c5bc c86e c83c cfc0 c33d
000002e0: 33c0 5abd 0afa 85bd 78f6 0d3e be39 193e
000002f0: eab8 73bd efe8 383d 1d63 bbbc 1304 0ebd
00000300: 9b34 853d 6feb bfbd 58fa 65bd c386 94bd
00000310: edee 8abb 4606 c83c cc76 6d3d e850 2fbd
00000320: ba37 793d 9392 0abc 0611 5ebd b04c 64bd
00000330: e198 75bc 7512 1e3e ed5b 8f3d e487 463d
00000340: 4c59 9d3d 2f49 d33c 7f34 c4bd 28e3 0a3e
00000350: c5d5 a8bd bf0a 68bd ff67 3dbd faea 4dbc
00000360: 15bf feb9 1f4d 4d3c 2bdc f83c 25bd 01bd
00000370: e808 ec3d 69a9 653d a1e0 5d3d 5f91 8dbc
00000380: 9051 ab3d b017 e53c de96 fb3d e70d ce3d
00000390: ea19 9f3b 709b db3d 7185 9e3d bfca 0abe
000003a0: e3ae a9bc b595 133e 398a f63d de55 933d
000003b0: f3fc 063d 9519 26bc aa56 6e3d d5a9 50bd
000003c0: 567b b83d 5454 4cbd 07fc 223d 3d3d 523b
000003d0: ada4 f73d 36a7 43bb 041b 63bd 3d96 d5bc
000003e0: f81b ce3c 1817 863c 61f8 a0bd ddb2 563d
000003f0: bc24 19bd 49ea 68bd d11d 04bd 1ef6 8fbd
0.10862538 0.07342051 -0.024052726 -0.034453295 0.0071336627 0.055804495 -0.10128839 0.02496459
0.11638951 0.0678022 -0.027050218 0.08089646 -0.044110317 0.07859141 0.040899567 -0.020024378
0.093949 0.02729927 0.06744483 0.018418157 -0.07838614 0.084119394 -0.10232892 0.020366427
-0.104058854 -0.113608524 0.027708676 0.10520185 -0.09927216 0.09257419 -0.09296912 -0.00784209
-0.08471504 0.01936946 -0.052344624 0.035127334 -0.07862931 0.04909344 0.012251025 0.078735486
-0.119446434 0.0042357077 -0.034188174 -0.07090958 0.1059468 0.07386829 0.11556201 0.09392644
-0.0065889475 0.013467793 -0.14448501 -0.11369035 0.0062913424 0.10845924 0.10124226 -0.09026927
-0.09380662 -0.0073570097 -0.07495862 0.12232858 0.094400674 0.13721243 -0.06578722 -0.07272851
0.02251826 -0.017314103 -0.08019693 0.08062028 0.028630724 -0.029642276 -0.044362877 0.024999298
0.06410767 -0.13666785 0.06595156 0.12266432 -0.028445324 -0.06399127 -0.037230764 -0.042330585
-0.083756685 0.021309558 0.043190613 -0.11666918 0.0507156 -0.12526059 0.013436659 -0.069629915
-0.09896868 0.04282583 -0.056750167 0.096922696 -0.053291682 0.015020062 0.112221286 0.10076212
-0.11366597 -0.027437352 0.043773852 -0.07001375 0.04819438 -0.010673612 0.041624058 -0.0728513
-0.045233276 -0.06495874 0.10649416 0.08280586 0.038887132 -0.06343131 0.08298264 -0.06605013
0.0035767942 -0.025477057 -0.0021190217 -0.02488982 0.09230821 0.030939188 -0.053994734 -0.052867502
0.10405078 0.0077471724 -0.08663238 -0.08021045 0.03624761 -0.0074637225 0.06551115 0.100997806
-0.0798329 0.0051510353 -0.03880356 -0.061352927 0.036230233 -0.035070643 -0.00661299 -0.056916714
-0.04585485 0.010571259 0.073203824 -0.042768247 -0.091894306 0.04008892 -0.03742154 0.076014236
0.015510324 0.087404154 -0.011200897 0.079347484 0.07644312 -0.05156223 0.034875736 0.020668693
0.06716834 -0.009624121 -0.11746 -0.09450561 0.09629629 -0.030775767 0.12311713 0.09368661
0.10773565 -0.13269368 -0.023540353 0.123394206 -0.05337001 -0.06978351 0.052759618 0.08141169
-0.028947262 -0.033944413 0.071240656 -0.09447919 0.03204422 -0.027890828 -0.09505115 -0.027333422
0.0073912847 -0.02453956 0.027887264 0.05635182 0.0417516 -0.024169346 0.024466887 0.0955826
-0.05340595 -0.06541832 0.13863552 0.14963433 -0.05950252 0.045144018 -0.02287441 -0.034671854
0.06504174 -0.09371077 -0.05614695 -0.07252266 -0.004239908 0.024417054 0.05797462 -0.042801768
0.06084416 -0.008457798 -0.054215454 -0.055737197 -0.014990062 0.15436728 0.06999955 0.04846944
0.07683048 0.025791733 -0.09580325 0.13563216 -0.08243898 -0.056650873 -0.046241757 -0.01256823
-0.00048589022 0.012530594 0.030378422 -0.031674523 0.11525136 0.056069765 0.0541693 -0.017281232
0.08365166 0.027965397 0.12284635 0.100612454 0.004855384 0.10723007 0.07740296 -0.13553904
-0.020713275 0.14412577 0.12038083 0.07194112 0.032956075 -0.010137935 0.058188118 -0.050943214
0.090078995 -0.04988511 0.039791133 0.0032079958 0.12091956 -0.0029854304 -0.055445686 -0.026072616
0.02515982 0.016368434 -0.078598745 0.05241667 -0.03738855 -0.056864057 -0.032254998 -0.07029365

actor.3.bias f4 [64]
00000000: 7e3e 4e3b 1496 bd3d 30ff dbbc 5611 83bd
00000010: 27fe 243a 1116 a6bc d902 9c3d 4bb3 e63d
00000020: ee68 e8bd 868b c1bd b40e cebd 5927 f43c
00000030: a31c 67bd 8a4c 10bd 5248 003e 9f39 923d
00000040: 6289 54bd f5d5 a7bd 92ab c33d 63d4 0c3e
00000050: 6eb7 8abd efec 133d e7e8 013e 4c52 2b3d
00000060: 04e6 f9bd 28a8 32bd 5011 b8bc a293 1739
00000070: 69d6 833d aa3d bcbc 46ab 9abd 5dbd 3cbd
00000080: 1bd6 11ba 40a0 4ebd bb6f e53d 1633 f1bb
00000090: 73ce 66bd 8687 203d dc53 213d fea2 f03d
000000a0: ad1e b73d 0ba5 a2bc edf9 c93d 2cc2 9c3d
000000b0: 5fe6 edbd 82fb d33b 2d26 cebd 0443 9dbd
000000c0: 33a3 a1bc 5979 88bd e260 a53c d2d3 f03d
000000d0: 986c fe3d 55a2 eebc 716c f5bd 7495 c23c
000000e0: 3036 bbbd 0c31 b73c cb25 353d ed81 803d
000000f0: ad82 c1bd 0182 df3d 3241 773d b714 053c
0.0031470354 0.09257141 -0.026855081 -0.06399791 0.0006293975 -0.020274194 0.07617731 0.11264666
-0.11348139 -0.0945044 -0.10061398 0.029803919 -0.056423794 -0.035229243 0.12527588 0.071398966
-0.05188883 -0.08195106 0.09554209 0.13752894 -0.06773268 0.03611463 0.12686501 0.04182653
-0.12202075 -0.043617398 -0.022469193 0.0001445548 0.0643738 -0.022978622 -0.07552199 -0.04607903
-0.0005563215 -0.050445795 0.112029515 -0.0073608262 -0.05634923 0.039191745 0.039386615 0.11749838
0.08941398 -0.01985409 0.09862123 0.07654223 -0.116162054 0.006469191 -0.10065875 -0.07678798
-0.01973114 -0.0666377 0.020187799 0.117591515 0.12423056 -0.02913014 -0.11983574 0.023752905
-0.09141195 0.022362255 0.044225495 0.062747814 -0.094487526 0.10913468 0.06036491 0.008122615

actor.4.weight f4 [64]
00000000: 40e3 843f aaf3 813f 5631 853f 8eac 823f
00000010: b7a4 843f a439 803f 68b0 813f 83b5 813f
00000020: d4f9 7b3f ccfc 913f cb4b 833f e53d 883f
00000030: 4a66 773f 6971 7e3f e8c6 853f 8b94 803f
00000040: b7ea 803f 5e3f 853f 725a 843f c2d5 8c3f
00000050: 6de9 833f f050 833f cf7f 873f 0e58 833f
00000060: bb80 813f 82d6 8d3f bacb 853f 91a8 7e3f
00000070: 4a7f 833f 56ba 863f 69e7 833f 8c5c 813f
00000080: 6474 803f c468 853f c400 843f a266 813f
00000090: c5b9 823f 6a05 803f af0a 7a3f edec 853f
000000a0: 1c54 803f ded4 7f3f 07ab 853f 03d0 803f
000000b0: 0e30 813f fbf8 823f ef43 7d3f 1fc0 803f
000000c0: 613d 813f bbbf 763f a1a6 833f 1817 873f
000000d0: c876 853f b7c5 853f b0e3 893f 74a6 813f
000000e0: 18e5 7b3f 721f 803f 35c6 843f 0e9c 8e3f
000000f0: 2c28 8b3f a544 823f 613e 863f be34 853f
1.0381851 1.0152485 1.0405681 1.020891 1.0362767 1.001759 1.013196 1.0133518
0.9842808 1.1405272 1.0257505 1.0643889 0.96640456 0.993918 1.0451326 1.0045332
1.0071629 1.0409963 1.0340102 1.1002734 1.0305611 1.0259075 1.0585879 1.0261247
1.011741 1.1081088 1.0452797 0.9947596 1.027322 1.0525615 1.0304996 1.0106368
1.003552 1.0422597 1.0312734 1.0109446 1.0212942 1.0001652 0.9767255 1.0462929
1.0025668 0.99934185 1.0442818 1.006348 1.009279 1.0232233 0.98931783 1.0058631
1.0096856 0.9638631 1.0285226 1.0553923 1.0426874 1.0450963 1.077261 1.0128922
0.98396444 1.0009596 1.0372988 1.1141374 1.0871634 1.0177199 1.0487787 1.0406721

actor.4.bias f4 [64]
00000000: 6ebf 853c cdbf 043c 61db 663c b4ac a83c
00000010: fc1a 1b3c aa00 cd3a be6d 1e3c 832a b23c
00000020: 98d6 76b8 bf44 083c 397b 50bb 6568 543a
00000030: eae0 8fbc a086 40bc c9e7 b13c 6532 193c
00000040: 0747 9f3b c059 c43a dc60 c43c dd07 e23c
00000050: fcfa 92bb 9805 ba3c fac7 8b3b 916c 47bb
00000060: 2cc5 583c fb0e 9b3c 3f0e c03b 531d d9ba
00000070: 7955 773c e9f3 0a3c afcf 7c3c 3aa3 223b
00000080: 4ea9 15bc 3d04 673a 6bca c93b 4345 2f3c
00000090: abff 863a df42 203c 6ce1 99bc aacf 853c
000000a0: 5489 c73b d65c c6ba 3621 a43c b0c7 113b
000000b0: 81e6 1f3c aa12 9a3c fd7f c1bc 575d 723b
000000c0: ba3a 15bc 08b6 e9bc f86e e7bb 5791 b03b
000000d0: 97b8 d23c 9e91 bc3c 1bdd 553c 8084 ca3c
000000e0: e866 7e3b a493 e43b 5f5f 19bc bfc0 f63b
000000f0: 7164 e73c 10ef ee3c fcb8 043b 2ff3 403c
0.016326632 0.0081023695 0.01409039 0.020590164 0.009466883 0.0015640457 0.009669719 0.021748787
-5.8850826e-05 0.008317172 -0.0031811728 0.0008102714 -0.017563302 -0.011750847 0.02171697 0.009350394
0.004860762 0.0014980361 0.023971967 0.02759164 -0.004485486 0.022707745 0.0042657824 -0.00304297
0.013230603 0.018928042 0.0058610733 -0.0016564525 0.015096062 0.008481004 0.015430375 0.002481653
-0.009134604 0.0008812582 0.0061581633 0.010697666 0.0010299584 0.009781568 -0.018784247 0.016334374
0.006089369 -0.0015133868 0.020035367 0.0022244267 0.009759546 0.018807728 -0.0236206 0.0036981904
-0.00910824 -0.028529182 -0.007062789 0.0053884196 0.025722785 0.023018654 0.013053204 0.024721384
0.003881866 0.006975608 -0.009361117 0.0075303013 0.028246136 0.029166728 0.002025186 0.0117767295

actor.6.weight f4 [8, 64]
00000000: c5f7 adbd 49fe d73c 7456 1a3c 8e14 90bd
00000010: b3cc 6f3d 811e 8abd 1538 f83b 6e62 a5bd
00000020: 38b4 9e3d 0a07 59bd 2325 0ebd 96f9 0b3d
00000030: 4845 09be 0d1b 2ebd 3a7c 013d 167b 1c3d
00000040: 777c 883d 8dea 9ebc 3b3a c0bd 1187 a33d
00000050: 6e35 c63d c801 a7bd 7d66 febc cdb2 f4bc
00000060: 37b0 b73d c940 f13b 4d32 f6bc 49e7 a7bc
00000070: 001c 86bd 763e aabd fcc0 613d 4da7 ca3d
00000080: ec79 c53d e63e d93d 8655 4ebc e9a3 01be
00000090: 14da e8bd 9a1e e13d 1e65 82bd 78cb 23bd
000000a0: 2590 c13d c337 f4bc 64f2 e33d b850 a13b
000000b0: c113 c7bd fa0d 413d 9efd 7ebc 707d 81bd
000000c0: 7f59 5d3d b98b 053d 9bf7 d33d a8e9 a5bd
000000d0: 045d abbd 5458 d7bd 14c2 98bd d4e7 03ba
000000e0: 1910 5ebd bf3b d9bd 795d c4bd d18f 91ba
000000f0: 866a 27bd df4f e93d 1419 553c cd07 7bbd
00000100: a891 25bd c37d 80bc f096 ca3d 4c74 a0bc
00000110: 0559 cbbd fd6d b7bd 3eff c0bd 6cf6 37bc
00000120: 51c1 8abc 85e1 913d cd67 ddbd 3d46 8ebd
00000130: b36f d3bc 237e e63c b014 bdbd b704 a7bd
00000140: e608 f3bd 874a ccbc 2ce2 a8bc bdc5 8abd
00000150: 006f 983d c6f7 c1bd 6601 e73d 59ca fbbd
00000160: b46e 17bd b2fb 753d 2154 aebd 7b4b 8d3d
00000170: 7a78 66bd 1153 c73d d804 f8bd 19c2 d4bd
00000180: abaf 0abd cc78 133e c062 30bc 7e43 b33c
00000190: d7ba a33d 4f8b 0cbe ddd7 c1bc bcb8 c2bd
000001a0: b56f 793d 811c 7cbd a624 e83d 3c55 babd
000001b0: 01ae 0b3c 1574 00be ac5e 92bd eaf8 09be
000001c0: facb cdbc 8789 b53d 6a8b fb3d 87de 08be
000001d0: 801e a8bd 1b87 99bd 70b5 11bd dede a2bc
000001e0: e67f b2bd 20e6 b3bc 28f6 1cbc 93d5 0ebe
000001f0: 895e 99bd b6ee 4ebd b00d 10be 0ba7 93bd
00000200: 3b84 3d3d 24a2 e0bc 3eab 05be 03cd fabc
00000210: 310d 1abd 6dee 073e 473b 03be 94fa 1abd
00000220: e1c3 eebd 725d 003d 6c5c 9ebd 4ff8 c2bc
00000230: bc2f 6f3d 49e0 973d ffed 103d 5372 08bd
00000240: f5d7 de3d 88af 2e3e 5668 e83d b066 ad3d
00000250: a7ba b03d c219 df3d 1d7f a13c 069f d1bc
00000260: 29d5 a93d 3bee a2bc 18b6 c03d 69af ae3d
00000270: 3ced c23d 54b1 20be cebd 02bc a543 b73d
00000280: c67a 1fbc 7860 72bd c654 95bd 210f 3b3e
00000290: 9e1f 8b3d 267a a0bd 567a a33d 73d7 aebd
000002a0: 4c92 863d c9ff b73d 2af5 ebbc 95e4 96bd
000002b0: 0d8c e0bd 3ff1 ea39 34d7 1fbe 45d1 98bd
000002c0: a8a4 45bb 2b4f 07be e3d2 81bd 8d77 b83d
000002d0: bf6e b83c 8e20 7d3d b6d0 fc3c bf3a d4bd
000002e0: 3306 953d 5548 1b3d b065 a03d 4d63 dabd
000002f0: 22ed 42bd 6277 00bd 530c 89bc 1540 5fbd
00000300: ad48 313b ca5f 9e3d 353d d0bd 21ec 0a3d
00000310: ab02 35bc 8c58 d0bc d952 b5bc 1461 9ebd
00000320: 26fc 843d cf1b e3bc 4682 80bd 8d86 8dbc
00000330: 67c5 f0bb c90f 82bc a1ac 1bbd ed72 453c
00000340: 1aec f13d 436e 013e 2bcf a83d 7904 0d3d
00000350: 40ee b33d 2e17 8dbd a74b 833b e61a 3e3b
00000360: 6ea1 00be 8947 9c3d 6998 cabd 7c07 dd3d
00000370: 79c6 ba3d 32bf 973d 236b 56bd feda c5bb
00000380: 41e5 c83c 0814 a03d a157 3a3d aa61 7dbc
00000390: d658 c0ba ad91 cfbd 824e 78bd 2f17 9cbd
000003a0: b9b9 b03d 0dc5 ccbd 8a73 abbb acb1 eb3d
000003b0: 8952 02bd 8e83 c8bd 3279 5fbd a7c6 78bd
000003c0: 323f e93d d07a dfbb d868 0abe d8b5 ebbd
000003d0: 5973 743d e54f 1bbe d622 02bc 8d33 fc3d
000003e0: e78d a83d 1a8b 9b3c 1c86 04bd ddec 0c3e
000003f0: 0cbc 863d 4a27 82bc 233b d13d 07f9 62bd
-0.08494524 0.02636637 0.009420026 -0.070351705 0.058544826 -0.067440994 0.007575045 -0.080754146
0.07749218 -0.05298523 -0.034703385 0.03417357 -0.13405335 -0.042506266 0.031612612 0.03820332
0.06664365 -0.019398952 -0.093861066 0.07984746 0.0967816 -0.081546366 -0.03105473 -0.029870415
0.08969157 0.0073624593 -0.030053282 -0.020496028 -0.06548309 -0.08312695 0.055115685 0.09895191
0.096423954 0.106077 -0.012593633 -0.12660183 -0.1136972 0.10992165 -0.06366943 -0.039988965
0.094513215 -0.029811746 0.11130217 0.0049229525 -0.09720565 0.04713247 -0.015563397 -0.063227534
0.05404043 0.032603953 0.10349961 -0.08101207 -0.08367351 -0.10514894 -0.074588925 -0.00050317985
-0.05421457 -0.10607099 -0.09588141 -0.0011105483 -0.040873073 0.11392187 0.013006467 -0.061286736
-0.04042211 -0.015684968 0.0989207 -0.019586705 -0.099290885 -0.089565255 -0.094236836 -0.011228185
-0.016937884 0.071230926 -0.10810814 -0.06946991 -0.025810098 0.028136319 -0.092324615 -0.08155196
-0.118669316 -0.024937881 -0.02061566 -0.06775997 0.074430466 -0.09471087 0.112795636 -0.12294454
-0.03697081 0.06005449 -0.0851214 0.068991624 -0.05626724 0.097326405 -0.12110299 -0.10388584
-0.033858936 0.14401549 -0.010765731 0.021882769 0.07994621 -0.13725017 -0.023662502 -0.095078915
0.060897548 -0.06155062 0.11335115 -0.090982884 0.0085253725 -0.12544282 -0.071469635 -0.1347386
-0.025121678 0.08864122 0.122824505 -0.13366137 -0.082089424 -0.074964724 -0.035573423 -0.019881662
-0.08715801 -0.021960318 -0.009580173 -0.1394866 -0.07488734 -0.05052062 -0.14067721 -0.07209595
0.046268683 -0.027421065 -0.13053605 -0.030615335 -0.037610237 0.13274546 -0.12815581 -0.037836626
-0.11658455 0.031339116 -0.07732472 -0.023800043 0.058395132 0.07415826 0.03538322 -0.033312153
0.10881034 0.17059147 0.113480255 0.08466852 0.08629351 0.10893585 0.019713933 -0.025588524
0.0829261 -0.019888988 0.094097316 0.085295506 0.09517905 -0.15692645 -0.007979823 0.08948449
-0.009733861 -0.05917403 -0.0729156 0.1826749 0.0679314 -0.07835798 0.07982318 -0.085371874
0.06570873 0.08984334 -0.028803427 -0.07367817 -0.109642126 0.000448117 -0.15609437 -0.0746179
-0.0030157957 -0.13213794 -0.063390516 0.090071775 0.022513745 0.061798625 0.03086124 -0.103627674
0.07276573 0.037910778 0.07831895 -0.10663471 -0.04758943 -0.031363852 -0.01672951 -0.054504473
0.0027051375 0.07733114 -0.10167924 0.033916596 -0.011047999 -0.025432847 -0.022134231 -0.0773336
0.06493406 -0.027723221 -0.06274848 -0.017276073 -0.007347751 -0.015876668 -0.03800643 0.012051326
0.11812611 0.12639718 0.08242639 0.034428094 0.08785677 -0.06889187 0.004006821 0.0029007732
-0.1256158 0.07630832 -0.09892351 0.10792443 0.09119887 0.074095145 -0.052348267 -0.006038069
0.02452338 0.07816321 0.045493726 -0.015465179 -0.0014674913 -0.10135207 -0.060621746 -0.076216094
0.08629174 -0.09998522 -0.005232279 0.115084976 -0.031816993 -0.09790717 -0.05455894 -0.060736325
0.11389007 -0.0068200603 -0.13516557 -0.11509293 0.059680317 -0.15167196 -0.007942876 0.1231452
0.08230191 0.018987227 -0.03235446 0.13762231 0.06578836 -0.015887875 0.102163576 -0.055413272

actor.6.bias f4 [8]
00000000: 06cc ddbd 3a9f 01be 04ba 593d 47b0 633b
00000010: decc ce3b 1a39 d1bd 1344 65bd 74f4 0a3d
-0.1082993 -0.12658396 0.053155914 0.003474252 0.006311043 -0.102159694 -0.055973124 0.033924535

critic.0.weight f4 [64, 29]
00000000: 9691 aebd 70e0 b3bc 5329 0c3e e40e c2bb
00000010: 1bd2 3abe 484f 863d fdf1 01be 6f56 ea3d
00000020: c442 83bd 3de1 5d3d df40 dd3d f02e a93d
00000030: 486b 293d e923 63bb 2a9a cfbc 4e0c 063d
00000040: 6612 94bd fc89 44be 73b7 16be 966f 66bd
00000050: 61e4 39bd 0924 ffbd 6074 363d d244 c83d
00000060: f254 27be 00a6 8fbb 12c4 e53d 1d36 9ebc
00000070: fa67 a4bd 8f2a a33d 6c74 cd3c e5a8 26bd
00000080: 5626 623d d0a5 5abe 8ca8 8dbd 672d 373d
00000090: a7b5 e2bd e952 8e3c 8702 543c 8536 783d
000000a0: c8ee fdbd b379 86bb 770a 8eb9 d6f9 0e3c
000000b0: 4700 983b 85a5 0bbe 0adf 3cbe 2820 b0bb
000000c0: e07b 8b3c 2b9a 9fbd f230 c8bd a069 1abd
000000d0: 64b2 07be 4119 9ebd 6397 92bd be14 ab3d
000000e0: d0fc 463e 07d6 573d 1c2f 03bd 436f a43d
000000f0: 8b09 b7bd 878b 103e 2199 153e 167d 073e
00000100: e208 af3d e64f 0dbd 6cdd 5dbd 4bae a1bd
00000110: 2584 9cbd 2972 ac3c 1af0 183d 2dfa 15be
00000120: 1ae1 b0bd 9361 3dbd 2771 4d3e 6742 043d
00000130: f22f 27be 069b 86bd b975 debd fa16 413e
00000140: a1b9 d9bd 1132 18bd 4fff 7b3d 0faa cd3d
00000150: 85fd 97bd d49a 423d ed34 f83d 242a c13d
00000160: d09a 023e 55be 243c 1a53 9c3d 26ac 33be
00000170: 9e98 a83d 3f50 00be 6851 23bd eaac f73d
00000180: 174b 843d 959a 373e 5950 3fbd 3304 273d
00000190: 78fe ec3d 5c3c 0abe 8122 323c 4796 8cbd
000001a0: d90f 133e ee1a 3dbd bb8a 3fbd 0bc7 4dbe
000001b0: f58e d7bd 7429 8c3c 8153 13bc bd93 1d3e
000001c0: 7af9 1c3e 7406 31be 30a1 673c 8080 9dbc
000001d0: 68a6 98bd 1582 1c3d 3732 e9bd 48ca 053d
000001e0: fee6 cebc 4cf9 50be a95b 57bd b45f c3bc
000001f0: a49a 97bd f942 44bd 4b33 4dbb 23a8 07be
00000200: 2a9a 093e c839 123d eefd 3eb9 530d a4bd
00000210: 38f2 55bd d2d6 a7bd f99a 153e f629 0a3d
00000220: 9e77 943c 1034 33be 9603 4a3d 457b 073e
00000230: 17ea 3c3d 2b2e e1bd 3f19 b6bc 341b bbbd
00000240: d255 1dba 17d8 2f3e 86db 283e 493a 1dbe
00000250: c92e 0ebe 8169 0d3d 543a 063e 9c52 37bc
00000260: 06b9 91bd 3909 2abd 7b98 4ebd 473b a1bd
00000270: 9477 c03d 5a2c c6bc 43ac 0c3b f28f 97bd
00000280: d348 8bbd 3350 2dbb c005 a7bd 0cb6 65bd
00000290: 6f9f d53d 01ce 26be ebac 19bd fbcc b8bd
000002a0: 9328 da3c 5430 fdbd feca 10be 4f53 fdbd
000002b0: 7002 4d3c 38fb 31bd e785 14bd a1f5 c0bd
000002c0: e02e fbbd 0b16 a9bc 65cb 203e 4d2c 473e
000002d0: e262 10be 4958 ffbd aa33 e33d 422b 413d
000002e0: 74c2 ccbd a4a5 04be 9d55 323c d0fe cb3d
000002f0: 2a56 fe3d 4917 4c3d e85a 41bc 1436 cfbd
00000300: dfbc 2ebc 2ce7 81bb a6f6 4fbc 5dd4 dc3d
00000310: efcf 8a3d 3dbe e1bd 952a da3d 0e58 45be
00000320: 510b 1b3e 6002 cc3a 88c9 65ba 5404 d73d
00000330: e120 0dbe 5d21 aebc 5903 9dbc 5003 47be
00000340: 005f 0bbe 699e 5abd 337a 3cbd e067 a2bc
00000350: fec4 993d 6457 cc3d 8b49 b7bd 1d3b e0bc
00000360: aa07 af3c 9c61 cebd df00 853d 11c7 34be
00000370: defc bd3d 2857 833d 74bc b6bd a0ce c8bd
00000380: b267 053e 4e16 193e c738 b1bd 7424 fdbd
00000390: c789 79be b81a 233d 635f 063d 2743 12bd
000003a0: 50dd 113e 85b0 c23d 5980 b5bd 564e 903b
000003b0: e882 20be 8159 423e 215e 39bc 1512 b9bd
000003c0: 687a 13bb 96a6 423d 8cd7 b0bd 6a63 04be
000003d0: 404e 0f3d 3202 903c edbf dfbd 1b28 71bc
000003e0: 8a52 753e f552 1abe ec5d 37be 962a 133c
000003f0: d4a4 a33d 8c26 0a3e 8d95 87bc 9249 4a3e
-0.08523862 -0.021957606 0.13687639 -0.0059221853 -0.18244211 0.065580904 -0.12689967 0.11442267
-0.06409219 0.054169882 0.10803389 0.08260906 0.041362077 -0.0034658855 -0.025342066 0.03272658
-0.07230072 -0.19193262 -0.14718418 -0.05625876 -0.045383815 -0.12458045 0.044544578 0.097787514
-0.16340998 -0.0043838024 0.11219038 -0.019312913 -0.080276445 0.07967102 0.025079928 -0.040688414
0.05521234 -0.21352315 -0.069169134 0.044721033 -0.11069804 0.017373519 0.012940056 0.06059887
-0.123990595 -0.004103863 -0.00027092148 0.008726558 0.004638705 -0.1363736 -0.18444458 -0.005374927
0.017026842 -0.07793077 -0.097749606 -0.037698388 -0.13251644 -0.077196606 -0.07157781 0.08353566
0.19432378 0.052694347 -0.03202735 0.08029034 -0.08937367 0.14115725 0.14609195 0.1323131
0.08546616 -0.034500025 -0.054166242 -0.07894572 -0.07642392 0.02105053 0.037338354 -0.14646216
-0.08636685 -0.046235632 0.20062695 0.03228989 -0.16326883 -0.06572537 -0.108622976 0.18856421
-0.10631109 -0.037157122 0.061522778 0.10042202 -0.07421402 0.047510937 0.1211947 0.09431866
0.12754369 0.010055144 0.07633038 -0.17546138 0.082322344 -0.12530611 -0.039872557 0.120935276
0.06459635 0.17930062 -0.046707485 0.04077549 0.115719736 -0.13499588 0.010872484 -0.06864601
0.14361514 -0.04616826 -0.046763163 -0.2009546 -0.10525314 0.01710961 -0.008992077 0.15388389
0.15329543 -0.17287618 0.014137551 -0.019226313 -0.074536145 0.038209993 -0.11386531 0.032663614
-0.02525663 -0.20407599 -0.05257765 -0.023849346 -0.07402542 -0.047915433 -0.003131109 -0.13247733
0.13437715 0.035699636 -0.00018214408 -0.08010354 -0.05223295 -0.081952706 0.14609899 0.033731423
0.018123444 -0.17500329 0.049319826 0.13230617 0.046121683 -0.10995134 -0.022228835 -0.09136048
-0.0006001863 0.17172275 0.16489992 -0.15354265 -0.13885035 0.034524444 0.13108188 -0.011189129
-0.071153685 -0.0415127 -0.050438385 -0.078726344 0.09397808 -0.02419107 0.002146498 -0.07400502
-0.068009995 -0.0026445508 -0.081553936 -0.056081817 0.104308 -0.16289522 -0.037518423 -0.09023472
0.026630675 -0.123627335 -0.14139935 -0.123694055 0.012512788 -0.04345247 -0.03626051 -0.0942185
-0.122648 -0.020640394 0.15702589 0.19450493 -0.14100221 -0.12468011 0.110938385 0.047160394
-0.099980265 -0.12953812 0.01088467 0.09960711 0.12418778 0.049826894 -0.011801459 -0.101177365
-0.010665148 -0.0039643254 -0.012693083 0.107826926 0.067779414 -0.11022613 0.10652653 -0.19271871
0.15141036 0.0015564673 -0.0008765687 0.104988724 -0.13782074 -0.021256143 -0.019166635 -0.19434857
-0.13610458 -0.053373728 -0.046014976 -0.019824922 0.075082764 0.09977606 -0.08949574 -0.027371937
0.02136596 -0.10077211 0.06494307 -0.17654063 0.09276746 0.06413108 -0.08922663 -0.098050356
0.13027838 0.14949915 -0.086534075 -0.123604685 -0.24368964 0.039820403 0.03280581 -0.035708573
0.1424458 0.09506325 -0.08862371 0.0044038696 -0.15674937 0.18979456 -0.011313946 -0.09036652
-0.002250338 0.04752215 -0.08634862 -0.12928548 0.034986734 0.017579172 -0.10925279 -0.014719035
0.23957267 -0.15070708 -0.17906922 0.008982321 0.07990423 0.13491267 -0.016550804 0.19754627

critic.0.bias f4 [64]
00000000: 675b 7f3d 447a 00be 8e4c d9bd 48c6 e1bb
00000010: d00c 073e f56d 4dbe 9adf 013e 671e bc3d
00000020: 29aa c5bd 711d 14be 955b e43d 7d72 5d3d
00000030: 7c4a a2bb e021 b5bc a4ca 65bd 230d 0e3e
00000040: b4e8 2c3d 9f59 18be f105 513e b028 1fbe
00000050: 4b6a 3d3e 02df 923d 9813 a53d 267b 56be
00000060: 2db8 6dbe dbdb a3be f363 63be 442e b53c
00000070: 5fd2 cebd 327b cb3d 9493 55bd 0870 0f3c
00000080: f037 153e 33a6 f73b 770c 033e 9a53 8d3d
00000090: 5494 063e cbf6 cd3d 31e0 c73d 0541 893d
000000a0: ad32 b1bd e24d 91bd cc77 5a3e 5863 2f3d
000000b0: c98d c8bd 67b0 91bd d6e6 f9bd f562 0abe
000000c0: 4a78 40bd 155f 4bbe 2e87 63bd b2a6 e23d
000000d0: 70dd ed3d 2d02 ec3c 4480 ba3c b50f debd
000000e0: 1006 30be e8f0 2cbb 3664 dabd 2e82 55be
000000f0: d5c0 eebc 157a 00bd 3a8a ecbd d358 073d
0.062343027 -0.1254664 -0.10610305 -0.006890092 0.13188481 -0.20061477 0.12682953 0.09185486
-0.09651596 -0.14464356 0.111502804 0.054064263 -0.004952727 -0.02211088 -0.056101456 0.13872199
0.04221411 -0.14877938 0.20412423 -0.15542865 0.18497579 0.071714416 0.08060378 -0.20945415
-0.23214789 -0.32003674 -0.22206096 0.022116788 -0.10098719 0.09935607 -0.052142695 0.008754738
0.1457212 0.0075576543 0.12797724 0.06900711 0.1314252 0.10056838 0.09759558 0.067018546
-0.08652244 -0.07094933 0.21334761 0.04281935 -0.09792668 -0.07113724 -0.122022316 -0.13514312
-0.046989717 -0.1986049 -0.05554884 0.11066951 0.116145015 0.028809631 0.02276624 -0.1084284
-0.17189813 -0.0026388709 -0.10663645 -0.20850441 -0.029144684 -0.031366426 -0.11549802 0.033043694

critic.1.weight f4 [64]
00000000: d623 7f3f 67e3 803f a93b 813f 3ade 7b3f
00000010: 0c3a 813f c75d 7d3f 04b5 783f e15d 7a3f
00000020: f88d 803f 80cd 7d3f 9a88 813f 66a6 7c3f
00000030: cd4f 783f 8d12 7d3f 7fa1 7e3f bd8b 813f
00000040: 8067 783f c5c3 833f 689a 7f3f fc0a 813f
00000050: 5686 833f 5ebf 753f 5142 803f 2e8c 7d3f
00000060: aaed 7a3f 4ad7 803f ac00 833f c684 853f
00000070: 5709 7d3f fb91 7b3f 6d80 843f 87cd 7b3f
00000080: ec31 783f ae0c 873f fecd 7e3f d2ca 7c3f
00000090: 73aa 833f 3828 833f a844 783f c9cd 803f
000000a0: 93f5 783f 58d0 7f3f 7f28 863f 0d44 753f
000000b0: 95a8 813f e323 793f 3785 863f 3024 803f
000000c0: 0573 863f c44c 7c3f d041 733f 0011 823f
000000d0: b039 783f 3f8a 7d3f 1201 7b3f 1924 7c3f
000000e0: da57 813f d54f 813f 72ad 733f 81b8 783f
000000f0: 1286 773f 0a14 7b3f 0f9d 7d3f 0452 763f
0.99664056 1.0069398 1.0096332 0.98385966 1.009584 0.9897122 0.9715121 0.977995
1.0043325 0.99141693 1.0119812 0.98691404 0.96996766 0.9885643 0.99465173 1.012077
0.9703293 1.0294119 0.9984498 1.0081477 1.0275371 0.9599513 1.0020238 0.9904202
0.98018897 1.0065701 1.023458 1.0431144 0.98842376 0.98269624 1.0351692 0.98360485
0.96951175 1.0550745 0.9953307 0.9874698 1.0286392 1.0246649 0.9697976 1.0062801
0.97249717 0.9992728 1.0481108 0.9580696 1.0129572 0.97320384 1.0509404 1.0011044
1.0503851 0.98554635 0.95022297 1.0161438 0.96963024 0.9903907 0.9804851 0.9849258
1.0104935 1.0102488 0.9518653 0.9715653 0.9668895 0.9807745 0.9906778 0.96218896

critic.1.bias f4 [64]
00000000: 7876 7e3a e0f2 503c a26a a43c bee8 82bb
00000010: 8824 cf3c 4911 8bba 9095 26bc c90b 41bd
00000020: 8e4f b5bb 4bfe 2f3c 85df f23c 499d d23c
00000030: 4240 a9bc bcd9 8d3c 65dd 71bc 7727 a13c
00000040: 30fa 803b 4ffc e43c d95d 1a3c 289c 453c
00000050: d169 143d 59e6 19bd 039f 023d b7e0 59bc
00000060: 7df9 61bc 8c1c 03bc ccea 52bc 33d2 653d
00000070: 06b8 373a 3e9f ecbb 3cce 3e3d 3cc9 73bc
00000080: bff6 de3c 089c 083e b1d6 133d 3875 a53b
00000090: 057e 3abc b745 e13c 2871 c9bc d789 bb3c
000000a0: b3a0 3dbc adf9 e33c 49e8 253d 1c6a 01bd
000000b0: e511 7d3b dc93 c4bb c01f 313d e57c dcbb
000000c0: 5797 5c3d 0822 f53a 3d7b b23c 2055 e63c
000000d0: 46de e1bb 4cb8 233c 2f1f 24bc 3fcf 953c
000000e0: 0675 563c b79e 5f3c 3604 4b3c bba8 9abc
000000f0: 85ef 1ebd 6dfd 9e3b b7b9 1a3c f079 d2bc
0.0009706984 0.012753218 0.020070378 -0.00399503 0.025285974 -0.001061001 -0.010167494 -0.04713038
-0.0055331653 0.0107417805 0.029647598 0.025709765 -0.020660523 0.017315738 -0.014762257 0.019672139
0.0039360747 0.027952341 0.009421789 0.012061156 0.036233727 -0.037573192 0.031889927 -0.013298205
-0.013792393 -0.008002412 -0.012873363 0.056108665 0.00070083176 -0.0072211316 0.0465834 -0.014879521
0.027217267 0.13340771 0.036093418 0.005049374 -0.011382584 0.027499063 -0.02459009 0.022892876
-0.011573958 0.027829016 0.040504728 -0.031595334 0.0038615402 -0.0059990715 0.04324317 -0.006728756
0.053855266 0.0018702159 0.02178728 0.028116763 -0.006892952 0.00999267 -0.0100172 0.0182873
0.013089424 0.01364868 0.012391141 -0.018879285 -0.038802642 0.004851988 0.009443692 -0.02569291

critic.3.weight f4 [64, 64]
00000000: 803c d0bb 85dd 97bc 6d58 01be 0d7f 9ebd
00000010: cd47 953c c3ce 01be e1d1 713d c620 1c3d
00000020: 8e9c bdbd 1d18 5dbd d351 12be 102a b5bd
00000030: 0c4e 043d e058 b3bc c717 c9bd 2b1a a93c
00000040: 0155 93bc edf0 59bd 1581 893d 1484 b13c
00000050: 456a 113d ec48 073d 0343 00be f465 4ab8
00000060: e124 d63c f949 a03d f514 c03d c4ef 9bbd
00000070: 7350 c63c 6d5d b23d 4230 01be ddd1 7dbc
00000080: 2641 8b3d c3b1 22be 6265 9cbd e045 c3bd
00000090: 1a68 c43d 2a83 f33c d9cd fbbd 64b8 02be
000000a0: 60bd 02bc 4768 d5bd 7352 11bd 66c2 58bb
000000b0: f760 a23d d2cd ab3d 765b 2abd f8e0 7e3d
000000c0: c1a4 68bd fdb7 a7bc 2850 85bd 6434 4b3c
000000d0: cb9d ad3d 018d 8b3d f984 d5bd daca debd
000000e0: 3b1c 85bd 0d23 1abc 7ac1 fb3c f64a 953d
000000f0: 9aed b53d 55b1 2ebc a11b 01bc 96b6 403d
00000100: 3823 5f3d a7b5 32bd 616d 9fbb 66e3 8a3c
00000110: 6b49 fc3c c117 6abd dbf1 313d 99ed b13d
00000120: 60d6 673d 5b42 37bd 70e4 a63d 30ec c7bd
00000130: 7338 a0bd 2088 913d 4376 10bd 6998 87bd
00000140: 2689 b0bd e2e9 91bd 6047 e8bd 64f3 e03c
00000150: 232b 253d c385 393d 54e3 f13b f43d a1bc
00000160: 9728 233d 4246 dabb e990 55bd 7187 4a3d
00000170: 52d7 d4bc a1e5 81bd f9ed 213c 3f0a 053d
00000180: 18b2 2cbd b789 8a3d b48a 69bd cd82 f13d
00000190: a9ac 1abe 8e51 993d dfdb edbd e7de 19be
000001a0: 3883 cabd 6844 753d 30a7 3a3d 09dd 84bc
000001b0: 96ca d23d b8d3 00be 2a46 c83c 07e0 143d
000001c0: 5c50 6b3d 4fd6 733c 9965 9a3d 519e f9bd
000001d0: bd81 adbd 4fcc 963d eb9b 70bc 8142 96bd
000001e0: 74da 36bc cd05 c9bc 54a8 18bd efc3 2abc
000001f0: 4b34 d23d a8cf 96bd 5c0e 70bd e283 af3d
00000200: 5f5f bebc 2260 f5bc 37ec a6bc 3942 d0bc
00000210: c5f4 58bd 91f5 d7bd 01be 423c 088e 5fbc
00000220: 1504 8b3d 68eb 65bd 40a7 e53d 918d 33bd
00000230: bde3 f03d 0424 b2bd c7b8 10be 730c ffbd
00000240: 79d0 fdbc 72dc 27bd 2534 323d 5e15 18bd
00000250: 3546 5ebd 9db2 863d 9008 af3d 2a14 d63d
00000260: f29c 013e a4cb 9ebc 579d 4f3b 60f2 163c
00000270: 3def b13d 3283 023d 30b4 0f3d 1d31 0e3d
00000280: fc05 95bb eedf 0e3d eecf bb3c 5e47 833d
00000290: 2fd9 2ebd 2d85 0ebd 2e5f 493d 5bde 133b
000002a0: 112f 5b3d 01b8 b7bd 9643 0cbc a194 853b
000002b0: ebc5 9abd 8877 853d 3f5f 5cbd 6aa7 04bc
000002c0: 46f0 f6bc d559 413d 3823 9cbd 6cca 643d
000002d0: aaf4 f33c b381 833c 3252 463d 4e16 c4bd
000002e0: d2ac 8ebc 6e9d 443d d71d 80bb 27a0 c13d
000002f0: 8c8b dd3c df9b bdbd c78d 143c 9bb7 d63c
00000300: 2eb0 bdbd b5ae b23d dec3 3abd 0846 b03d
00000310: ef3d 1cbb 0502 04bc 231b 9cbd 3910 833d
00000320: 26f9 e7bd bb65 0bbd 1f31 e73d 822a 3d3c
00000330: fc09 e93d 40b8 2bbb 0b0e bebd aed9 01bc
00000340: 8495 41bd c567 b4ba 705e 633d bb1c b63d
00000350: 540d f13c 493e d73d 077e f13d b365 a7bc
00000360: 14e6 13bd 4f19 793d ba9c 35bd fd2f d53d
00000370: 9995 ddbd 5346 03bd b181 953d caf6 82bd
00000380: b00b 043e ae8e a03c 1456 113d 18da d53d
00000390: a71d 57bc aca6 93bc 4021 f33d a6cc 743d
000003a0: 4dc7 21bd 688a 15bd b047 73bd 2dce 7dbd
000003b0: 07fc 9d3d b0ad 99bd d714 4c3c b9d6 cabd
000003c0: 9d56 103d 1533 e3bc 1920 12b8 8a83 093e
000003d0: be36 12bd b3ac b5bb 6a43 9e3d e61f 34bd
000003e0: 4bd7 4abd 2fec 1e3d 84c7 d73d 0430 0abe
000003f0: 10df 023d b794 403d 16d1 debd 5c56 313c
-0.0063548684 -0.018538246 -0.12631388 -0.07739077 0.018222714 -0.1267653 0.059038047 0.038117193
-0.09258376 -0.053978074 -0.14289026 -0.088459134 0.032300994 -0.021892965 -0.09818988 0.02064236
-0.017984869 -0.05320828 0.067140736 0.021669425 0.035501737 0.033028528 -0.12525563 -4.8255504e-05
0.026140632 0.07826609 0.09378997 -0.07614091 0.024208283 0.08709226 -0.12616065 -0.01549193
0.067995355 -0.15888123 -0.07636525 -0.09534812 0.09590168 0.02972563 -0.12295122 -0.12765652
-0.007979721 -0.1042028 -0.03547902 -0.0033074855 0.07928651 0.083888665 -0.04159113 0.062226266
-0.056797747 -0.020473475 -0.06509429 0.012402628 0.08477362 0.06814004 -0.10425753 -0.108785346
-0.06499525 -0.009407771 0.030731905 0.07289688 0.088832095 -0.010662396 -0.007880122 0.047049128
0.054476947 -0.04363027 -0.004865334 0.016954135 0.030796727 -0.05715156 0.043443542 0.08687896
0.05660093 -0.044741016 0.0814904 -0.09761846 -0.07823267 0.07106042 -0.035269033 -0.06620867
-0.08619909 -0.07124688 -0.11341739 0.027459808 0.04032434 0.04529358 0.007381836 -0.019682862
0.03983363 -0.0066612074 -0.05214015 0.049445573 -0.025981579 -0.06342626 0.009883397 0.032480475
-0.04216203 0.06764548 -0.057017043 0.117925264 -0.15104927 0.074862584 -0.11614203 -0.15026437
-0.09888309 0.05987969 0.0455696 -0.016218679 0.102925465 -0.12580764 0.02444752 0.03634646
0.057449684 0.014882638 0.075389095 -0.121883996 -0.08472011 0.073631875 -0.014685611 -0.07336903
-0.011160482 -0.024538899 -0.037269905 -0.010422691 0.1026388 -0.07363826 -0.058607444 0.085700765
-0.023238836 -0.029953066 -0.020376308 -0.025422202 -0.052967805 -0.10544885 0.011886121 -0.013644703
0.06787888 -0.056132704 0.11213541 -0.04383618 0.11762188 -0.08698276 -0.14132987 -0.124535464
-0.030983197 -0.040981717 0.04350676 -0.037129752 -0.054266173 0.065770365 0.08546555 0.10453065
0.12657526 -0.019384213 0.0031679475 0.00921306 0.08688209 0.0318634 0.03508395 0.034714807
-0.0045478325 0.034881525 0.022926297 0.064100966 -0.04268759 -0.034794975 0.049163036 0.0022562954
0.053511683 -0.08970643 -0.008561036 0.004076556 -0.07557281 0.065169394 -0.05380177 -0.008096555
-0.030143868 0.04720481 -0.07623905 0.055857107 0.02977975 0.016053056 0.04841823 -0.09574567
-0.017416392 0.0480017 -0.003909807 0.09454375 0.02704408 -0.09258246 0.0090670055 0.026210597
-0.09262119 0.08724729 -0.04559695 0.086071074 -0.0023840626 -0.008057122 -0.076223634 0.063995786
-0.11326818 -0.034032565 0.11288666 0.011545779 0.113788575 -0.002620235 -0.09280022 -0.007925434
-0.04726173 -0.0013763836 0.055509984 0.08892199 0.0294253 0.10509927 0.11791616 -0.020434236
-0.03610809 0.06081515 -0.04433892 0.10409544 -0.10819549 -0.03204949 0.07300127 -0.063947275
0.12895083 0.019599285 0.03548248 0.10441989 -0.013129628 -0.018023811 0.11871576 0.05976548
-0.03949671 -0.036508948 -0.05939454 -0.061964203 0.07714086 -0.075038314 0.0124561405 -0.09904236
0.03523885 -0.027734319 -3.4839006e-05 0.13429084 -0.035696737 -0.005544269 0.07727702 -0.043975733
-0.049521726 0.03879946 0.105361015 -0.13494879 0.03195101 0.047016826 -0.10879724 0.010823812

critic.3.bias f4 [64]
00000000: fdbf b13d 87e8 dd3d a484 b0bd 42d7 a93d
00000010: 19e6 97bc e5c1 d93d b2fe dd3d bc91 bdbd
00000020: 7955 803d 74ab 03be 2fc0 bebd 5c3b 36bc
00000030: 7935 fd3c edbf bf3d 96d6 8abd 467b 91bd
00000040: af37 70bd df3f 84bd 4443 b8bd 4843 8c3a
00000050: 033e d23d fb5a 98bb 360a a63d 7345 a33d
00000060: 15ff 18bd f33b ef3d eeb8 023d e73c 63bd
00000070: e004 00be 36f3 81ba cf52 a5bd c796 1b3c
00000080: 6ded 8fbd 2635 de3d 16e6 de3c 46d2 bbbd
00000090: 90b4 a53d 7a68 9bbd 24b6 e2bc 7a1e d5bc
000000a0: 33ca 813a 79a0 0d3e 535f bf3b f930 e33d
000000b0: 29db 463d 14b1 633d a1c6 0bbe 1220 89bd
000000c0: b00e d2bd 3228 243d 2190 f23d 1191 f33d
000000d0: e732 3d3d 2e27 4c3c feff 9a3d b099 b5bd
000000e0: f172 773c cf5f b43d c91f 60bd 7d1e 853d
000000f0: 36c7 d23c 6404 803c 1a56 abbd 86f9 06bb
0.08679197 0.10835367 -0.08619049 0.0829301 -0.018542336 0.106326856 0.10839595 -0.09256312
0.062663026 -0.12858373 -0.09314 -0.011122551 0.030909287 0.09362779 -0.0677921 -0.07103591
-0.058646854 -0.06457495 -0.08997205 0.0010701204 0.10265734 -0.0046495176 0.08107416 0.07972231
-0.03735264 0.11681356 0.031914644 -0.055478003 -0.1250186 -0.0009914401 -0.08072435 0.009496397
-0.07027707 0.10849981 0.027209323 -0.09170966 0.0809108 -0.07588287 -0.027674742 -0.026015509
0.0009902179 0.13830747 0.005840221 0.11093325 0.04854885 0.055588797 -0.1364999 -0.0669557
-0.10256708 0.040077396 0.11843897 0.118929036 0.046191122 0.012460513 0.07568358 -0.08867204
0.015103088 0.088073365 -0.054717813 0.06499956 0.025729757 0.015627094 -0.08366032 -0.0020595505

critic.4.weight f4 [64]
00000000: 2fd1 7d3f eef2 7f3f 7d1b 833f 8d76 843f
00000010: adde 843f 7600 843f 2396 7d3f 4afe 7e3f
00000020: 8297 823f a032 833f f266 7d3f d1de 7d3f
00000030: 29e2 853f e583 823f cbba 7e3f c83f 853f
00000040: d325 7e3f 0ece 823f e49d 7e3f ffd1 863f
00000050: 5803 803f edf0 7c3f 6d52 803f a9f7 853f
00000060: e869 883f 9c8c 803f 971b 7f3f 8a12 823f
00000070: 099d 7f3f bcb0 7f3f 289a 873f d102 7c3f
00000080: aeb9 823f cf03 7e3f 3fd8 883f 8323 873f
00000090: 760e 813f f4cc 823f 1c5e 823f 2c6f 7e3f
000000a0: 6bae 893f f800 823f 807c 853f 2e43 833f
000000b0: 2bed 7f3f 02fa 823f b6aa 853f 9824 803f
000000c0: f35d 823f e261 7d3f f475 863f c4cd 7d3f
000000d0: a79f 7d3f 865c 833f 6d3a 803f 8a8b 803f
000000e0: 0977 823f 5ba4 883f 8674 833f c686 7e3f
000000f0: 8c87 853f b00c 863f 18f1 7f3f 25c9 863f
0.99147314 0.99980056 1.0242764 1.0348679 1.0380455 1.0312641 0.99057215 0.99606764
1.0202487 1.0249825 0.9898521 0.99168116 1.0459644 1.0196501 0.99503773 1.041009
0.99276465 1.0219133 0.9945967 1.0532836 1.000102 0.98805124 1.0025154 1.0466205
1.065732 1.004291 0.99651474 1.0161908 0.9984899 0.9987905 1.059392 0.984418
1.0212915 0.9922456 1.0690993 1.0557712 1.0082538 1.0218797 1.018497 0.99388385
1.0756353 1.0156546 1.0428619 1.0254877 0.99971265 1.0232546 1.0442722 1.0011168
1.0184921 0.9897748 1.0504746 0.991421 0.99071735 1.0262611 1.001783 1.0042584
1.0192577 1.0675157 1.0269935 0.994244 1.0431991 1.0472622 0.99977255 1.0530134
